FE-PINN1/1_nodes_given/15%_noise/-30%_init_error/model.pt (torch, 16796 bytes, 10 tensors)

net.0.linear.weight f4 [32, 1]
0.7613664 0.2626602 0.6927927 -0.28303412 1.0802996 -0.43425417 -0.75057167 -0.4587696
0.26853576 0.94293785 -0.44501796 -0.7285287 -0.81423616 0.96016157 -0.5750486 -0.64753103
0.24671875 -0.06895123 0.44694173 0.5260386 -0.9785525 0.09292581 0.038431913 -0.017897857
0.3936843 0.17973284 0.7498707 0.14748125 -0.06325189 0.647347 0.13308609 -0.07335138
00000000: e9e8 423f 667b 863e dd5a 313f d9e9 90be
00000010: 4247 8a3f 9056 debe 7725 40bf d9e3 eabe
00000020: 857d 893e 6064 713f 65d9 e3be db80 3abf
00000030: c871 50bf 26cd 753f 6336 13bf 98c4 25bf
00000040: d7a3 7c3e 4d36 8dbd 8cd5 e43e 77aa 063f
00000050: 6b82 7abf e34f be3d c86a 1d3d 879e 92bc
00000060: fd90 c93e e30b 383e 87f7 3f3f 5305 173e
00000070: 358a 81bd 88b8 253f b847 083e 4039 96bd

net.0.linear.bias f4 [32]
0.4854421 0.7800954 -0.25540134 -0.010555496 0.49105433 0.5901934 -0.627492 0.8370853
0.017187227 -0.46913716 0.20435402 0.8267553 0.45492527 0.22349535 -0.9615307 0.6160385
0.5726673 -0.1437035 0.4608709 0.37256014 -1.0483664 -0.20146312 -0.08422134 -0.8447097
0.26852736 0.61025834 0.93542606 0.23392509 0.52933514 -0.22749151 -1.0071086 -0.448986
00000000: de8b f83e 55b4 473f f7c3 82be f6f0 2cbc
00000010: 796b fb3e ea16 173f 51a3 20bf 394b 563f
00000020: 3acc 8c3c bf32 f0be 2e42 513e 3ca6 533f
00000030: f7eb e83e f7db 643e e026 76bf b3b4 1d3f
00000040: 539a 123f 0327 13be 45f7 eb3e 34c0 be3e
00000050: df30 86bf 594c 4ebe 3d7c acbd e53e 58bf
00000060: 6b7c 893e e439 1c3f 1578 6f3f 0f8a 6f3e
00000070: 8282 073f 89f3 68be efe8 80bf 7ee1 e5be

net.1.linear.weight f4 [32, 32]
-0.03453376 -0.03701413 -0.06305186 -0.010882398 0.0311845 0.09855688 0.03737182 0.084680036
0.026392046 -0.031831387 -0.0035557968 0.07851266 -0.018450331 -0.007777215 -0.036642168 0.049935233
-0.011665923 -0.040358186 -0.07946184 0.021536268 0.058584586 -0.09822227 0.03239218 -0.01898736
-0.06963698 0.074837446 0.008224051 -0.0103254 0.09018868 0.033475228 0.050222114 -0.063554056
0.017991498 0.06698161 0.015978996 0.050897073 -0.012363807 -0.009402345 -0.006602039 0.0022089027
0.032441936 0.009444953 -0.012773329 -0.007865526 0.0024095979 0.0072268317 0.009913835 -0.002163524
-0.015481665 -0.023565968 0.004571061 0.016534472 0.017261587 0.07597671 0.009782495 -0.012785257
-0.014950774 -0.038883414 0.010219726 -0.03321043 -0.079323076 -0.006013424 -0.06772255 0.05299253
0.07032148 0.12672018 0.0075015305 -0.031924743 0.05059453 -0.08316594 0.08765201 -0.05900359
-0.036634993 -0.09766955 0.11990157 -0.07772182 0.0808703 0.009804249 -0.021972803 0.04643986
0.12536675 -0.13182582 0.09360513 -0.029004835 0.11853286 0.012277845 0.17985071 0.035091154
0.10722268 -0.10447369 0.10277704 -0.14419177 -0.09499447 -0.066484824 -0.08330539 0.14933853
0.0316188 0.014234749 -0.011089137 0.007341415 0.017371718 -0.05222452 -0.034998283 -0.034326408
0.061459713 0.013218436 -0.044364303 -0.0273891 0.0058040055 0.032913476 0.061958168 -0.037466824
-0.0813712 0.043318912 0.0665381 -0.068313785 -0.03219159 0.06345763 -0.03517808 0.0010283296
0.048894983 -0.033039544 0.031110762 0.0400288 -0.0539837 -0.027564531 -0.00318647 0.028405579
0.03761159 0.07970325 0.018398823 0.023532238 0.017934455 -0.039537832 0.041468684 -0.005044965
0.050157066 -0.05909863 0.030431913 -0.03015001 0.046766948 -0.024109876 0.007061091 0.00819998
0.020989802 -0.004722051 0.026434261 -0.022836134 0.073929936 0.07481043 0.026560491 -0.0052612494
0.08882369 -0.018675355 0.0667401 -0.023097109 -0.06719836 -0.07946112 -0.11130995 0.065034546
-0.017827913 -0.07619635 0.0033109917 -0.003768893 0.008078314 0.020560682 -0.043031536 0.0007152713
0.03216608 0.04726901 -0.06660689 0.03091952 -0.0004295722 0.04276115 0.055524696 -0.042691402
-0.03711532 0.069747925 -0.051081367 0.0019690585 -0.009200252 -0.020320226 -0.053837422 0.06438779
-0.019144468 0.014854253 -0.026876893 0.0626134 0.029274419 0.031421687 0.037227813 -0.07269285
0.020779599 0.09822288 0.045835786 0.05279885 0.026525768 0.011215064 0.04368729 0.014609304
-0.064650424 -0.07603836 0.07961428 -0.013612729 0.05696763 -0.026334366 -0.03466485 0.035860945
0.09231495 -0.054666404 0.0030324906 0.018103138 0.035595357 0.0030591886 0.10999236 -0.13703552
-0.006719386 0.036684886 -0.00012772577 -0.062023375 -0.03173782 -0.028242936 -0.08919499 0.06683643
-0.014842543 -0.056287732 0.030269675 0.038872186 -0.017623607 -0.025852336 -0.02051514 -0.046517897
-0.0320659 -0.008872636 -0.02235067 -0.05150637 -0.0012781112 0.02330163 0.005967275 -0.01809476
0.006992156 0.008564846 0.02455867 0.010121645 -0.019243892 0.008728689 -0.012122838 0.023594234
-0.020757545 -0.013603293 -0.01734304 0.028501548 0.024035996 0.038292814 -0.006609471 -0.022634424
00000000: 4673 0dbd 219c 17bd 5521 81bd 164c 32bc
00000010: a376 ff3c 31d8 c93d 3213 193d ba6c ad3d
00000020: 2234 d83c a161 02bd 5f08 69bb 3fcb a03d
00000030: 2625 97bc 02d8 febb 1916 16bd e388 4c3d
00000040: 6d22 3fbc a04e 25bd e4bc a2bd d46c b03c
00000050: 64f6 6f3d c228 c9bd aaad 043d 618b 9bbc
00000060: d59d 8ebd 6044 993d 2cbe 063c de2b 29bc
00000070: d8b4 b83d 521d 093d b4b5 4d3d a128 82bd
00000080: e862 933c a82d 893d 62e6 823c 7379 503d
00000090: 9191 4abc 4b0c 1abc eb55 d8bb 3dc3 103b
000000a0: d6e1 043d 01bf 1a3c 3a47 51bc 68de 00bc
000000b0: 58ea 1d3b 0fcf ec3b a36d 223c e9c9 0dbb
000000c0: cfa6 7dbc 6b0d c1bc d7c8 953b 4d73 873c
000000d0: 2c68 8d3c ad99 9b3d c246 203c 4179 51bc
000000e0: 17f4 74bc 3744 1fbd a370 273c a907 08bd
000000f0: 2374 a2bd 420c c5bb 1fb2 8abd b20e 593d
00000100: b504 903d efc2 013e 66cf f53b 85c3 02bd
00000110: 363c 4f3d e852 aabd e682 b33d c0ad 71bd
00000120: 930e 16bd f906 c8bd f48e f53d 9e2c 9fbd
00000130: 549f a53d 00a2 203c 4f00 b4bc b937 3e3d
00000140: 2460 003e 59fd 06be 0cb4 bf3d 8c9b edbc
00000150: 5bc1 f23d 0429 493c c92a 383e bebb 0f3d
00000160: 9097 db3d 4df6 d5bd c57c d23d 02a7 13be
00000170: 768c c2bd 3229 88bd 049c aabd 33ec 183e
00000180: b782 013d dd38 693c 36af 35bc 4190 f03b
00000190: 224f 8e3c 61e9 55bd 5c5a 0fbd d999 0cbd
000001a0: 2ebd 7b3d 2492 583c 58b7 35bd 1b5f e0bc
000001b0: 872f be3b 48d0 063d d9c7 7d3d d076 19bd
000001c0: f2a5 a6bd 2c6f 313d 2145 883d 19e8 8bbd
000001d0: 54db 03bd 13f6 813d e416 10bd 04c9 863a
000001e0: 1b46 483d 7954 07bd ffdb fe3c 3df5 233d
000001f0: 031e 5dbd 03cf e1bc 18d4 50bb d1b2 e83c
00000200: 9c0e 1a3d 753b a33d 21b9 963c aec6 c03c
00000210: 47eb 923c 6cf2 21bd 11db 293d 3c50 a5bb
00000220: 7f71 4d3d 6811 72bd 594c f93c 27fd f6bc
00000230: b38e 3f3d 1382 c5bc b960 e73b 3559 063c
00000240: cef2 ab3c 6fbb 9abb aa8c d83c d812 bbbc
00000250: 9468 973d 3636 993d 6395 d93c 8f66 acbb
00000260: 32e9 b53d 0ffd 98bc 09af 883d 2636 bdbc
00000270: 4b9f 89bd 83bc a2bd 79f6 e3bd d530 853d
00000280: d80b 92bc d50c 9cbd 39fd 583b 88ff 76bb
00000290: e85a 043c e06e a83c d641 30bd 0b81 3b3a
000002a0: 94c0 033d 269d 413d 3169 88bd ef4a fd3c
000002b0: 3438 e1b9 5126 2f3d dd6d 633d 2edd 2ebd
000002c0: 3c06 18bd 00d8 8e3d b23a 51bd 520b 013b
000002d0: a7bc 16bc 9a76 a6bc a184 5cbd bfdd 833d
000002e0: dcd4 9cbc 415f 733c ee2c dcbc 743b 803d
000002f0: e8d0 ef3c 07b4 003d 317c 183d fddf 94bd
00000300: fa39 aa3c 1429 c93d 4ebe 3b3d 9b43 583d
00000310: 914c d93c 63bf 373c 72f1 323d dd5b 6f3c
00000320: 7167 84bd 00ba 9bbd d00c a33d ec07 5fbc
00000330: e456 693d 2bbb d7bc bbfc 0dbd ede2 123d
00000340: 9f0f bd3d e1e9 5fbd c0bc 463b 084d 943c
00000350: 70cc 113d ab7c 483b ad43 e13d 0a53 0cbe
00000360: 4c2e dcbb e442 163d 20ee 05b9 390c 7ebd
00000370: 84ff 01bd bb5d e7bc ddab b6bd 8ae1 883d
00000380: 232e 73bc f78d 66bd 1cf8 f73c 7138 1f3d
00000390: 625f 90bc 47c8 d3bc 5e0f a8bc 8d89 3ebd
000003a0: 8857 03bd 885e 11bc c118 b7bc 58f8 52bd
000003b0: 4c86 a7ba 0fe3 be3c 2189 c33b 763b 94bc
000003c0: 751e e53b 9153 0c3c 442f c93c 42d5 253c
000003d0: 5ea5 9dbc c602 0f3c de9e 46bc b248 c13c
000003e0: ba0b aabc 59e0 5ebc fe12 8ebc 147c e93c
000003f0: 23e7 c43c edd8 1c3d 4394 d8bb d46b b9bc

net.1.linear.bias f4 [32]
-0.13454065 0.1795017 -0.030429695 0.0047459397 -0.012391556 0.08854275 -0.16449279 -0.014562994
0.064486854 -0.20799744 -0.11334284 0.006203633 0.10927136 -0.090141535 0.18448788 0.11410673
0.13868973 0.07116618 -0.08917302 -0.07444665 -0.096382074 -0.08132311 0.22627099 0.11248781
0.0143062305 -0.06420868 -0.028847363 0.016413068 -0.0053529427 -0.103074364 0.13293517 0.0120188445
00000000: 06c5 09be 4bcf 373e b247 f9bc d483 9b3b
00000010: f405 4bbc e755 b53d cc70 28be a099 6ebc
00000020: af11 843d 48fd 54be 4a20 e8bd d847 cb3b
00000030: aac9 df3d 209c b8bd 64ea 3c3e cab0 e93d
00000040: ae04 0e3e 93bf 913d 58a0 b6bd 7c77 98bd
00000050: f763 c5bd bb8c a6bd 95b3 673e 0260 e63d
00000060: ae64 6a3c d77f 83bd 4e51 ecbc b374 863c
00000070: bd67 afbb a718 d3bd 2820 083e b0ea 443c

net.2.linear.weight f4 [32, 32]
0.009759324 0.02904805 -0.010267505 0.014094726 -0.024795063 -0.053585265 -0.02124918 -0.03294174
-0.010179501 -0.042310506 -0.00085730565 -0.0026521136 -0.025783086 -0.013052114 -0.0049126362 0.069746055
-0.014951023 -0.00032596252 -0.018257767 0.0057316264 -0.0064206636 -0.007981829 0.016596943 -0.0049835593
0.009677285 0.03577067 -0.03026571 -0.0027433143 -0.0077008135 0.0026836991 0.008319918 -0.029919224
-0.021532793 -0.046890557 0.009444434 0.01592263 0.013732904 0.0037820737 -0.024121724 -0.00022443949
-0.017771285 0.031821184 -0.0006054948 0.0094207 -0.006966447 -0.035855517 0.020801399 -0.0028150976
-0.02063926 -0.011954784 -0.0035980612 -0.043179642 -0.006002873 0.010557254 -0.013284841 0.0080052605
0.031941004 -0.033792213 -0.007466445 -0.008960245 0.01850933 0.025063148 0.041747082 -0.030690344
0.004950009 -0.038038265 -0.0008127828 0.014017 0.003854008 -0.011761293 0.0040181186 0.008955056
0.02592348 -0.017961575 -0.0056161988 -0.0062789214 0.006239604 -0.0074847387 -0.00791235 -0.04918936
0.013378552 0.025518341 0.021314891 0.019113354 -0.007159332 0.004149979 0.029511465 -0.005906532
-0.057440463 -0.014871201 0.00412419 -0.015152946 -0.01570372 -0.020205617 -0.024062362 -0.0021738256
-0.0063457265 -0.04304469 -0.0026055875 0.00017692578 0.013944307 0.024892904 -0.008165888 -0.04893809
-0.048217617 0.010898234 0.054335784 -0.0013145881 0.01200284 0.026046744 -0.017155616 0.022206444
0.016241832 0.019976232 0.027265746 -0.00072377693 0.0021444676 -0.0429606 -0.022635313 -0.000809335
0.006591017 -0.050181698 -0.0033596195 -0.0325094 -0.0033253185 -0.009207261 -0.009287622 -0.0034355668
0.0041980403 -0.014314263 0.007037392 0.035336066 0.0037567865 0.0045355964 -0.035685416 0.0032939336
0.009104912 -0.0024688167 -0.005037666 -0.010166399 -0.014561383 -0.005848054 0.03375218 -0.034369
-0.033270314 0.012292952 0.011437592 0.009544456 0.0037474849 0.016408548 0.018789876 -0.005865786
-0.041082826 -0.018998927 0.016441645 -0.00969035 0.006182956 -0.009881581 0.05517185 -0.018428868
-0.015382215 0.03399233 0.0027100616 0.020252727 0.028543612 -0.042642046 0.0382287 -0.031897012
-0.007967319 -0.0005201677 0.016959516 -0.007009828 0.0044749863 0.06570466 0.01549602 -0.017264886
0.025369797 0.0029287972 0.012217228 0.016442006 -0.0050136014 -0.018404018 -0.0007017341 0.024538893
-0.015384046 -0.01240158 -0.02471298 -0.0018487741 -0.016073834 0.020200664 -0.01062413 0.0469842
0.013387204 0.01960175 0.0016270418 -0.01007032 0.0072587933 0.02805909 0.009889932 -0.02323487
-0.014807016 0.033154264 0.008684078 -0.017250454 0.0040595043 0.005262428 -0.010652551 -0.019606492
0.024601275 -0.012156151 -0.002357047 0.04052611 0.007976899 -0.015770968 -0.0031573356 0.0005117773
-0.012384939 0.0150135895 0.0071614557 0.004745645 -0.008978971 -0.009782292 -0.021957919 0.0068063503
-0.04815712 0.03837619 -0.0024081327 0.034352686 0.009040607 -0.0072437353 -0.0012802583 0.007731805
0.040382497 0.010305604 -0.046655986 0.016380649 -0.030175902 0.02270072 -0.046635967 -0.0088891
0.017117037 -0.028138092 -0.007635078 0.031147199 -0.0004925116 0.011931504 0.016483085 0.022141714
-0.034968957 0.022036597 0.008864948 -0.0016721399 0.0018320873 -0.010762318 -0.052518193 0.0099285
00000000: 92e5 1f3c 2df6 ed3c 0a39 28bc 91ed 663c
00000010: 041f cbbc 397c 5bbd c312 aebc ebed 06bd
00000020: ecc7 26bc c84d 2dbd cfbc 60ba 15cf 2dbb
00000030: 0d37 d3bc 89d8 55bc 2efa a0bb 05d7 8e3d
00000040: 23f5 74bc f3e5 aab9 5091 95bc 5ed0 bb3b
00000050: 6e64 d2bb 38c6 02bc 50f6 873c 204d a3bb
00000060: 7a8d 1e3c 4484 123d cbef f7bc 2dc9 33bb
00000070: 1b57 fcbb 00e1 2f3b 4450 083c 2919 f5bc
00000080: 8a65 b0bc 5010 40bd d4bc 1a3c 2d70 823c
00000090: f9ff 603c abdc 773b ec9a c5bc 8457 6bb9
000000a0: 1695 91bc ee56 023d 11ba 1eba 4859 1a3c
000000b0: cb46 e4bb 3cdd 12bd b267 aa3c 807d 38bb
000000c0: aa13 a9bc 00de 43bc 73cd 6bbb 23dd 30bd
000000d0: c0b3 c4bb 55f8 2c3c a9a8 59bc 7f28 033c
000000e0: 92d4 023d b469 0abd 15a9 f4bb fecd 12bc
000000f0: e1a0 973c 3b51 cd3c fdfe 2a3d 516a fbbc
00000100: af33 a23b 03ce 1bbd ee10 55ba 8fa7 653c
00000110: 8693 7c3b 70b2 40bc 6caa 833b 3ab8 123c
00000120: 7a5d d43c 2724 93bc 1708 b8bb 69bf cdbb
00000130: 9875 cc3b 8a42 f5bb cda2 01bc c87a 49bd
00000140: b731 5b3c d70b d13c 919c ae3c 9c93 9c3c
00000150: d498 eabb 8cfc 873b 07c2 f13c 958b c1bb
00000160: b146 6bbd 56a6 73bc 3724 873b 1044 78bc
00000170: 16a5 80bc 4086 a5bc 6e1e c5bc be76 0ebb
00000180: d0ef cfbb a14f 30bd 81c2 2abb 2785 3939
00000190: aa76 643c 34ec cb3c 37ca 05bc 4f73 48bd
000001a0: d67f 45bd 828e 323c 338f 5e3d 424e acba
000001b0: 8fa7 443c fb5f d53c ef89 8cbc 4aea b53c
000001c0: 970d 853c 32a5 a33c 6a5c df3c d9bb 3dba
000001d0: 328a 0c3b 74f7 2fbd b16d b9bc 8d29 54ba
000001e0: 75f9 d73b 538b 4dbd 102d 5cbb 9428 05bd
000001f0: 96ed 59bb 0dda 16bc 1c2b 18bc 3f27 61bb
00000200: b78f 893b 5f86 6abc ec99 e63b 8dbc 103d
00000210: 6b34 763b 579f 943b df2a 12bd 09df 573b
00000220: c52c 153c dfcb 21bb 0113 a5bb f890 26bc
00000230: de92 6ebc 08a1 bfbb ba3f 0a3d 82c6 0cbd
00000240: 7446 08bd 6168 493c bd64 3b3c 5a60 1c3c
00000250: 5d98 753b 386b 863c 3aed 993c c835 c0bb
00000260: 7746 28bd a3a3 9bbc a1b0 863c 46c4 1ebc
00000270: 659a ca3b 5be6 21bc e1fb 613d 23f8 96bc
00000280: b005 7cbc 8b3b 0b3d 4a9b 313b 0ce9 a53c
00000290: 4bd4 e93c 6da9 2ebd b395 1c3d 71a6 02bd
000002a0: 5c89 02bc dd5b 08ba afee 8a3c b3b2 e5bb
000002b0: e8a2 923b 2a90 863d 05e3 7d3c 176f 8dbc
000002c0: 52d4 cf3c 10f1 3f3b c52a 483c 63b1 863c
000002d0: 2349 a4bb 06c4 96bc 94f4 37ba ca05 c93c
000002e0: 5e0d 7cbc ff2f 4bbc e072 cabc 9152 f2ba
000002f0: 46ad 83bc dd7b a53c d510 2ebc 8172 403d
00000300: 0156 5b3c d993 a03c 7742 d53a fcfd 24bc
00000310: 2cdb ed3b 2ddc e53c 6209 223c 0e57 bebc
00000320: 2099 72bc c4cc 073d aa47 0e3c d350 8dbc
00000330: 9705 853b 7270 ac3b 0a88 2ebc cb9d a0bc
00000340: 9d88 c93c 982a 47bc b078 1abb b5fe 253d
00000350: 8ab1 023c 1e32 81bc 4deb 4ebb cb28 063a
00000360: 33ea 4abc 8ffb 753c a5aa ea3b 5b81 9b3b
00000370: 891c 13bc e845 20bc 18e1 b3bc ce07 df3b
00000380: 6640 45bd 5a30 1d3d c3d1 1dbb 67b5 0c3d
00000390: 0e1f 143c db5c edbb 57ce a7ba 155b fd3b
000003a0: 1e68 253d d6d8 283c 591a 3fbd b630 863c
000003b0: 7433 f7bc dcf6 b93c 5b05 3fbd 96a3 11bc
000003c0: 0739 8c3c db81 e6bc ad2f fabb 6928 ff3c
000003d0: e51b 01ba 5b7c 433c 8907 873c 8a62 b53c
000003e0: 9c3b 0fbd 1886 b43c 493e 113c b42b dbba
000003f0: a622 f03a 6f54 30bc 511d 57bd 26ab 223c

net.2.linear.bias f4 [32]
0.14335589 -0.0010240605 0.009335122 0.028485443 0.107284226 -0.05295716 -0.12094685 -0.023684882
0.019633692 -0.14527068 0.020863183 0.06470142 0.032854456 -0.032538813 -0.07913081 0.20969863
0.028177643 -0.01336637 0.031766996 -0.16249676 0.015549084 0.0019676355 0.20399778 0.17916305
0.10929234 0.027036637 0.01099482 -0.048834648 0.01029326 0.04443751 -0.16918269 -0.14127395
00000000: e3cb 123e c539 86ba 57f2 183c 4e5a e93c
00000010: d5b7 db3d 9be9 58bd fbb2 f7bd cc06 c2bc
00000020: d6d6 a03c d6c1 14be 44e9 aa3c 2e82 843d
00000030: 6592 063d 6b47 05bd 560f a2bd 3dbb 563e
00000040: cdd4 e63c 9ffe 5abc 1c1e 023d 8d65 26be
00000050: 96c1 7e3c 72f3 003b cbe4 503e 8576 373e
00000060: aad4 df3d f07b dd3c 9e23 343c d706 48bd
00000070: 10a5 283c 1b04 363d 3a3e 2dbe 1eaa 10be

net.3.linear.weight f4 [32, 32]
-0.00847255 -0.0033477782 0.007829949 -0.0030681696 0.0006831326 -0.004224896 -0.005385269 0.005179167
0.009574324 -0.0026862298 0.0045707286 -0.0026430348 -0.0008109285 -0.0016042846 0.01042532 0.0054774755
0.0025210027 -0.0020335787 -0.005079679 0.006640626 0.0056615043 0.0019355223 0.0010539276 0.008065518
0.00046233923 -0.006656571 -0.009882281 0.0012604065 0.0014905151 0.0056471103 0.008651597 -0.0006444541
0.0020675545 -0.00180317 0.004204729 0.0016557844 0.001456855 -0.0027411478 0.011643864 0.007268178
0.0033028156 -0.002246344 0.0025394114 0.0050085825 -0.0049652164 0.0030314857 0.019920904 -0.007504394
0.01193225 0.014530513 -0.007842928 -0.010913364 -0.019852024 -0.01107211 -0.0013681351 -0.00043867415
-0.0034063293 0.009760656 -0.00064842205 0.016271546 0.0046179364 0.008289526 0.0064248736 -0.026052162
-0.0027902995 -0.0008201935 -0.0030118995 -0.002508794 -0.00015387792 0.0043047173 0.007477166 -0.0015278092
0.0036944759 0.005436078 -0.0022706783 0.006518307 0.0011789838 -0.0017531458 -0.016062096 0.00013683416
0.0094190175 0.002027274 -0.009239337 0.011030656 -0.0061511463 0.00033970637 0.0003823636 -0.00025225614
0.0023340827 0.006921683 -0.0011771595 0.002788462 0.004212784 -0.0048537506 0.0075117587 -0.0017967651
0.00039014532 0.0034570426 -0.0034735159 0.0046734726 0.005573455 0.0046984046 -0.004262406 0.00060006656
-0.013353307 0.002220164 0.00018249791 0.0038982825 -0.004650733 0.0013603178 0.00998818 0.0032982149
-0.0103737665 0.0015602518 -0.009303798 0.009486376 0.008641716 0.0039632153 -0.0018961706 0.0115796765
-0.0050771227 0.006808684 -0.0060979733 0.0027105021 0.010490818 -0.0032981578 0.0037030224 -0.0012859772
0.00401101 0.0062801596 -0.021785244 -0.0123210065 0.006041119 0.009000444 -0.0060952613 -0.0026084532
-0.016466144 0.017845107 -0.013977078 -0.006529461 2.7418797e-05 0.0044967765 0.022096317 0.0030021844
0.01240436 -0.002801685 0.0060145627 0.0040046973 0.008922893 0.020884939 -0.022966752 0.00081589684
0.0031585468 0.003594265 0.009253123 -0.020336978 0.0066172834 0.008413523 -0.0033326845 -0.0039252588
-0.0050465045 0.00925767 0.0010762481 0.0021151106 0.00024528988 0.012554795 -0.009814696 0.00029785006
-0.011006503 0.016305398 0.0037183543 -0.008281433 -0.016645454 -0.0015465241 0.041964266 0.018476168
0.015287774 -0.001880404 -0.008522124 0.007599328 0.0021108312 -0.005950657 0.0106207635 0.003503426
-0.011399192 0.00975171 -0.024218205 0.03235605 0.0097812265 0.018394751 0.0019706776 -0.0033621276
0.00011734032 -0.0100537995 -0.0146596525 -0.001219688 0.002035544 -0.0002626951 0.019322779 -0.0035424812
-0.011011365 -0.0012112263 -0.005772538 -0.0061734766 9.5017795e-06 -0.0041701226 -0.0024989978 -0.0019977752
-0.008244496 -0.010988952 0.0022472404 0.01420862 -0.005402875 -0.0021398198 -0.00028351403 -0.008366425
0.011050175 0.002893462 0.005077135 -0.009283823 0.0053102598 -0.0073495386 -0.011332039 0.0068678856
-0.018037325 0.019020727 0.020017212 0.010270674 0.0074101095 0.0055196323 -0.025675612 -0.005384481
-0.0027041943 0.0014511208 0.004872021 -0.008339479 -0.00021618698 0.017238162 -0.009837646 0.0072087464
0.0042189 -7.9515536e-05 0.0011970012 0.009273883 0.011770935 0.002810871 -0.01686233 0.010560501
-0.017614827 0.013285115 -0.0035217153 -0.008053627 0.010053066 -0.015021627 0.005161188 0.0031592157
00000000: 73d0 0abc 6666 5bbb 3049 003c 5813 49bb
00000010: 4114 333a ff70 8abb e976 b0bb 00b6 a93b
00000020: a0dd 1c3c 750b 30bb 0dc6 953b c436 2dbb
00000030: 7e94 54ba dc46 d2ba f6ce 2a3c 657c b33b
00000040: 6837 253b ca45 05bb 7073 a6bb 9c99 d93b
00000050: 2484 b93b 5ab1 fd3a f123 8a3a 3c25 043c
00000060: 1f66 f239 5d1f dabb 4ae9 21bc 3934 a53a
00000070: 635d c33a 650b b93b 6ebf 0d3c 95f0 28ba
00000080: cf7f 073b 5858 ecba d3c7 893b e806 d93a
00000090: f1f3 be3a d4a4 33bb e8c5 3e3c e529 ee3b
000000a0: 0d74 583b 6637 13bb 416c 263b 091f a43b
000000b0: 41b3 a2bb e4ab 463b 2a31 a33c 6be7 f5bb
000000c0: 7c7f 433c 6411 6e3c a07f 00bc f7cd 32bc
000000d0: b6a0 a2bc cc67 35bc ff52 b3ba d9fd e5b9
000000e0: b93c 5fbb 29eb 1f3c defa 29ba e84b 853c
000000f0: 0f52 973b cbd0 073c bf87 d23b 586b d5bc
00000100: 75dd 36bb 4102 57ba 4a63 45bb 946a 24bb
00000110: 4a5a 21b9 960e 8d3b 0403 f53b c540 c8ba
00000120: 051f 723b 2121 b23b a9cf 14bb 8697 d53b
00000130: 2288 9a3a d0c9 e5ba a894 83bc 247b 0f39
00000140: 3952 1a3c 04dc 043b 9760 17bc edb9 343c
00000150: 8e8f c9bb 9e1a b239 f977 c839 3f41 84b9
00000160: 69f7 183b 49cf e23b eb4a 9aba a1be 363b
00000170: 650b 8a3b 360c 9fbb 3325 f63b 6f81 ebba
00000180: 6b8c cc39 8d8f 623b eda3 63bb ee23 993b
00000190: 87a1 b63b 13f5 993b a7ab 8bbb c94d 1d3a
000001a0: d4c7 5abc 2c80 113b e95c 3f39 547a 7f3b
000001b0: 2d65 98bb b14c b23a 77a5 233c dd26 583b
000001c0: bbf6 29bc 5d81 cc3a f56e 18bc bf6c 1b3c
000001d0: fc95 0d3c dcdd 813b ed88 f8ba afb8 3d3c
000001e0: fe5d a6bb 621b df3b 82d1 c7bb aea2 313b
000001f0: aee1 2b3c e825 58bb 68ae 723b 3c8e a8ba
00000200: ca6e 833b ccc9 cd3b f876 b2bc 0cde 49bc
00000210: 94f4 c53b 9976 133c c2ba c7bb 95f2 2abb
00000220: 02e4 86bc e72f 923c 1d00 65bc 17f5 d5bb
00000230: 6b01 e637 b259 933b 5603 b53c 4cc0 443b
00000240: a83b 4b3c 799c 37bb cf15 c53b d639 833b
00000250: 5331 123c e416 ab3c c524 bcbc e9e1 553a
00000260: 9fff 4e3b c38d 6b3b 699a 173c bc99 a6bc
00000270: ccd5 d83b e0d8 093c 2b69 5abb 759f 80bb
00000280: 265d a5bb 7bad 173c e510 8d3a ab9d 0a3b
00000290: 409a 8039 a0b2 4d3c d2cd 20bc c228 9c39
000002a0: 9f54 34bc e692 853c a2af 733b d9ae 07bc
000002b0: 0c5c 88bc bdb4 caba b9e2 2b3d 555b 973c
000002c0: 9279 7a3c e377 f6ba 61a0 0bbc c903 f93b
000002d0: df55 0a3b bbfd c2bb b602 2e3c bc99 653b
000002e0: adc3 3abc a3c5 1f3c 4265 c6bc c787 043d
000002f0: 7041 203c 97b0 963c 7c26 013b 2457 5cbb
00000300: 9b14 f638 b1b8 24bc 0a2f 70bc f0dd 9fba
00000310: c366 053b 57ba 89b9 ce4a 9e3c f928 68bb
00000320: 0369 34bc 03c2 9eba 8f27 bdbb e04a cabb
00000330: d569 1f37 86a5 88bb 3ac6 23bb 1bed 02bb
00000340: ec13 07bc 010b 34bc 7046 133b 46cb 683c
00000350: 9a0a b1bb 383c 0cbb 9ca4 94b9 5413 09bc
00000360: cb0b 353c 3da0 3d3b 185e a63b 2d1b 18bc
00000370: b001 ae3b 66d4 f0bb 04aa 39bc 000c e13b
00000380: 03c3 93bc 5bd1 9b3c 23fb a33c 5446 283c
00000390: 81d0 f23b 08de b43b a955 d2bc 4d70 b0bb
000003a0: da38 31bb 8933 be3a 79a5 9f3b 4fa2 08bc
000003b0: 40b0 62b9 0c37 8d3c 142e 21bc 5937 ec3b
000003c0: b33e 8a3b 94c1 a6b8 b2e4 9c3a 7cf1 173c
000003d0: e1da 403c 9736 383b de22 8abc f405 2d3c
000003e0: f84c 90bc d0a9 593c 94cc 66bb 5cf3 03bc
000003f0: 9db5 243c 451d 76bc 2f1f a93b d80a 4f3b

net.3.linear.bias f4 [32]
-0.10318556 0.011578511 0.12876882 -0.09254038 0.075060606 -0.14629728 0.11607947 0.059112526
-0.14434685 -0.12190569 -0.056802537 -0.31887314 0.07474963 -0.15667799 0.028963996 0.021601226
-0.056141164 -0.056192573 0.0855613 0.08834715 -0.12720636 -0.14732128 -0.01456711 0.033882
-0.034751948 -0.011710573 -0.04204132 -0.0625285 -0.041640095 -0.08850895 -0.16494194 0.19397292
00000000: f352 d3bd ccb3 3d3c f9db 033e d085 bdbd
00000010: 60b9 993d f4ce 15be 13bb ed3d fa1f 723d
00000020: a9cf 13be b1a9 f9bd c7a9 68bd 5743 a3be
00000030: 5616 993d 3270 20be e745 ed3c 0ef5 b03c
00000040: 47f4 65bd 2f2a 66bd c33a af3d 5aef b43d
00000050: 6242 02be 64db 16be e3aa 6ebc dac7 0a3d
00000060: 0f58 0ebd b4dd 3fbc 8533 2cbd f10e 80bd
00000070: ce8e 2abd 2e44 b5bd 8ae6 28be d6a0 463e

net.4.weight f4 [4, 32]
1.6121476e-05 -9.916413e-06 -2.8065151e-05 2.3793348e-06 2.4238873e-06 5.7850552e-06 1.933451e-05 5.7113543e-06
-1.403593e-05 7.130576e-06 1.3290435e-05 7.5378484e-06 -7.929753e-06 1.3532391e-05 -5.4154125e-06 7.568446e-06
2.2714498e-06 -6.5496984e-06 1.998188e-06 3.8405366e-07 -1.1491297e-05 -7.885017e-06 -6.784574e-07 1.1123974e-06
7.769582e-06 -5.6027948e-06 3.2900011e-06 1.9985839e-05 -6.800104e-06 -1.4618745e-05 -1.4695279e-05 -1.003986e-05
1.8756155e-05 -4.463317e-06 -2.4644296e-05 5.6109297e-06 2.0017317e-06 1.7110917e-06 1.8298333e-05 5.4540915e-06
1.2857806e-05 3.479299e-06 7.0275673e-06 1.0178656e-05 -1.0456257e-05 6.7581645e-06 -1.5890206e-06 3.6724227e-06
8.780561e-07 -2.041915e-06 8.751507e-06 -1.9544875e-06 7.600985e-07 -3.902799e-06 9.227843e-08 3.484882e-06
1.5024687e-05 -4.268322e-06 2.1611992e-05 8.972813e-06 -5.859144e-06 -4.171178e-06 -8.565227e-06 -1.0202636e-05
0.00013029642 -3.059612e-05 -0.00013749994 7.1130366e-05 1.0457329e-05 1.6283917e-05 6.6120265e-05 2.9677656e-05
0.00013661753 2.8085047e-05 4.3298813e-05 4.902055e-05 -5.637597e-05 1.1491215e-05 -2.0557776e-05 3.1884054e-05
9.289299e-06 -9.793568e-06 9.774597e-05 -9.692585e-06 2.7392098e-05 -2.5196225e-05 2.0420372e-05 6.1240735e-06
7.724e-05 2.3840104e-05 8.884942e-05 3.4166693e-05 -3.7128274e-07 3.599733e-05 -5.955585e-05 -7.4894895e-05
0.009241237 -0.0046989187 -0.014366609 0.0007011166 0.0011142304 0.0026534302 0.010283204 0.003328531
-0.00042126412 0.0032099301 0.0064509045 0.004788419 -0.005205344 0.0045078197 -0.0020139348 0.0028396738
0.00091031974 -0.002721376 0.0024711422 -4.4406017e-05 -0.0035718135 -0.0038071729 -0.0012006793 0.0018230929
0.0048440937 -0.0026112667 0.003721855 0.008674337 -0.003760222 -0.005031528 -0.006400291 -0.0050725294
00000000: 9b3c 8737 ab5e 26b7 746d ebb7 a9ac 1f36
00000010: 11aa 2236 3f1d c236 8b30 a237 29a4 bf36
00000020: dc7b 6bb7 2e43 ef36 fcf9 5e37 a0ed fc36
00000030: 080a 05b7 2d09 6337 0ab6 b5b6 75f4 fd36
00000040: 366f 1836 7bc5 dbb6 9c18 0636 ef2f ce34
00000050: bfca 40b7 e449 04b7 3d1f 36b5 af4d 9535
00000060: 1a5a 0237 a4ff bbb6 cac9 5c36 43a7 a737
00000070: 732c e4b6 0843 75b7 be8b 76b7 df70 28b7
00000080: 8956 9d37 9ac3 95b6 39bb ceb7 8545 bc36
00000090: 7d55 0636 aaa8 e535 5f7f 9937 4a02 b736
000000a0: dbb7 5737 e77d 6936 58ce eb36 ffc4 2a37
000000b0: 486d 2fb7 31c4 e236 5546 d5b5 be73 7636
000000c0: 8eb3 6b35 d507 09b6 70d3 1237 d729 03b6
000000d0: 9209 4c35 caf4 82b6 9a2a c633 d1dd 6936
000000e0: 8a12 7c37 9b38 8fb6 664b b537 f089 1637
000000f0: aa99 c4b6 25f6 8bb6 5fb3 0fb7 fd2b 2bb7
00000100: 2ea0 0839 5554 00b8 dc2d 10b9 d32b 9538
00000110: e371 2f37 7299 8837 0caa 8a38 48f4 f837
00000120: fd40 0f39 2e98 eb37 bf9b 3538 6a9b 4d38
00000130: 3d75 6cb8 65ca 4037 7d73 acb7 3ebb 0538
00000140: 3cd9 1b37 0e4f 24b7 f8fc cc38 569d 22b7
00000150: 15c8 e537 7b5c d3b7 6a4c ab37 647d cd36
00000160: e9fb a138 3cfc c737 ab54 ba38 354e 0f38
00000170: b654 c7b4 d7fb 1638 9bcb 79b8 e410 9db8
00000180: 8f68 173c 63f9 99bb ed61 6bbc 23cb 373a
00000190: 5e0b 923a 2ce5 2d3b e27a 283c 7c23 5a3b
000001a0: 1ddd dcb9 b15d 523b 1c62 d33b 2ce8 9c3b
000001b0: 9791 aabb 55b6 933b 38fc 03bb d219 3a3b
000001c0: 86a2 6e3a 1d59 32bb e3f2 213b 9940 3ab8
000001d0: 1615 6abb c381 79bb 1d60 9dba d9f4 ee3a
000001e0: 34bb 9e3b c921 2bbb 5eea 733b ce1e 0e3c
000001f0: 0f6e 76bb 84df a4bb 88b9 d1bb 7637 a6bb

net.4.bias f4 [4]
0.0035001284 0.00083825766 0.002821184 0.006938709
00000000: 6962 653b 85be 5b3a 9de3 383b 1c5e e33b
