FE-PINN1/1_nodes_given/5%_noise/-15%_init_error/model.pt (torch, 16796 bytes, 10 tensors)

net.0.linear.weight f4 [32, 1]
0	0xbf081a24	-0.5316489
1	0xbeaec128	-0.34131742
2	0x3e5060b3	0.20349388
3	0x3e29b04d	0.1657116
4	0xbec9ae32	-0.39390713
5	0x3f31d7ca	0.6946989
6	0xbea73e32	-0.3266464
7	0xbbf05d59	-0.0073353467
8	0xbef8458b	-0.48490557
9	0xbf1cbdd4	-0.61227155
10	0x3e8894bf	0.26675984
11	0x3f708f6a	0.9396883
12	0xbe32f599	-0.174765
13	0xbf5184c1	-0.8184319
14	0x3f36b231	0.7136565
15	0x3f54f0ac	0.83179736
16	0x3f0c0693	0.5469753
17	0x3f5e3f9f	0.8681583
18	0x3e6992e4	0.2280994
19	0xbe553e87	-0.20824634
20	0xbf6b2bb1	-0.9186354
21	0xbf2f6a03	-0.68521136
22	0xbec4d58e	-0.3844418
23	0x3f56ae3e	0.8385962
24	0x3f488ec0	0.7834282
25	0x3f068d6b	0.52559537
26	0xbea6026a	-0.32423717
27	0x3f00e91f	0.50355715
28	0x3d9d9c10	0.07695782
29	0x3ed18074	0.40918314
30	0x3f33f2aa	0.7029215
31	0xbf67f5fb	-0.9060971

net.0.linear.bias f4 [32]
0	0x3ec8069f	0.39067551
1	0xbec69780	-0.3878746
2	0xbf487fa0	-0.7831974
3	0xbf45fc2c	-0.7733791
4	0x3ec24ce7	0.37949297
5	0xbf8095cb	-1.0045713
6	0xbbe5139f	-0.0069908644
7	0xbe3a0df4	-0.18169385
8	0xbeb34795	-0.3501555
9	0xbf10c7b9	-0.5655475
10	0xbf0021c1	-0.50051504
11	0xbe29dff5	-0.16589339
12	0xbdfcadc0	-0.12337828
13	0x3f08d379	0.5344768
14	0xbf5bdd29	-0.8588434
15	0x3efa6555	0.48905435
16	0x3e819b45	0.25313774
17	0x3f209ead	0.6274212
18	0xbf2e7487	-0.68146557
19	0x3e98d1e9	0.2984765
20	0xbf26c9b6	-0.65151536
21	0x3e08ee9c	0.13372272
22	0xbf7628dd	-0.961561
23	0x3f20d6d4	0.628278
24	0x3c911fbd	0.01771533
25	0x3cbf8bc7	0.02338208
26	0xbf73cb02	-0.9523164
27	0x3f7cd653	0.9876453
28	0xbf5a4786	-0.85265386
29	0xbe10acc5	-0.14128406
30	0xbf5f0a61	-0.8712521
31	0xbe4fca5d	-0.20292039

net.1.linear.weight f4 [32, 32]
0	0x3b804f33	0.0039156913
1	0x3b998771	0.0046853353
2	0xbc83fe53	-0.016112482
3	0xbc8a51e1	-0.016884746
4	0xbbcab771	-0.0061864187
5	0xbc0670eb	-0.008205633
6	0x3c65f1df	0.014034717
7	0x3c6aa8b8	0.014322452
8	0x3c02aa39	0.007975155
9	0x3bdc1762	0.0067166546
10	0xba3ebd13	-0.0007276099
11	0xbbbdf51b	-0.005797041
12	0xbc0e49e6	-0.008684611
13	0x3be39235	0.0069449195
14	0xbc116dce	-0.008876277
15	0xbc22cf7b	-0.0099371625
16	0x396b79c0	0.00022456702
17	0x3c2d6405	0.010582929
18	0xbbf0a841	-0.007344276
19	0xbd00da17	-0.031457987
20	0xb9ca9aa5	-0.00038643662
21	0xbbfe9ba5	-0.007770019
22	0x39e84827	0.00044304246
23	0xbbde2592	-0.006779381
24	0x3c652e5c	0.013988104
25	0xbccd350c	-0.025049709
26	0x3b630b84	0.0034644315
27	0x3b48befe	0.0030631418
28	0x3c98d490	0.018656045
29	0x3b8155b6	0.003946985
30	0xb815d1a5	-3.5719615e-05
31	0x3c0a9557	0.008458457
32	0x3c8762c5	0.01652659
33	0xbc79564f	-0.0152183315
34	0x3b95d2fd	0.004572271
35	0x3ace6961	0.0015747958
36	0xbbdfd2cf	-0.0068305503
37	0x3aa1f80b	0.0012357248
38	0xbc04fbe2	-0.008116694
39	0xbad843ef	-0.0016499738
40	0x3ba48990	0.0050212815
41	0x3cba126c	0.022713862
42	0xbb8d3e76	-0.0043104244
43	0xbc15c1da	-0.009140456
44	0x39196712	0.00014629614
45	0x3b9dc8f3	0.004815215
46	0x3b72ebb9	0.0037066771
47	0xbb7f3ee0	-0.0038947389
48	0xbb84a74d	-0.004048264
49	0x3b003916	0.0019565276
50	0xbc945449	-0.018106597
51	0xbca1375d	-0.01967972
52	0xbacee23a	-0.0015783974
53	0x3c53ca79	0.012926691
54	0xbc54d8fd	-0.012991187
55	0xbcc6f836	-0.024288278
56	0x3b94c1ad	0.0045396895
57	0xbc95a243	-0.018265849
58	0x3c64a225	0.013954674
59	0x3c4b3800	0.012403488
60	0x3adb3c4b	0.0016726343
61	0xbb98126a	-0.004640867
62	0xba99fbc0	-0.0011748001
63	0xbc1d8a9b	-0.009615566
64	0xbc03af6b	-0.008037428
65	0xbc73fcb6	-0.014891794
66	0x3c28f294	0.010311741
67	0xbcaab85a	-0.020839859
68	0x3c5416da	0.012944901
69	0x3c918fdf	0.017768798
70	0x3bded854	0.0068006907
71	0xb99d938c	-0.00030055305
72	0xbb954e24	-0.004556434
73	0xbc2b8b9a	-0.010470295
74	0x3ccf735c	0.025323562
75	0x3ba3b487	0.004995886
76	0xbc651170	-0.013981208
77	0xbb1db301	-0.0024062993
78	0xbadfcc3a	-0.0017074414
79	0xbb880978	-0.0041515194
80	0xbbaee96b	-0.005337884
81	0x3c00d45e	0.007863132
82	0xbbdafac4	-0.0066827256
83	0x3c009722	0.007848533
84	0xbb3ded0b	-0.00289804
85	0xbc5c1600	-0.01343298
86	0xbcb1e3f0	-0.021715134
87	0xbb448527	-0.0029986592
88	0xbc17a106	-0.0092547
89	0x3c458553	0.012055713
90	0xbbd1dfad	-0.006404838
91	0xbbd97122	-0.006635801
92	0xbacabdb9	-0.0015467919
93	0x3bcdd06a	0.0062809484
94	0x3be6720f	0.00703264
95	0x3a06eea5	0.0005147255
96	0xbc13b302	-0.009014847
97	0x39d2976a	0.00040167134
98	0xbcc9eafd	-0.024648184
99	0xbc20b4d6	-0.00980874
100	0x3ab4d98c	0.0013797744
101	0xbb1145ed	-0.0022166923
102	0x3bacd8e8	0.0052748807
103	0xbc7344dd	-0.014847961
104	0x3bef6477	0.0073056775
105	0xbc6c5781	-0.014425159
106	0x3c1867fb	0.009302135
107	0x3bcc19e8	0.006228674
108	0x3b37ff89	0.0028075895
109	0xbada4ea0	-0.0016655512
110	0xbc819d16	-0.015821975
111	0x3ae4de41	0.0017461256
112	0x3cb124e7	0.021624042
113	0x3ad255b2	0.0016047268
114	0x3c2b8567	0.010468817
115	0xbbc86727	-0.0061158123
116	0x39fea43a	0.00048569014
117	0x3c03edf8	0.008052342
118	0xba6f5dda	-0.00091311114
119	0x3b966cba	0.004590598
120	0x3b79184e	0.0038008871
121	0xbbabe28e	-0.0052455133
122	0xbbbf87a9	-0.0058450294
123	0xbc71c2d8	-0.014755927
124	0xbc865341	-0.01639712
125	0xbbee651f	-0.007275238
126	0xbbc5aa0a	-0.006032233
127	0xbc39399b	-0.011305238
128	0xbbb3a5d3	-0.0054824143
129	0x3caa6050	0.020797879
130	0xbcb242b2	-0.021760318
131	0xbbbcb0f3	-0.0057583987
132	0xbbb37839	-0.005476978
133	0x3cae3a14	0.021267928
134	0xbb8a1292	-0.0042136395
135	0x3c87911e	0.01654869
136	0x3b8dbd1f	0.0043255235
137	0x3aec8508	0.0018045017
138	0x3c33fee3	0.010986063
139	0x3c596a48	0.013269968
140	0x3c6356c2	0.013875665
141	0xbb7ec68d	-0.003887567
142	0xbc8def0d	-0.017325902
143	0x3bd9ad48	0.006642971
144	0xbbc0786e	-0.0058737313
145	0x3b07a356	0.002069672
146	0xbc930cd6	-0.017950457
147	0x3aad844d	0.0013238281
148	0xbc152559	-0.009103143
149	0xbbb4cb47	-0.0055173966
150	0x3a39b3e9	0.00070839986
151	0x3b81a4c7	0.0039564106
152	0xba642d63	-0.0008704273
153	0x3c1c1fbe	0.009529052
154	0x3b94b627	0.004538316
155	0xbbafb1f5	-0.0053617903
156	0xbb6bae0e	-0.00359619
157	0xbc7bbff0	-0.015365586
158	0xbbf975e1	-0.007612929
159	0xbb82740a	-0.003981118
160	0xbc463b37	-0.012099079
161	0xbbe54f2e	-0.0069979643
162	0xbbef7004	-0.0073070545
163	0x3bc2115b	0.005922479
164	0xbc8195d2	-0.01581851
165	0x3b8bf402	0.0042710314
166	0x3b40fe29	0.0029448366
167	0x3b4607fa	0.0030217157
168	0xbc13bdf2	-0.009017454
169	0xbbdc74b5	-0.0067277797
170	0xbb26b91f	-0.002543993
171	0xbc11f931	-0.0089095095
172	0x3c3bf16e	0.011471136
173	0xbbe8e80c	-0.0071077403
174	0xbc16d72b	-0.0092065735
175	0xbbb85505	-0.0056253695
176	0x3cabde7e	0.020980116
177	0x3bb7a708	0.0056046285
178	0x3bec7bf7	0.007216926
179	0x3b33b62b	0.0027421813
180	0xbc31dd2e	-0.010855956
181	0xbbb7c96c	-0.005608728
182	0x3be94a48	0.0071194507
183	0xbc59bab3	-0.0132891415
184	0xbb3b7058	-0.0028600898
185	0x3af84ac7	0.0018943184
186	0xbc3ef18e	-0.011654271
187	0x3c87cd3b	0.016577354
188	0x3bd6e2c2	0.0065577934
189	0x3b9ab939	0.0047217873
190	0xbb84371b	-0.0040348894
191	0xbc06e550	-0.008233383
192	0xbbc6267e	-0.006047069
193	0xbbf4b2fc	-0.0074676257
194	0xbc2477f5	-0.010038366
195	0x3b8fa474	0.004383618
196	0xbb46a993	-0.0030313476
197	0xbb606a8b	-0.0034243192
198	0x3bcdeaeb	0.006284108
199	0xbc447690	-0.011991158
200	0x3c032f42	0.008006873
201	0xbc1034cc	-0.00880165
202	0x3c35c3ab	0.011094014
203	0x3bee3bea	0.007270326
204	0x3c5ff026	0.013668096
205	0x3bc4d6df	0.00600706
206	0x3c0e0396	0.008667847
207	0xbb1d2552	-0.0023978543
208	0xbae5601e	-0.0017499959
209	0x3c7940ad	0.015213174
210	0xbc579149	-0.013157197
211	0xba37f496	-0.0007017342
212	0x3bcb1711	0.006197818
213	0x3bb1fb7a	0.0054315897
214	0xbbb865d9	-0.0056273756
215	0x3bf1cc51	0.0073790927
216	0x3c8468d7	0.016163273
217	0xbb023a9e	-0.0019871364
218	0x3c3565af	0.011071607
219	0x3a104e3e	0.0005504823
220	0x3c06eddb	0.00823542
221	0x3c0b1fc5	0.008491461
222	0x3c7203c5	0.014771407
223	0x3c03ab10	0.00803639
224	0x3aee7a7a	0.001819446
225	0xbc23b0cb	-0.009990881
226	0x3c929ed0	0.017897993
227	0x3a98826f	0.0011635552
228	0xbc8b9ae4	-0.017041631
229	0xbb8780e7	-0.0041352394
230	0xbb9ba9ba	-0.0047504576
231	0xbba74fdc	-0.0051059555
232	0x3c8214dd	0.015879089
233	0x3cb87f24	0.022521563
234	0x3bb9df8b	0.0056724004
235	0xbc3c2ebd	-0.011485753
236	0xbc624bb2	-0.0138119925
237	0x3bf2c853	0.0074091344
238	0xbbdc1638	-0.006716516
239	0x3c075efb	0.008262391
240	0xbcbddee4	-0.023177572
241	0xbc812a59	-0.015767263
242	0x3c795c07	0.015219695
243	0x3c77818b	0.015106569
244	0x3ad4e03d	0.0016241145
245	0x3c114cc5	0.008868401
246	0xbc3a8dea	-0.011386374
247	0x3c463cda	0.012099469
248	0x3c8ae61e	0.016955432
249	0xbc308a82	-0.01077521
250	0xba1d52a5	-0.00060013897
251	0x3b93785c	0.004500432
252	0xbb859f99	-0.0040778634
253	0x3c1822cf	0.009285643
254	0xba628d08	-0.0008642231
255	0x3b600ce6	0.0034187376

net.1.linear.bias f4 [32]
0	0xbc9a4a85	-0.018834362
1	0x3dc054ba	0.0939116
2	0x3df207a9	0.11817867
3	0x3e179c6c	0.14805764
4	0x3e204343	0.15650658
5	0x3d8e5303	0.06949427
6	0x3dc9816c	0.098391384
7	0x3e1d35db	0.15352575
8	0xbbc9b32f	-0.0061553936
9	0x3d506cdc	0.050885066
10	0x3e21c17e	0.15796468
11	0xbe2e42ba	-0.17017642
12	0xbe38a4f6	-0.18031678
13	0x3e1aa4b5	0.15101893
14	0xbdcad5f1	-0.09904087
15	0xbe1c5b57	-0.15269218
16	0xbd82f0e6	-0.06393604
17	0xbda861c0	-0.08221769
18	0xbe0ccdcc	-0.1375038
19	0xbd9ce270	-0.07660377
20	0xbdd6e929	-0.104936905
21	0x3e0ef4ed	0.1396062
22	0xbe1dc01e	-0.15405318
23	0xba2c1f02	-0.00065659
24	0xbe27c4eb	-0.16383712
25	0xbd2ff46d	-0.042957712
26	0xbe100611	-0.14064814
27	0xbdefad5b	-0.11702987
28	0xbe0da58d	-0.13832684
29	0xbd04f8a8	-0.0324637
30	0x3de3a90a	0.11116226
31	0x3e2d76a8	0.16939795

net.2.linear.weight f4 [32, 32]
0	0x3ace189c	0.0015723887
1	0x3c110c5d	0.008853045
2	0x3c9a4036	0.018829446
3	0xbbe732fa	-0.0070556374
4	0xbb0b6811	-0.0021271745
5	0xbaf97ebc	-0.0019034962
6	0xbb945e4e	-0.0045278436
7	0xbbd2dbf3	-0.0064349114
8	0xbc38bd92	-0.011275666
9	0x3a9c5d9a	0.0011929751
10	0xbb810e4a	-0.003938471
11	0xbb01ecf0	-0.0019825064
12	0x3c1fdbc5	0.009756987
13	0x3b0d2c2e	0.0021541226
14	0x38615cf9	5.3730768e-05
15	0xbc7989f9	-0.015230649
16	0x3b7b5cc6	0.0038354858
17	0xbabe5d7a	-0.0014523708
18	0x3bfd2d9c	0.0077263843
19	0xbb0fbfab	-0.0021934311
20	0x3c8d5def	0.017256705
21	0x3bb631b4	0.0055601243
22	0x3ba6c322	0.0050891796
23	0xbc24c6c0	-0.010057151
24	0x3b0adf6b	0.0021190296
25	0x3b8eb3b0	0.0043549165
26	0x3b9580a5	0.0045624548
27	0xbc55723c	-0.013027724
28	0x3c2290b0	0.0099221915
29	0x3b5cc3c9	0.0033686033
30	0x3a3b2f31	0.0007140516
31	0x3b97b5a5	0.004629808
32	0x3c14954a	0.009068796
33	0x3ac04179	0.001466795
34	0xb9a2983a	-0.00031012465
35	0x3c0cda8d	0.008597028
36	0x3c985a8a	0.01859786
37	0x3c31e2e9	0.010857322
38	0xbc0d8600	-0.008637905
39	0xbb1665de	-0.0022948901
40	0xbc2942f6	-0.010330906
41	0xbc51b541	-0.012799562
42	0x3b2dea05	0.0026537192
43	0x3b086fdd	0.002081863
44	0x3bb38f7e	0.005479752
45	0x3ba9dd68	0.0051838644
46	0xbbc245e9	-0.005928744
47	0xbb79ba9f	-0.003810562
48	0x3b202d2f	0.0024440994
49	0xbc08f144	-0.008358303
50	0xbbdfa2df	-0.0068248357
51	0x3cb8f4ee	0.02257773
52	0x3b91bc59	0.0044475016
53	0xbbf4f7b7	-0.007475819
54	0xb957ed1c	-0.00020592328
55	0xbc071616	-0.008245012
56	0xbc833323	-0.016015595
57	0x3b76d938	0.0037666094
58	0x3b82f027	0.0039959135
59	0xbba68fd3	-0.005083063
60	0xbc085abf	-0.008322417
61	0xbbf616f7	-0.007510062
62	0x3c9543a8	0.018220738
63	0x3c942f02	0.018088821
64	0x3c802411	0.015642198
65	0x3b7d004f	0.003860492
66	0xbc92081c	-0.017826132
67	0xbbe1a3e7	-0.0068859938
68	0x3b1e0c5c	0.0024116253
69	0x3b69c98c	0.003567311
70	0xbab47f50	-0.0013770852
71	0xbb14bb1b	-0.0022694531
72	0x3ad0c0af	0.0015926565
73	0x399569a7	0.00028498212
74	0x3b84e9a4	0.0040561724
75	0xbbe24538	-0.006905224
76	0xbb570dda	-0.0032814653
77	0x3cd517b7	0.026012285
78	0x39a3a0fc	0.00031209725
79	0xbc353585	-0.011060123
80	0x3b73755b	0.0037148807
81	0x3be27ac3	0.006911607
82	0x3bd1282f	0.006382964
83	0x3c11899a	0.008882904
84	0xbb4a905d	-0.00309088
85	0x3b39fe34	0.0028380277
86	0x3c1feb62	0.0097607095
87	0x3c1361e1	0.008995504
88	0xbb11e676	-0.002226261
89	0x3c2a3cb2	0.010390447
90	0x3ca54189	0.020172851
91	0x3bdf459a	0.006813717
92	0xbc87f1ca	-0.016594786
93	0xbb37d88b	-0.0028052654
94	0x3c780753	0.015138465
95	0x3c28db91	0.010306255
96	0xba3d6839	-0.0007225308
97	0xbb0d46e5	-0.002155715
98	0xbc9db88c	-0.019253038
99	0xbc9a08ef	-0.018803088
100	0xbbd58ae6	-0.006516802
101	0x3cc0b4f8	0.023523793
102	0xbb636f7a	-0.0034703896
103	0xb828166a	-4.0075196e-05
104	0xb9f5cf44	-0.00046884466
105	0x3c30eb84	0.010798339
106	0xbc04c2de	-0.008103101
107	0x3b84d1e7	0.0040533426
108	0x3bef37fe	0.007300376
109	0x390371f0	0.00012535579
110	0x3d01917d	0.03163289
111	0x3a3ae7d7	0.0007129884
112	0xbca6f341	-0.020379664
113	0xbbef158b	-0.0072962693
114	0x3c54e511	0.012994067
115	0xbc91d647	-0.01780237
116	0x3bec50e7	0.0072117927
117	0xbc694ad7	-0.014239035
118	0x3c32380f	0.010877623
119	0xbc265d6d	-0.01015411
120	0x39c8406e	0.00038194977
121	0xbc0d551c	-0.008626249
122	0x3c292242	0.010323109
123	0x3cd44fb6	0.025916915
124	0xbc9810a6	-0.018562626
125	0x3a7b9907	0.0009597693
126	0xbaf649ea	-0.0018790339
127	0xbbf24a68	-0.007394124
128	0xbb62c56e	-0.003460254
129	0xbc8ac7dd	-0.016941005
130	0x3b73a2f5	0.0037175987
131	0x3c221c8d	0.009894502
132	0x3b8a77a5	0.0042256885
133	0x3c6e50dd	0.0145456465
134	0x3c892481	0.01674104
135	0xbb0935c8	-0.0020936597
136	0xbbcb250e	-0.0061994856
137	0x3b8345af	0.0040061097
138	0x3be14c41	0.0068755453
139	0x3bce0824	0.0062875915
140	0xbbd32d1c	-0.0064445864
141	0xbb08cee6	-0.0020875274
142	0xbbbc7a04	-0.00575185
143	0x3b55182a	0.0032515624
144	0x38b98cfe	8.847749e-05
145	0x3bfad183	0.0076543703
146	0x3be54b44	0.0069974978
147	0xbb50edb8	-0.0031879973
148	0xba1c2b5e	-0.000595739
149	0xbc368036	-0.011138966
150	0x3bf3b76c	0.007437637
151	0x3bc2d009	0.00594521
152	0x3bdb24b5	0.0066877254
153	0xbc78682d	-0.015161556
154	0xbc16ef81	-0.009212376
155	0x3c7ddec6	0.015495008
156	0xbc8f7314	-0.017510928
157	0x3beb45e8	0.0071799643
158	0x3a9414e6	0.0011297732
159	0xbc8bb644	-0.017054684
160	0xbc154cf3	-0.009112584
161	0xb92a579b	-0.00016245099
162	0x39df8910	0.00042635994
163	0xbc2b592a	-0.01045827
164	0x3c2b53ba	0.010456974
165	0xbb60225e	-0.0034200172
166	0xbc8e2d2b	-0.017355522
167	0xbbd37ed5	-0.0064543285
168	0x3a2d2f3f	0.00066064665
169	0x3bb866bd	0.0056274817
170	0x3ba25aa8	0.0049546547
171	0xbc3ea6bf	-0.011636435
172	0xbbfdc317	-0.007744204
173	0x3c2ce0df	0.01055166
174	0x3bc903c9	0.0061344844
175	0xbb5b67ac	-0.0033478541
176	0xbc1054d2	-0.008809285
177	0xbca30faf	-0.01990494
178	0x3c45c45a	0.01207074
179	0x3a2438c2	0.0006264561
180	0xbbc3de80	-0.005977452
181	0x3c8c0ac1	0.017094972
182	0xbb801ab8	-0.003909435
183	0x3aec8888	0.001804606
184	0xbc25776e	-0.010099275
185	0xbc17dc08	-0.009268768
186	0x3c39a46b	0.011330704
187	0xbcaa4448	-0.020784512
188	0xbcd8c04b	-0.02645888
189	0xba28cfc3	-0.00064396503
190	0x3c541584	0.012944583
191	0x3c1ae032	0.009452866
192	0xbbd674e1	-0.006544695
193	0xbbf45799	-0.0074567315
194	0xbc863ef3	-0.016387438
195	0xbb479451	-0.0030453394
196	0xbc3ab065	-0.011394595
197	0xbcba4ea1	-0.022742571
198	0x3b9b08d6	0.004731278
199	0xbb174687	-0.002308281
200	0x3c2b34b7	0.01044958
201	0x3b7d08e1	0.0038610029
202	0x3a773a45	0.0009430985
203	0x3bf330d0	0.0074215904
204	0xbc3a5fad	-0.01137535
205	0x3ca3bb95	0.019986907
206	0xbbe13603	-0.006872894
207	0xbca45c5b	-0.02006357
208	0x3b84967d	0.00404626
209	0xbb633c6a	-0.003467346
210	0xbc847520	-0.01616913
211	0x3bd0ed77	0.0063759643
212	0x391ebb13	0.00015137745
213	0xbb91cb19	-0.00444926
214	0xbc8ede02	-0.017439846
215	0x3aec82c1	0.0018044339
216	0x3c412f4c	0.011791062
217	0xb810800b	-3.4451525e-05
218	0xbbf722c6	-0.007541987
219	0xbcae8304	-0.021302707
220	0xbbd7f1a8	-0.006590087
221	0x3ba814e6	0.0051294444
222	0xbb68524d	-0.0035449446
223	0xbc46dbb5	-0.012137343
224	0x3c68bc5d	0.014205066
225	0xbb0d6f66	-0.0021581291
226	0xbb13e173	-0.0022564798
227	0x3bc5bfe6	0.006034839
228	0xbbca3c1a	-0.0061717154
229	0x3b91e265	0.004452037
230	0x3c074158	0.008255325
231	0xbb2181f3	-0.0024644106
232	0xbaadaefa	-0.0013251
233	0x3c18ef56	0.009334406
234	0x3c06ffbd	0.008239684
235	0x3bd82adc	0.006596906
236	0xbc264490	-0.0101481825
237	0xbb661587	-0.0035108046
238	0xbc01d714	-0.007924814
239	0xbc8afd8d	-0.016966606
240	0x3c0799c0	0.008276403
241	0xbb746f6f	-0.0037297865
242	0x3bed7e2f	0.0072477083
243	0x3c22211e	0.009895591
244	0x3b4c3a4b	0.0031162675
245	0xbb9bee94	-0.0047586653
246	0xbc0ab8c3	-0.008466902
247	0xbb028109	-0.0019913337
248	0xbcaa465c	-0.020785503
249	0x3cadcee7	0.021216823
250	0xbc1f6301	-0.009728194
251	0x3b9d8fa7	0.0048083845
252	0xbc05e4ba	-0.008172208
253	0x3bf405b5	0.0074469694
254	0x3c9d47a7	0.019199206
255	0xbb2f80e3	-0.0026779703

net.2.linear.bias f4 [32]
0	0x3d00738c	0.031360194
1	0x3dc05edb	0.09393092
2	0x3d59b9e4	0.053155795
3	0x388d2154	6.729612e-05
4	0x3e16ada3	0.14714675
5	0xbe210295	-0.15723641
6	0xbbc923c5	-0.0061382973
7	0x3d9dfa74	0.07713786
8	0x3e0f27de	0.13980052
9	0x3c6441e0	0.013931721
10	0x3e124978	0.14285839
11	0x3d9f2173	0.07770052
12	0x3df55108	0.11978346
13	0x3d777f5d	0.060424197
14	0xbe0b975c	-0.13631958
15	0x3d1025c9	0.035192285
16	0xbdd06c63	-0.10176923
17	0xbdb2ca16	-0.08729951
18	0x3db5a650	0.08869612
19	0xbceb82bd	-0.028748864
20	0x3e24cc22	0.16093495
21	0xbcc8d4f2	-0.024515603
22	0xbe18e5f9	-0.14931478
23	0x3de26908	0.11055189
24	0xbd1a9dc6	-0.03774812
25	0x3e1df62e	0.15425941
26	0xbda56a68	-0.08076936
27	0xbd622be8	-0.055217654
28	0xbca9ebde	-0.020742353
29	0x3c2c1e9c	0.010505345
30	0x3da65b26	0.08122854
31	0x3e1c543a	0.15266505

net.3.linear.weight f4 [32, 32]
0	0x3b9c89d5	0.004777173
1	0x3aeed924	0.0018222672
2	0x3c1cfdd5	0.009582003
3	0xbbc6503c	-0.006052045
4	0xbc80eb50	-0.015737206
5	0x3c409539	0.011754327
6	0xbbe249b4	-0.0069057588
7	0x3c68def0	0.014213309
8	0xbbb45884	-0.005503716
9	0x3c4ad87a	0.012380714
10	0xbbcb3d83	-0.006202401
11	0x3c98700d	0.018608117
12	0xbc3ca0d3	-0.011512953
13	0x3c6a4050	0.01429756
14	0x3ba76df0	0.005109541
15	0xbc13a14d	-0.009010625
16	0xbc8eb6ce	-0.017421152
17	0xbc0ee764	-0.00872216
18	0x3b8d0723	0.0043038293
19	0xbb8b6960	-0.004254505
20	0xbcba991b	-0.022778085
21	0xbc53da1d	-0.01293042
22	0x3cc1017b	0.023560276
23	0xbc90a69e	-0.017657574
24	0xbcd046be	-0.025424358
25	0xbb0bebff	-0.0021350381
26	0xbc3f784e	-0.011686398
27	0x3c0198b8	0.007909946
28	0xbb807808	-0.003920559
29	0x3c374eef	0.011188253
30	0xbbddd5f6	-0.006769891
31	0xbcdc67ad	-0.026904905
32	0x3cef2802	0.029193882
33	0x3be37def	0.0069425027
34	0x3b4348a3	0.0029797934
35	0xbc8220db	-0.015884807
36	0xbaa9d72e	-0.0012957805
37	0x3c0ea5d8	0.008706532
38	0xbc68961d	-0.014195946
39	0xbb0357c6	-0.002004133
40	0xbc091c89	-0.00836862
41	0x3b2904a0	0.002579011
42	0xbbdb502a	-0.006692906
43	0x3c7ab23b	0.0153012825
44	0x3c9c7826	0.01910026
45	0x3bd441d1	0.0064775725
46	0xbd21f587	-0.039540794
47	0xbbde16ce	-0.006777621
48	0x3c6aad6b	0.014323573
49	0xba2f7590	-0.00066932384
50	0x3bbea28c	0.005817717
51	0x3c6c5b2e	0.014426036
52	0xbc1dfee4	-0.00964329
53	0x3c31e918	0.010858797
54	0xbc5858b8	-0.013204746
55	0xbc1e7f63	-0.009673926
56	0xbbf89eb6	-0.007587279
57	0xbc41cff1	-0.011829362
58	0x3a9da034	0.0012025894
59	0x3b9864de	0.004650696
60	0xbbfd993a	-0.0077392133
61	0xbca049ca	-0.019566435
62	0x3b5749e2	0.0032850434
63	0xbc206151	-0.009788827
64	0xbaeebf37	-0.0018214945
65	0x3c79ae71	0.015239344
66	0x3c10a874	0.008829225
67	0xbc38723d	-0.011257705
68	0x3bc99fda	0.006153089
69	0x3beaed04	0.0071693677
70	0xb9811fcc	-0.00024628488
71	0xb94b95d3	-0.00019415402
72	0xbc22656c	-0.009911876
73	0xbb35230f	-0.0027639305
74	0x38383aaa	4.3923654e-05
75	0x3cce661b	0.025195172
76	0x3b06323e	0.0020476724
77	0x3b0ce113	0.002149646
78	0xbbc3877e	-0.0059670797
79	0xbce3d3ad	-0.027810896
80	0xbb21bdf1	-0.0024679864
81	0x3c0cb388	0.008587725
82	0x3c03fed5	0.008056362
83	0xbb90a7da	-0.0044145407
84	0xbc1bc5d2	-0.009507613
85	0xbc9b42a0	-0.018952668
86	0x3bf166c9	0.0073669893
87	0xbb87490f	-0.0041285823
88	0xbbe90bd8	-0.0071120076
89	0x3b96bf34	0.00460043
90	0xbca47a38	-0.02007781
91	0x3c4026e6	0.011728024
92	0x3a34e328	0.0006900304
93	0x3c0092b0	0.007847473
94	0xba5a32e0	-0.0008323621
95	0x3bce58c8	0.0062972046
96	0x3c526869	0.012842276
97	0xbb791e5c	-0.003801248
98	0xbbc3b1be	-0.0059721163
99	0x3c876a14	0.016530074
100	0x3bb7c391	0.00560803
101	0xbc3fb93e	-0.01170188
102	0xbbbe3f82	-0.0058059106
103	0x3b15dee9	0.002286846
104	0x3bf90de1	0.0076005314
105	0x3cd7a545	0.026323924
106	0xbbda64a6	-0.0066648303
107	0xbc1f4c22	-0.009722741
108	0x3b47b752	0.0030474258
109	0x3c9fc4a3	0.019502943
110	0x3b9b6f57	0.0047434974
111	0xbc29201a	-0.010322595
112	0x3b945cc8	0.004527662
113	0xbb26a1a4	-0.0025425935
114	0xbb9e5b9e	-0.004832699
115	0x3c10794d	0.008817983
116	0xbb69dd58	-0.003568491
117	0x3aeacd4e	0.0017913969
118	0xbc30e8f5	-0.010797729
119	0xbc5eb414	-0.013592739
120	0x3c23ab1e	0.009989528
121	0x3b48e51c	0.0030654138
122	0xbb345e5c	-0.0027522063
123	0x3bc51504	0.006014468
124	0x3bce9bb0	0.0063051805
125	0xbb872428	-0.004124183
126	0xbcba56e9	-0.02274652
127	0x3ac32d48	0.0014890814
128	0x3cae4a26	0.021275591
129	0x3bae84a4	0.0053258706
130	0x3aac64eb	0.0013152634
131	0xb9091b10	-0.0001307542
132	0x3cabffaf	0.020995943
133	0x39bc5454	0.00035920984
134	0xbbd7e25d	-0.006588264
135	0xbbcb75a6	-0.006209093
136	0xbcea0ef5	-0.028571585
137	0xbb86fabf	-0.0041192467
138	0x3c707515	0.014676352
139	0xbbd40a4a	-0.006470953
140	0x3baec70c	0.005333787
141	0x3bd595cb	0.006518101
142	0x3c42159a	0.0118459705
143	0xbc448201	-0.011993886
144	0xbbfc3111	-0.007696279
145	0xbb0d1600	-0.0021528006
146	0xbaffbbb8	-0.0019510901
147	0x3c08fa57	0.008360467
148	0x3b2c84fe	0.0026324387
149	0x3c29c784	0.01036251
150	0xb92cdbf2	-0.00016485134
151	0xbbf57469	-0.007490684
152	0x3c8ca4e2	0.017168466
153	0xbb6ef407	-0.003646137
154	0x3bdba97d	0.006703554
155	0x3bb2d530	0.005457543
156	0x3c0e6bfe	0.0086927395
157	0x3cd351c2	0.025795821
158	0x3be8d60c	0.0071055945
159	0xbcb1d7d2	-0.021709356
160	0xbc86e9d4	-0.01646892
161	0xbc688543	-0.014191928
162	0xbb615767	-0.0034384371
163	0xbcb6f76c	-0.022334777
164	0x3b2767b9	0.0025544001
165	0x3abb30a4	0.0014281464
166	0x3c2609bd	0.010134158
167	0xbc8a8f08	-0.016913906
168	0x3c334e2c	0.010943931
169	0xbc323656	-0.0108772125
170	0xbaad61a7	-0.0013227955
171	0x3b56521d	0.0032702752
172	0x3ade76f9	0.0016972712
173	0xbc3097bf	-0.010778367
174	0xbc3ef3d8	-0.011654817
175	0xbbbb3d88	-0.005714122
176	0x3b69d5fa	0.0035680518
177	0x3c0ab359	0.008465611
178	0xbc09f3b8	-0.0084199235
179	0xbc468960	-0.012117714
180	0x3beec157	0.0072862315
181	0x3d0fb572	0.03508515
182	0xbb86166a	-0.0040920274
183	0x3c81ea2f	0.015858738
184	0xb9a2e549	-0.0003106988
185	0x3c98d2dd	0.018655235
186	0x3c365fc8	0.0111312345
187	0xbc75bac8	-0.014998145
188	0xbac36efd	-0.0014910396
189	0xbc0790ee	-0.0082743
190	0xba9e55e1	-0.0012080037
191	0x3b384876	0.0028119362
192	0x3bffa2c7	0.007801387
193	0xbb8cc682	-0.004296125
194	0x3c67f08b	0.014156471
195	0xbc590888	-0.013246663
196	0xbc2defa9	-0.010616221
197	0x3c37e608	0.011224277
198	0xbc1b9b8d	-0.009497535
199	0xbbc38b99	-0.005967569
200	0x3c0b2754	0.008493263
201	0xbc2432f7	-0.010021917
202	0xbc533b72	-0.012892591
203	0xbb7137a8	-0.0036806855
204	0xbc1d1a2c	-0.009588759
205	0x3c6a5fa5	0.01430503
206	0x3c8e2123	0.017349785
207	0xbaeded36	-0.0018152359
208	0x3c7aadf0	0.015300259
209	0x3c40f631	0.011777447
210	0x3aa0d02e	0.0012269074
211	0xbcd60013	-0.026123082
212	0x3c872b44	0.016500123
213	0x3ce47ff8	0.027893052
214	0x3c871d8f	0.016493587
215	0x3c50b44d	0.0127383
216	0xbbff2420	-0.007786289
217	0xbb67019a	-0.0035248757
218	0xbc54be8e	-0.012984885
219	0x3cbdf41f	0.023187695
220	0x3b9482f7	0.004532214
221	0x3bb43205	0.005499127
222	0xbb73a617	-0.0037177855
223	0xbbf4b316	-0.007467638
224	0xbc1775cd	-0.0092443945
225	0xbcbdd38f	-0.023172168
226	0x3bb06e2f	0.0053842287
227	0xbad9049d	-0.0016557161
228	0xbc484bf3	-0.012225139
229	0xbc85af25	-0.016318867
230	0xbb80c82c	-0.0039301123
231	0x3bac9344	0.005266579
232	0x3c279b6d	0.0102299275
233	0x3bc88063	0.0061188205
234	0x3bc93316	0.006140123
235	0x3b9ad6e3	0.0047253235
236	0xbcaaf37c	-0.020868056
237	0xbc9a1b00	-0.018811703
238	0xbae2463e	-0.0017263365
239	0xbbc0ec23	-0.0058875247
240	0xbc9de05a	-0.019272018
241	0xbaf60f57	-0.0018772882
242	0x3c053bf4	0.00813197
243	0xbc180dfd	-0.009280679
244	0x3c0d6c01	0.008631707
245	0x3bf74589	0.007546131
246	0x3c55c040	0.013046324
247	0xbc37bdd2	-0.01121469
248	0x3b967317	0.0045913565
249	0x3c726279	0.0147939855
250	0xbb9caa28	-0.0047810264
251	0xbc15d934	-0.009146024
252	0x3b0dce7b	0.0021637965
253	0x3c5f42d2	0.013626771
254	0xbc90ce5d	-0.017676527
255	0xbc864db8	-0.016394481

net.3.linear.bias f4 [32]
0	0xbd9959d1	-0.07487834
1	0x3e0a4872	0.13504198
2	0xbd781418	-0.060566038
3	0xbe05f0de	-0.13080165
4	0x3b300067	0.0026855709
5	0x3d1c81f5	0.038209874
6	0xbe25cc81	-0.16191293
7	0xbe031f29	-0.12804855
8	0xbbe0ab9e	-0.006856396
9	0x3e1f0831	0.15530469
10	0x3e02670a	0.12734619
11	0x3e402df2	0.18767527
12	0x3e281d18	0.16417348
13	0xbdea33f6	-0.11435692
14	0x3ce29d0c	0.027662776
15	0xbe28290a	-0.16421905
16	0x3d9e0895	0.07716481
17	0xbe16e77e	-0.14736745
18	0x3db85412	0.0900041
19	0xbd6ab627	-0.05730262
20	0x3db89cce	0.09014283
21	0xbd8c33c5	-0.06845812
22	0x3dcf8d8e	0.10134421
23	0x3dd1d0b7	0.10244887
24	0xbd46bb63	-0.04851855
25	0x3d1abd4f	0.037778195
26	0x3e1353ce	0.14387438
27	0xbcc0a144	-0.023514397
28	0x3d57ed13	0.052716326
29	0x3dd1f1cc	0.10251197
30	0xbc853cba	-0.016264308
31	0xbde9b0c7	-0.11410671

net.4.weight f4 [4, 32]
0	0x3cf11e89	0.029433506
1	0xbd677dbe	-0.0565164
2	0xbbc26fba	-0.005933729
3	0x3ca07f58	0.019591972
4	0xbd887ee6	-0.06664829
5	0xbd210e09	-0.039320026
6	0x3d2d47cb	0.042304795
7	0x3d4f6ccf	0.050640877
8	0xbd2e35df	-0.042531844
9	0xbd2b1e37	-0.041776862
10	0xbd3d9360	-0.046283126
11	0x3c727b1e	0.014799861
12	0xbd017cca	-0.03161315
13	0x3cc98949	0.024601595
14	0x3d643262	0.05571211
15	0x3c900c66	0.017584037
16	0x3cc7cabd	0.024388665
17	0x3d4706ab	0.048590343
18	0x3ca272c2	0.019830111
19	0x3c81e7cd	0.015857602
20	0xbd20e0c7	-0.039276864
21	0xbd1ea2a3	-0.03872932
22	0xbda0aade	-0.0784509
23	0x3d9dce88	0.07705408
24	0x3b5e41f2	0.0033913818
25	0x3d483ff4	0.048889115
26	0x3bc404cf	0.0059820185
27	0x3dd99377	0.1062383
28	0x3bf2c643	0.0074088885
29	0xbcecc63f	-0.028903125
30	0x3ce1588a	0.027508039
31	0xbbafd944	-0.0053664763
32	0xbcb21d6c	-0.021742545
33	0x3c7eea89	0.015558847
34	0xbc2c0751	-0.010499791
35	0xbd930892	-0.07179369
36	0x3d0b82b0	0.03406018
37	0x3d3acb67	0.045604136
38	0x3dbbc138	0.09167713
39	0xbdc117b3	-0.094283484
40	0x3d6d1a8e	0.057886653
41	0x3cfdaed2	0.03096715
42	0x3dd9f48b	0.10642346
43	0xbd155545	-0.036458272
44	0x3d98750d	0.07444201
45	0x3db6ae46	0.08919959
46	0xbd1f2f90	-0.03886372
47	0x3d8b0fe6	0.06790142
48	0x3ccd4f5b	0.025062254
49	0xbd23dee3	-0.040007483
50	0x3de96709	0.113966055
51	0xbd68d34a	-0.056842126
52	0xbd8672c2	-0.06564857
53	0x3dab0afe	0.08351706
54	0xbd38a84d	-0.04508238
55	0xbda1e523	-0.079050325
56	0x3d01dd42	0.03170515
57	0x3a97193e	0.0011527909
58	0xbd1de46a	-0.03854791
59	0xbb4bc220	-0.003109105
60	0xbdc5c0ed	-0.09655938
61	0xbd60170b	-0.054709475
62	0x3d6455cf	0.055745896
63	0x3d8a6641	0.06757785
64	0xbc771b10	-0.015082136
65	0xbbf7221a	-0.007541907
66	0x3d24acd7	0.040203895
67	0x3d82db65	0.063895024
68	0x3b9623ec	0.004581919
69	0x3c768071	0.015045271
70	0xbd0271de	-0.031846873
71	0x3cdd6937	0.02702771
72	0x3d043e45	0.032285947
73	0x3c8bb0e0	0.017052114
74	0xbbbaccaf	-0.0057006697
75	0x3d165f94	0.036712244
76	0xbcf7d935	-0.03025494
77	0xbd2f19fe	-0.042749397
78	0x3da475ed	0.08030305
79	0xbd3c0fb4	-0.045913413
80	0xbd5428a7	-0.05179658
81	0xbcfa18f8	-0.030529484
82	0xbcc10a57	-0.0235645
83	0x3d3e48fa	0.046456315
84	0x3da2ac48	0.07943016
85	0x3bdbce0c	0.0067079123
86	0x3d95d39d	0.07315753
87	0x3ceaf70d	0.028682256
88	0xbc4feb81	-0.012690426
89	0xbd05f101	-0.032700542
90	0x3d7918f6	0.06081482
91	0xbd4cdb49	-0.050013814
92	0x3cf82214	0.030289687
93	0x3cb99e0c	0.02265837
94	0x3b7781ea	0.0037766644
95	0xbda345c5	-0.07972292
96	0x3cf0d529	0.029398518
97	0xbbe430c7	-0.0069638225
98	0x3dcfea66	0.1015213
99	0x3c1997da	0.009374583
100	0xbe1119fb	-0.14170067
101	0xbd981fee	-0.07427965
102	0x3cfbdf95	0.03074626
103	0x3dc4b887	0.09605508
104	0xbd734f5c	-0.059401855
105	0x3d2fc5d1	0.04291326
106	0xbc6091c6	-0.01370663
107	0x3da61d59	0.08111066
108	0xbd4f1079	-0.05055282
109	0x3d7e843f	0.06213784
110	0x3e064f94	0.13116294
111	0xbcb218d7	-0.02174036
112	0x3d1116cf	0.035422143
113	0x3bb34028	0.0054702945
114	0xbcc15820	-0.023601592
115	0x3cfab28d	0.030602718
116	0xbd38bb6a	-0.045100607
117	0x3d74fb77	0.059810128
118	0xbd8fc017	-0.0701906
119	0x3e218c23	0.15776114
120	0x3dac1e9d	0.084042765
121	0x3c547b4d	0.01296885
122	0x3d677529	0.056508217
123	0x3ddb840c	0.10718545
124	0xbcd00513	-0.025393045
125	0xbda397eb	-0.079879604
126	0x3d0d1f80	0.03445387
127	0xbd4703b3	-0.048587512

net.4.bias f4 [4]
0	0xbe15f6da	-0.14644948
1	0x3dad0560	0.08448291
2	0x3d8d8120	0.06909394
3	0x3d0b469f	0.034002896
