outputs_ssh/noisy_data_NEW/chirp/1_nodes_given/20%_noise/-15%_init_error/model.pt (torch, 16796 bytes, 10 tensors)

net.0.linear.weight f4 [32, 1]
0	0xbeb5d800	-0.35516357
1	0x3f0031fd	0.50076276
2	0xbe46247d	-0.19349857
3	0xbdb10f44	-0.0864549
4	0x3f340687	0.7032246
5	0xbf74895a	-0.9552208
6	0x3ecaa55c	0.39579284
7	0x3ef4ee5a	0.47838098
8	0x3f413435	0.75470287
9	0x3f1321ec	0.57473636
10	0xbec189ab	-0.37800345
11	0x3e05e8d0	0.13077092
12	0xbdf43c21	-0.11925531
13	0x3f208faf	0.62719244
14	0x3f30e6fb	0.6910245
15	0xbe57f01b	-0.21087687
16	0x3e54c33a	0.20777598
17	0xbf250421	-0.64459425
18	0x3f560089	0.83594567
19	0x3eecf446	0.46280116
20	0x3e923ff3	0.28564414
21	0x3f0f7523	0.5603811
22	0xbebd67e0	-0.36993313
23	0xbf6b8cf7	-0.9201197
24	0xbdf97e30	-0.121822715
25	0x3f46d3c7	0.77666897
26	0xbf249f33	-0.6430542
27	0x3f05c610	0.52255344
28	0xbdd98c09	-0.10622413
29	0xbf2a852b	-0.6660945
30	0xbf806fed	-1.0034157
31	0xbe789de6	-0.24278983

net.0.linear.bias f4 [32]
0	0xbe2da7eb	-0.16958587
1	0x3f54468a	0.82920134
2	0xbe6f81bb	-0.23389332
3	0x3f5a4a3b	0.85269517
4	0xbf5d4029	-0.86426026
5	0xbdd76fd5	-0.10519377
6	0x3f041727	0.5159783
7	0x3f3b8ced	0.7326191
8	0xbecd4416	-0.40091008
9	0xbf5c31f7	-0.8601374
10	0xbe2212e7	-0.15827523
11	0xbdb1711f	-0.08664154
12	0x3edebfce	0.4350571
13	0xbe92ffcf	-0.2871079
14	0xbec622a4	-0.38698304
15	0xbd8f91ed	-0.07010255
16	0x3d9c33b2	0.076270476
17	0xbca45336	-0.02005921
18	0x3f2c8b40	0.6739998
19	0x3ee21784	0.44158566
20	0x3f27a2cb	0.6548278
21	0x3f7965c0	0.97420883
22	0xbf6dc87f	-0.9288406
23	0xbf4171b1	-0.75564104
24	0x3f5a4c58	0.8527274
25	0xbf7abe70	-0.97946835
26	0x3f2a2ea1	0.664774
27	0x3bc0daa1	0.0058854376
28	0xbe935be6	-0.2878105
29	0xbf5a0592	-0.8516475
30	0xbe547ade	-0.20749995
31	0xbf0c5e17	-0.5483107

net.1.linear.weight f4 [32, 32]
0	0x3b214edc	0.0024613654
1	0xbc2ef3bb	-0.010678227
2	0x3ca627d2	0.02028266
3	0xbb5a5416	-0.003331428
4	0xba17d033	-0.0005791217
5	0x3bf998b0	0.0076170787
6	0x3c2f410f	0.0106966635
7	0x3bcbb091	0.0062161167
8	0x3be5f80c	0.007018095
9	0xbca103a3	-0.019655054
10	0xbb8fd2cd	-0.004389143
11	0xbc2eba63	-0.010664555
12	0xbc95dad8	-0.01829283
13	0xbbefa942	-0.0073138783
14	0x3b1e1284	0.0024119923
15	0x3c1f03d0	0.009705499
16	0xbafbb174	-0.0019202665
17	0x3cc23af7	0.023709757
18	0xb8b648ea	-8.6920176e-05
19	0xbb518d1e	-0.0031974982
20	0xbc9f6603	-0.019457823
21	0xbc28b6ae	-0.0102974605
22	0x3bd37080	0.00645262
23	0xbbd5e31c	-0.0065273177
24	0xbc75e2e9	-0.015007713
25	0x39939148	0.00028146268
26	0xbc61ea9c	-0.013788845
27	0xbc4c152c	-0.01245622
28	0xbc7736d4	-0.015088756
29	0x3bfd89f3	0.007737392
30	0xbca885e6	-0.02057166
31	0xbab2778d	-0.0013615951
32	0x3c643472	0.01392852
33	0xbb23f47b	-0.0025017548
34	0xbab09a56	-0.001347373
35	0x3c81aff5	0.015830973
36	0x3c045cba	0.008078748
37	0xbc603195	-0.013683696
38	0xbbe741a7	-0.007057387
39	0x3c880c42	0.016607407
40	0x3aec9fa1	0.0018052944
41	0xbc7e19ba	-0.015509063
42	0x3b9bc6be	0.0047539165
43	0x3bb67d12	0.0055691088
44	0xbaf03c7a	-0.001832857
45	0x3b183518	0.0023225006
46	0xbb18c998	-0.0023313519
47	0xbb5ccd61	-0.0033691751
48	0x3c4b6471	0.012414084
49	0x3c19c53f	0.009385406
50	0xba11f882	-0.00055683416
51	0xbc537691	-0.012906686
52	0xbc6a896e	-0.014314992
53	0xbc03def9	-0.008048766
54	0xbba3e3e7	-0.0050015333
55	0xbc0219be	-0.007940708
56	0xbc3dd5d2	-0.011586623
57	0x3c96a89c	0.018390946
58	0x3b8f93ea	0.0043816464
59	0x3b8149a4	0.003945546
60	0xbb33ea0b	-0.0027452733
61	0xbc2e3de3	-0.010634872
62	0x3b92390d	0.0044623674
63	0x3b376e3a	0.0027989284
64	0xbbafc2e0	-0.005363807
65	0x3aecb05c	0.001805793
66	0xbcc1b85f	-0.023647485
67	0x3c45d840	0.012075484
68	0x3b82c9ea	0.003991355
69	0x3aef2fcf	0.0018248501
70	0x3bdfbc9c	0.006827904
71	0xbc71eed1	-0.014766411
72	0x3c4789e2	0.01217887
73	0xba53b760	-0.0008076336
74	0xbc9b2916	-0.01894049
75	0xbc2fc19f	-0.010727315
76	0x3bc37f86	0.0059661297
77	0x3bd4c26a	0.0064929025
78	0x3c4fcb7e	0.012682794
79	0x3b89336e	0.004187039
80	0xbafa0a53	-0.0019076563
81	0xbcace2dd	-0.02110427
82	0x3bc247a8	0.0059289522
83	0x3c5d4b0e	0.013506664
84	0x3b9db854	0.0048132334
85	0x3b957f26	0.0045622764
86	0x3cb2b59e	0.021815117
87	0x3c3cd173	0.011524546
88	0xbb3d7064	-0.0028906101
89	0xbc2c51b9	-0.010517531
90	0x3c914e2e	0.017737474
91	0x3c48ac1b	0.012248064
92	0x3bba7873	0.005690628
93	0xba8d79af	-0.0010793711
94	0x3c086ad2	0.008326249
95	0x3c6b42f1	0.014359222
96	0xbbc00a69	-0.005860616
97	0x3cc5885e	0.024112877
98	0x3c60e998	0.013727568
99	0xba9840dc	-0.0011616009
100	0xbbf32e0b	-0.0074212602
101	0x3b887ea2	0.0041654864
102	0xbb0b8650	-0.0021289773
103	0xbc907e2e	-0.017638292
104	0xbbeacc5c	-0.007165475
105	0xbb1e2936	-0.002413345
106	0xbc3153a2	-0.010823162
107	0xbcace362	-0.021104518
108	0xbc87986b	-0.01655217
109	0xbc56dce3	-0.013114187
110	0x3bb0a441	0.0053906743
111	0x3ac277be	0.0014836711
112	0xbc0da357	-0.0086449
113	0xbbc0f28a	-0.005888288
114	0x3b801c3f	0.003909617
115	0x3c117033	0.008876848
116	0x3c8e53b6	0.0173739
117	0x3c534a7d	0.012896177
118	0x3c8f0295	0.017457286
119	0xbb7e5f3a	-0.0038814084
120	0x3abaa492	0.001423972
121	0x3b794874	0.003803757
122	0xbc655770	-0.0139978975
123	0xbc1c0dbf	-0.009524762
124	0xbc7a1311	-0.015263335
125	0x3c77a37e	0.015114663
126	0x3a391559	0.0007060371
127	0x3bfc81cb	0.007705902
128	0xba5ddc20	-0.0008463282
129	0xbc0ba82c	-0.008523982
130	0x3c09128f	0.008366241
131	0x3cb27ddf	0.021788536
132	0x3c78bc59	0.015181624
133	0xbb8c5b8b	-0.0042833737
134	0x3cb183d6	0.02166931
135	0xbc11b9fe	-0.008894442
136	0xbb0bd56a	-0.0021336921
137	0xbb7cb66c	-0.003856088
138	0xbc6b6e0c	-0.014369499
139	0x3c0e65f0	0.008691296
140	0x3c14f975	0.009092678
141	0x3c138bd9	0.00900551
142	0xbbb34ec6	-0.005472037
143	0x3ae0e557	0.0017158192
144	0x3a5fae70	0.0008532768
145	0xbb8cdd88	-0.0042988695
146	0xbc31f669	-0.010861971
147	0x3b978882	0.0046244273
148	0x3c2146dd	0.009843555
149	0x3c8a1a33	0.016858196
150	0xbb39b1ce	-0.002833474
151	0xbc1350b6	-0.008991411
152	0x3b200246	0.0024415418
153	0x39080726	0.00012972634
154	0x3c59dcf9	0.013297313
155	0xbbf11b6f	-0.0073580067
156	0x3c0d6252	0.008629398
157	0xbc61bf4f	-0.013778522
158	0x3bdceca2	0.006742076
159	0x3a8d64ad	0.001078745
160	0x3b41b77b	0.0029558826
161	0xba336fc2	-0.00068449613
162	0xbbd3a61c	-0.0064590108
163	0xbbe0d4a9	-0.0068612886
164	0x3b024dfa	0.0019882903
165	0x3c0d713f	0.008632957
166	0x3c8687df	0.01642221
167	0x3be1039b	0.006866885
168	0xbb729d54	-0.0037020044
169	0xbb9a9cfc	-0.004718421
170	0x3b46e8a8	0.0030351076
171	0xbca35fc1	-0.01994312
172	0x3c1cd44f	0.009572103
173	0xbc4cfe5c	-0.012511816
174	0x3b1240b5	0.00223164
175	0xbcb0b928	-0.021572664
176	0x3b8cd902	0.0042983303
177	0xbca3bb33	-0.019986724
178	0xbb1cb915	-0.0023914028
179	0x3b8c74c0	0.0042863786
180	0x3bcedd14	0.0063129757
181	0x3b7af47b	0.0038292694
182	0x3a5eea0a	0.00085035025
183	0xbb8a6e23	-0.004224555
184	0xbc1c9442	-0.009556832
185	0x3c80c150	0.015717179
186	0xba18dba5	-0.00058310694
187	0x3c1686be	0.0091873985
188	0xbca79668	-0.020457461
189	0xba2b1ea7	-0.00065277
190	0xbbf7eb56	-0.007565896
191	0x3c4e6327	0.012596882
192	0x3c469903	0.012121442
193	0x3c23f407	0.010006911
194	0xbc227c43	-0.009917322
195	0x3c9039f7	0.017605765
196	0x3b2a29a7	0.0025964768
197	0xbb89d501	-0.0042063002
198	0x3b1e9dd8	0.002420297
199	0x3bc291d7	0.0059377956
200	0xbc299c74	-0.010352243
201	0x3bb9b1e6	0.005666959
202	0x3b462497	0.0030234212
203	0x3a020a7c	0.0004960669
204	0xbcaf13cd	-0.021371746
205	0xbbc2e6f7	-0.0059479433
206	0xbc7e05af	-0.015504285
207	0x3bc9de51	0.0061605354
208	0xbc765dbe	-0.015036998
209	0xbc713b71	-0.014723645
210	0xbbc33992	-0.0059577907
211	0xbbb298d9	-0.0054503498
212	0x3c67f83c	0.014158305
213	0x3b0ec254	0.002178331
214	0x3bcb346b	0.006201317
215	0x3c322104	0.010872129
216	0xbcaea554	-0.021319069
217	0x3be69a57	0.0070374417
218	0xbaf6dfe3	-0.0018835034
219	0x3c263085	0.010143404
220	0xbb33ed34	-0.0027454617
221	0xbc444374	-0.011978973
222	0xbb72c92e	-0.0037046182
223	0xbb784745	-0.0037884277
224	0xbcb1fde2	-0.021727506
225	0x3bed2531	0.0072370996
226	0x3bd0f844	0.006377252
227	0x3a4ef455	0.00078946847
228	0x3b97313d	0.004614024
229	0x3b9b8dcd	0.0047471286
230	0x3c85b8dd	0.016323501
231	0xbc009fb6	-0.007850578
232	0xbc08854e	-0.008332564
233	0x3c4f30ae	0.0126458835
234	0xbc8e003a	-0.017334092
235	0xbc0ed17a	-0.008716935
236	0xbb881bea	-0.0041537182
237	0xbbeea8cb	-0.0072833053
238	0x3c7efaba	0.015562708
239	0x3a958f69	0.0011410537
240	0x3c9ff3da	0.019525457
241	0xbb962591	-0.004582115
242	0x3c20d465	0.009816264
243	0x3bd65022	0.0065403143
244	0x3c1a9757	0.009435496
245	0xbc7c688f	-0.015405788
246	0x3c10568a	0.008809695
247	0xbb78b9b9	-0.0037952496
248	0xbb9710f6	-0.004610176
249	0xbb1e96cd	-0.002419877
250	0x3c7d3eca	0.015456865
251	0x3c4e3f9e	0.01258841
252	0x3b3f7e81	0.002921969
253	0xbc835b4f	-0.01603475
254	0x3a4ea54e	0.00078829087
255	0x3be4c943	0.006982

net.1.linear.bias f4 [32]
0	0x3dcf7a80	0.10130787
1	0x3c8965d3	0.016772186
2	0xbbf7fd19	-0.0075680134
3	0xbe2cf0fb	-0.16888802
4	0x3dbbf45c	0.09177467
5	0xba4d4521	-0.00078304304
6	0x3de39d37	0.11113971
7	0x3c86ff5a	0.016479183
8	0xbc520692	-0.012818949
9	0xbe0b4784	-0.136015
10	0x3e0bdbf8	0.1365813
11	0xbc9577d7	-0.01824562
12	0x3e2e55db	0.17024939
13	0x3d927b49	0.07152421
14	0x3dcd8837	0.100357465
15	0x3d1947ee	0.037422113
16	0xbd66d483	-0.05635501
17	0xbe0e7a91	-0.13913943
18	0x3dc54c30	0.09633672
19	0x3d801362	0.06253697
20	0xbe1ca48d	-0.15297146
21	0x3a919e0b	0.0011109723
22	0xbdcac997	-0.099017315
23	0x3df777fa	0.120834306
24	0x3e047841	0.12936498
25	0xbd9ed276	-0.07754986
26	0x3e3b19c9	0.18271555
27	0xbd36a28f	-0.04458862
28	0xbde3d4e7	-0.11124592
29	0xbcb3520d	-0.02188971
30	0x3e211cb0	0.157336
31	0x3e0daa5f	0.13834523

net.2.linear.weight f4 [32, 32]
0	0x3be19641	0.0068843667
1	0x3c1c911d	0.009556082
2	0x3c5cac59	0.013468825
3	0xbc296371	-0.01033865
4	0xbc9522e7	-0.01820512
5	0x3c759772	0.014989721
6	0x3c56db94	0.013113875
7	0xbb4a235a	-0.0030843825
8	0x3c278705	0.010225062
9	0xba92cdc1	-0.0011200235
10	0xbc14dc48	-0.009085722
11	0x3c3833a4	0.011242781
12	0x3b1897b8	0.002328379
13	0xbae5e262	-0.0017538781
14	0xbb7d74f1	-0.003867444
15	0xbb420cda	-0.002960971
16	0xbb673bde	-0.0035283486
17	0x3c033485	0.008008127
18	0xbbacc96e	-0.0052730357
19	0x3c27e1dd	0.010246721
20	0xbc15c01b	-0.00914004
21	0x3c0ed5a1	0.008717925
22	0x3bdb936d	0.006700924
23	0x3c3db951	0.011579827
24	0xb9ca6853	-0.0003860617
25	0xbbb2ca64	-0.0054562557
26	0x3ac4a5dc	0.0015003043
27	0x3c7f36e2	0.01557705
28	0xbbb3e627	-0.005490083
29	0x3c44314e	0.011974646
30	0xbb601aa4	-0.0034195567
31	0xbc605e29	-0.0136943245
32	0xbb910e0a	-0.0044267224
33	0x3b4d3f09	0.003131809
34	0xbc20136d	-0.0097702565
35	0xbc31884e	-0.01083572
36	0xbc3651b8	-0.011127882
37	0x3bc7b455	0.0060944953
38	0xbc80aca2	-0.015707318
39	0xbbd14b3e	-0.0063871434
40	0x3b8c70cf	0.004285909
41	0xbc8af655	-0.016963163
42	0xbb7f33e1	-0.0038940834
43	0xba5e303c	-0.00084758154
44	0xbc51de2c	-0.012809318
45	0x3bc988b3	0.006150329
46	0x3bc52f47	0.006017599
47	0x3cbb7d11	0.022886785
48	0xbb81a307	-0.003956202
49	0x39b46438	0.00034406944
50	0xbacd6062	-0.0015668983
51	0x3c1373d4	0.008999784
52	0x3c013833	0.007886934
53	0x3bb790d4	0.0056019817
54	0xbc36c770	-0.011155948
55	0x39501bb2	0.00019846743
56	0x3aad98f9	0.0013244442
57	0x39a72ff6	0.00031888456
58	0xbc827ff5	-0.015930155
59	0xbb72ea1d	-0.0037065812
60	0x3bb3f515	0.0054918625
61	0xbc4a51ae	-0.0123485755
62	0xbc12d1e6	-0.0089611765
63	0x3c2fc6ca	0.010728547
64	0x3ca0e0a6	0.01963837
65	0xbb9bdd5e	-0.0047566136
66	0x3c5eb9bb	0.013594086
67	0x3b6ac010	0.0035820045
68	0xbb022de3	-0.0019863776
69	0x3c06e458	0.008233152
70	0xbc0a8702	-0.00845504
71	0xbc3f009b	-0.011657859
72	0x3b2a2753	0.002596338
73	0xbbada68c	-0.005299395
74	0xbc0533dd	-0.008130041
75	0x3b1f81e3	0.0024338893
76	0x3c555be7	0.0130223995
77	0x3b79de9b	0.0038127068
78	0xbbe2e692	-0.006924459
79	0xbc562bf0	-0.013071999
80	0x3be9b81a	0.0071325423
81	0xbb8f315d	-0.0043698982
82	0xbc68e1ef	-0.014214023
83	0xbba0f01f	-0.004911437
84	0xbb88ddc6	-0.004176828
85	0x3ad79f54	0.0016450682
86	0xbcacfd9a	-0.02111702
87	0x3b004969	0.0019575006
88	0x3c96ec09	0.018423097
89	0xbb8549a6	-0.0040676175
90	0xba1e93b4	-0.0006049231
91	0x3b45f86f	0.0030207892
92	0x3bfdf930	0.0077506527
93	0xbc868cb9	-0.016424524
94	0xbbbe1494	-0.005800793
95	0xba6ef914	-0.0009116095
96	0x3cb56005	0.022140512
97	0xbc6e7db0	-0.014556333
98	0xbaa41ac3	-0.0012520183
99	0xbbc3606a	-0.005962421
100	0xbbfe5d06	-0.007762554
101	0xbaa3f2dc	-0.0012508291
102	0x3c820b93	0.01587466
103	0xbc1cfe3e	-0.0095821
104	0xbc4254b4	-0.011861015
105	0xba8ebb92	-0.001088964
106	0x3c7a0f64	0.0152624585
107	0xbb396382	-0.002828807
108	0x3b3e6e78	0.0029057544
109	0xbb315c2d	-0.0027062998
110	0xbb8c1c27	-0.004275817
111	0xbb0dd60f	-0.0021642481
112	0xbb68c1cf	-0.003551591
113	0xbc734c14	-0.014849681
114	0xbb23193a	-0.0024886862
115	0xba87c7c8	-0.0010359222
116	0xbc91eb24	-0.01781232
117	0x3bb78472	0.0056005055
118	0xbbf24263	-0.007393168
119	0xbc208eb5	-0.009799649
120	0x3c28eb2d	0.0103099765
121	0x3c05b31c	0.008160379
122	0xb9a37198	-0.00031174417
123	0xbb490286	-0.003067167
124	0x388e220a	6.777428e-05
125	0x3c801c4b	0.015638491
126	0xbb76578f	-0.003758881
127	0x3c0e622b	0.008690397
128	0x3be237cf	0.0069036256
129	0x3b3f0a2f	0.0029150357
130	0x3cb53681	0.022120716
131	0x3c746d27	0.014918602
132	0x3ca2a222	0.019852702
133	0xbc0cf4ac	-0.008603256
134	0x3c865193	0.01639632
135	0xbc9a5939	-0.018841373
136	0xbc08135b	-0.008305396
137	0x3c87a6ee	0.01655909
138	0xbbe8ee33	-0.0071084737
139	0x3b610ba2	0.003433921
140	0x3bcf7307	0.006330851
141	0xba08e9f2	-0.0005222849
142	0x3bd20ab4	0.0064099673
143	0x3c0e8af2	0.008700119
144	0xbc5b9956	-0.013403257
145	0x3ba71855	0.005099336
146	0xbb54c8fc	-0.0032468429
147	0x3c380a88	0.01123298
148	0xbbb9c823	-0.00566961
149	0xbb3e2f12	-0.0029019755
150	0x3b4b26bf	0.0030998436
151	0xbb384a72	-0.0028120545
152	0x3b8c3063	0.004278229
153	0xba18b228	-0.0005824887
154	0x3a309e34	0.0006737441
155	0x3b2f8882	0.0026784246
156	0xbc864d5a	-0.016394306
157	0x3c585ca5	0.013205682
158	0xba51a509	-0.00079973094
159	0x3b7b75b7	0.0038369724
160	0xbbf2567f	-0.007395565
161	0x3c79be30	0.015243098
162	0x3aea9c5a	0.001789938
163	0x3c2929f1	0.010324941
164	0x3c6c2b86	0.014414674
165	0x3c640f88	0.013919719
166	0xbaa596a8	-0.00126334
167	0xbc04d043	-0.008106294
168	0x3ba2611f	0.0049554254
169	0x3c38c71c	0.01127794
170	0xbc3835c5	-0.011243288
171	0xbcb9aa7d	-0.022664303
172	0xbbcaf862	-0.0061941603
173	0x3bcb5006	0.006204608
174	0x3caa7f52	0.020812664
175	0xbc376a3c	-0.011194762
176	0xbc42f8ae	-0.01190011
177	0xbbb17234	-0.0054152254
178	0x3c907c15	0.017637292
179	0xbadf8021	-0.0017051735
180	0x3c1bcbb0	0.009509012
181	0x3a49c3aa	0.0007696698
182	0x3c5c1c03	0.013434413
183	0x3c1574ff	0.009122132
184	0x3b8c081f	0.004273429
185	0xbbf60164	-0.00750749
186	0xbb67d54d	-0.003537494
187	0xbc699711	-0.014257208
188	0xbbb878e1	-0.0056296443
189	0x3b94e710	0.0045441464
190	0xbc6754ff	-0.014119386
191	0xbc67dcb2	-0.014151739
192	0x3c31229a	0.010811472
193	0xbb2de5c7	-0.0026534663
194	0x3b97493d	0.004616885
195	0x3c16326b	0.009167294
196	0x3b02884b	0.0019917663
197	0x3c304679	0.0107589895
198	0xbb93e7ab	-0.004513701
199	0x3c70c6ef	0.014695867
200	0x3b83a038	0.0040169023
201	0xbc05ed0e	-0.008174194
202	0x3c7ebf10	0.015548483
203	0x3c9d808e	0.019226339
204	0x3c790cc3	0.015200797
205	0xbb924c13	-0.004464635
206	0x3c1be0e8	0.009514071
207	0xbb6bd218	-0.003598338
208	0x3bd7fb27	0.006591219
209	0xbc1e1349	-0.009648153
210	0xbb66402e	-0.003513347
211	0xbc0835cc	-0.008313607
212	0x3c143b71	0.009047375
213	0x3c015f2f	0.007896229
214	0x3b1f4cfb	0.0024307359
215	0xbc5843bd	-0.013199744
216	0x3b663f1d	0.0035132833
217	0xbb8d52b5	-0.004312838
218	0xbb791de3	-0.0038012199
219	0x3b681e10	0.003541831
220	0xbc3f0dd4	-0.011661012
221	0x3c3fc3f9	0.011704438
222	0x3c974783	0.018466717
223	0xba73cc86	-0.0009300191
224	0xbc0f1992	-0.008734124
225	0x3bc8cba4	0.0061277915
226	0x3b036e88	0.0020054895
227	0xbc3fa756	-0.011697611
228	0xbc95be41	-0.018279197
229	0xbc2488db	-0.0100423945
230	0xbb30aa94	-0.0026957141
231	0x3a63ab83	0.000868492
232	0x3c29bd00	0.0103600025
233	0xbaed52e7	-0.0018106372
234	0x3c962fed	0.0183334
235	0xbb7dcc79	-0.0038726612
236	0x3c917951	0.017758043
237	0x3c85773c	0.016292207
238	0xbc4356c9	-0.011922547
239	0xbc2511aa	-0.010075012
240	0x3c089468	0.008336164
241	0x3afcfda9	0.0019301671
242	0xbb77eebc	-0.0037831506
243	0x3bf49848	0.0074644424
244	0xbc8d5916	-0.017254394
245	0x3c856903	0.016285425
246	0xbca0d506	-0.019632827
247	0xbc0213ef	-0.007939323
248	0x3c84eb51	0.016225489
249	0x3c6c4f3f	0.014423191
250	0xbb484384	-0.003055782
251	0x3b2540ea	0.0025215694
252	0x3b8b8e6b	0.004258921
253	0xbb774403	-0.0037729747
254	0xbb9e8d02	-0.004838587
255	0x3b8b7b9f	0.00425668

net.2.linear.bias f4 [32]
0	0x3d509173	0.05091996
1	0x3e018afc	0.12650675
2	0x3b9e7bce	0.004836536
3	0x3de3c0c6	0.11120753
4	0x3ddb1526	0.10697393
5	0xbdcf65f1	-0.10126866
6	0xbd46da9b	-0.048548322
7	0x3da26d75	0.079310335
8	0x3cd3e49c	0.025865845
9	0x3c98b872	0.018642638
10	0xbdf00a8c	-0.11720762
11	0xbdce1ba0	-0.10063863
12	0x3def5976	0.11686985
13	0xbdfd6f23	-0.12374713
14	0xbd81d98d	-0.06340323
15	0x3db0050c	0.085947126
16	0x3a5018ec	0.0007938284
17	0x3debf52f	0.115213744
18	0xbe152f8e	-0.14568922
19	0xbcefcb1d	-0.029271657
20	0x3e12896c	0.14310235
21	0x3e0bbb67	0.13645707
22	0x3d8ff095	0.07028309
23	0x3df21219	0.11819858
24	0xbcf18b5a	-0.029485393
25	0x3d7c9a78	0.06167075
26	0xbca5a80b	-0.02022173
27	0x3d0afff4	0.033935502
28	0xbd1e7413	-0.038684916
29	0xbdd31c6a	-0.10308154
30	0x3d2d271a	0.04227362
31	0xbe291f63	-0.1651588

net.3.linear.weight f4 [32, 32]
0	0x3b5fc023	0.0034141622
1	0x3b4f63eb	0.003164525
2	0x3bb4aab5	0.005513514
3	0xbc9aafb3	-0.018882608
4	0xbb95b135	-0.004568244
5	0xbca589d1	-0.020207318
6	0x3c2cf038	0.0105553195
7	0x3c2918fa	0.010320896
8	0xbc4c754d	-0.012479139
9	0xbc8c3623	-0.017115658
10	0x3c2382b6	0.009979894
11	0xbc065c58	-0.008200727
12	0x3c8d4415	0.017244378
13	0x3cb75a9d	0.022382075
14	0x3c9a2abe	0.01881921
15	0xbb3c2ca6	-0.0028713136
16	0x3c568ca8	0.0130950585
17	0xbb633aea	-0.0034672567
18	0x3b2c85e0	0.0026324913
19	0x3c67c6e0	0.014146537
20	0xbbc64309	-0.0060504717
21	0x3cab0e19	0.020880746
22	0xb9c6dc4f	-0.00037929646
23	0x3b1034f5	0.002200422
24	0x3c3b9e04	0.011451248
25	0x39cc2c62	0.0003894298
26	0x3c36afa6	0.011150276
27	0x3c4abf6e	0.012374742
28	0xbc60961f	-0.013707667
29	0x3b7c63f8	0.0038511734
30	0x3c1a43fa	0.009415621
31	0x3c7b6b48	0.015345402
32	0xb9e81d63	-0.00044272383
33	0x3a9abda7	0.0011805788
34	0x3c197c2d	0.009367985
35	0x3a94c17e	0.0011349169
36	0xbc12907c	-0.008945581
37	0x3d018b71	0.031627122
38	0x3ab12f34	0.0013518096
39	0xbc0521ae	-0.008125706
40	0x3ca3b2a2	0.01998264
41	0x3c24a539	0.010049158
42	0x3ba4cca0	0.005029276
43	0xbc13c077	-0.009018055
44	0x381b6e51	3.705762e-05
45	0xbc1fc758	-0.009752117
46	0x3c9f92af	0.019479124
47	0xbba4f843	-0.005034478
48	0x3c871b01	0.016492369
49	0xbb1d34bd	-0.0023987733
50	0xbb95d7b6	-0.004572834
51	0xb9ab8de4	-0.00032721378
52	0x3cf9bf68	0.030486777
53	0x3c85222d	0.016251648
54	0x3a74bdf6	0.0009336168
55	0xba9a7b7c	-0.0011786069
56	0x3c37dfad	0.011222762
57	0xba14a95e	-0.00056709896
58	0xb8f89a28	-0.00011854275
59	0xbcd8172c	-0.026378237
60	0x3c024a83	0.007952335
61	0xbc262963	-0.010141703
62	0x3c0da36f	0.008644923
63	0x3a858b01	0.0010188521
64	0xbc53256e	-0.012887342
65	0xbca191cc	-0.019722842
66	0x3ca0b681	0.019618275
67	0xbca5221e	-0.02015787
68	0x3c231820	0.009954482
69	0x3b9587df	0.0045633162
70	0xbbe7820e	-0.0070650643
71	0xbb5abe8f	-0.0033377742
72	0x3a96fd21	0.001151953
73	0xbcafc562	-0.021456424
74	0xba88d164	-0.001043838
75	0x3c2f378f	0.010694399
76	0x3b924480	0.0044637322
77	0x3c1082f6	0.008820286
78	0x3cdd546c	0.027017795
79	0x3c8bd918	0.017071292
80	0xbac49918	-0.0014999239
81	0x3cc8f2ff	0.024529932
82	0x3be21f48	0.0069007017
83	0xba973916	-0.0011537399
84	0x3bed8cf4	0.007249469
85	0x3c6cc5ba	0.014451439
86	0xbb601f64	-0.0034198398
87	0xbcc2fd40	-0.0238024
88	0xbc6079d4	-0.013700921
89	0xbbf8901e	-0.0075855395
90	0xbbbf0bba	-0.0058302553
91	0xbc935bee	-0.017988171
92	0xbbda1108	-0.0066548623
93	0xbb104ccf	-0.0022018438
94	0xbaeb0744	-0.0017931242
95	0xbba9ed4b	-0.005185758
96	0x3c4e7186	0.012600308
97	0x3b55d688	0.0032629091
98	0x3cbdaff8	0.023155198
99	0xbc8fbfe5	-0.017547557
100	0x3cce93af	0.025216905
101	0xbc223a88	-0.00990165
102	0xbc334fbb	-0.010944302
103	0x3c6c7245	0.014431541
104	0x3beda5bf	0.0072524245
105	0x3c94f556	0.018183392
106	0x3b7c700a	0.003851893
107	0x3c102ea0	0.008800179
108	0x3bed2725	0.0072373324
109	0x3b7b4ac3	0.0038344122
110	0xbc96e184	-0.018418081
111	0x3c29e14f	0.010368659
112	0x3c07c4e6	0.00828669
113	0xbc85a22e	-0.016312685
114	0xba99d8b6	-0.0011737559
115	0x3bca1420	0.00616695
116	0xbc8f6038	-0.017501935
117	0x3bf1d3c5	0.007379981
118	0xbc960c2a	-0.018316347
119	0x3b4cac3a	0.0031230585
120	0xbc194927	-0.00935582
121	0xbba6e85a	-0.0050936164
122	0xbbb5c0c5	-0.0055466616
123	0xbb333382	-0.0027343933
124	0x3a146c5f	0.00056619005
125	0xbbd4999b	-0.0064880378
126	0xbbf9045f	-0.007599398
127	0xbaaea5d7	-0.0013324571
128	0x3c20d0d2	0.009815412
129	0x3b58ff0d	0.0033111006
130	0xbacc58ad	-0.0015590392
131	0xbbeec232	-0.0072863335
132	0x3c61865a	0.013764942
133	0x3c02fbf4	0.007994641
134	0x3cce2a3c	0.025166623
135	0xbc648f91	-0.0139502445
136	0xbcd34309	-0.0257888
137	0xbcd28632	-0.025698755
138	0xbb2e5332	-0.0026599881
139	0xbb0ebcc0	-0.0021779984
140	0x3c977f3d	0.01849329
141	0xbc545c01	-0.012961389
142	0x3c1bf6ec	0.00951932
143	0x3bc85fb8	0.006114926
144	0x3b6c70f4	0.0036078067
145	0x3c369c62	0.011145683
146	0xbabdf840	-0.001449354
147	0x3ba96c77	0.0051704007
148	0xbc107867	-0.008817769
149	0xbcd5f0ee	-0.02611586
150	0xbb9aaf66	-0.004720616
151	0xbade9394	-0.0016981238
152	0xbbe6e652	-0.0070464993
153	0xbb6db7fd	-0.0036272996
154	0xbba619af	-0.0050689797
155	0x3c2f6b30	0.010706708
156	0x3c39ae24	0.011333022
157	0xb8bb713b	-8.937946e-05
158	0x3c0889a8	0.008333601
159	0xbcacc620	-0.021090567
160	0x3c0d1a81	0.008612276
161	0xbbc2ee90	-0.005948849
162	0x3ae6205c	0.0017557251
163	0xbc6a6a29	-0.014307537
164	0xbc85bc36	-0.016325098
165	0x3bf9aa15	0.0076191523
166	0x3c56877e	0.013093827
167	0xbaefcb1c	-0.0018294784
168	0xbb3dd8c7	-0.002896832
169	0x3c72e5a3	0.0148252575
170	0xbcf9766f	-0.030451981
171	0x3ac160b7	0.0014753555
172	0x3bc10d85	0.005891504
173	0x3c087a1e	0.008329896
174	0x3c2d4c56	0.010577282
175	0xbc9fdf25	-0.019515583
176	0x3b840059	0.0040283618
177	0xbb92940c	-0.004473215
178	0x3c9b76df	0.01897758
179	0xb8626ec7	-5.398577e-05
180	0xbc912208	-0.017716423
181	0xbb8cc8bc	-0.0042963903
182	0xbc9d6c6e	-0.019216742
183	0x3b661a6a	0.003511096
184	0x3ca2a1c7	0.019852532
185	0xbb7c993e	-0.0038543488
186	0x3bfafade	0.0076593
187	0x3c6172ad	0.013760251
188	0x3cae392e	0.0212675
189	0xbb0ee4e6	-0.0021803915
190	0x3b67ec9d	0.0035388835
191	0xbc0f8bf9	-0.008761399
192	0xbc200b04	-0.009768251
193	0xbc14fecd	-0.009093952
194	0x3a3be0c7	0.00071669783
195	0x3a348562	0.00068863307
196	0xbb9dc1b5	-0.0048143514
197	0x3c996bd3	0.018728172
198	0x3cb2d7b8	0.021831378
199	0xbc0b2330	-0.008492276
200	0xbbe62756	-0.007023732
201	0x3b3e9192	0.0029078466
202	0xbc60cf92	-0.013721364
203	0xba9e9b54	-0.0012100735
204	0xbc5b5142	-0.013386073
205	0xbc8e4c76	-0.017370444
206	0x3bce7c2b	0.006301423
207	0xbc79e0ec	-0.015251379
208	0x3c0dc65e	0.008653251
209	0xbb0cade3	-0.002146595
210	0xbc4021ad	-0.011726779
211	0xbc0b7717	-0.00851228
212	0xbcb9e77c	-0.022693388
213	0x3b9cc1f2	0.0047838623
214	0xbbf9f594	-0.007628152
215	0xbc28c85c	-0.010301676
216	0xbc596df4	-0.013270844
217	0x3c01ab4f	0.007914378
218	0x3c677cb7	0.014128855
219	0xbaeba9d0	-0.0017979685
220	0x3cb8d300	0.02256155
221	0xbce3dce6	-0.027815294
222	0x3b0ea412	0.0021765274
223	0x3b9e72d8	0.004835468
224	0xbc37f667	-0.0112281805
225	0x3d01ae12	0.031660147
226	0x3c3eb4e2	0.0116398055
227	0xbc407fe9	-0.011749246
228	0x3c7c83ad	0.015412253
229	0xbcc3469e	-0.023837384
230	0xbbef32b8	-0.0072997473
231	0xbc872cfa	-0.016500939
232	0x3bf62bc4	0.0075125415
233	0x3c863d9d	0.016386801
234	0x3a3de7ce	0.00072443194
235	0x3c602d6b	0.0136827035
236	0x3bceb396	0.0063080294
237	0x3bc34e69	0.005960275
238	0x3c1fef21	0.009761603
239	0xbaed616e	-0.0018110701
240	0x386d1dde	5.653302e-05
241	0x3c6c30ba	0.014415914
242	0xbc86712f	-0.016411392
243	0xbc58e848	-0.013238974
244	0x3c7edbbd	0.015555319
245	0x3c620b3c	0.013796624
246	0x3c6515d9	0.01398226
247	0x3b1dd435	0.0024082784
248	0x3c62676a	0.013818601
249	0x3b11b152	0.0022230935
250	0x3c0626f1	0.008187995
251	0xba451ba1	-0.00075190706
252	0x3c457605	0.012052064
253	0xbc3447b7	-0.011003426
254	0x3b60afff	0.003428459
255	0xba94c7d8	-0.0011351062

net.3.linear.bias f4 [32]
0	0x3e1b248f	0.15150665
1	0x3c028ec8	0.007968612
2	0x3e0a0300	0.13477707
3	0xbc5cbdc6	-0.01347298
4	0x3e2b6e9d	0.16741414
5	0x3e2bf497	0.16792522
6	0x3ca34450	0.019930035
7	0x3c6fdc46	0.01463992
8	0x3df6bb40	0.12047434
9	0x3e2fbdde	0.17162272
10	0x3ce6eb77	0.02818845
11	0xbc55aacd	-0.01304121
12	0xbe3ddf27	-0.18542157
13	0xbcd2bef2	-0.025725815
14	0xbd6f53ec	-0.058429644
15	0xbcbb38a6	-0.02285416
16	0xbd71224e	-0.058870606
17	0x3dc6461f	0.09681343
18	0x3dde2885	0.10847572
19	0xbdc6b559	-0.09702558
20	0x3d9120d3	0.07086339
21	0xbe0bb48d	-0.13643093
22	0xbdeaf0d1	-0.11471713
23	0x3d8239aa	0.06358655
24	0xbd908a46	-0.070576236
25	0xbe17d834	-0.14828569
26	0x3df07c74	0.117424875
27	0xbe1e461c	-0.15456432
28	0xbba0e135	-0.0049096593
29	0x3d6ff7f6	0.058586083
30	0xbd9011b4	-0.070346266
31	0x3dbbffab	0.09179624

net.4.weight f4 [4, 32]
0	0xbd291a2a	-0.041284718
1	0xbc7b441f	-0.015336066
2	0x3d7de065	0.061981577
3	0x3c52fd7a	0.012877816
4	0x3d3e1c1a	0.04641352
5	0x3d3754d4	0.044758633
6	0x3d47eac4	0.048807874
7	0x3d72ae6d	0.059248377
8	0x3c2625be	0.010140834
9	0x3d1339a8	0.035943657
10	0xbcf6c031	-0.03012094
11	0xbc8a78f8	-0.016903386
12	0xbd6dde5d	-0.05807339
13	0x3d53bf55	0.05169614
14	0xbae266e4	-0.0017273095
15	0xbd8ac7ab	-0.06776365
16	0x3d31c57d	0.04340123
17	0x3b825c30	0.0039782748
18	0x3d266237	0.04062101
19	0x3d827ca3	0.06371429
20	0x3ccd5b0e	0.025067832
21	0xbd93f372	-0.07224168
22	0x3c98c822	0.018650118
23	0x3c624e11	0.013812558
24	0x3d02c892	0.03192956
25	0x3cbe672d	0.023242557
26	0x3db04d94	0.08608547
27	0xbd7aaa8e	-0.06119781
28	0x3c434dfe	0.01192045
29	0xbcbe1ce7	-0.023207141
30	0x3dab38a5	0.083604135
31	0x3c48cf0f	0.012256398
32	0x3c1b68e7	0.00948546
33	0xbd99a844	-0.07502797
34	0xbd4768b4	-0.048683837
35	0x3d807526	0.06272344
36	0xbd635a21	-0.055505875
37	0xbd343b6e	-0.04400199
38	0x3cd22ebb	0.025657048
39	0xbdc032e6	-0.09384708
40	0x3acb78eb	0.0015523707
41	0x3c343d6e	0.011000974
42	0x3d8395b6	0.064250395
43	0x3d227dec	0.03967087
44	0xbd79f372	-0.061023183
45	0x3e17d8f6	0.14828858
46	0xbda82ccb	-0.082116686
47	0x3d2663eb	0.040622633
48	0xbc77f95a	-0.015135134
49	0x3d7d9e0a	0.061918296
50	0xbddf12dc	-0.10892269
51	0x3cf4af1e	0.029868659
52	0x3dd981b2	0.106204405
53	0x3db4ea71	0.08833779
54	0xbd520b6e	-0.05128043
55	0x3d655c90	0.055996478
56	0x3d84d47c	0.06485841
57	0x391765a9	0.00014438354
58	0xbc7141a7	-0.014725125
59	0x3ca157f1	0.019695254
60	0x3dc263d2	0.094916955
61	0xbd2364e4	-0.03989114
62	0xbd5ed017	-0.05439767
63	0xbc53b56a	-0.01292167
64	0xbc3fc8a0	-0.011705548
65	0x3d0cf0ee	0.034409456
66	0x3ca00fc2	0.019538764
67	0xbcf84632	-0.03030691
68	0xbc853646	-0.016261231
69	0xbd0fc818	-0.035102934
70	0xb9c4b27c	-0.00037517014
71	0x3db97eba	0.09057374
72	0x3d495e8b	0.04916243
73	0xbc551bf3	-0.013007152
74	0xbc22d502	-0.00993848
75	0x3ccaa5fd	0.024737353
76	0x3c87348a	0.016504545
77	0xbdab4aec	-0.083638996
78	0x3c8a7649	0.016902106
79	0xbd8a561e	-0.06754707
80	0xbd480dfd	-0.048841465
81	0xbce9aa3b	-0.028523555
82	0x3ce925d3	0.028460419
83	0xbdaf9170	-0.08572662
84	0x3ca42739	0.020038234
85	0xbd147ae6	-0.036250018
86	0x3d6fbc87	0.058529403
87	0xbc991fbf	-0.018691896
88	0xbc0172d5	-0.007900913
89	0x3c7d73a0	0.015469462
90	0xbd2dc8fc	-0.042428
91	0x3d196474	0.037449315
92	0xbd8045e9	-0.06263334
93	0x3d64bdfb	0.055845242
94	0x3d539b3f	0.051661726
95	0xbd2cf50d	-0.042225886
96	0xbe274c19	-0.16337623
97	0xbd9f1c46	-0.077690646
98	0x3db77cca	0.089593485
99	0x3c952821	0.018207612
100	0xbc303a52	-0.010756092
101	0x3d013b31	0.03155059
102	0x3e036ef7	0.12835298
103	0x3db03249	0.08603341
104	0xbd8b8124	-0.06811741
105	0x3d9e02be	0.07715367
106	0xbd193234	-0.037401393
107	0xbdb34ad6	-0.08754508
108	0xbb99544f	-0.00467924
109	0x3d745057	0.05964693
110	0x3d495e29	0.049162064
111	0xbde1f997	-0.110339336
112	0x3d107ab0	0.035273254
113	0xbd5e9cef	-0.054348882
114	0xbad59f13	-0.0016298018
115	0x3c5e6984	0.013574962
116	0x3d158d67	0.036511805
117	0xbdc07039	-0.09396405
118	0x3c8468e7	0.016163303
119	0xbd6f5e4f	-0.05843955
120	0x3d37fdbd	0.044919718
121	0xbdb5c5b3	-0.08875599
122	0x3d5af513	0.053456377
123	0xbd8594ec	-0.06522545
124	0x3c78be32	0.015182065
125	0x3b483c89	0.003055366
126	0x3de34b4f	0.11098348
127	0x3d161f4b	0.036650937

net.4.bias f4 [4]
0	0x3d9d0f2c	0.076689094
1	0xbdc89937	-0.097948484
2	0xbd5300e6	-0.05151453
3	0x3db52dcf	0.08846628
