FE-PINN1/1_nodes_given/15%_noise/-15%_init_error/model.pt (torch, 16796 bytes, 10 tensors)

net.0.linear.weight f4 [32, 1]
00000000: 9a77 8b3e 9ceb acbe 3a6f 023f a317 783f
00000010: dfdc 97be 8d2c 02bf 6bc3 48bf 3ff9 fb3d
00000020: b257 7c3f 64b4 283f a88b 4dbf 497c 2f3f
00000030: 6cfe 913c a4da 35bf c593 16be ff45 05be
00000040: 4315 733f 4ede 90bd eb07 fa3e d5d8 f1be
00000050: 3a40 203f 40d0 4fbf ec52 db3e 293a 76be
00000060: 1aaf 79bd 7e83 4dbf eaa5 163f 188a 263e
00000070: 45be 423e 0859 53be 2bab e7bc 719a 0ebf
0.27239686 -0.33773506 0.5095097 0.96911067 -0.296607 -0.5084923 -0.78423184 0.12303399
0.9857131 0.65900254 -0.80291224 0.6854902 0.017821513 -0.71036744 -0.14704807 -0.13014983
0.9495432 -0.07073651 0.48834166 -0.47235742 0.62598 -0.8117714 0.42836702 -0.24045624
-0.060958005 -0.80278766 0.58846915 0.16263616 0.19017895 -0.20639431 -0.028279861 -0.5570441

net.0.linear.bias f4 [32]
00000000: 4450 7a3f 18ac d53d 7348 033f 5edc bb3c
00000010: 1647 fabe d8a9 73bf 0649 473f ff1a 71bd
00000020: 67f8 2d3f f6a0 b33d d8fa 35bf 8850 343e
00000030: 53af 933e 7cc1 4fbf 418c 0a3f a20e 4cbf
00000040: b7a7 d53d e990 593f 4ce3 8cbc c5ce 30bf
00000050: 4a8e 393f 63dc 233e ec33 58be f481 af3e
00000060: b545 1bbf a612 483e 28e3 de3d b267 613f
00000070: da74 303f 5567 28be 3f95 8bbd f971 4ebf
0.97778726 0.10433215 0.51282424 0.022932228 -0.4888236 -0.95181036 0.778458 -0.058863636
0.67957157 0.08770935 -0.7108588 0.17608845 0.288447 -0.8115461 0.5412026 -0.7970983
0.1043238 0.8498674 -0.017198227 -0.69065505 0.7248274 0.1600204 -0.21113557 0.34278834
-0.6065324 0.19538364 0.1088317 0.8804885 0.689283 -0.16445668 -0.06815576 -0.8064266

net.1.linear.weight f4 [32, 32]
00000000: 5421 eb3a b929 203c fcac 353c fda6 3bbb
00000010: de1a e8bb 7bc1 ddbb aaa4 9dbc 0ac5 41bc
00000020: c02c b43a 5125 a3bc 0cdf 5a3c 6134 253c
00000030: bd71 babb be67 2c3c 5c3e 2f3c 1eb1 af3a
00000040: db99 cbbb 28f0 7e3c dfdb de3b 2529 b3ba
00000050: fb2a 84bc abc7 483c a75f 373b 4bab 9f3c
00000060: 7fe6 a33b 54f6 12bc 4863 dabb 5779 2fbc
00000070: 3456 8b3c 11e9 8e3c f35b 4ebc cf3f 8fbb
00000080: 9f18 243c 7310 2a3b 422e a4bb 9c83 103c
00000090: 3b1c 79bc 9be4 11ba a219 16bc 7a0f b73c
000000a0: 0734 21bc 34c6 763a a59b 0dbc 07d3 3c3c
000000b0: d2eb b8bb 5bb6 9a3b 34cc 8cba e713 11bc
000000c0: 61f4 c13b ce25 033c b384 303b c981 b33c
000000d0: 2f4b 2ebc 0511 85bc d4ab 3bbc d351 033c
000000e0: 8da3 1c3b cfc5 14bc 3abe 3e3c ff53 96bc
000000f0: 29c4 29ba 40da d83c ccd3 c93b 44de 513c
00000100: c434 3cbb 0611 b2bb 0018 3d3b 3be5 003b
00000110: da67 a4bb 17c1 7d3c e709 aaba cbd9 cf3b
00000120: fd5b a6ba dcfd 2dbc 31a3 24bc c3b3 8c3b
00000130: 0735 123a 1a2e baba ec69 a7bb 8cf6 c43b
00000140: 6b97 823b f357 9bbb 3d87 f1bb efde 51bc
00000150: 911d 3bbc 08ff 2dbc ac74 0bbc 760d f0bb
00000160: bc1d dfbb 1182 18bc 3de4 a23c ce37 903b
00000170: 51b1 70b8 20a7 29bc 3baa 74b9 818c 1fbc
00000180: 833c 883b 23a7 ca3c ace3 0abb 478e 88bb
00000190: bd3b 27bc a7c0 013c 7c40 213b fda8 a2ba
000001a0: 605e 633c f6f6 0abc 576f 823b b0a0 4e3c
000001b0: afdb 863c 95a9 cc38 4a72 2bbc 6da5 753c
000001c0: 86b4 d73b a026 f1bb f87c b43b 8b56 7dbc
000001d0: 4ef9 7c3c d88e 4c3c b3ba 1ebc cc0c 1bbc
000001e0: 8da0 59bc 4bb9 87bc dacb 53ba 01d1 4cba
000001f0: d153 e6bb 319d 02bc 1d0c 8abc f9a7 febb
00000200: 77b4 1b3b 60b1 cf3b e595 e2bb 4d8e 85bc
00000210: 051b a3ba 83da d3bb fb43 69bb 34c9 723c
00000220: 38d6 daba 4cf6 703c a1ba 423c 5073 c93a
00000230: 356d 41bb de40 26bc d3dd 6d3c 3392 96bb
00000240: 3ba4 993b 0310 21bb 93c1 de3b 21de a83b
00000250: 3e37 be3c 126d f7bb 738f 8a3c 3771 b2bb
00000260: 4fe1 133c 7bb7 9a3c 116f ecbb 7979 91bc
00000270: dafc f8bb d961 5139 f29d 1a3c 2acc f13b
00000280: 3342 3bbc b4ca 74bc 4160 c8bb 64bf 35bb
00000290: fe89 d3bb 333f 7e3c a263 f4bb c8e6 32bb
000002a0: 05ae 55bc 7472 69bb df65 413b fd9f 733b
000002b0: 7c47 95bc 1497 74bc b40d a43c 480c c63b
000002c0: 765a cab8 d954 ae3b 0d6c 743a 99f7 f9bb
000002d0: 5ad7 77bc 70b8 e6b9 4aee 6a3c ebea 96bb
000002e0: 2dec 13bc 2c70 f2ba 5a7d 6e3b 2745 d6bb
000002f0: 1aa0 aebc 0a3e 83bc 30d4 08bb ecef 3e3c
00000300: 7cb7 a6bb a000 aa3c 6516 57bc e9a8 a73a
00000310: b1cf c339 38b9 f2b9 56f7 10ba bb6c 623c
00000320: ecf9 0aba c1b7 74bc 14f9 2e3c 062a a63c
00000330: 11c4 843c 0691 ef3b 7677 c2bb 0525 173b
00000340: abed 02bb 7001 2bbc d517 26bb 2491 913a
00000350: d461 fd3b 2c3f 25bc 2d11 cfba 50be b8bc
00000360: cd48 ecbc f700 0d3b 5d43 cd3b a033 afbb
00000370: d125 86bb 5cdb 80bc 3b51 cc3b 0e05 61bc
00000380: d0cd 5abc 320d ec3b 575a b9ba 4123 51bb
00000390: 1a4f b1bc bb12 60bc c649 5f3b f561 83bb
000003a0: 233d 2bbb ae2f 663b 8261 193c 1730 033c
000003b0: 256f 9ebc cba0 8c3c 6e98 5ebb 20d3 40bc
000003c0: 0a21 973c 763b 5b3c d9b8 51bc 1b96 79bb
000003d0: 5bd2 32bc 5530 263c d77b 203b 3cfb 21bb
000003e0: 54cc 94ba 8d5c 42bc 45a2 f73b e836 623c
000003f0: 353d 93bc 9582 94bc e9e4 543c 12e0 1abc
0.001793901 0.009775572 0.011088606 -0.0028633468 -0.007083281 -0.0067674494 -0.019243557 -0.011826763
0.0013746247 -0.019915255 0.013358843 0.010083289 -0.005689828 0.010522781 0.01069602 0.0013404225
-0.0062134094 0.015560187 0.006801113 -0.0013668878 -0.016133776 0.012254636 0.0027980597 0.019490859
0.0050018425 -0.008969862 -0.0066646673 -0.010710082 0.017008878 0.01744512 -0.012595165 -0.0043716202
0.010015636 0.0025949746 -0.005010397 0.008820441 -0.015204485 -0.0005565376 -0.009161385 0.022346247
-0.009839064 0.000941369 -0.008643066 0.011524922 -0.0056433463 0.0047214455 -0.001074201 -0.008854843
0.005919025 0.008004619 0.0026934564 0.021912472 -0.010638042 -0.016243467 -0.011454541 0.008015114
0.0023901195 -0.009080364 0.011642033 -0.0183506 -0.00064760685 0.026471257 0.0061592814 0.01280934
-0.0028717974 -0.0054341583 0.0028853416 0.0019667882 -0.005017263 0.015487931 -0.0012972922 0.0063431016
-0.001269221 -0.010619607 -0.0100486735 0.00429389 0.00055773597 -0.0014204413 -0.0051090624 0.006010836
0.0039853356 -0.004740709 -0.007370858 -0.012809499 -0.011420623 -0.010619886 -0.008511703 -0.0073258234
-0.0068089645 -0.009308354 0.019884223 0.0044011837 -5.7385598e-05 -0.010354787 -0.00023333069 -0.009738089
0.004157604 0.0247379 -0.0021192832 -0.0041673514 -0.010207114 0.007919467 0.0024605086 -0.0012409982
0.013877481 -0.008481732 0.003980558 0.012611553 0.016462175 9.759065e-05 -0.01046426 0.014993054
0.0065827994 -0.007359341 0.0055080615 -0.015462528 0.015440298 0.0124852285 -0.009688067 -0.0094635
-0.013282907 -0.016567847 -0.00080793875 -0.00078131264 -0.0070290347 -0.007972048 -0.01685148 -0.0077714887
0.0023758688 0.0063382834 -0.0069148415 -0.016303206 -0.0012443966 -0.0064652576 -0.0035593498 0.014818478
-0.0016695922 0.014707159 0.011885316 0.0015369449 -0.0029514555 -0.0101473015 0.014518219 -0.004595065
0.0046887673 -0.0024576194 0.006797978 0.005153433 0.0232197 -0.007550844 0.016914105 -0.005445625
0.009025886 0.018886318 -0.0072153886 -0.017758118 -0.0075985016 0.00019968244 0.009437071 0.0073790746
-0.011429357 -0.014940906 -0.00611499 -0.0027732486 -0.006455659 0.015517998 -0.007458166 -0.00272982
-0.013041978 -0.0035621198 0.0029510183 0.0037174218 -0.018222563 -0.014928598 0.020026065 0.0060439445
-9.64896e-05 0.005320173 0.0009323962 -0.007628393 -0.015127027 -0.00044006435 0.014339039 -0.004605641
-0.009028477 -0.0018496565 0.0036390633 -0.0065390053 -0.021316577 -0.016020793 -0.0020878427 0.0116538815
-0.005087791 0.020752251 -0.013127898 0.0012791428 0.0003734804 -0.00046295836 -0.000553002 0.013819869
-0.00053015235 -0.0149363885 0.010679502 0.02028371 0.016206773 0.0073109893 -0.005934651 0.0023062837
-0.0019978087 -0.010437354 -0.0025343795 0.0011105877 0.0077326093 -0.010085862 -0.0015797965 -0.022551686
-0.028843308 0.0021515468 0.006264134 -0.0053467304 -0.0040938635 -0.015729599 0.0062352694 -0.013734115
-0.013354734 0.0072037214 -0.0014141303 -0.0031911882 -0.021644164 -0.013676341 0.0034071072 -0.00400948
-0.002612897 0.0035123634 0.009361627 0.008007071 -0.019340107 0.017166516 -0.0033965367 -0.011769086
0.018448371 0.013380876 -0.012800419 -0.0038083855 -0.01091441 0.010143359 0.0024487877 -0.0024716398
-0.0011352398 -0.011862886 0.007557186 0.013807036 -0.017973522 -0.018128673 0.01299403 -0.009452837

net.1.linear.bias f4 [32]
00000000: 78de ad3c f498 b7bd 78f4 173e 0613 f9bd
00000010: 9bac 99bd 93f5 953c 699f d63b 0f2b 363e
00000020: deff 02be 9a2f f9bc 02b8 24be c4aa f638
00000030: 3cae 263c 5ea3 16be 0776 aebd 2395 9e3d
00000040: b54e 4abd 267e 0f3a 9e4e d23d 51ec ef3d
00000050: 74a9 0cbe f2f3 743d 5df5 ec3b 1d2d 23bc
00000060: 4dfd 30be b9fb dcbc 328a ef3d 1219 fd3d
00000070: 0acf 363e cf89 3f3d 4db0 113e bb26 b63c
0.021224245 -0.0896472 0.14839351 -0.121618316 -0.07503625 0.018305575 0.006549765 0.17789863
-0.12792918 -0.030418206 -0.16085818 0.00011762002 0.010173377 -0.14710757 -0.08518606 0.07743289
-0.049391467 0.00054738147 0.10268901 0.11714996 -0.13736516 0.059802957 0.007231398 -0.009959486
-0.17284127 -0.0269755 0.116962805 0.123582974 0.17852417 0.046762284 0.1422741 0.022235265

net.2.linear.weight f4 [32, 32]
00000000: b564 1c3b 6e8b ba3b 65cf f93b 51e2 cdbc
00000010: d7cc b3bb 2e4d 8b3b 7820 5c3a 814b 65bb
00000020: a85d b73b 4a6d 1938 4b81 5b3b 94c1 873a
00000030: 0afe 0a3b dcb6 cebb 1ac6 313c 4c22 21bb
00000040: bcc9 bcbc bdbc 75bc c7d4 363c 9ed0 7fbb
00000050: 111e e2bb a27b 423b 38cf 1e3b 7472 80bb
00000060: db82 38bc 5860 94bc e86a 533b 68a2 e83b
00000070: 501e 88bc c4a5 40bb 30a3 08bc 1fe7 ddbb
00000080: 77cd e43a 1720 833b 273c f3b9 8a65 b9bb
00000090: dcb5 b83c 0bd6 1e3c 2dd8 b03b 4d75 183c
000000a0: 9132 7ebc ed90 94bc 6d22 583c 4c80 1f3c
000000b0: cfaa 25bb 2a74 cbba 2074 773c 59ef d1bc
000000c0: 6d30 de3b 62e4 94bc d373 68bb 2a67 a43b
000000d0: 266a 0e3b 4e32 32bc 7848 c43b c870 1bbc
000000e0: e0ac 8dbb 322f 993b 45fe 80bc a662 583c
000000f0: c873 f73b 5bf8 413c 41ac df3b e5eb 79bc
00000100: 3ffa 813b 3ebf 793a 8ac2 e83b 364a 3dbc
00000110: 46a9 ee3a 2514 003b 801b 0d3c d08e c23c
00000120: 7a34 7b3b e500 073c f319 9ebb 0bf2 5dbc
00000130: 265d eebb d1ad 2d3c 3893 72bb 0bdd 67bc
00000140: 225a ebbb f911 a1bb b601 2dbc a908 823a
00000150: fb79 d73a 13e8 7fbc 25ea a3bb 7423 663c
00000160: cf9d 55bc 86fc 9abb 2363 d13a 61d8 d33c
00000170: 1bec 1f3c 1d44 babb ef63 fd3b 9390 bfba
00000180: 04bc 6dbc 65a9 42bc 26a9 6f3b f283 72bc
00000190: 0323 383c 39f3 3abc 610f 27bb 15ea 1abc
000001a0: 29ab 82bc 4369 123c 5ffc d93b 00d9 063b
000001b0: ae1e a43c f14a 143b 3970 f8bb 895c ed3a
000001c0: af89 bdbb cf15 883c 29a9 19bb 0297 b5ba
000001d0: fc24 b1ba 7e12 b93b 98a8 53bb 98e8 7b3c
000001e0: d95a b83b a90f ee3a 14fc 05bb 955f 3c3b
000001f0: dd75 1f3c cb73 28bc 397d 903c aa3c adbc
00000200: 6a65 2ebc e64f 07bb 0cb1 a4ba a0de 813c
00000210: 76ae d23a ac26 b03b 48cb e836 2020 6d3b
00000220: 1a4d 553c bcf5 99b9 592a 8fbb a485 75ba
00000230: 13ec 38bb 5891 843b 2e66 463c 5d08 1b3c
00000240: 7a54 eabb c911 113c 1277 103c 37f9 393c
00000250: b9fd 833c f502 a2b9 5d3f 8cbc 0dab 34bb
00000260: a9a0 763c 8594 f7bb ac1e ba3b 6780 e83b
00000270: cfe8 50bc 589e d0ba df42 dfbb 7bb9 0bbc
00000280: 0b37 a73b cdef 5b3c ef57 5a3c 73d7 a3ba
00000290: dc5a 0f3c 2b8a f43b c70a e33b 42cb a33a
000002a0: 9299 82bc 6807 ca3c 22e4 8cbb 8aa6 90bc
000002b0: a6e0 d8bb 757e ec3b 7e33 5b3c 4447 f93b
000002c0: d31b 023d 1f7b 36bb 199c 0f3b 2166 183c
000002d0: 5510 aabb bbe1 acbb 5e0c 2abc 8a4d c5ba
000002e0: ea09 1c3c 4387 683c 3959 2a3c 3e17 20bc
000002f0: e2ac 5b3c 37ae 49bc 0b6d 8ebb dec4 c4bc
00000300: f40c 8e3a 03da 223a 7c73 a1bc 9127 e9bb
00000310: b760 7b3c 1539 40bc 47ab 58bb be48 d739
00000320: ee12 da3b 8814 89bb 0548 9d3c 4280 173c
00000330: 034c 463b 8350 e23b 853e ab3b b429 45bb
00000340: 42e1 c6b8 bcbf ee3c de71 b73b da6a 11bc
00000350: 3ffd 01bc 96da 87bb 34cc 23bc 9f71 1a3c
00000360: 3554 2dbb c2cc cbbb 598d a93b 7f84 0bbc
00000370: 705e 9b3c 02db 673c 0663 04bc c25c c0bb
00000380: 76be 4c3c f03b 0b3a 628c 9f3c 5ee2 e6bb
00000390: a7b4 a4bb fd30 febb b51a 7238 9632 92bc
000003a0: 267d dbba 69d5 7c3c f91e 5a3c e080 27bb
000003b0: c70d 433b 551e 433c 61f9 72ba 8301 4bbb
000003c0: 4746 213c b2ef ec3b 2d88 4b3c 0d7a 80bc
000003d0: 7eed 9438 0b94 cabb 43ce b63b c133 cbbb
000003e0: c6ba 9cbc 5bfc 17bb eb79 36bb c9c1 873b
000003f0: f907 8d3c 3896 dc3b bdf0 633c 38e5 d4bb
0.0023863737 0.005692891 0.0076236003 -0.02513233 -0.0054870653 0.004251144 0.0008397172 -0.003498763
0.0055958815 3.6579826e-05 0.0033493813 0.0010357373 0.0021208548 -0.0063084196 0.010850454 -0.0024587093
-0.023045413 -0.014998612 0.0111591285 -0.0039034258 -0.006900557 0.0029675742 0.0024232399 -0.003919894
-0.011261667 -0.018112347 0.0032259766 0.0070994385 -0.016616017 -0.002939568 -0.008339688 -0.0067719365
0.0017456253 0.004001628 -0.0004639339 -0.0056578564 0.022547655 0.0096945865 0.005396864 0.00930531
-0.015514986 -0.018135512 0.0131918015 0.009735178 -0.0025278812 -0.001552229 0.01510337 -0.025626825
0.006780675 -0.018175308 -0.0035469427 0.005017181 0.002173075 -0.010876251 0.0059900843 -0.009487338
-0.004323587 0.0046748156 -0.015746245 0.013207113 0.007551644 0.011838998 0.006825954 -0.015253996
0.0039665992 0.00095270935 0.007103269 -0.011553338 0.0018208406 0.0019543257 0.008612514 0.023749739
0.003833084 0.008239959 -0.0048248707 -0.013546477 -0.0072742878 0.010600523 -0.0037014019 -0.014151822
-0.0071823755 -0.0049154726 -0.01055949 0.0009920794 0.0016439551 -0.015619296 -0.0050022774 0.014046539
-0.013038113 -0.00472981 0.001597498 0.025860013 0.009760882 -0.0056843893 0.0077328603 -0.001461523
-0.014510158 -0.011881207 0.0036569326 -0.014801966 0.011238816 -0.011410528 -0.0025491344 -0.009455224
-0.015950756 0.008936229 0.0066523994 0.002057612 0.02003416 0.0022627676 -0.0075817374 0.0018109243
-0.0057842354 0.016611962 -0.0023446775 -0.0013854208 -0.001351505 0.0056479564 -0.0032296535 0.015375279
0.0056260643 0.0018162626 -0.002044444 0.0028743495 0.009732691 -0.010281513 0.017637836 -0.021147091
-0.010644296 -0.0020646988 -0.0012564971 0.015853226 0.0016073722 0.005375704 6.937804e-06 0.0036182478
0.013018871 -0.0002936552 -0.004369062 -0.00093659223 -0.0028216883 0.0040456466 0.0121093225 0.009462443
-0.0071511837 0.008854338 0.008817451 0.011350921 0.016112195 -0.0003090125 -0.017120058 -0.0027567775
0.015052953 -0.0075555467 0.005679926 0.007095385 -0.012750818 -0.0015916331 -0.0068133916 -0.008528109
0.005102997 0.013423872 0.013326629 -0.0012500122 0.00874969 0.00746276 0.006928775 0.0012496489
-0.015942369 0.024661735 -0.0042996565 -0.017657537 -0.006618577 0.0072172233 0.013378976 0.0076073725
0.031764816 -0.0027844382 0.002191311 0.009301693 -0.005189935 -0.0052759326 -0.010378925 -0.0015053016
0.009523848 0.014192405 0.010397249 -0.009771166 0.013407918 -0.012309602 -0.004346495 -0.024019655
0.00108376 0.0006212296 -0.019708388 -0.0071153124 0.015342883 -0.011732359 -0.0033061074 0.00041062193
0.0066550886 -0.0041833557 0.01919938 0.009246888 0.003025771 0.0069065704 0.005225959 -0.0030084671
-9.483333e-05 0.02914416 0.005598291 -0.008875573 -0.007933914 -0.0041459305 -0.009997416 0.009426503
-0.0026447896 -0.0062194774 0.0051743207 -0.008515476 0.01896593 0.014151337 -0.00808025 -0.0058704326
0.012496581 0.00053113606 0.01947612 -0.007046028 -0.0050264183 -0.0077573047 5.772217e-05 -0.017846387
-0.0016745671 0.01543174 0.0133130485 -0.0025558993 0.002976285 0.011909087 -0.0009268728 -0.0030976243
0.009843416 0.0072307223 0.012422604 -0.015683198 7.101426e-05 -0.006182199 0.0055787875 -0.006201238
-0.01913203 -0.0023191187 -0.0027843665 0.004142974 0.017215716 0.0067317747 0.013912377 -0.0064970516

net.2.linear.bias f4 [32]
00000000: f855 cdbd 8016 2d3d 5940 9c3d 469f e53d
00000010: abad 29be a0a5 23bd 77f5 a53d f912 093e
00000020: 9e71 543c 96d9 06be 942a 97bd fcc9 333e
00000030: 08de 2e3e 4dd6 233c 085d 283e d1a2 18be
00000040: 9353 87bd 1965 313d f647 ec3d e82b 6f3d
00000050: 1349 853d cd45 673c fbbc db3d 9ae0 ccbc
00000060: 8ae7 073e bf52 a53b 34d1 16be 6b93 18bd
00000070: 803b 11be bdf8 9bbd d216 063d d682 93bd
-0.10026163 0.042257786 0.07629461 0.112120196 -0.16570155 -0.039952874 0.08103459 0.13386144
0.012966542 -0.1316894 -0.07381168 0.1755752 0.17076886 0.009999824 0.16441739 -0.1490586
-0.066077374 0.043309305 0.11537163 0.05839148 0.065080784 0.014115763 0.107294045 -0.025009442
0.13271919 0.0050452645 -0.14728242 -0.037249964 -0.14182854 -0.076158024 0.032736607 -0.07202689

net.3.linear.weight f4 [32, 32]
00000000: 67b1 8f3b c595 85bb 5639 46bb 1075 8a3b
00000010: 3616 533c 653e 793c 9e5c 5cba 2faa 8cbb
00000020: 2007 f3bb 05e9 faba 08a6 11bb fc0d f43a
00000030: 15e5 d639 a92f 73bc 6020 1dbc 4328 5abc
00000040: 619a 643c a4e5 2b3c 3649 3a3c fac9 e13b
00000050: 8923 023c 86db 633c 9c56 fc3a 756a ca3b
00000060: f502 aabc 7eae 9dbb bf57 5bbc f38e 46bb
00000070: 5723 0bbb 9b72 a03c ada4 1bbc 3859 7c39
00000080: d0d0 fabb 7b51 80bc 7090 adbc d3c3 c73c
00000090: dcae c2bc db73 2abc 0bea 0cbd 2e38 39bc
000000a0: f612 91bc 3705 de3a d322 9bbc ff62 d43b
000000b0: 017a 0ebc cd26 0d3c 5e98 d13a 4dde 85bc
000000c0: 0924 bf3b 50f4 82bc 4dcb b93b aca5 9c3b
000000d0: 6c5a 16bc 02f6 253c 1bec 4e3c c426 d13a
000000e0: 173c fa3b e771 44b9 372f 65bb b4a8 91bc
000000f0: 6f4e 27bc 154f 38bb d6d6 22bc 65f2 e7bb
00000100: 9bf0 e9bb 103a 7c3b 1baa 943c 42eb 463b
00000110: 7512 333c 395f 61bc 249b f03a 0cae a8bb
00000120: 4a7b 873c a558 2fbc 34a2 8fbc 1904 003c
00000130: ac4d 1abc 74ac f9bb 31ae d0bc d77c 473b
00000140: 4e58 d13a ecd0 c03c 600d 4d3c 797f 5b3c
00000150: e9e7 2b3c 3033 863c d5c7 603a 06bf b3bb
00000160: db01 12bc ac86 853c 31af 823b abc1 313b
00000170: 4d5d 803c 181f a3bb e74d 3c3c 0eb6 5b3b
00000180: bec8 e03b b237 2a3c 4e6a 4abb 8a28 eb39
00000190: 6933 53bc 5bae 39bc c56a 633a 33b6 9abb
000001a0: b257 0c3b e632 2fbc 39dc 863b e096 20bc
000001b0: 3b44 603c d509 af3b 3108 76bc 72c7 5fbb
000001c0: 8331 0e3c 3d4e 98bb a383 9d3b 242b cebb
000001d0: 698e 31bc 4f76 04bc 185a 843b 6d67 7a3b
000001e0: 1584 94bb 972a a23b 372f 0d3b 91f2 043c
000001f0: 4478 40bc e1a7 433c 452f c73b 7061 5ebc
00000200: 4484 043c b85a 7c3b c6ac f73b 6fde 84bc
00000210: a140 c63c f2e4 4cbb 071f 613b 3169 10bb
00000220: b74e 093c 711d c23a 4b1e 933c 0f6e 1eba
00000230: 59de 553c 4be6 bc3b 67c0 eb3b 604d cb39
00000240: cbf1 5dbc 1f83 febb 960a a83c f13d e53a
00000250: 5cdb c43b 179c d53c 0d61 a03b a0d1 10bc
00000260: c9d9 6dbc 0ac4 f1bb 839f 843c f3c7 cc3b
00000270: 15b4 4dbb 7371 ce3a bbfe 59bc 278f 7fba
00000280: f6ea 7aba 3652 a7bb 0cdd 9dbc 5eb7 153b
00000290: f55b 2fba 0fd8 0cbb 4e57 743c 76d5 85bc
000002a0: d51a e8bb 9e0a b03a aed8 1fbc 8f14 7b3a
000002b0: fa27 573c 56b9 46bc 2a15 0e3c e2db 79bb
000002c0: e488 29bb cbd3 a8bc 965e 87bc 32c7 313b
000002d0: 4a7e 993b 8c87 10bc 32ed f2bb 1047 203c
000002e0: f9d2 dc3b 1280 d03c 290d 7abc 952c 0cbc
000002f0: c873 31bc 23c3 803b cead aaba d509 853a
00000300: 7390 01bb 5cac 243c 5266 46bc 9712 453b
00000310: c101 e3bb b7db 973b c8d2 9e3b 38ed 1a3b
00000320: d7a8 60bc 42f8 49bc a0f4 423c 23aa 11bc
00000330: 5f1a 03bb 4b61 8c3b 1077 a23c 03e7 dbbb
00000340: 006e 413c abdc 153c a0a6 453b d97f 263c
00000350: c8c4 0c3c 3e57 52ba 0e41 793b ef55 bfbb
00000360: d465 3a3c f121 ebb9 f293 5ebc fdd5 f43c
00000370: fb03 83bc a08c 3e3c d341 ebba 08a2 baba
00000380: c5a5 2bbc 54ef e6bb ce72 fb3b 097d 92bc
00000390: 8b6d 65bc 5e6e f5b9 00d4 af3b cf51 b3bb
000003a0: 7dc3 4e3b 14a5 ba3b 8eff 4bbc 8050 283c
000003b0: a6b1 423c f218 e1ba e35f 17bc 65c2 2cbb
000003c0: a27d 97bc fcf8 883b 64e1 a4ba 418a 0ebc
000003d0: 6ccf fcb9 4b6e e6bb d7b6 0fbb 21e9 85bb
000003e0: b060 afbb 74fe 90bc 1f72 573c 2cdb be3b
000003f0: 9d08 643b 1128 6a3c eb28 4abb 5afd aebb
0.0043851617 -0.004076692 -0.0030246577 0.0042253807 0.0128837135 0.01521263 -0.0008406135 -0.0042927484
-0.007416621 -0.0019142932 -0.0022224206 0.001861989 0.0004098794 -0.014842906 -0.009590238 -0.013315263
0.013952822 0.010491762 0.011369994 0.0068905326 0.007943043 0.013907319 0.0019251886 0.0061772414
-0.020753363 -0.004812061 -0.0133876195 -0.0030297607 -0.002123078 0.019585898 -0.009499711 0.0002406583
-0.007654287 -0.015663853 -0.021187037 0.024385368 -0.02376502 -0.010403599 -0.03440289 -0.011304898
-0.017709237 0.001693881 -0.018937504 0.006481528 -0.00869608 0.008615208 0.0015990844 -0.016341353
0.005833153 -0.015985638 0.0056699873 0.004780492 -0.009176832 0.010129454 0.012629534 0.0015956988
0.007636558 -0.00018734449 -0.003497077 -0.01778064 -0.010211571 -0.0028123308 -0.009938916 -0.007078456
-0.007139278 0.0038486756 0.018147519 0.0030352627 0.0109296935 -0.013755613 0.0018356782 -0.005147701
0.016538281 -0.010702287 -0.0175334 0.007813477 -0.0094179325 -0.007619435 -0.025473686 0.00304394
0.0015971751 0.023537122 0.012515396 0.013397091 0.010492303 0.01638183 0.0008574699 -0.0054854183
-0.008911575 0.016299568 0.0039881696 0.0027123492 0.01566949 -0.004978072 0.011493183 0.003352526
0.006859868 0.010389255 -0.0030886116 0.00044852897 -0.012890675 -0.0113330735 0.00086752727 -0.004721427
0.0021414575 -0.0106932875 0.004115608 -0.009801596 0.013688142 0.0053417482 -0.015016601 -0.0034145978
0.008678797 -0.0046479986 0.004806952 -0.006291764 -0.010837176 -0.008084848 0.0040390603 0.003820862
-0.004532347 0.0049489248 0.0021543035 0.008114473 -0.011747424 0.011941881 0.006078633 -0.013573036
0.008088175 0.003850622 0.007558438 -0.016219346 0.02420074 -0.0031264392 0.003435077 -0.0022035355
0.0083805835 0.00148098 0.01795878 -0.00060436217 0.0130535 0.0057647577 0.007194567 0.00038776826
-0.0135464175 -0.0077670957 0.02051286 0.0017489773 0.006007595 0.026075406 0.004894382 -0.008839041
-0.014517256 -0.007378106 0.016189342 0.0062494217 -0.0031387855 0.0015750363 -0.013305361 -0.00097488094
-0.0009571755 -0.005106236 -0.019270442 0.002284489 -0.0006689423 -0.0021491086 0.014913393 -0.016337138
-0.0070832768 0.0013430899 -0.00975625 0.00095779536 0.01313209 -0.0121291485 0.008672038 -0.0038125445
-0.0025868947 -0.020608803 -0.016524594 0.0027126786 0.0046842443 -0.008821379 -0.00741353 0.009782568
0.006739017 0.025451694 -0.015261927 -0.008555551 -0.010830827 0.003929512 -0.0013021769 0.0010150025
-0.0019769936 0.010050859 -0.012109356 0.0030070895 -0.0069276993 0.0046343463 0.0048469044 0.0023639929
-0.01371213 -0.012327256 0.011899143 -0.008890661 -0.0020004732 0.004284059 0.019832164 -0.0067108884
0.011806011 0.00914685 0.003015913 0.010162317 0.008591838 -0.00080238644 0.003803316 -0.0058391015
0.011376817 -0.0004484798 -0.013585078 0.029887194 -0.015993109 0.011630207 -0.0017948694 -0.0014238963
-0.010476534 -0.007047573 0.007673598 -0.017881887 -0.014003168 -0.00046812271 0.0053658485 -0.005472399
0.0031549626 0.0056959484 -0.012451066 0.010273099 0.011883175 -0.0017173572 -0.00923917 -0.0026360985
-0.018492524 0.004180072 -0.0012579379 -0.0086999545 -0.00048219727 -0.007032191 -0.002192905 -0.004086629
-0.005352102 -0.017699458 0.013149767 0.005824467 0.0034795173 0.014291779 -0.0030847143 -0.0053402605

net.3.linear.bias f4 [32]
00000000: bce1 16be f45c c83d e4aa 0a3e 60fb 9bbd
00000010: 1c14 3f3d cf1d 843c 160a 1b3e 4daa e4bd
00000020: 6175 92ba 636e 87bd 7859 473e c26f 753d
00000030: 4570 533d 438f df3d 6f61 91bc 7594 0abe
00000040: 694b 11bb 2875 013e 9f36 e9bc 6e5f 1c3d
00000050: ddcc 8b3d 2871 2abd b5ba ea3c b1ec 0fbe
00000060: 76bd e53d f201 f73d e70b 003e 7621 f73d
00000070: fc81 00be b10a d93d 0966 6cbd aa69 cdbd
-0.14734548 0.097833544 0.13541752 -0.07616305 0.046650037 0.016127495 0.15140566 -0.11165295
-0.0011173898 -0.066128515 0.19467723 0.059921034 0.05162074 0.10915997 -0.017746655 -0.13533194
-0.0022170192 0.12642348 -0.028468428 0.038176946 0.06826184 -0.04161182 0.028653482 -0.14055134
0.112177774 0.12060918 0.1250454 0.12066929 -0.12549585 0.10597742 -0.057714496 -0.100299194

net.4.weight f4 [4, 32]
00000000: a158 7e3d f4d1 533d d006 cdbb d8c0 35bc
00000010: 58ee 96b9 bd7b 2ebd 2585 0f3d f97d b9bd
00000020: 70f1 423d dc16 8cbc 459c 98bd 1eb9 3c3d
00000030: e3f1 7e3d a5e9 a9ba e59f 3e3d 005e d3bc
00000040: b23e cebc 929b 3eba 7d3d bc3c 706e 12bc
00000050: d1cc b0bd f623 ef3c b68c c1ba f299 4fbd
00000060: 587a e23a 421a 54bd 89c6 703c bfa8 23bd
00000070: f983 22bd 0986 85bd fa97 ee3b 5126 253d
00000080: 9aba c7bd 5deb debc fb06 9c3d e219 35be
00000090: 1653 1bbd 3cd1 c2bc b9e2 0abd 9e31 6c3d
000000a0: d700 b0ba d4e7 a13d e3ce 2abc 0017 aebc
000000b0: 8421 0abe 1ffa a33d 5293 de3c 493a 49bb
000000c0: f84f 7e3d bf4c f3bb d035 10bd fd9b 3ebd
000000d0: 0935 fdbd 9150 4cbd acf9 423d a5e9 c83c
000000e0: 2cb4 b1bd b533 adbb 88b7 a63d 3fd8 f13c
000000f0: d6d8 ae3b 146a f63c ff17 8b3d d338 763c
00000100: 5bf5 2d3d 3f86 c7bc f77a efbc 51db a53d
00000110: b5c2 913c 72d1 313d 3014 d43c c54a fb3c
00000120: 09fd 64bd 33ff 04bd 8791 b03c 3abe 44bd
00000130: f4ab b93c 3601 22bd a322 39bd a8da c3bb
00000140: 427c 04bd f09d 4c3d 5401 2f3d 1819 cfbc
00000150: f3f3 c63c 875a 823c 9b2e 86bd 68bd 1d3c
00000160: 08e2 963c c096 373d 957a 5dbd 81a7 c93c
00000170: bc5e 57bd f684 e6ba 957a 02bd 39cc b23c
00000180: a9e2 b33d 1624 133d 0c41 9abc a5e2 c23c
00000190: bc28 a4bd 5475 9ebd 2916 c03d d2a6 d6bd
000001a0: a2f3 1c3d 5b69 273d 1abe f1bc cef5 893d
000001b0: 9211 d93d 039a e4bc c1c2 a83d d2cb efbd
000001c0: ca50 20bd 4584 6f3d 838d 453d 0183 9dbb
000001d0: cfff 96bd 78ec c73d 6c4b b33b 97d5 93bd
000001e0: 3b5a 78bd 1de3 d43c 7ec9 87bd d1ef 2dbc
000001f0: b459 bcbd aa2a f5bc cffc 873d 014f df3d
0.06209624 0.0517139 -0.0062569156 -0.011093341 -0.0002878781 -0.042598475 0.035039086 -0.090572305
0.047593534 -0.017100744 -0.07451681 0.04607498 0.0622424 -0.0012963308 0.046539206 -0.025801659
-0.02517638 -0.00072711066 0.022978539 -0.008937463 -0.08632816 0.029191952 -0.0014766667 -0.050683923
0.0017278893 -0.051782854 0.014695772 -0.03995585 -0.03967664 -0.06519706 0.0072813006 0.040319744
-0.09752388 -0.02721184 0.07618519 -0.17685655 -0.037921034 -0.023781411 -0.033907626 0.057664506
-0.0013427985 0.07905546 -0.010425302 -0.021251202 -0.13489348 0.08006691 0.027169857 -0.0030704907
0.062087983 -0.0074249203 -0.03520757 -0.04653548 -0.12363631 -0.04988152 0.047601387 0.024525473
-0.08676943 -0.005285705 0.081404746 0.02952206 0.0053359075 0.030079879 0.06791686 0.015028196
0.042470317 -0.024356006 -0.029233439 0.08098472 0.017793039 0.043412633 0.025888532 0.030675301
-0.055905376 -0.03246994 0.021553768 -0.048032977 0.022665001 -0.039551936 -0.045199048 -0.0059769936
-0.032345064 0.04995531 0.042725876 -0.02528052 0.024286246 0.015912307 -0.06551858 0.0096276775
0.018418327 0.0448215 -0.05407198 0.024616005 -0.05258058 -0.0017587233 -0.031855185 0.021825897
0.08783466 0.035923086 -0.018829845 0.023789713 -0.08015582 -0.07737222 0.09379227 -0.10481037
0.038318284 0.04087196 -0.029509593 0.06736337 0.105990544 -0.02790547 0.08240271 -0.117087975
-0.039139546 0.05847575 0.04823066 -0.0048068766 -0.0737301 0.097619 0.0054716375 -0.072184734
-0.060632925 0.025987202 -0.066302285 -0.010616259 -0.09196797 -0.02992757 0.06640016 0.10903741

net.4.bias f4 [4]
00000000: 04b8 953c 075d f23d 3ce0 5d3c 0750 d13c
0.018276222 0.1183415 0.013542231 0.025550855
