outputs_inverse/gaussian/1_nodes_given/model.pt (torch, 16367 bytes, 10 tensors)

net.0.linear.weight f4 [32, 1]
0	0x3f6070cf	0.8767213
1	0xbdd947bc	-0.10609385
2	0xbf10210e	-0.5630044
3	0x3f3daa4f	0.74087995
4	0x3f79564e	0.97397316
5	0x3cf8403f	0.030304072
6	0x3e3b4dab	0.18291347
7	0x3e912763	0.28350362
8	0xbf800fe1	-1.0004846
9	0xbf6a4203	-0.91506976
10	0xbeed3c3b	-0.46335015
11	0x3f305173	0.6887428
12	0xbf152c3f	-0.5827064
13	0x3f6af485	0.9177936
14	0x3ed998e8	0.4249947
15	0x3ef0092e	0.46882004
16	0xbf58f8a0	-0.8475437
17	0x3e16a903	0.1471291
18	0xbf05fc57	-0.52338165
19	0x3d46b920	0.048516393
20	0x3f5dd087	0.8664631
21	0xbf1cf34a	-0.6130873
22	0xbf0f8898	-0.560678
23	0x3e68c0d8	0.22729814
24	0x3f4f27b0	0.80919933
25	0xbede3d82	-0.43406302
26	0xbefcdecd	-0.49388734
27	0x3e56c508	0.20973599
28	0x3e636be0	0.2220912
29	0xbf074eb2	-0.52854455
30	0x3e76ba09	0.24094404
31	0x3f4b8c39	0.7951084

net.0.linear.bias f4 [32]
0	0xbf05f476	-0.5232614
1	0xbea8d3e1	-0.3297415
2	0x3f7d02ec	0.98832583
3	0xbf57cfde	-0.84301555
4	0x3f79d28c	0.97586894
5	0x3d5ddd3e	0.05416607
6	0x3f564d51	0.83711725
7	0x3da7bb48	0.08190018
8	0x3f403b18	0.7509017
9	0xbf2a82b3	-0.6660568
10	0xbdf35133	-0.11880722
11	0xbf5508d7	-0.83216614
12	0xbf101736	-0.5628542
13	0xbcc1d331	-0.023660274
14	0xbc98c3d9	-0.018648075
15	0x3f376bdc	0.71648955
16	0x3e85165b	0.25993618
17	0x3f047b41	0.5175057
18	0x3da7c086	0.08191018
19	0xbdb00b8b	-0.08595952
20	0x3f4024e9	0.7505632
21	0x3e766aa9	0.24064125
22	0xbe3811ca	-0.17975536
23	0xbf582776	-0.8443521
24	0x3de51821	0.11186243
25	0x3e8bb93b	0.27289757
26	0x3eb693b3	0.3565956
27	0xbe5e5818	-0.21713293
28	0x3d24e6b1	0.040259067
29	0xbdf42221	-0.11920572
30	0xbd1c2291	-0.038118903
31	0xbe0dac34	-0.13835222

net.1.linear.weight f4 [32, 32]
0	0x3b80620a	0.003917937
1	0xbc654fbd	-0.013996062
2	0x3aa8a43e	0.0012866331
3	0xbb202f8f	-0.002444241
4	0xb9fb29c4	-0.00047905568
5	0x3c9baac6	0.01900233
6	0x3b684261	0.0035439956
7	0xbc301ea8	-0.0107494965
8	0x3bf82c82	0.007573665
9	0x3bc1153e	0.005892425
10	0x3c801bcf	0.01563826
11	0x3b783ae5	0.00378769
12	0x3b842f5b	0.0040339655
13	0x3b6cbe6a	0.0036124238
14	0x3c7aff32	0.015319632
15	0x3bd80d23	0.006593363
16	0x3c140cae	0.009036226
17	0xbc344a0c	-0.011003982
18	0xbb710d36	-0.0036781556
19	0xbb89ea9c	-0.004208876
20	0x3baa22b7	0.0051921266
21	0x3c82ef7b	0.015983334
22	0xbbc5f8cc	-0.006041622
23	0xbcaaae16	-0.020834964
24	0xbc13614f	-0.008995368
25	0xbc2c9d72	-0.010535585
26	0xbbab28ec	-0.005223384
27	0x3bfbd9f4	0.007685894
28	0xbbd573f7	-0.006514068
29	0xbc95994e	-0.018261578
30	0xbc3ea9de	-0.011637179
31	0xbbc8af65	-0.0061244243
32	0xbb9a60e6	-0.004711258
33	0xbca0f115	-0.019646207
34	0xbb7fba84	-0.0039021084
35	0xbbc34d81	-0.005960167
36	0x3bf5464b	0.007485186
37	0x3c420f20	0.011844426
38	0x3babc728	0.005242247
39	0x3c26376a	0.010145048
40	0x3b913ba1	0.004432157
41	0xbb9f02d8	-0.004852634
42	0x3c2071bf	0.009792744
43	0xbb30b377	-0.0026962438
44	0x3c4b950b	0.012425671
45	0x3bd13090	0.006383963
46	0xbb36bf25	-0.0027884927
47	0xbb449702	-0.0029997234
48	0xbc5a630d	-0.01332928
49	0xbc708e33	-0.01468234
50	0x3bb52d7d	0.0055291043
51	0xbc235ba9	-0.009970584
52	0xbc3cccd0	-0.0115234405
53	0x3b78bbe7	0.0037953795
54	0xb9da14f3	-0.0004159581
55	0x3bc846b4	0.006111944
56	0x3c496e67	0.012294388
57	0x3b851464	0.0040612686
58	0xbb29e902	-0.0025926237
59	0xbc3c8452	-0.011506157
60	0x3bf90468	0.007599402
61	0x3c17d411	0.009266869
62	0xbbd56826	-0.0065126596
63	0x3affdf22	0.0019521455
64	0xbc10d18d	-0.008839023
65	0x3c2fb8f0	0.010725245
66	0xbb1da68b	-0.0024055566
67	0xbc6ee36b	-0.014580588
68	0xbb619aef	-0.0034424623
69	0xb68cb1cc	-4.1930234e-06
70	0x3c52e8ba	0.012872869
71	0x3c99a140	0.018753648
72	0x3ac92c25	0.0015348239
73	0xbc4105aa	-0.011781136
74	0xb9b9714a	-0.00035370357
75	0x3ad38ade	0.0016139408
76	0x3c346c27	0.011012114
77	0x3abb58b5	0.0014293405
78	0xbb8e8262	-0.004349039
79	0x3c0fead3	0.008784014
80	0xbbca1239	-0.006166723
81	0x3bb2f560	0.00546138
82	0x3c367593	0.01113643
83	0xbc0dcfab	-0.008655469
84	0xbad43773	-0.0016190842
85	0x3c8240d9	0.015900062
86	0x3a0d1c20	0.0005382914
87	0xbc2a3c90	-0.010390416
88	0xbb808591	-0.0039221724
89	0x3c02f1d7	0.007992229
90	0x3b5dcb2c	0.0033843024
91	0x3bedab50	0.007253088
92	0x3c179bd5	0.009253462
93	0xb9718780	-0.00023034029
94	0xbc2f0cd8	-0.0106842145
95	0x3bdc6163	0.0067254766
96	0xbba8687a	-0.0051394077
97	0x3c4e9f93	0.012611288
98	0x3a779a37	0.0009445282
99	0xbbacb1c7	-0.005270216
100	0xbaf99a54	-0.0019043186
101	0x3c534cce	0.01289673
102	0xbca0b95c	-0.019619636
103	0x3c4c149e	0.012456087
104	0x3bbd0e0f	0.005769498
105	0xbb95b2a7	-0.004568416
106	0x3b88667f	0.004162609
107	0x3bca9b9d	0.0061831013
108	0x3bbdd51a	0.005793226
109	0xbc3865cb	-0.011254738
110	0x3c9bbb89	0.019010322
111	0x3b9b5b4e	0.004741109
112	0x3ba18384	0.004929008
113	0xbc0d4930	-0.008623406
114	0x3b47c860	0.0030484423
115	0xbbee5a42	-0.007273943
116	0xb95e761b	-0.00021215568
117	0xbbd158c5	-0.006388756
118	0x3c15a6e5	0.009134029
119	0xbb8e34c5	-0.0043397867
120	0xbbf9647b	-0.007610855
121	0xbb1dccc3	-0.0024078346
122	0x3c47537c	0.0121659
123	0x3b94f899	0.0045462367
124	0x3c554c80	0.013018727
125	0x3c670577	0.014100424
126	0x3baa8a22	0.005204455
127	0xbc26cbcf	-0.010180428
128	0x3af60eff	0.001877278
129	0xbc979da0	-0.018507779
130	0xbbd3c32c	-0.0064624753
131	0xbbe730d8	-0.007055383
132	0xb918c7cb	-0.00014570278
133	0x3c02bc17	0.007979414
134	0xbb994790	-0.0046777204
135	0xbc83cbc7	-0.01608838
136	0x3c198b85	0.009371643
137	0xbbb4aa81	-0.0055134897
138	0xbca5d4f6	-0.02024315
139	0xba781acb	-0.00094644417
140	0xba83f676	-0.0010067958
141	0x3b4f1fdc	0.0031604683
142	0xbb9d8d41	-0.0048080985
143	0x3b0bb99a	0.0021320344
144	0x3aaefa36	0.0013349715
145	0xbcabd6a7	-0.020976378
146	0xbb8f5837	-0.0043745297
147	0xbbd73764	-0.0065678824
148	0xba899a5d	-0.0010498274
149	0x3ca065b7	0.019579751
150	0xba78920f	-0.00094822136
151	0x3c65dbd2	0.01402946
152	0x3bed998e	0.007250971
153	0x3bfd431b	0.007728947
154	0x393d4632	0.00018050594
155	0xb9cbd30c	-0.0003887642
156	0xbc4351d4	-0.011921365
157	0xbbe34cc3	-0.006936641
158	0x3b9c6cb1	0.004773699
159	0x3c0ef9bf	0.008726536
160	0x399b4faf	0.00029623273
161	0x3caef874	0.021358706
162	0xbc701d5c	-0.014655437
163	0xbb6b2f54	-0.0035886364
164	0xbbba6b3e	-0.005689054
165	0x3c1f1118	0.009708665
166	0xbca5f6f4	-0.020259358
167	0xbbf826cc	-0.0075729843
168	0x3a0bafe9	0.0005328642
169	0xb99fad10	-0.00030455785
170	0xbb9112e2	-0.0044273
171	0xbaea4c4d	-0.0017875523
172	0x3b4e110b	0.0031443264
173	0x3a350907	0.0006905947
174	0xbc14d806	-0.009084707
175	0x3b852603	0.0040633692
176	0x3c6339fe	0.013868807
177	0xbb9ccc8a	-0.004785125
178	0x3c644599	0.013932609
179	0xbb9f47a7	-0.0048608365
180	0xbb32e570	-0.00272974
181	0x3c71f1a6	0.014767086
182	0x3ba6324f	0.005071915
183	0x3c260781	0.010133625
184	0xbb92e089	-0.004482333
185	0x39025d84	0.00012432603
186	0xbb9a55b5	-0.004709924
187	0x3ba1fdee	0.004943601
188	0xbc051d60	-0.008124679
189	0x3c4271d5	0.01186796
190	0xbc005da3	-0.007834825
191	0xbbfdf63b	-0.0077503
192	0x3c0270a7	0.007961429
193	0xbc258075	-0.010101427
194	0xbb6dbb39	-0.0036274923
195	0xbafb9de0	-0.0019196831
196	0xbbb869bd	-0.0056278394
197	0xbb433dad	-0.00297914
198	0x3c816a22	0.015797678
199	0xbc846b44	-0.01616443
200	0xbad1cd0c	-0.0016006543
201	0xbc03f122	-0.008053096
202	0x3bb6b52c	0.0055757966
203	0xbc8151b3	-0.015786028
204	0x3ad95e2b	0.001658385
205	0x3b7f3d21	0.0038946348
206	0x3c278bfa	0.010226244
207	0x3c592d9c	0.013255503
208	0x3b2c4ef0	0.0026292168
209	0xbc213c26	-0.009841001
210	0xbc5cc95f	-0.013475745
211	0xbc0fef5c	-0.008785095
212	0x3981fc69	0.00024792858
213	0xbbf82f80	-0.007574022
214	0xbb2c097d	-0.0026250773
215	0x3c1b4276	0.009476295
216	0xb96ef939	-0.00022790291
217	0x3c252d45	0.010081594
218	0x3c57bd94	0.013167758
219	0x3c377681	0.011197687
220	0xbbe64811	-0.007027634
221	0x3c2be5a7	0.010491765
222	0x3a256bcd	0.0006310314
223	0x3c095db8	0.008384161
224	0x3c4bf36e	0.012448175
225	0xbbf35942	-0.007426412
226	0xbc1c5406	-0.009541517
227	0x3b8a4307	0.004219416
228	0xbc775f12	-0.01509835
229	0xbb378e14	-0.002800827
230	0x3c248560	0.010041565
231	0xbbcb3c2d	-0.006202242
232	0xb8bd3aec	-9.023197e-05
233	0x3b185567	0.0023244263
234	0x3c134bcb	0.008990238
235	0xbb142211	-0.0022603313
236	0xbc2c5910	-0.010519281
237	0x3b2a3ecf	0.0025977378
238	0xbc1bea90	-0.009516373
239	0xbaa4b272	-0.0012565388
240	0x3c2c12d8	0.01050254
241	0x3be94eb4	0.007119978
242	0x3bb01291	0.005373307
243	0x3c1fe04b	0.009758065
244	0xbbfb4c25	-0.0076689892
245	0x3c2c74b7	0.010525874
246	0xbbf96edf	-0.007612094
247	0xbc0bbbae	-0.008528633
248	0x3c09ebe1	0.008418054
249	0x3b6b7cf3	0.003593263
250	0x3ba7cc81	0.0051208143
251	0x3b3fa645	0.0029243391
252	0x3c109cbf	0.008826434
253	0x3c3ba508	0.011452921
254	0xbc810b65	-0.015752504
255	0x3bb123f8	0.005405899

net.1.linear.bias f4 [32]
0	0x3e176937	0.1478623
1	0xbdd57005	-0.10421757
2	0x3e2f3a53	0.17112093
3	0x3dc50652	0.09620346
4	0xbdaae149	-0.08343751
5	0x3dc65abc	0.09685275
6	0xbc9e1fd1	-0.01930228
7	0xbca658f7	-0.020306094
8	0x3e0f8969	0.14017262
9	0x3e16c088	0.14721882
10	0xbe2516f7	-0.16122042
11	0xbe19614a	-0.14978519
12	0xbd152c14	-0.03641899
13	0x3e13639e	0.1439347
14	0xbd8f8aef	-0.07008921
15	0xbd556f82	-0.052108295
16	0xbe19bfd4	-0.15014583
17	0x3d3361c9	0.043794427
18	0x3cd17eec	0.025573216
19	0xbdd64045	-0.10461477
20	0x3b34d2f1	0.0027591551
21	0x3d88e885	0.066849746
22	0xbe034536	-0.1281937
23	0xbe1f43b5	-0.15553172
24	0xbbaa8d00	-0.005204797
25	0x3dba72b6	0.091039106
26	0xbe308a0b	-0.17240159
27	0xbd9db9ef	-0.0770148
28	0x3cb7976e	0.022411074
29	0xbd4f8a6f	-0.05066913
30	0x3e311d26	0.17296275
31	0xbe33e7de	-0.17568919

net.2.linear.weight f4 [32, 32]
0	0x3a98f3a5	0.0011669291
1	0x3bd9a051	0.0066414257
2	0x3bfff47c	0.007811127
3	0xbc203048	-0.009777136
4	0x3c329906	0.010900741
5	0xbc9b5b7a	-0.018964518
6	0x38deac88	0.00010617921
7	0xbc53dfbd	-0.012931761
8	0x3b98282e	0.0046434617
9	0xbbd1ea3d	-0.006406097
10	0xbc2f59ad	-0.010702533
11	0xbb37fcdb	-0.0028074298
12	0xbb6108e5	-0.0034337577
13	0x3c3313eb	0.010930042
14	0xba52ba2e	-0.0008038607
15	0x3bfcf3fa	0.007719514
16	0x3c6af48f	0.014340534
17	0xbbc5d3ea	-0.006037225
18	0x3c1eeacb	0.009699534
19	0x3b8e00ab	0.0043335757
20	0x3c04695b	0.008081759
21	0xba68ed1c	-0.00088854297
22	0x3bca1d6c	0.006168058
23	0xbc36f6cf	-0.011167242
24	0x3c680fab	0.014163892
25	0x3bd15a99	0.006388974
26	0x3c69b8ec	0.01426528
27	0xbc5b653c	-0.013390835
28	0xbb1129a8	-0.0022150073
29	0x3c1aad20	0.00944069
30	0xbbbba90b	-0.0057269386
31	0xbc2540fa	-0.010086292
32	0x3c68859c	0.014192011
33	0x3c0577fa	0.00814628
34	0x3c65d881	0.014028669
35	0xbb80ed23	-0.003934519
36	0xbc0ecf56	-0.008716425
37	0x3c240ab5	0.010012318
38	0xbc16ff62	-0.009216161
39	0x3bea09fa	0.0071423026
40	0xbb0512dd	-0.0020305433
41	0xbc54d76d	-0.012990815
42	0x3b7ac83f	0.0038266329
43	0xbbb78135	-0.0056001195
44	0xbb152631	-0.002275836
45	0x3b4ad650	0.0030950494
46	0x3a484c28	0.00076407427
47	0x3c27074e	0.010194613
48	0x3c174c71	0.009234534
49	0xb9bf56af	-0.00036494943
50	0x3bb36952	0.0054752016
51	0xbba73cf2	-0.005103701
52	0xbbe43160	-0.006963894
53	0x3b8b23f2	0.0042462284
54	0xbbc2acae	-0.005940995
55	0xbb054cd9	-0.0020339994
56	0x3acdcaa6	0.0015700653
57	0x3bdd90a2	0.0067616263
58	0xbc68ac6f	-0.014201268
59	0xbc7a00c4	-0.015258972
60	0xbc041f7c	-0.008064147
61	0xbbc632cf	-0.0060485373
62	0xbae89306	-0.0017744012
63	0x3c0fdfc6	0.008781379
64	0xb91f3d79	-0.00015186322
65	0xbc0c129d	-0.00854936
66	0x3c060738	0.008180432
67	0xbbbec442	-0.0058217356
68	0x3a2a085c	0.0006486231
69	0x3b8551e4	0.0040686
70	0xbb68a6a5	-0.0035499719
71	0xbba4ec7b	-0.0050330735
72	0x3ba1b0a8	0.004934389
73	0xbc3772e9	-0.01119683
74	0x3c5eb3b7	0.013592652
75	0x3bbddc7a	0.005794105
76	0xb93cce64	-0.00018005964
77	0x38daab5e	0.0001042697
78	0xbbd2a416	-0.006428252
79	0xb966c125	-0.00022006461
80	0xbc11daca	-0.008902261
81	0x3b74ba44	0.0037342468
82	0xbc14bda3	-0.009078416
83	0xbb29e008	-0.0025920887
84	0xbb955110	-0.0045567825
85	0x3baf8111	0.005355962
86	0xb70ae378	-8.278403e-06
87	0xbb76b701	-0.00376457
88	0x3b8a48e1	0.0042201136
89	0xba8404ea	-0.0010072265
90	0x397bcf02	0.00024014342
91	0x3c249dfd	0.010047433
92	0xbb9991b0	-0.0046865568
93	0xbc13610e	-0.008995308
94	0xbc440a81	-0.011965395
95	0x3b247401	0.0025093558
96	0xbc4cabc8	-0.012492128
97	0x3b8c7534	0.0042864326
98	0x3babeba8	0.0052465983
99	0xbae86386	-0.0017729856
100	0x3c1d63dc	0.009606328
101	0x3c2d8d1a	0.010592723
102	0xbc37834a	-0.011200735
103	0xbbfb4500	-0.0076681376
104	0x3c459c44	0.012061182
105	0x3c13971a	0.009008193
106	0xbbef5208	-0.00730348
107	0xbbe54ce7	-0.006997693
108	0x3b152df3	0.0022762984
109	0xb9032f8a	-0.00012510843
110	0xbb320a79	-0.0027166887
111	0xba0ae676	-0.00052986236
112	0x3c2f1d05	0.010688071
113	0xbbc7760a	-0.0060870694
114	0x3b2be94f	0.0026231592
115	0x3a36e565	0.00069769315
116	0x3bc4eb81	0.0060095196
117	0xbc392af9	-0.011301749
118	0xb9a783c1	-0.00031950886
119	0xbc1e8f11	-0.009677664
120	0xbb9962b3	-0.0046809553
121	0x3c1333ce	0.008984519
122	0xbb85985e	-0.0040770015
123	0xbc5d97a1	-0.013524921
124	0xbb9d4e46	-0.0048005907
125	0xbb066d62	-0.0020511975
126	0x3c5f1ced	0.013617736
127	0x3af3fffb	0.0018615717
128	0x3a9cbcf7	0.0011958171
129	0xbc10db86	-0.008841401
130	0xbc5b0a8d	-0.013369215
131	0xbc28f377	-0.010311953
132	0x3c0b8594	0.008515734
133	0xbca7436c	-0.020417891
134	0xbb86a532	-0.0041090483
135	0xbac48052	-0.0014991856
136	0x3c5af1ec	0.013363343
137	0xbbda11d2	-0.0066549564
138	0xba471953	-0.0007595021
139	0xbc5f0083	-0.013610962
140	0xba0f294e	-0.0005461172
141	0x3bb873ea	0.0056290524
142	0xbc22aa8a	-0.009928355
143	0x3ba7e016	0.0051231487
144	0xbc39c148	-0.011337586
145	0x3c5b9743	0.013402763
146	0xbbf09dad	-0.007343015
147	0x3ad4235c	0.0016184854
148	0x3a98611c	0.001162562
149	0x3981ea53	0.00024779383
150	0xbc24ef83	-0.01006687
151	0xbb4a729f	-0.0030891073
152	0x3c563ced	0.013076049
153	0xbc2924d1	-0.010323719
154	0x3b7046c0	0.0036663264
155	0xbc01c566	-0.007920599
156	0x3b9a44e0	0.0047079176
157	0xbaf3c23a	-0.0018597313
158	0xbc13acaf	-0.009013339
159	0xbbae7714	-0.005324254
160	0x3b8ef3b8	0.0043625496
161	0x3c22632b	0.009911339
162	0x3b587277	0.003302721
163	0xbb85cee7	-0.0040835026
164	0x3beda4ab	0.007252296
165	0x3c807ff1	0.015686007
166	0xbbea8fdf	-0.007158264
167	0x3c18b801	0.009321214
168	0xbc10ffed	-0.00885008
169	0xbb720233	-0.003692758
170	0xbc280aca	-0.010256479
171	0x3c2fe7ae	0.010736389
172	0x3c4a20fc	0.012336966
173	0x3bea25c6	0.007145616
174	0xbc51728f	-0.012783661
175	0xbc927d5a	-0.017882038
176	0xbc551363	-0.01300511
177	0xbb245b61	-0.002507888
178	0xbc60a39b	-0.013710882
179	0x3ba07de1	0.0048978184
180	0x3c52db74	0.0128697045
181	0x3bb99f64	0.005664753
182	0x3c01c68f	0.007920875
183	0xbb2d01e0	-0.0026398823
184	0xbb354c90	-0.0027664043
185	0x3be77e2f	0.007064603
186	0xbb867b03	-0.0041040196
187	0xbc574b99	-0.0131405825
188	0x3b850c84	0.00406033
189	0xbbf281dd	-0.007400735
190	0xbc6f5e3b	-0.014609869
191	0xbba26afd	-0.0049566017
192	0x3ac637f5	0.0015122878
193	0x3b828fe1	0.003984437
194	0x3c2c9ed3	0.0105359135
195	0xbc4fb21b	-0.012676741
196	0x3c6fdef9	0.014640563
197	0xbbcb9132	-0.006212377
198	0x3bd530ee	0.006506077
199	0x3c5c5ee0	0.013450354
200	0xbc301d04	-0.010749105
201	0x3c977666	0.018489074
202	0x3c0a62b7	0.008446387
203	0xbabc40df	-0.0014362595
204	0x3b4eec68	0.0031574015
205	0xbc18e427	-0.0093317395
206	0x3baaab95	0.0052084425
207	0x3c8a04de	0.016848024
208	0xbbdfcb77	-0.006829675
209	0xbc47cdb9	-0.012195044
210	0x3bee3664	0.0072696675
211	0x3bcaa1fa	0.00618386
212	0xb8f93644	-0.00011883353
213	0xbbfe8428	-0.007767219
214	0x3c41d14c	0.011829685
215	0xbbc45ae4	-0.0059922803
216	0x3c759383	0.014988783
217	0xbc1b70dc	-0.009487357
218	0x3c6102da	0.01373359
219	0x3c3dfb5e	0.011595575
220	0xbb2b2cf6	-0.0026119328
221	0x3ac96c62	0.0015367384
222	0x3c290799	0.010316753
223	0xbc19e339	-0.009392553
224	0xb8bcd130	-9.003503e-05
225	0x3c3edd06	0.011649376
226	0xbc2866ba	-0.010278398
227	0xbac5832b	-0.0015068998
228	0xbba36a51	-0.004987039
229	0x3b08bc35	0.0020864133
230	0xbbd8c059	-0.0066147265
231	0xbbbb4030	-0.005714439
232	0xbc9ea240	-0.019364476
233	0x3c55f786	0.0130595025
234	0xbbe8dc04	-0.007106306
235	0x3b2a7c6d	0.0026014105
236	0x3ba59359	0.0050529656
237	0x3b2955b2	0.0025838432
238	0xba58757b	-0.0008257252
239	0x3a8fc3e0	0.001096841
240	0xbbe3a22d	-0.006946823
241	0x3c428fba	0.011875087
242	0x3b50744c	0.00318076
243	0x3bf80e45	0.0075700604
244	0xbc5a67db	-0.013330425
245	0xbb8881c4	-0.00416586
246	0x3be3250a	0.0069319056
247	0xbbf09359	-0.007341784
248	0x3b411757	0.0029463375
249	0x39f17e0b	0.0004606101
250	0x3bc2e615	0.005947838
251	0xbbfe33aa	-0.0077576237
252	0x3b3593f1	0.0027706588
253	0x3a5831ec	0.0008247185
254	0xbab2d360	-0.0013643317
255	0x3c23a5d6	0.009988269

net.2.linear.bias f4 [32]
0	0xbda7ac57	-0.08187168
1	0x3d8d9b68	0.06914407
2	0x3e121f68	0.14269793
3	0xbde06e52	-0.10958542
4	0xbdb3873d	-0.08766029
5	0x3de49015	0.11160294
6	0xbd96839b	-0.073493205
7	0x3cb3b5f4	0.021937348
8	0x3de13939	0.109972425
9	0xbd323072	-0.043503232
10	0x3d80f6dc	0.06297085
11	0x3db379bc	0.08763453
12	0xbe03340b	-0.12812822
13	0x3de3b9ca	0.11119421
14	0xbd01ce90	-0.031691134
15	0x3e13c6a5	0.14431246
16	0xbe1f95e7	-0.15584527
17	0x3d8216ea	0.06352027
18	0xbd069b32	-0.03286285
19	0xbb5b261b	-0.003343946
20	0x3e0f04f7	0.13966738
21	0x3e07db47	0.13267241
22	0x3e0c770a	0.13717285
23	0x3dc8c0fb	0.09802433
24	0xbdc230cb	-0.09481963
25	0xbe0fcd9a	-0.14043275
26	0x3d9fbd4e	0.07799779
27	0x3e15f21c	0.14643139
28	0x3e2aae13	0.16667967
29	0xbda36d38	-0.07979816
30	0xbe0f2d70	-0.13982177
31	0xbdf71b6a	-0.12065776

net.3.linear.weight f4 [32, 32]
0	0x3c2b3ab7	0.01045101
1	0xbb299722	-0.0025877436
2	0xbc3d7f63	-0.011566016
3	0xbc4ce3cf	-0.012505486
4	0xbc0762a7	-0.008263267
5	0xbbfcbb8a	-0.007712786
6	0xbb1c05e6	-0.0023807227
7	0x3bf4b96c	0.007468393
8	0xbbd346f8	-0.006447669
9	0x37dbf7d3	2.6222237e-05
10	0x3b5c6d6a	0.0033634552
11	0xbbd0eb60	-0.006375715
12	0x3c03cc7e	0.00804436
13	0x3b2b00fd	0.0026093118
14	0x3b6ac621	0.003582366
15	0x3ba62033	0.0050697564
16	0xbbd7ef0e	-0.006589777
17	0xba77e7da	-0.0009456851
18	0x3b0ba03f	0.002130523
19	0xbc2259c0	-0.009909093
20	0x3c0eb0a5	0.0087091075
21	0xbc522cbe	-0.01282805
22	0x3c5d741f	0.013516455
23	0xbbf0f771	-0.007353716
24	0xbc2f377d	-0.010694382
25	0x3bf262e4	0.0073970426
26	0xbc331f5a	-0.010932768
27	0xbbeebdc3	-0.007285805
28	0x3b4f03dd	0.0031587996
29	0x39457f39	0.00018834778
30	0xbc5e3432	-0.013562249
31	0x3b9f23a5	0.004856544
32	0xbc162771	-0.009164677
33	0x3c99c4c0	0.018770576
34	0x3bc4b4fe	0.0060030213
35	0x3c88179c	0.01661282
36	0xbd189150	-0.037247956
37	0xba2b4168	-0.00065328786
38	0xbbfbb12c	-0.0076810326
39	0x3bb1e57d	0.0054289685
40	0xbb549410	-0.0032436885
41	0x3b43cb38	0.0029875766
42	0x3b9374b3	0.0044999956
43	0x3c163485	0.009167795
44	0x3bed7a93	0.007247278
45	0xbca25639	-0.019816505
46	0x3c4456a4	0.011983547
47	0x3c3bd895	0.011465211
48	0xb9ff355d	-0.0004867715
49	0x3c47ead7	0.012201986
50	0x3be6bc7c	0.007041512
51	0xbc412e65	-0.0117908465
52	0xbbaec9c4	-0.005334111
53	0x3ba3e031	0.005001091
54	0xbb5f05ce	-0.003403056
55	0x3c341dda	0.010993445
56	0x3c3302b7	0.01092594
57	0x3c514971	0.012773857
58	0x3c410bef	0.01178263
59	0x3ae08778	0.0017130217
60	0x3c3c723f	0.011501848
61	0x3b187995	0.0023265828
62	0xbb4c9607	-0.0031217353
63	0x3c7911ba	0.01520198
64	0x3c538ed1	0.012912468
65	0xbc86c2f9	-0.016450392
66	0x3c445816	0.011983892
67	0xbbf9b33a	-0.0076202424
68	0x3bc8818b	0.0061189584
69	0xba9d8ba2	-0.0012019763
70	0xbbfc302d	-0.0076961727
71	0xbc19f5e4	-0.009397004
72	0x3c4a7397	0.01235666
73	0xbb159e8d	-0.00228301
74	0x3a9a1124	0.0011754376
75	0xbc4d10cf	-0.0125162145
76	0xbba59ff6	-0.005054469
77	0xbc05e6d8	-0.008172713
78	0xb9fc37fe	-0.00048106903
79	0x3b6b77e9	0.0035929626
80	0x3a9465b0	0.0011321809
81	0x3bc3b27e	0.0059722057
82	0xbbfe2909	-0.0077563566
83	0x3c55bccb	0.0130455
84	0x3b85a3f6	0.0040783836
85	0xbaec85d3	-0.0018045254
86	0x3bdc264c	0.0067184325
87	0xbc94ca20	-0.018162787
88	0xbc18d683	-0.009328487
89	0x3bcba99a	0.0062152864
90	0x3c46633b	0.012108619
91	0xbc36c2cd	-0.011154843
92	0x3c2ded0c	0.010615598
93	0x3b042466	0.0020163297
94	0x3b950524	0.004547732
95	0x3c210c8e	0.009829653
96	0xbbf7dda3	-0.007564263
97	0x3bca27b6	0.0061692847
98	0xbbb77426	-0.005598563
99	0xbbcbf466	-0.006224203
100	0xbbf053ce	-0.007334209
101	0x3b9ebeef	0.0048445384
102	0x3b27d500	0.0025609136
103	0xba5391e2	-0.00080707495
104	0xb9006f63	-0.00012248526
105	0xbc6b4a47	-0.014360971
106	0xbc389d7a	-0.011268014
107	0x3ad66f84	0.0016360139
108	0xbb3d02fc	-0.002884089
109	0xbc20e3bd	-0.009819922
110	0x3ae5939a	0.0017515302
111	0xbc4819ba	-0.012213165
112	0xbba3a9ce	-0.0049946075
113	0x3bd370b5	0.0064526447
114	0x3c603720	0.013685018
115	0xbae8c2f0	-0.0017758291
116	0xbc0947ef	-0.008378967
117	0xbbac4596	-0.0052573187
118	0x3c355ba3	0.011069211
119	0x39418c2e	0.00018458135
120	0x3c0ed443	0.008717599
121	0x3af53995	0.0018709177
122	0xbbbb881f	-0.005723014
123	0x3c0d7a09	0.0086350525
124	0x3c965585	0.018351326
125	0xbade14f8	-0.0016943505
126	0x3c46baa4	0.0121294595
127	0xbb8a74fb	-0.004225371
128	0x3c3c6df1	0.011500821
129	0xba88b034	-0.0010428489
130	0x3c127142	0.008938136
131	0x3bafaa42	0.0053608725
132	0xbbd51d79	-0.0065037576
133	0xbb041ea8	-0.0020159874
134	0x3c89e8bc	0.01683461
135	0x3c3f729e	0.011685042
136	0x3bc8765c	0.006117625
137	0xbc13205d	-0.008979884
138	0x3c1b06e1	0.009462089
139	0x3c63f2d9	0.01391288
140	0xbb656591	-0.0035003165
141	0x3c1ef98d	0.009703052
142	0xbb29d4f7	-0.002591429
143	0xbba714b1	-0.005098902
144	0xbbff4de4	-0.0077912677
145	0x3c49b385	0.012310867
146	0xbbcdc4ee	-0.0062795794
147	0xbc6922ed	-0.014229518
148	0xbba584c9	-0.0050512296
149	0xbc32e0d5	-0.010917862
150	0xbc531c1a	-0.012885118
151	0xbb224c84	-0.0024764845
152	0x3ba02cef	0.004888169
153	0xbc8579f9	-0.016293513
154	0xba971fc1	-0.0011529849
155	0xbc3c682f	-0.011499449
156	0xbc4173af	-0.011807366
157	0x3bc33ef8	0.005958434
158	0x3ae66785	0.0017578459
159	0x3b9d4f70	0.0048007295
160	0xbc060f31	-0.008182333
161	0xbc237689	-0.009976991
162	0xbba17fd6	-0.0049285693
163	0x3bb59000	0.005540848
164	0x3b3b1330	0.0028545372
165	0xbbefe0df	-0.007320508
166	0xbb0052a3	-0.0019580505
167	0xbc263acd	-0.010145855
168	0x3a760422	0.0009384771
169	0x3c78fb55	0.015196641
170	0x3c1f4c00	0.00972271
171	0x3b9c6ce9	0.0047737253
172	0xbbb7e074	-0.0056114737
173	0xbaf433c8	-0.0018631155
174	0x3c7e6803	0.015527728
175	0x3b909d7d	0.0044133053
176	0xbc4e7e35	-0.012603332
177	0xbb88bc7e	-0.0041728606
178	0xbb49d0b8	-0.0030794572
179	0x3baf7742	0.005354793
180	0x3bbf8eb0	0.005845867
181	0xbbce4b4a	-0.0062955962
182	0x3c56372d	0.013074678
183	0x3c19dd65	0.0093911635
184	0x3c45522e	0.012043519
185	0x3c216159	0.00984987
186	0x3c39fb11	0.011351363
187	0xbbd019d7	-0.0063507366
188	0xbbd6481c	-0.006539358
189	0x3c5b1206	0.013370996
190	0xbc31ff0c	-0.010864031
191	0x3b12a70c	0.00223774
192	0xbc56da22	-0.01311353
193	0xbbbee55f	-0.005825683
194	0x3be2d97f	0.0069229
195	0xbbd37c02	-0.006453992
196	0x3b74159e	0.003724433
197	0xbba97809	-0.00517178
198	0x3c2817d9	0.010259592
199	0x38da2073	0.00010401094
200	0xbc1932b6	-0.009350469
201	0x3a7deb78	0.00096862717
202	0xbb9d0f29	-0.004793067
203	0xbb866a04	-0.0041019935
204	0xbb772db7	-0.0037716457
205	0xbc0b7f6b	-0.0085142655
206	0xb996434e	-0.00028660375
207	0xbb1b4f81	-0.002369851
208	0xbc205a46	-0.009787148
209	0x38075c45	3.227244e-05
210	0xbb4ca52a	-0.0031226375
211	0xbb18f7e5	-0.0023341116
212	0xbbbf3171	-0.0058347513
213	0x3beb08d9	0.0071726856
214	0xbc6411e6	-0.013920283
215	0x3c16dee3	0.009208414
216	0x3c12a667	0.008950806
217	0x3bb3385f	0.0054693664
218	0xbc083c99	-0.008315229
219	0xbc425c3c	-0.011862811
220	0x3c3ba727	0.011453426
221	0x3c0cfdc4	0.008605424
222	0x3c39ec5c	0.011347856
223	0x3be97b6f	0.00712531
224	0xbb684f04	-0.0035447488
225	0xb91285d1	-0.00013973496
226	0x3b672211	0.0035268108
227	0xbb77484e	-0.0037732306
228	0xbcab41ba	-0.020905364
229	0x3a19ac0e	0.0005862125
230	0xbba8c22f	-0.0051501016
231	0x3c5193a2	0.012791546
232	0xba69fa32	-0.00089255266
233	0x3bd61568	0.0065333135
234	0x3ad204ae	0.0016023123
235	0xbb2058f4	-0.0024467083
236	0xbc690a2c	-0.014223617
237	0xbcc7a084	-0.024368532
238	0x3c13acc6	0.00901336
239	0x3b46a688	0.0030311663
240	0x3c02732d	0.00796203
241	0x3c6134a3	0.01374546
242	0xbc789e97	-0.0151745295
243	0x3ca5c937	0.020237548
244	0xbbf5f43d	-0.007505922
245	0xb96b3ecf	-0.00022434744
246	0xbbcbb604	-0.0062167663
247	0xbc4f390b	-0.012647877
248	0x3aaba4c3	0.0013095367
249	0x38f6c6c1	0.00011767215
250	0xbbb68733	-0.005570316
251	0xbc0efe2e	-0.008727593
252	0x39b5b39e	0.00034656835
253	0x3c78cec2	0.015186014
254	0xbc5977d8	-0.013273202
255	0x3c691bc3	0.01422781

net.3.linear.bias f4 [32]
0	0xbd7d2996	-0.061807238
1	0x3dc0c750	0.09413016
2	0xbd178b7a	-0.03699825
3	0xbe188003	-0.14892583
4	0x3d7c0ea4	0.0615374
5	0x3d246328	0.040133625
6	0xbd5512a2	-0.052019723
7	0xbd9e3513	-0.07724967
8	0x3cdfd748	0.027324334
9	0xbc14e735	-0.009088327
10	0xbe02e7ef	-0.12783788
11	0xbe2b302c	-0.16717595
12	0x3d90b771	0.07066239
13	0xbd1c58dc	-0.03817068
14	0xbe03988d	-0.12851162
15	0x3d3d306a	0.04618875
16	0xbdfb2e35	-0.12264673
17	0xbdcb10fb	-0.09915348
18	0xbb73adbd	-0.0037182414
19	0xbe26a04e	-0.16272089
20	0x3d478d96	0.04871901
21	0x3aaedcf9	0.0013341001
22	0x3df109ef	0.11769473
23	0x3e2b2761	0.1671424
24	0xbe30b930	-0.17258143
25	0xbe1bb198	-0.15204465
26	0x3d23af87	0.039962318
27	0xbdc25f25	-0.09490804
28	0x3d545615	0.051839907
29	0xbe11292d	-0.14175864
30	0x3c88257a	0.016619433
31	0x3df7ab47	0.120932154

net.4.weight f4 [4, 32]
0	0xbc43bf6c	-0.011947494
1	0xbc77dc14	-0.015128154
2	0xbc83a236	-0.01606856
3	0x3c4038bd	0.011732277
4	0xbb8410b2	-0.0040303105
5	0xbba828bc	-0.005131809
6	0xbcff03d6	-0.031129759
7	0xbd422097	-0.04739436
8	0xbcb9148f	-0.02259281
9	0xbdae7008	-0.08517462
10	0xbca52753	-0.020160353
11	0x3c91ad92	0.01778296
12	0xbc0cae74	-0.008586515
13	0x3d07ba17	0.033136453
14	0x3c5eb16c	0.013592105
15	0xbcc42cee	-0.023947205
16	0x3c395471	0.011311636
17	0x3c5b3ead	0.013381642
18	0x3da2670d	0.079298116
19	0x3cb28583	0.021792179
20	0xb94e098e	-0.0001964925
21	0xbc809f98	-0.0157011
22	0x3c541674	0.012944806
23	0xbc74810e	-0.014923347
24	0xbc7f1af7	-0.015570394
25	0x3cd93c46	0.026517998
26	0x3c89972e	0.01679572
27	0xbcf5e032	-0.030014131
28	0x3ca7fd1d	0.020506436
29	0xbc79042f	-0.015198751
30	0x3d07b2cf	0.03312951
31	0xbccfd05d	-0.02536791
32	0x3ac26873	0.0014832154
33	0x3a4e6c64	0.0007874428
34	0x3c246b6e	0.010035379
35	0x3b84f2d4	0.0040572677
36	0xbb19fd6e	-0.0023497003
37	0xbac54a3f	-0.0015052034
38	0x3bfa008d	0.00762946
39	0xbc2c06ca	-0.0104996655
40	0xbcee919d	-0.029122168
41	0xbd3eec8c	-0.046612307
42	0xbcc78641	-0.02435601
43	0x3ca4c235	0.020112136
44	0xbc978190	-0.018494397
45	0x3c88fc46	0.016721856
46	0x3cccfbe8	0.025022462
47	0x3bd6e0da	0.006557566
48	0x3ba1f61b	0.004942668
49	0x3c6ffd65	0.014647816
50	0x3ce81005	0.028327951
51	0x3c3e75ab	0.011624734
52	0x3c28f19d	0.010311511
53	0xbcd13b20	-0.025540888
54	0x3c8d677b	0.017261257
55	0xbbaddd27	-0.0053059044
56	0x3c58a22e	0.01322226
57	0x3b650dc3	0.003495083
58	0x3c39debc	0.011344608
59	0xbc920002	-0.01782227
60	0xbc046f63	-0.008083197
61	0xbaa4b69e	-0.0012566631
62	0x3c5609a3	0.013063821
63	0xbc295f32	-0.010337638
64	0xbbbe2963	-0.0058032735
65	0xbba5badb	-0.0050576753
66	0xbcc2d3fa	-0.023782719
67	0x3cd29f5b	0.025710752
68	0xbd0ad88e	-0.03389793
69	0xbd381107	-0.044938114
70	0xbcfcc378	-0.030854926
71	0xbce7bf88	-0.028289571
72	0xbcb075dc	-0.021540575
73	0xbd5b43b9	-0.053531382
74	0xbc933d91	-0.017973693
75	0x3c51c28a	0.012802729
76	0xbc67cacb	-0.014147471
77	0x3cf69140	0.030098557
78	0x3c8baa61	0.017049016
79	0xbd268443	-0.04065348
80	0x3cb19fc4	0.021682627
81	0x3d08b69b	0.03337727
82	0x3d87e899	0.06636161
83	0x3c35d02b	0.011096994
84	0x3c2fd5b0	0.010732099
85	0xbd23fc12	-0.040035315
86	0x3c2844d9	0.010270321
87	0xbc83ab22	-0.016072813
88	0xbd12c2e2	-0.035830386
89	0x3ba12a7d	0.004918395
90	0x3c623622	0.013806852
91	0xbc958085	-0.01824976
92	0x3c7e8b26	0.015536105
93	0xbca1bd64	-0.019743629
94	0x3c03ddf1	0.00804852
95	0xbcaa863b	-0.02081596
96	0x3d0903d3	0.033450913
97	0xbcecbaf9	-0.02889775
98	0x3d13a49a	0.03604565
99	0xbd124abf	-0.035715815
100	0x3d181b83	0.037135612
101	0x3d11f873	0.03563733
102	0x3d36c9b2	0.044625945
103	0xbcdad9de	-0.026715215
104	0x3d1da07a	0.03848312
105	0xbcaa516a	-0.020790774
106	0x3d1d5bc0	0.038417578
107	0xbcf5a8f4	-0.02998779
108	0x3d27b6c8	0.0409458
109	0xbd321e9d	-0.043486226
110	0xbce7fd50	-0.028319031
111	0x3d179863	0.03701056
112	0xbd103b1c	-0.03521262
113	0xbd12f2dd	-0.035876144
114	0x3cbed341	0.023294093
115	0xbd0c3d86	-0.03423836
116	0xbd34ca50	-0.044138253
117	0x3cff89e5	0.031193683
118	0xbd18be09	-0.037290607
119	0x3d2dd735	0.042441566
120	0x3d30483e	0.043037646
121	0xbcf1ce5d	-0.029517347
122	0xbd1eee27	-0.03880134
123	0x3d129e18	0.0357953
124	0xbd25aa0f	-0.040445384
125	0x3d297af0	0.041377008
126	0xbd1e9206	-0.038713478
127	0x3d300267	0.04297104

net.4.bias f4 [4]
0	0xbdaf7260	-0.08566737
1	0x3d29e0e2	0.04147423
2	0x3dadbe66	0.08483581
3	0xbd9ed687	-0.077557616
