outputs/noisy_data/chirp/1_nodes_given/model.pt (torch, 16367 bytes, 10 tensors)

net.0.linear.weight f4 [32, 1]
000000 78 e9 cb be 40 67 24 3d b0 d3 6e be a0 0e e1 bd
       -0.3982656 0.04013753 -0.2332294 -0.109891176
000010 66 92 79 bf 48 c2 ef 3e c8 b3 60 3f 1e 7a 1c 3f
       -0.9748901 0.46827912 0.87774324 0.61123836
000020 2a 48 35 bf ca 5c 4e bf f4 9b d4 3e 00 fb b7 3c
       -0.7081324 -0.80610335 0.41525233 0.022458553
000030 78 e2 d1 3e 98 26 7a bf 40 37 74 bd da 8a 34 3f
       0.40993094 -0.9771514 -0.059623003 0.7052437
000040 cc 85 ed 3e 40 93 15 3d 80 56 49 3e a0 e7 c1 bd
       0.4639114 0.03651738 0.19661903 -0.09468007
000050 e4 c1 0c bf 04 7c c1 be 18 e6 1b bf ce a2 54 3f
       -0.54983354 -0.3778993 -0.6089797 0.8306092
000060 96 df 0c 3f d8 0e b3 3e 72 50 44 bf 02 89 45 3f
       0.55028665 0.34972262 -0.7668525 0.7716218
000070 ac 88 a0 3e 74 19 31 3f 6c 6a c9 be b8 15 59 3e
       0.31354272 0.69179463 -0.39339006 0.21199691

net.0.linear.bias f4 [32]
000000 dc 1c df 3e 0c c7 d2 3e 04 d0 54 3f 60 35 07 be
       0.43576705 0.41167486 0.83129907 -0.13203955
000010 b2 7f 58 bf f8 ea 92 be 58 4b 34 bf f0 62 87 3d
       -0.8456985 -0.28694892 -0.70427465 0.06610668
000020 40 30 3f be 86 50 09 bf 00 35 ba bd 0e 89 72 3f
       -0.1867075 -0.53638494 -0.0909214 0.9474038
000030 70 89 a1 bd 60 0c 02 3d 20 b4 1f be e0 fa 20 3e
       -0.07887542 0.031750083 -0.15596056 0.15720701
000040 68 19 64 3f cc 8a 1c 3f 84 bd b5 3e a8 86 5e 3e
       0.89101267 0.6114929 0.3549615 0.21731055
000050 b0 73 71 3e 78 cd c5 3e 28 53 04 be bc ed 6d bf
       0.23579288 0.38633323 -0.12922347 -0.9294088
000060 3e 50 1e bf 98 84 5a 3f 00 d5 74 3d fa 60 4f bf
       -0.6184119 0.8535857 0.059773445 -0.8100735
000070 50 83 21 3e 8a 86 53 3f 80 eb 71 bf 6a 59 2c bf
       0.15772748 0.82627165 -0.9449997 -0.67323935

net.1.linear.weight f4 [32, 32]
000000 c6 42 4b 3c e4 15 2c bc 88 8e f3 3b 16 d3 17 3c
       0.012406057 -0.010503266 0.0074327625 0.009266635
000010 5c 14 01 bc f6 3c 89 bb 5c 66 15 3c df 54 60 bc
       -0.007878389 -0.0041881753 0.009118643 -0.01369211
000020 04 d9 a3 3b 9c 5c 44 3c e4 95 16 bc b0 2b 95 3a
       0.0050002355 0.01198497 -0.00919101 0.0011380818
000030 38 f8 aa 3b 38 d5 ae bb 08 31 4f 3c 80 17 51 bb
       0.0052175783 -0.0053354762 0.012645967 -0.0031904876
000040 ec f1 86 3b ac 14 d3 3b d2 68 fd bb e0 08 92 bb
       0.004118195 0.0064416733 -0.007733443 -0.0044566244
000050 a0 e4 50 ba 10 dc 4f 3c a1 a8 31 bc 5c aa ee 3b
       -0.0007968638 0.012686744 -0.010843427 0.007283492
000060 9a 0d 46 3c 28 cf 3e 3b 36 af 0e bc f0 57 0e 3c
       0.012088204 0.0029115174 -0.008708766 0.008687958
000070 76 a5 47 bc 4c 0b 8d 3b 36 e4 87 bb 34 cd 1b bb
       -0.012185445 0.004304325 -0.004147078 -0.0023773434
000080 40 cb 36 bc 08 be 31 3b 38 2f 12 bc be c9 5d 3c
       -0.011156857 0.0027121324 -0.008922391 0.013536869
000090 50 6c 1b 3b ee 7e 46 bc ab 56 f6 bb e4 0d 1f 3c
       0.0023715682 -0.012115223 -0.007517656 0.009707902
0000a0 10 64 1b 3c be 8e ca bb 7c a5 8d 3b e8 55 d7 3b
       0.009484306 -0.006181567 0.004322706 0.00657152
0000b0 d2 5d 54 bc 74 71 df 3b 78 9a 1b bc d0 36 7c bb
       -0.012961822 0.0068189446 -0.009497277 -0.003848482
0000c0 70 08 b6 3a 44 e2 16 3c 8a e7 29 bc 84 0a 1f 3c
       0.0013888013 0.009209219 -0.010370145 0.009707097
0000d0 bc 33 e7 3b 8a b8 61 3c 48 a6 f0 ba 70 f2 55 ba
       0.0070557278 0.013776908 -0.0018360103 -0.0008161431
0000e0 fe e5 18 3c 16 ef 59 bc 6c 72 fd bb 74 dd a0 bb
       0.009332178 -0.013301631 -0.0077345874 -0.004909212
0000f0 5e 43 5a bc 6e db d5 bb 1f 5f 49 bc 65 4e 5c bc
       -0.013321726 -0.006526402 -0.012290745 -0.013446425
000100 94 bb 05 bb 44 24 5f 3c 30 85 32 3b a2 86 56 bc
       -0.0020405995 0.013619486 0.002724003 -0.013093622
000110 f0 b9 77 3b a8 0d 23 3c 1f f1 20 bc a6 13 05 3c
       0.0037800036 0.009951986 -0.009823113 0.00812236
000120 3c df cf 3b a8 a2 49 3b 58 ea 9a 3b f0 72 de ba
       0.0063437503 0.0030767117 0.004727643 -0.001697151
000130 77 c2 39 bc b0 71 8d ba 26 2a 22 3c 20 1e 20 3a
       -0.011337868 -0.0010791328 0.009897744 0.00061080046
000140 e0 22 f1 ba 18 d1 28 bc f2 f6 3b bc 00 d4 a8 38
       -0.0018397234 -0.010303758 -0.011472451 8.050352e-05
000150 70 a8 9a 3b bc 3e 30 3c 50 43 52 ba e8 71 b8 3b
       0.0047197863 0.010757145 -0.00080208946 0.005628813
000160 36 e6 1d bc 06 48 68 bc ea f8 11 bc e2 30 2f 3c
       -0.009637406 -0.014177328 -0.008909443 0.010692807
000170 d0 7d fb bb fa 33 d0 bb e0 3c f1 39 a7 78 db bb
       -0.00767491 -0.0063538523 0.00046012457 -0.0066977325
000180 a8 52 f4 ba c3 63 17 bc eb c1 18 bc b0 50 61 3c
       -0.0018640356 -0.009240094 -0.009323577 0.013752148
000190 ca 32 61 bc 20 55 61 ba 3c 21 da 3b b6 b3 ff bb
       -0.013745019 -0.00085957535 0.006656794 -0.0078034056
0001a0 bc d5 c0 3b 08 c3 8a 3a 74 7b 48 3c 30 9b 48 3c
       0.005884854 0.0010586688 0.012236465 0.012244031
0001b0 00 94 c9 38 44 cd 11 bc 98 4a 3d bb c0 0d ef 3b
       9.611994e-05 -0.008899037 -0.0028883573 0.0072953403
0001c0 9e 9c 3b 3c 90 e5 be 3a 8e 36 e2 bb a0 59 f2 3b
       0.011450915 0.0014564265 -0.006903476 0.007395938
0001d0 b4 38 54 bc b0 28 4f bc 60 b6 9e bb 95 d7 ea bb
       -0.012952972 -0.012643978 -0.004843518 -0.0071668127
0001e0 87 14 49 bc 0c 0b cd 3b 8e 4f 50 3c 38 39 d8 ba
       -0.0122729605 0.0062574204 0.01271428 -0.0016496545
0001f0 bc b1 88 3b 2a bb 3f 3c 3e 18 18 bc b4 8b a0 3b
       0.004171578 0.011702338 -0.009283124 0.0048994664
000200 53 95 2c bc 50 40 da 3a e8 30 ad ba e0 2e 0d bb
       -0.010533649 0.0016651247 -0.0013213428 -0.0021542832
000210 0e bf 2b 3c d4 9c 87 3b 12 13 50 bc 26 f9 ab bb
       0.010482563 0.0041385684 -0.012699859 -0.0052482067
000220 5e 0e 8e bb d9 75 64 bc 9c 1e e0 3b 38 0c 38 3b
       -0.004335209 -0.013944113 0.0068395864 0.0028083455
000230 d3 7b 30 bc 74 0b 9c 3b 84 ce 34 bc 84 68 38 3c
       -0.0107717095 0.0047621075 -0.011035565 0.011255387
000240 75 c5 03 bc da 82 57 3c 80 a1 0a 3b b0 7f 32 bc
       -0.008042683 0.013153756 0.002115339 -0.010894701
000250 da 21 0d bc c4 92 97 3b b8 35 52 3c 5c f0 05 3c
       -0.008614028 0.00462565 0.01283019 0.008174982
000260 b8 13 77 3b a8 c0 df 3b 18 3e 2d 3c 38 1a 54 3c
       0.0037700962 0.0068283863 0.010573886 0.012945704
000270 83 90 68 bc 00 b2 83 37 9c af 15 bc 56 f1 bb bb
       -0.0141946105 1.5699305e-05 -0.009136107 -0.0057355566
000280 d0 34 6a bc db 5b 40 bc 4c ea 17 3c 64 64 06 bb
       -0.014294818 -0.01174065 0.009272169 -0.0020506615
000290 6c 4d f0 3b 1e e2 45 bc 00 c1 e0 ba b4 15 28 3c
       0.007333448 -0.012077836 -0.0017147362 0.010259081
0002a0 22 b9 14 3c ea 6d 55 3c 46 9c 4e 3c 0b a0 58 bc
       0.009077342 0.013026694 0.012610501 -0.013221751
0002b0 6c cb ac bb 6a ea 3f bc 54 9f 38 3c ac 57 00 bb
       -0.005273273 -0.0117136035 0.011268456 -0.0019583507
0002c0 d4 1f 05 bb c8 e1 9f 3b 50 d2 88 3b 2e 25 29 3c
       -0.002031316 0.00487921 0.004175462 0.010323806
0002d0 4a b8 81 bb 28 49 07 bc 1c c2 de 3b 4e 4d 2d bc
       -0.0039587365 -0.008257188 0.006798042 -0.010577513
0002e0 9c 9f 10 3c fc e3 55 bb bc af ee 3b 18 7a 25 bc
       0.008827116 -0.003263711 0.0072841328 -0.01009991
0002f0 e4 77 25 bc 96 88 96 bb d8 6c 86 3a 26 58 90 bb
       -0.010099385 -0.004593919 0.0010255827 -0.0044050394
000300 bc 75 1f 3c 1c dd a8 3b 64 e9 93 3b 2c 87 17 3c
       0.00973266 0.0051533114 0.0045139063 0.009248536
000310 a1 02 53 bc 48 19 e5 3b 3e a8 03 bc ba 74 52 3c
       -0.012879045 0.006991539 -0.0080357175 0.012845213
000320 0a 45 06 3c 68 5c c8 3b 5e ee 36 3c 88 16 0e bb
       0.008195171 0.0061145313 0.01116523 -0.002168091
000330 5b 3e 1f bc 90 2c 26 3a 14 4f f4 3b f0 62 06 3c
       -0.009719457 0.0006339038 0.007455716 0.0082022995
000340 80 d5 44 bc 28 9d 03 bb 00 6d 79 39 ac e1 af bb
       -0.012013793 -0.0020082686 0.00023787096 -0.0053674784
000350 07 9f 1c bc 96 63 43 bc e0 b4 cc 39 ad 17 39 bc
       -0.009559399 -0.011925599 0.00039044674 -0.011297149
000360 74 e1 9e 3b c0 f3 05 39 80 5c f7 3a 40 b2 db b9
       0.0048486535 0.00012774672 0.0018872172 -0.00041903742
000370 e8 28 b1 3b c8 c6 78 3b e0 7e e5 3a 8e c0 30 3c
       0.0054064877 0.003796028 0.0017509125 0.010788096
000380 8c 59 30 3c 78 ca a8 bb 74 71 4e 3c e4 79 6b bc
       0.010763537 -0.0051510893 0.0126002915 -0.014372323
000390 00 40 67 38 44 73 4c 3c 08 b0 59 3c 50 15 12 3c
       5.5134296e-05 0.012478653 0.013286598 0.008916214
0003a0 b8 9d 6b 3b 76 30 10 bc 7f e6 17 bc 18 86 10 3b
       0.0035952162 -0.0088006165 -0.009271263 0.0022052582
0003b0 d2 98 2b 3c 70 e0 b5 3a a2 e9 14 3c 70 c6 3d 3c
       0.010473447 0.0013876092 0.0090889055 0.011582956
0003c0 ee b4 46 3c e0 93 d2 bb 86 fe d1 bb e0 fd 48 3c
       0.012128098 -0.0064263195 -0.0064085154 0.01226756
0003d0 e0 3d 26 3b 4a be 4b 3c 00 d8 59 3c ff d6 61 bc
       0.002536647 0.012435505 0.013296127 -0.013784169
0003e0 ea 4b 63 3c 50 ec e9 3a 81 03 e1 bb 10 14 00 3c
       0.01387308 0.0017846916 -0.006866873 0.007817283
0003f0 ad 55 32 bc ea 7d 8d bb 72 c3 22 3c 0c 3f 40 3c
       -0.0108846845 -0.0043179886 0.009934293 0.011733782

net.1.linear.bias f4 [32]
000000 f2 bf af 3d 99 e5 16 3e e0 a1 d1 3c 58 3f 94 bc
       0.085815325 0.14736022 0.025589883 -0.01809661
000010 98 bd cf 3c d0 7a 06 bd 87 a8 0f 3e 10 14 2e bd
       0.02535896 -0.032831967 0.14029132 -0.0424996
000020 50 15 db bd 00 92 9b 3b b5 ff 8d bd 8f d1 18 3e
       -0.106974244 0.004747629 -0.06933538 0.1492369
000030 9b 9c 29 3e 3e 74 29 be 2a 99 bd 3d 14 77 e6 bd
       0.16563646 -0.16548249 0.09257729 -0.11253181
000040 14 1a 7d 3d af 62 18 be f7 6b 21 3e c0 84 17 be
       0.06179245 -0.14881395 0.15763842 -0.14796734
000050 cc 2d 09 be c2 fe df 3d 80 a4 df 3b f8 fa 0d bd
       -0.13396376 0.10937263 0.00682503 -0.03466317
000060 56 83 f9 3d 18 4c 9d bd fc c8 a8 bd 3c 70 2d bd
       0.121832535 -0.07680529 -0.0824146 -0.042343363
000070 26 4b f6 3d 99 a8 15 be 70 5b 8d bd cd f3 c1 bd
       0.12026052 -0.14615096 -0.06902206 -0.094703294

net.2.linear.weight f4 [32, 32]
000000 a2 af 0a 3c c4 af 34 3c a6 95 c9 bb 7e b4 06 3c
       0.008464726 0.011028234 -0.0061518727 0.008221744
000010 ce 14 e3 bb d0 ed bd 3a 20 53 5c 3c d0 bf 73 bb
       -0.0069299703 0.0014490429 0.013447553 -0.0037193187
000020 d8 72 b1 3b c2 4b 17 bc 29 0f 34 bc 9c cb 1c 3c
       0.005415302 -0.009234371 -0.010989943 0.009570029
000030 6d 82 10 bc 4b 74 e0 bb 6e 34 3a 3c 74 79 29 3c
       -0.008820158 -0.0068498007 0.011365039 0.010343898
000040 b8 db e4 3b d4 47 df bb af 6a f8 bb 40 c2 6b b9
       0.0069842003 -0.0068139825 -0.007581077 -0.0002248371
000050 50 f0 4b 3c b8 fb a0 3b 9a 58 1e 3c a8 43 14 3c
       0.012447432 0.0049128197 0.009664679 0.009049334
000060 31 ec e1 bb 36 78 32 3c 87 33 07 bc 5d 1c 65 bc
       -0.0068946113 0.010892918 -0.008252031 -0.013983813
000070 a0 e1 c8 3b 89 98 68 bc 40 fd 9a 3b f0 f8 8f 3a
       0.006130412 -0.014196523 0.004729897 0.0010984223
000080 82 93 dd bb d0 08 0b 3a 9a e1 8f bb a4 73 65 3c
       -0.006761969 0.00053037424 -0.0043909075 0.014004622
000090 de 3e 0b bc 92 5b d1 bb 96 14 67 bc 34 02 be bb
       -0.008498875 -0.00638909 -0.014104029 -0.0057986025
0000a0 cb 7d 5f bc 58 67 13 3c b0 11 03 3c 3e 6d 4b 3c
       -0.013640831 0.008996807 0.0079998225 0.012416182
0000b0 e1 38 55 bc 50 2b 33 3b ee a0 1d bc 0a 46 0c 3c
       -0.013014049 0.0027339049 -0.009620888 0.0085616205
0000c0 b3 a0 3b bc 63 b2 33 bc e1 23 e7 bb 54 54 2c 3c
       -0.011451888 -0.010967824 -0.0070538376 0.010518152
0000d0 c8 47 3a 3c 82 1e 0b bc 9c 48 f9 3b da 06 13 3c
       0.011369653 -0.00849116 0.0076075327 0.0089738015
0000e0 40 65 68 3b af 69 1b bc 46 a4 a9 bb 28 8b 40 3b
       0.003546074 -0.009485646 -0.0051770536 0.0029379819
0000f0 78 31 c0 3b ea f4 6b 3c 0c 4f 09 bb 20 ec a9 39
       0.005865272 0.014401654 -0.0020951657 0.0003241012
000100 ee b8 9a bb 76 06 29 3c 00 71 66 bc 7e 6b 1a 3c
       -0.0047217524 0.010316482 -0.014065027 0.009425042
000110 00 3a 0a bc 60 6a 11 ba 08 1f 37 3b 12 2e 3a 3c
       -0.00843668 -0.0005547162 0.002794208 0.011363523
000120 96 22 94 bb 80 fe 9c b9 d0 90 02 3b 1e 0a 30 3c
       -0.0045207245 -0.00029944256 0.001992274 0.0107446
000130 f4 be d3 bb 60 a3 b9 39 56 d6 27 bc e6 9d 24 3c
       -0.0064619724 0.00035407674 -0.010243973 0.010047412
000140 40 4d 3b bc b0 9a 7c ba 10 dd a5 3a c0 a2 9d bb
       -0.011431992 -0.00096360873 0.0012654383 -0.004810661
000150 cc 64 47 3c 5c ee 2f bc 98 f9 23 3c 90 7a 9e 3b
       0.012170028 -0.010737982 0.010008238 0.004836388
000160 30 97 2f 3b 68 29 69 3b 10 5a 1f 3a 00 5c 0f b7
       0.0026792996 0.0035577659 0.0006078789 -8.544885e-06
000170 46 c4 35 bc e2 fd 3b bc be c3 10 3c a8 27 4d 3b
       -0.0110941585 -0.011474105 0.008835731 0.0031304155
000180 70 b6 96 3b 90 13 0c bc a0 70 81 b9 00 58 1e b9
       0.004599385 -0.008549586 -0.0002468871 -0.00015100837
000190 75 ac 26 bc 40 2f 84 ba e0 4b ec ba 95 91 26 bc
       -0.010172953 -0.0010084882 -0.0018027984 -0.010166545
0001a0 d0 17 bd 3b 3e 11 36 bc f2 d0 55 bc d6 e1 46 bc
       0.005770661 -0.011112509 -0.013050305 -0.012138804
0001b0 f0 42 b8 3a 88 5a 80 bb 70 15 d5 ba 4a 53 2b 3c
       0.0014058035 -0.003917042 -0.0016256999 0.010456869
0001c0 de 6c 10 3c 8b 88 fa bb 80 a0 7f b9 b2 85 37 bc
       0.008815018 -0.0076456717 -0.00024378486 -0.011201309
0001d0 12 0d 1d bc c3 f4 53 bc 90 57 93 3b 96 08 30 bc
       -0.009585636 -0.012936774 0.0044965222 -0.010744235
0001e0 cc 50 2d 3c 28 9a c3 ba 6e 83 42 bc 36 ae d7 bb
       0.0105783455 -0.0014923261 -0.011872156 -0.006582047
0001f0 62 39 3d 3c 6c 1e 03 bb 47 97 1e bc 50 2f ff bb
       0.011549326 -0.0020007147 -0.009679622 -0.0077876225
000200 ae d7 09 3c 2c 53 28 bc 80 6b b8 3a b2 31 57 3c
       0.008413238 -0.010273736 0.0014070123 0.013134407
000210 b8 c8 24 3b 4e 07 b2 bb 02 26 42 3c ae 24 d5 bb
       0.0025144052 -0.0054329997 0.011849882 -0.0065046167
000220 90 ba ab ba 58 52 82 3a d0 f7 f5 3a 40 68 4c 3b
       -0.0013101865 0.0009942753 0.001876587 0.0031190068
000230 86 65 2e 3c 30 0a d7 ba de 39 ad bb 14 d5 a9 3b
       0.010644322 -0.0016406234 -0.0052864393 0.0051828716
000240 1c 1e 62 bc 00 ab 24 ba 00 2c 83 b7 92 8e 07 bc
       -0.013801124 -0.00062815845 -1.5636906e-05 -0.0082737375
000250 38 fc 0f 3b ac f3 f3 3b 60 c3 7a 3b 28 a4 30 bc
       0.0021970402 0.0074448194 0.0038263425 -0.010781325
000260 ea aa b6 bb e0 15 32 3b 8f 41 54 bc b8 e2 5d 3b
       -0.0055745738 0.0027173683 -0.0129550835 0.0033857059
000270 d8 20 26 3c 39 01 2b bc 8c 92 47 bc 80 d2 a6 3a
       0.0101396665 -0.010437303 -0.012180936 0.0012727529
000280 06 23 59 bc fc 91 3b 3c 7c eb 23 bc 30 37 88 3b
       -0.013252979 0.01144838 -0.010004874 0.0041569695
000290 2c 53 4d 3c ac 9f bb bb 7a c8 21 3c 78 03 a8 bb
       0.012532037 -0.0057258215 0.0098744575 -0.0051273666
0002a0 55 c2 5d bc 0f 56 6b bc c8 36 0f bc f0 f3 62 3a
       -0.013535102 -0.01436378 -0.008741088 0.00086575653
0002b0 70 0c 0a bc 74 20 1c bb bb 03 18 bc e0 a8 08 3c
       -0.008425817 -0.0023823055 -0.009278233 0.008341044
0002c0 cb 54 62 bc 96 fd 37 bc 06 34 11 3c 3d a9 df bb
       -0.0138141615 -0.011229893 0.008862501 -0.0068255947
0002d0 0c cb 16 3c 68 96 82 3b fc 2d 61 bc 40 8b ce ba
       0.009203684 0.003985215 -0.013743874 -0.0015758052
0002e0 26 02 2f 3c 47 9f 3d bc 84 6b 4b bb 8f 39 dc bb
       0.010681665 -0.011573619 -0.0031039426 -0.0067207287
0002f0 82 7c 3e 3c 60 b0 cb 3b a4 28 99 3b 48 5d 5d 3b
       0.011626365 0.006216094 0.004674034 0.0033777524
000300 ec 2a 09 3c 88 60 57 3b 3e bf e7 bb 1f 15 2f bc
       0.00837205 0.0032863934 -0.0070723584 -0.010686188
000310 f0 8c 9e 3b df 59 65 bc da 1f 18 3c 8c 43 61 3c
       0.0048385784 -0.013998478 0.009284938 0.013749015
000320 b4 37 05 bc 96 f6 06 3c bc a7 27 bc 40 e5 be 39
       -0.008130956 0.008237502 -0.010232862 0.0003641043
000330 60 af d6 b9 54 c9 03 3c f0 e0 f7 3b b8 fb d9 ba
       -0.00040947925 0.008043606 0.0075646564 -0.0016630804
000340 f0 91 22 3b ee a3 50 bc 50 23 83 bb a0 b8 d8 3a
       0.0024806224 -0.012734396 -0.0040020123 0.0016534515
000350 b0 d2 e8 3a 80 ac 4b ba f4 0e f5 bb bb 82 49 bc
       0.0017762985 -0.000776954 -0.007478589 -0.012299235
000360 94 7e ad 3b 80 37 e2 b9 d8 e9 f6 3b 6b ec 4a bc
       0.0052946303 -0.0004314743 0.0075352006 -0.012385468
000370 8c 36 04 bc aa e2 1f 3c db 77 eb bb b7 03 64 bc
       -0.008069646 0.009758631 -0.0071859187 -0.013916901
000380 2e 31 86 bb 5c 85 45 bc dd cf 3a bc 90 d1 9f 3b
       -0.004095218 -0.012055721 -0.0114020975 0.0048772767
000390 10 81 42 bc 24 7b 1e 3c 2e 37 35 3c d4 e3 80 3b
       -0.011871591 0.009672914 0.011060519 0.003933409
0003a0 9d e0 ec bb 70 5e c0 3b 40 bd 2e bb 36 13 37 3c
       -0.0072289244 0.005870633 -0.0026663095 0.011174014
0003b0 09 d0 3a bc d0 50 6b bb d0 e3 20 ba fa a1 21 bc
       -0.0114021385 -0.0035906322 -0.00061374623 -0.009865278
0003c0 ec 8c 1e 3c 36 40 67 3c 00 a3 53 ba 24 fa b3 bb
       0.009677153 0.01411443 -0.00080733 -0.0054924656
0003d0 b0 62 fd 3a a6 5f 1a bc e6 57 39 3c cc af c6 3b
       0.0019331779 -0.009422218 0.0113124605 0.006063437
0003e0 46 d2 27 3c 7f de 51 bc dc 54 e7 3b bc 68 2a bb
       0.010243004 -0.012809395 0.0070596766 -0.0026002368
0003f0 2e cf 6b 3c 8c dd 18 bb 80 54 a4 b9 be 9b 94 bb
       0.014392657 -0.0023325412 -0.00031343475 -0.0045351675

net.2.linear.bias f4 [32]
000000 40 ff fb bd 78 a8 6f 3d ed d9 1b be cd ba 2a 3e
       -0.123045444 0.058510274 -0.15219851 0.16672821
000010 bd bb a4 bd eb 7f 25 3e c7 33 da bd dd 50 19 be
       -0.08043621 0.16162078 -0.10654407 -0.14972253
000020 80 1d d0 3a 40 c7 13 be 70 2b c5 3c b7 5b 20 be
       0.0015877932 -0.14431477 0.024068564 -0.15659986
000030 08 2e 34 bd 0c a2 45 3d 22 d0 d2 bd 9f 99 95 bd
       -0.04398921 0.048250243 -0.102936044 -0.073046915
000040 8b d7 05 3e e8 e8 83 bc 50 55 9e 3c 6a 0e 13 be
       0.13070504 -0.01610227 0.01932779 -0.14360967
000050 6b 87 2e be 87 74 09 be 90 6d 3b bd 6f 5a 07 3e
       -0.17043845 -0.13423358 -0.045758784 0.13218091
000060 ec 5c 8c 3d 2c 38 51 bd 00 41 6a bb 06 ef dc 3d
       0.06853661 -0.05107896 -0.003574431 0.107877776
000070 06 bb fb 3d d3 0a ff bd c2 39 e6 bd 7f 5b eb bd
       0.12291531 -0.124532364 -0.11241485 -0.11492061

net.3.linear.weight f4 [32, 32]
000000 2f 56 52 bc bc a0 17 bb 2c 82 0f 3c 9e 05 00 3c
       -0.012837931 -0.0023136577 0.008759063 0.007813839
000010 38 cc 8b 3a cc 45 64 bc ac 03 fc 3b d4 32 b0 3b
       0.001066572 -0.0139326565 0.0076908674 0.005377153
000020 2d 49 f0 bb 5e f9 58 bc e7 4d 03 bc 38 5e 9d 3b
       -0.007332942 -0.0132430475 -0.008014179 0.0048024915
000030 8b 84 ff bb a4 ac 23 bc 54 a4 3b bc 0a e5 0c bc
       -0.007797783 -0.009989891 -0.011452753 -0.008599529
000040 48 99 17 bb d2 30 2e 3c c2 4e 11 bc 2a 88 50 bc
       -0.0023132134 0.010631757 -0.008868875 -0.012727777
000050 66 ad 42 3c 38 ca fd 3b 3c 6b 93 3b 0a f9 1d bc
       0.011882162 0.0077450536 0.0044988673 -0.009641895
000060 38 78 25 3c bc cd c0 3b 88 b1 05 3b e8 09 2e 3c
       0.010099463 0.0058839004 0.0020400006 0.010622479
000070 f8 cf 8b 3b 88 95 13 3c 42 f7 89 bb 06 c9 11 3c
       0.004266735 0.009007819 -0.0042103836 0.008898025
000080 c6 02 e5 bb a0 7b 6a 3b 59 29 12 bc 61 57 58 bc
       -0.006988856 0.0035779253 -0.008920991 -0.0132044265
000090 66 f9 46 bc 75 94 2f bc 44 40 fe 3b d6 22 64 3c
       -0.012144422 -0.010716547 0.007759126 0.013924321
0000a0 1e 94 0f 3c e0 7f df b9 e0 9a 89 b9 50 77 f5 3a
       0.008763341 -0.0004262915 -0.00026246067 0.0018727574
0000b0 f6 43 61 3c 78 6c f8 3b 12 68 10 bc 62 42 05 bc
       0.013749113 0.00758129 -0.008813875 -0.008133503
0000c0 b8 36 3e 3c 80 07 fc 3b 87 0f 67 bc 93 a1 44 bc
       0.011609726 0.0076913238 -0.014102823 -0.012001413
0000d0 24 9d f1 3b 6e d9 e5 bb 72 a3 30 3c d2 76 18 3c
       0.007373469 -0.007014445 0.010781156 0.009305673
0000e0 9c 78 3a bc 98 f8 5b 3b 38 37 20 bb 31 18 65 bc
       -0.011381295 0.0033564921 -0.0024446975 -0.013982818
0000f0 24 dd 91 3b e0 ce d2 3a e0 05 30 3b 2a 21 3f bc
       0.004451411 0.0016083382 0.002685897 -0.011665622
000100 34 2a 51 bb 6c 72 2d bb 82 31 4d bc b8 94 37 3c
       -0.0031916024 -0.0026465906 -0.012524011 0.011204891
000110 ee a9 82 bb a4 b7 de 3b 1c 2e 7e bb 62 95 38 bc
       -0.0039875424 0.006796794 -0.0038784808 -0.011266084
000120 f4 c7 7c bb 28 c8 33 3b ce 42 3b 3c e0 98 13 3b
       -0.003857133 0.0027432535 0.011429502 0.002252154
000130 78 56 21 3c d0 20 df 3b 38 2e 22 bc 80 a3 f2 39
       0.009847276 0.0068093315 -0.009898715 0.00046279654
000140 d0 ee 51 3c cc b3 8e bb b0 22 cf 3b a6 1a 50 3c
       0.012813285 -0.0043549296 0.0063212737 0.012701666
000150 10 b0 4a ba 1e db a9 bb 00 47 09 bc 20 26 47 ba
       -0.0007731924 -0.0051835915 -0.008378744 -0.00075969286
000160 4a ed 19 bc 58 e1 6b 3c aa 15 47 bc ba 61 4d 3c
       -0.009394953 0.014396988 -0.012151161 0.012535507
000170 18 75 1b 3c cc ed 4e bc d0 1d 0f bc 14 30 59 3c
       0.009488367 -0.012629937 -0.008735135 0.013256092
000180 20 51 fe ba 7f 12 27 bc a0 15 b4 39 fc c9 6e bb
       -0.0019402839 -0.010197281 0.00034348387 -0.003643631
000190 60 9c c7 3a b4 cc b5 3b c9 2d 49 bc c1 02 f5 bb
       0.0015229098 0.005548084 -0.012278982 -0.007477135
0001a0 90 52 18 ba b0 21 58 3c 18 38 37 bc 4e 7f fe bb
       -0.00058106426 0.0131916255 -0.011182807 -0.0077666407
0001b0 60 a7 02 3c fe c0 5c 3c 20 ac be 3a c0 1e 7f 39
       0.007974476 0.013473747 0.0014547147 0.0002433015
0001c0 68 f5 d3 3b 28 27 39 bb a6 66 0c 3c 9a ee 6a 3c
       0.0064684637 -0.0028252099 0.008569395 0.014339114
0001d0 1e 36 29 3c de 96 68 bc d8 c9 36 3c 8c 55 5f 3c
       0.010327844 -0.014196126 0.011156522 0.013631236
0001e0 50 6a c5 3b a2 67 9c bb c0 9d fd ba 62 24 1c bc
       0.0060246363 -0.004773096 -0.0019349381 -0.009530159
0001f0 7c a2 19 bb ec be 17 3c 2a c8 83 bb 80 ff 19 bb
       -0.0023442796 0.009261828 -0.004021664 -0.0023498237
000200 68 52 2c bb 40 ed 09 b9 f0 65 fc 3a d8 0e 16 bb
       -0.0026294235 -0.0001315372 0.0019256454 -0.002289703
000210 c4 0f 6b bc 98 27 a0 bb 83 d5 f7 bb fa 48 b0 bb
       -0.014347021 -0.0048875324 -0.0075632944 -0.0053797932
000220 31 eb ec bb 38 c8 26 bc 71 85 3f bc 38 eb a8 bb
       -0.0072301854 -0.010179572 -0.01168953 -0.0051549934
000230 28 4a 08 3b 34 bf 68 3c b0 32 a8 3a 80 f2 a1 3a
       0.0020796154 0.014205743 0.0012832489 0.0012355596
000240 1c 13 e7 3b 20 1a 54 3b 14 62 3d bc 3e ca 66 bc
       0.0070518386 0.0032364205 -0.011559028 -0.014086304
000250 8b 30 12 bc 44 0b 45 bb 06 57 1f bc 12 a2 30 3c
       -0.008922706 -0.003006653 -0.009725338 0.010780828
000260 56 ed 94 bb bb ca de bb 00 b1 27 bc f8 6b cf bb
       -0.004544894 -0.0067990697 -0.010235071 -0.0063300095
000270 82 2d 31 bc 2c 2e 46 3c 38 bd 7b 3b 92 a8 4b bc
       -0.010814073 0.012095969 0.0038412344 -0.012430327
000280 8c 37 67 3c 30 dc 38 bb 6c 6e 9f 3b 5c 51 11 bb
       0.0141123645 -0.0028207414 0.0048654582 -0.0022173738
000290 c8 bb 2a bb 92 a2 03 3c b4 7c 4e 3c 10 57 b2 3b
       -0.0026051868 0.008034365 0.012602974 0.0054425076
0002a0 52 e5 68 3c f4 55 63 3c 90 76 52 ba e8 fe b1 ba
       0.0142148305 0.013875473 -0.00080285314 -0.0013579996
0002b0 10 7e 92 ba 8c ca 55 bb ac 2c ae bb 78 a3 42 bc
       -0.0011176486 -0.0032621948 -0.005315384 -0.011879794
0002c0 bd da 62 bc 46 2f bc bb a8 ee b5 bb 75 3f 66 bc
       -0.013846097 -0.00574294 -0.0055521317 -0.014053215
0002d0 2c 50 4f bb a6 43 1a 3c 24 09 0d bb ee 30 d2 bb
       -0.003163348 0.009415543 -0.002152034 -0.0064145243
0002e0 20 45 9b b9 4e 9e 1b 3c fc 3a d4 bb 5c 08 c3 bb
       -0.00029615406 0.009498192 -0.006476758 -0.0059519242
0002f0 b0 d4 69 ba 90 1c 07 ba 14 e6 5a 3c 4c 11 4f bc
       -0.00089199375 -0.00051540975 0.013360519 -0.012638401
000300 c0 d3 22 3a 08 a0 ae 3b 10 88 8d 3a d8 af 11 3c
       0.0006211363 0.005329136 0.0010797996 0.008892022
000310 c0 37 db 3b 78 af 6b 3c ba 4e 59 3c 32 ce 23 bc
       0.0066899955 0.014385097 0.013263399 -0.009997891
000320 f0 3a a5 3b 24 7b 6b 3c 41 9c 2c bc a0 4b 5e bb
       0.0050424263 0.014372621 -0.010535301 -0.0033919588
000330 60 57 1a 3b 42 b3 4e 3c a0 0b f1 3b 00 b1 bc 3b
       0.0023550615 0.012615981 0.007356122 0.0057584047
000340 3c 3b 57 bc 7c fd 95 3b 48 0c 38 3b 80 86 c7 b8
       -0.013136681 0.004577337 0.0028083492 -9.514112e-05
000350 d0 7b 00 3c f8 82 48 3c 98 da 36 3c c3 61 3f bc
       0.007842019 0.012238257 0.011160515 -0.011681023
000360 24 2e 30 bc d0 5e b2 3a ed 81 45 bc b0 c4 2d 3b
       -0.010753188 0.0013608579 -0.0120549025 0.002651494
000370 58 75 ae ba c6 56 68 3c e8 ea b4 3b c0 33 43 39
       -0.0013310118 0.014180845 0.005521167 0.00018615928
000380 d0 b8 37 3b b9 eb 50 bc 20 5f 0f bc db 6f 0e bc
       0.002803374 -0.012751513 -0.008750707 -0.008693661
000390 73 93 fb bb 74 ad 64 3c b0 5e 0a bc 6e 33 43 3c
       -0.0076774894 0.01395737 -0.008445427 0.011914117
0003a0 ca d0 0c 3c d6 9c 1b bc a3 d2 20 bc e4 01 f9 3b
       0.008594701 -0.009497842 -0.009815845 0.0075991023
0003b0 68 27 60 3b 9e 83 a5 bb 08 61 22 3b c8 bb e6 bb
       0.0034203175 -0.0050510904 0.0024777073 -0.0070414282
0003c0 da 68 e9 bb 4a 6e 39 3c 42 17 86 bb 44 92 64 3c
       -0.007123095 0.011317799 -0.004092128 0.013950888
0003d0 1a ea 68 bc 90 fd db ba 4f 8d 4c bc b8 b8 44 3b
       -0.01421597 -0.0016783942 -0.0124848625 0.0030017328
0003e0 00 6f 68 3c 40 cb 31 3c 7e cb 52 3c 76 df f5 bb
       0.014186621 0.010851681 0.012865899 -0.0075034453
0003f0 68 a4 b2 3b 34 e9 28 bc e8 2b 59 3c 64 c3 85 bb
       0.0054517277 -0.010309506 0.013255097 -0.0040821303

net.3.linear.bias f4 [32]
000000 40 b1 73 3d a0 23 00 3c b8 ab f8 bd 1c 87 63 3d
       0.05949521 0.007820994 -0.12142128 0.055548772
000010 20 31 22 bd 72 e5 d5 3d 6c c3 26 3d ea 93 a0 3d
       -0.03959763 0.10444154 0.040713713 0.07840712
000020 1a 37 76 bd 80 be 5c bb ed 42 c9 bd 38 cb 1e 3d
       -0.060111143 -0.0033682883 -0.09827218 0.038768023
000030 e8 7c 81 bc f7 5d 1b be fa 6c c5 3d 34 2e 8f 3d
       -0.01580663 -0.15172563 0.09639926 0.069912344
000040 c6 39 d2 3d 6a ee 99 3d 78 36 8c 3c cf ba 00 3e
       0.10264926 0.07516177 0.017115816 0.12571262
000050 f5 f3 1c be 30 c8 47 3d ed 25 10 3e 98 ba f5 bc
       -0.15327437 0.048774898 0.14076968 -0.029996201
000060 59 fb 0b 3e a6 20 96 3d 0f 33 19 3e 97 44 1b 3e
       0.136701 0.07330446 0.14960884 0.15162884
000070 66 16 a5 3d 70 c8 81 3c da b5 19 be 35 30 84 bd
       0.08060913 0.015842646 -0.15010777 -0.06454507

net.4.weight f4 [4, 32]
000000 70 aa 22 3c 50 b3 a3 bb 90 63 15 3c 52 31 db bb
       0.009928331 -0.004995741 0.009117976 -0.006689229
000010 70 24 46 3b 7c 43 8e bb 2a a2 cc bb aa 34 34 3c
       0.003023412 -0.004341541 -0.0062449174 0.010998884
000020 94 a6 82 bb b4 8f 27 3c ae 62 0a 3c 7e db 23 3c
       -0.003987143 0.010227133 0.008446379 0.0100010615
000030 0d 06 46 bc 48 cd 4f bb 7e d6 0b 3c 50 ae e9 3b
       -0.012086404 -0.003170805 0.008535026 0.0071313754
000040 8a 68 49 3c 20 32 a4 b9 32 f8 5a 3c b0 c6 57 3c
       0.01229299 -0.00031317864 0.013364838 0.013169929
000050 fc 81 1c 3c 44 36 5c 3c c0 63 6a 39 d2 c7 14 bc
       0.009552475 0.013440672 0.00022353139 -0.009080844
000060 1a 35 c2 bb 48 3e e6 bb b0 58 ba 3b 80 6c 7d b9
       -0.0059267404 -0.0070264675 0.005686842 -0.0002416838
000070 f4 58 44 bb e8 e1 34 bc 10 77 37 3c 48 f2 77 3b
       -0.0029960247 -0.011040188 0.01119782 0.003783362
000080 4c 91 a5 3b d7 6d e1 bb 20 bf 4e 3b ea b9 63 bc
       0.005052721 -0.006879549 0.0031547025 -0.013899306
000090 00 56 93 b7 28 f4 93 3b 7e 54 0c bc 5b 5b f3 bb
       -1.7563812e-05 0.0045151897 -0.008565066 -0.007426662
0000a0 14 cc 1d bb d2 1b 8a bb f8 9f e1 ba 1c 79 e9 3b
       -0.002407794 -0.004214742 -0.0017213812 0.007125033
0000b0 0f 2d 32 bc c0 07 fe 39 fe 6e 18 3c b4 fe 26 bb
       -0.010875001 0.0004845243 0.009303806 -0.0025481405
0000c0 98 72 d1 bb 98 c7 24 bc 06 21 f4 bb 16 c4 e4 bb
       -0.0063918345 -0.0100573525 -0.0074502258 -0.006981383
0000d0 e0 cc 51 3c d0 cc 56 3a 40 8a b5 3a 7c 4c 45 bb
       0.012805194 0.00081939716 0.0013850406 -0.0030105403
0000e0 20 a7 2d bb 44 e8 47 3c ea 80 0c bc 90 6c 2b 3c
       -0.002649732 0.0122013725 -0.008575657 0.010462895
0000f0 e2 c4 04 3c fc b5 27 3c 5f f2 07 bc d4 2e 8f 3b
       0.008103581 0.01023626 -0.008297532 0.004369596
000100 04 c6 6b 3c fe c3 09 3c 80 23 39 3c 80 3e 27 39
       0.014390472 0.008408545 0.011299968 0.00015949644
000110 c4 04 0d bb 12 37 3c bc 3c ef 1e 3c 48 44 41 bc
       -0.0021517733 -0.011487739 0.009700593 -0.011796065
000120 18 88 af ba b0 42 06 3a c8 7e cc 3b 00 35 3c 3c
       -0.0013392 0.00051216315 0.0062406994 0.011487246
000130 4a c6 07 3c 24 fb 6f bb 60 01 99 3b 38 d5 6c bb
       0.008287022 -0.0036618197 0.0046693534 -0.003613783
000140 c2 0f 5a 3c 04 24 ad 3b fa 59 3e 3c ba 05 35 bc
       0.013309421 0.0052838344 0.011618132 -0.011048729
000150 c8 82 14 bb e0 3b 82 b9 10 f8 20 3b fa 48 3a 3c
       -0.002266096 -0.00024840143 0.002456192 0.011369938
000160 8a 4e 65 3c 7b 04 4d bc 00 3a 36 3a 00 f0 b5 36
       0.013995776 -0.012513275 0.00069513917 5.42216e-06
000170 72 d8 cd bb 18 c6 4f 3c 14 3d 29 bc ae 33 88 bb
       -0.006281906 0.012681507 -0.010329504 -0.0041565513
000180 f8 83 e8 3b 8c ea 67 3c 80 59 68 3b c0 34 23 bc
       0.00709581 0.014155041 0.0035453737 -0.009961307
000190 dd d9 13 bc 54 93 97 3b e0 0d 55 3b 40 f4 b6 39
       -0.009024111 0.004625717 0.003250949 0.00034895726
0001a0 48 c5 7b bb 36 34 34 3c 86 c2 6b bc c2 14 5a bc
       -0.003841715 0.010998776 -0.01438964 -0.013310613
0001b0 90 48 05 bc 00 b6 b0 3b 10 c6 eb 3a 4e d5 5a 3c
       -0.008134976 0.00539279 0.0017988104 0.01335652
0001c0 f5 80 07 bc 74 37 05 3c 76 cc 14 3c 39 ab 2b bc
       -0.008270492 0.008130897 0.00908195 -0.010477834
0001d0 e2 7a 1f bc 72 ed fb bb 00 56 7b b8 cc 30 fb bb
       -0.009733887 -0.007688218 -5.9923157e-05 -0.007665729
0001e0 d3 81 4c bc 0e ad 05 3c 9d df 05 bc 24 94 2b 3c
       -0.012482124 0.008158935 -0.008170989 0.010472331
0001f0 30 6d 16 bc 51 af 5a bc b0 78 3d 3a 5c 7a 35 3c
       -0.009181306 -0.013347463 0.00072277617 0.011076536

net.4.bias f4 [4]
000000 1d 8b f8 bd 68 05 88 3d 90 10 3a 3c 58 a4 be bc
       -0.12135909 0.06641656 0.011356488 -0.023271725
