outputs_ssh/noisy_data_NEW/chirp/1_nodes_given/15%_noise/-20%_init_error/model.pt (torch, 16796 bytes, 10 tensors)

net.0.linear.weight f4 [32, 1]
0	0x3e9b7de0	0.30369473
1	0xbf26dd9b	-0.65181893
2	0x3d7bad89	0.061444793
3	0xbf42b824	-0.76062226
4	0x3ee0f3a7	0.43935892
5	0x3e328838	0.17434776
6	0xbf5d7caa	-0.8651835
7	0x3ea5c37f	0.32375714
8	0x3f631744	0.88707376
9	0xbf5560df	-0.8335094
10	0x3f0fa696	0.56113565
11	0x3eba659e	0.36405653
12	0x3f2ebdfb	0.6825864
13	0xbee7ee72	-0.45299107
14	0xbf7cab3a	-0.9869877
15	0xbe22c790	-0.1589644
16	0xbf542085	-0.8286212
17	0x3eeb970e	0.46013683
18	0xbeba125e	-0.36342138
19	0xbdcfca33	-0.10145988
20	0x3f30c9c8	0.69057894
21	0x3eccec1b	0.40023884
22	0xbee36f02	-0.4442063
23	0xbf053c64	-0.52045274
24	0xbd5b00d3	-0.053467583
25	0x3e530825	0.20608576
26	0x3d86e45a	0.06586523
27	0x3eeceb6a	0.46273357
28	0xbe8c2b88	-0.27376962
29	0xbe50ee1c	-0.20403332
30	0xbf73010b	-0.94923466
31	0xbe20c9ce	-0.15701982

net.0.linear.bias f4 [32]
0	0xbf2c6123	-0.6733572
1	0x3f76a659	0.96347576
2	0x3f394e4a	0.72385085
3	0xbea258b2	-0.31708294
4	0x3f000ea1	0.5002232
5	0xbf451f68	-0.7700105
6	0xbf44ea49	-0.7691999
7	0xbe1bbd52	-0.15208939
8	0x3f4504b9	0.7696033
9	0x3d9c87cf	0.07643091
10	0x3f39aec8	0.7253232
11	0xbf048491	-0.5176478
12	0x3f42dcff	0.76118463
13	0xbf718742	-0.9434701
14	0x3ecc271f	0.39873597
15	0xbef46fba	-0.4774149
16	0x3f0f9e4f	0.56100935
17	0x3ea2b146	0.31775874
18	0x3cc18caa	0.023626644
19	0x3f4829e1	0.781889
20	0xbf14ccbe	-0.5812491
21	0x3f2f6c94	0.6852505
22	0x3f620f60	0.8830471
23	0xbf20f862	-0.62879
24	0xbe0f64d8	-0.14003313
25	0x3f00acea	0.50263846
26	0xbf13c8e1	-0.5772839
27	0xbedca422	-0.43093973
28	0xbd86946b	-0.06571277
29	0x3f6a6b97	0.9157042
30	0x3f13cbe2	0.57732975
31	0xbe5fbbb9	-0.21848954

net.1.linear.weight f4 [32, 32]
0	0xb9a30b11	-0.00031098028
1	0xbc67d183	-0.014149073
2	0x3c344977	0.0110038435
3	0x3c71d0af	0.014759227
4	0xbaa0ba0b	-0.0012262476
5	0x3b40a6d9	0.0029396324
6	0xbb226e96	-0.0024785153
7	0x3b494f2f	0.0030717363
8	0xbc902975	-0.017597893
9	0xbc825d52	-0.01591364
10	0xbc44bd9a	-0.012008095
11	0xbc211fb0	-0.009834215
12	0xba801083	-0.0009770546
13	0x3ad47e03	0.0016211871
14	0x3c0f5ab4	0.008749653
15	0xbc7a8946	-0.015291518
16	0x3c61b573	0.013776171
17	0xbc4bc4e9	-0.012437084
18	0xbca55d7e	-0.020186182
19	0xb97856af	-0.00023683415
20	0x3b7830f0	0.0037870966
21	0x3c2a8fd0	0.010410264
22	0x3b040fd3	0.0020151034
23	0xbc68976c	-0.014196258
24	0xbb9589e3	-0.0045635565
25	0xbce99281	-0.028512241
26	0x3c6345c6	0.013871616
27	0x3c1dc432	0.009629296
28	0x3bb1d913	0.0054274886
29	0xbc3e2d05	-0.011607413
30	0xba8cd45c	-0.001074444
31	0xbbe50228	-0.0069887824
32	0x3c0f491b	0.008745457
33	0xbc527164	-0.012844417
34	0xbb4daab0	-0.0031382255
35	0x3c82cfce	0.01596823
36	0xbc2da891	-0.010599271
37	0x39d837df	0.00041240358
38	0x3c43909b	0.011936332
39	0x3bf57c05	0.007491591
40	0xbb86cb56	-0.004113595
41	0x3c50bf9c	0.012740996
42	0xbcf8804c	-0.030334614
43	0xbbfa85c6	-0.0076453416
44	0xb9936c19	-0.00028118564
45	0x3b91303b	0.0044307983
46	0xbbe70ac8	-0.007050846
47	0xbc5c1f09	-0.013435134
48	0xbc84a301	-0.016191008
49	0x3b3ce90a	0.0028825426
50	0xbc555030	-0.0130196065
51	0x3aab4bb5	0.0013068827
52	0x3c0cc55e	0.008591978
53	0xba3dd23a	-0.0007241104
54	0x3c5c8e4c	0.013461661
55	0xbbcafeaf	-0.0061949114
56	0x3ac74dd2	0.0015205687
57	0x3ad01f70	0.001587851
58	0x3b0fb3ad	0.0021927163
59	0xbb59018f	-0.0033112501
60	0xbc47c57f	-0.012193083
61	0xbc568727	-0.013093746
62	0xbb0eef69	-0.002181018
63	0x3cabb31e	0.020959433
64	0x3a92386c	0.0011155731
65	0xbb696a1f	-0.0035616232
66	0x3c9b15e8	0.018931344
67	0xbc89277d	-0.016742462
68	0x3c8cd850	0.01719299
69	0xbba09198	-0.0049001686
70	0xbc32ebef	-0.010920509
71	0xbcd22b8a	-0.025655527
72	0x39ef89df	0.00045688354
73	0x3c53ddb2	0.012931274
74	0xbc9976ce	-0.018733408
75	0xbc9162f3	-0.017747378
76	0xbc1ae3a9	-0.0094536925
77	0xbacb18c3	-0.001549505
78	0xbb684035	-0.003543866
79	0x3c5e7e36	0.013579896
80	0xbc0f4271	-0.008743868
81	0x3bc87298	0.0061171763
82	0xbc60daf3	-0.013724077
83	0x3b9738c0	0.0046149194
84	0x3b3d47ba	0.0028881864
85	0xbc81cb90	-0.015844136
86	0x3a1003f1	0.00054937514
87	0x3a8862e2	0.0010405446
88	0x3b196f77	0.0023412385
89	0xbbe69668	-0.007036973
90	0x3b9c5062	0.0047703246
91	0x3c35d1db	0.011097397
92	0xbccb9268	-0.024850085
93	0xbc0bc526	-0.008530891
94	0xbc28963b	-0.010289724
95	0xbc4ddce7	-0.012564874
96	0xbcd1290f	-0.025532274
97	0xbafe2132	-0.0019388555
98	0x3a7502c5	0.0009346421
99	0x3b979c73	0.0046268045
100	0xbbd3b629	-0.006460924
101	0x3c5d212e	0.01349668
102	0x3b94f302	0.0045455704
103	0x3b73603d	0.003713622
104	0x3b5d6ef0	0.0033788048
105	0x3a5e3318	0.00084762415
106	0xbc2cc31f	-0.010544567
107	0xbc8469ad	-0.016163671
108	0x3bd69290	0.0065482333
109	0x3c37475b	0.011186446
110	0xbc55d8c9	-0.013052174
111	0xb826f693	-3.9807124e-05
112	0xbbb6f3ee	-0.005583278
113	0xbc3c064e	-0.0114761125
114	0xbb4bee69	-0.0031117445
115	0xbc6037a3	-0.01368514
116	0x3c0e1f8a	0.008674512
117	0xbc25ce30	-0.01011996
118	0xbb8071bc	-0.003919808
119	0x3bd029e1	0.0063526486
120	0xbc953781	-0.018214943
121	0x3bd37db1	0.0064541926
122	0x3c2468fd	0.010034797
123	0x3c0c7077	0.008571736
124	0xbc4e732e	-0.012600703
125	0x3ccf4740	0.02530253
126	0xbbd9334e	-0.0066284304
127	0x3c65c560	0.014024109
128	0x3b4fc4c0	0.0031702965
129	0xbc593c87	-0.01325906
130	0xbbc52e2f	-0.0060174684
131	0x3cac6a30	0.021046728
132	0x3b45649a	0.0030119778
133	0xbc1ca07b	-0.009559746
134	0x3c6cd9cb	0.014456223
135	0x3c137672	0.0090004075
136	0xbc53add8	-0.012919866
137	0xbca884c9	-0.02057113
138	0x3c58071e	0.013185291
139	0xba301874	-0.0006717511
140	0x3b7b8d2c	0.0038383706
141	0xbbf946c7	-0.0076073143
142	0xbc790c7f	-0.015200733
143	0xbc2547cc	-0.0100879185
144	0x3c694b34	0.014239121
145	0x3bb4c089	0.005516116
146	0xbc636274	-0.0138784535
147	0x3b0d0ee7	0.0021523775
148	0xba1b9ca2	-0.0005936121
149	0xbc078023	-0.008270296
150	0xbb801bfc	-0.003909586
151	0x3c49e1e8	0.012321927
152	0x3c0b2a01	0.008493901
153	0xbb491934	-0.0030685188
154	0x3a19c450	0.00058657397
155	0x3c8783a1	0.016542258
156	0xbc03e67d	-0.008050558
157	0x3c0a8fae	0.0084571075
158	0x3ae85fe1	0.001772877
159	0xbb1c215d	-0.0023823597
160	0xbbde97ca	-0.006792997
161	0x3c91080d	0.017704034
162	0xbc5af5d0	-0.01336427
163	0x3c6c94ca	0.014439771
164	0xbc31c0b1	-0.010849164
165	0xbc4131c6	-0.011791652
166	0xbc67465d	-0.014115897
167	0x3b99b555	0.004690806
168	0xba8cab6b	-0.0010732239
169	0xbb544bd6	-0.0032393835
170	0x3b6f924b	0.0036555703
171	0x3bf4f771	0.0074757864
172	0x3c909e68	0.017653659
173	0xbc2d7233	-0.010586309
174	0x3c1e1a04	0.009649757
175	0xbc34a34d	-0.011025262
176	0x3c58876d	0.013215882
177	0x3c8e1bbd	0.017347211
178	0xbb34316b	-0.0027495276
179	0x3aff73c0	0.0019489452
180	0x3aa8edf9	0.0012888304
181	0xbc86a371	-0.016435357
182	0xbc8c5510	-0.017130405
183	0x3c242625	0.01001886
184	0xba91b9be	-0.0011117978
185	0x3c0739f3	0.008253562
186	0xbc565a3b	-0.013083036
187	0xbc113f17	-0.008865139
188	0x3c7f2584	0.015572909
189	0xbc4af975	-0.012388577
190	0x3c45bc2a	0.012068788
191	0xbc75564f	-0.014974191
192	0xbc4d556b	-0.012532572
193	0x3c838fb0	0.016059726
194	0x3bdb4184	0.0066911597
195	0x3bb77e25	0.0055997544
196	0x3c63bda4	0.013900194
197	0xbba47277	-0.005018528
198	0x3b69c10b	0.003566804
199	0x3c7a7258	0.015286051
200	0xbc12a61a	-0.0089507345
201	0xbc0f13e8	-0.008732773
202	0x3c55a1c5	0.013039057
203	0xbbbfba71	-0.005851083
204	0x3cb5ee05	0.022208223
205	0x3b4483ef	0.0029985865
206	0x3a7041df	0.0009165089
207	0xbb4242bd	-0.002964183
208	0xbb5f2289	-0.0034047684
209	0x3b874a44	0.004128726
210	0x3c88ffe0	0.016723573
211	0x3c7ad462	0.015309425
212	0xbc7ac189	-0.015304931
213	0xbc1e39de	-0.009657351
214	0x3c1ac711	0.009446875
215	0x3c87280b	0.016498586
216	0x3c83cc45	0.016088614
217	0x3bed04b5	0.007233227
218	0xbbdae253	-0.006679812
219	0xbc8e1ddd	-0.017348224
220	0xbc0cfef2	-0.008605706
221	0xbba864ec	-0.005138984
222	0xbc3d3380	-0.011547923
223	0x3a7d9eea	0.0009674864
224	0xba3b7c70	-0.00071520265
225	0xbbcbdaef	-0.0062211673
226	0xbbfeff2f	-0.007781885
227	0xbb891bdd	-0.0041842298
228	0x3b43e85e	0.002989314
229	0xbb4fb688	-0.003169449
230	0xbc356242	-0.01107079
231	0x3b3f7f89	0.0029220304
232	0xba98813e	-0.0011635197
233	0xbc6a4cc6	-0.014300531
234	0xbccec976	-0.025242548
235	0x3c597837	0.01327329
236	0xbc55f12f	-0.013057991
237	0xbc960685	-0.018313656
238	0xb97d5791	-0.00024160581
239	0x3b759a9e	0.0037476192
240	0x3ba0a695	0.0049026706
241	0x3c6a8b02	0.014315369
242	0x3b0185b7	0.0019763538
243	0x3ba3a9ac	0.0049945917
244	0xbb6b1fd8	-0.0035877135
245	0x3c75c850	0.0150013715
246	0xbc5a8955	-0.013338407
247	0xbc58c44f	-0.013230397
248	0x3bdd1a23	0.0067475005
249	0xbb51914a	-0.0031977468
250	0x3c23ab43	0.009989562
251	0xbc8abad1	-0.016934784
252	0xbc65e4e6	-0.014031624
253	0xbb1bda3d	-0.0023781203
254	0x3bad6be2	0.0052924016
255	0x3b9a3231	0.0047056903

net.1.linear.bias f4 [32]
0	0x3e35f325	0.17768534
1	0xbe08edfe	-0.13372037
2	0x3db2c7c7	0.08729511
3	0xbdd6e1fd	-0.104923226
4	0x3dfdb4dc	0.12388012
5	0xbe1ceb9d	-0.15324254
6	0x3e152351	0.14564253
7	0x3d05369a	0.032522775
8	0x3c71a2ab	0.014748256
9	0x377d982b	1.51154045e-05
10	0xbe3e60c7	-0.18591605
11	0x3d84e892	0.06489672
12	0xbde23a39	-0.11046261
13	0x3c8d09ba	0.017216552
14	0x3cd9f842	0.026607636
15	0x3e304a4f	0.17215846
16	0xbde10015	-0.10986344
17	0xbd93062a	-0.0717891
18	0xbdf724bc	-0.120675534
19	0xbd021a2b	-0.031763237
20	0xbddc0471	-0.10743035
21	0xbdaf68a7	-0.08564883
22	0x3d3a3aa8	0.045466095
23	0xbe15ba1c	-0.14621776
24	0x3d79c07f	0.060974594
25	0x3de195dc	0.110149115
26	0x3e3a9a4d	0.18222924
27	0x3bba6d19	0.005689275
28	0xbd8bf3b6	-0.068335935
29	0xbe1ce1cc	-0.1532051
30	0xbdf32a4b	-0.11873301
31	0xbde5d46d	-0.112221576

net.2.linear.weight f4 [32, 32]
0	0x3beb9cd8	0.007190328
1	0x3c54dcfc	0.01299214
2	0xbc04698f	-0.008081808
3	0xbb8a78d6	-0.0042258305
4	0x3b91fd52	0.004455247
5	0xbafbf0ed	-0.0019221582
6	0x3b660151	0.0035096
7	0x3bc73934	0.006079817
8	0xbc3d086b	-0.0115376515
9	0x3c7a94a6	0.01529423
10	0x3c11a22f	0.008888765
11	0x3bd63c10	0.0065379217
12	0xbaacb8d9	-0.0013177647
13	0x3c246bb1	0.010035441
14	0xbc3cc22c	-0.011520904
15	0x3b628c46	0.0034568473
16	0xbbfafd3d	-0.007659583
17	0xb9e03277	-0.0004276221
18	0xbc5e50c3	-0.01356906
19	0x3c532feb	0.0128898425
20	0xbc0221b3	-0.007942605
21	0x3b5ea576	0.0033973134
22	0xbbf37268	-0.00742941
23	0xbb692c10	-0.0035579242
24	0x3b8edcdb	0.004359824
25	0x3a1f8864	0.00060856924
26	0x3c3ac0c9	0.011398503
27	0x3b2fe19e	0.002683736
28	0xbc71e68b	-0.014764438
29	0xbc511c61	-0.012763114
30	0x3c4673f6	0.012112608
31	0xb98089ed	-0.00024516825
32	0x3bb96b0f	0.0056585143
33	0x3b56072d	0.0032658086
34	0xbbf74511	-0.007546075
35	0x3ba69fd1	0.0050849696
36	0x3bbc79fe	0.0057518473
37	0xbc06aac4	-0.008219425
38	0x3a0d485a	0.00053895044
39	0xbc76a419	-0.015053772
40	0xbc7a4b54	-0.015276749
41	0xbc2d41ba	-0.010574752
42	0x3b02ff16	0.001998847
43	0x3c06a5aa	0.008218208
44	0x3b869912	0.004107603
45	0x3c1405a3	0.009034547
46	0x3bd60345	0.0065311515
47	0x3b1d30b2	0.0023985323
48	0xbc1ad777	-0.009450785
49	0x3c469ff5	0.012123098
50	0x3b5702ab	0.0032807987
51	0x3b9eba30	0.0048439726
52	0x3bee29d1	0.0072681685
53	0x3c131008	0.00897599
54	0x3c31f10b	0.010860692
55	0xbb822a65	-0.003972339
56	0x3c109d64	0.008826587
57	0xbb312152	-0.0027027917
58	0x3b794709	0.0038036725
59	0xbc31f5d8	-0.010861836
60	0xbc46aae9	-0.012125709
61	0xbb5af122	-0.0033407887
62	0xbc2ab148	-0.010418244
63	0xbcbcb56f	-0.023035733
64	0x3b217e0e	0.0024641785
65	0x3ba4e4f2	0.005032175
66	0xbc3cd7be	-0.011526046
67	0xbc100e66	-0.008792495
68	0xbb58290d	-0.0032983453
69	0xbc21e48b	-0.009881149
70	0xbb58b57d	-0.003306716
71	0x3c20471e	0.009782581
72	0x3ad64a19	0.0016348987
73	0x3b6d3ddc	0.00362002
74	0x3c218850	0.00985916
75	0x3b0ad044	0.0021181265
76	0xbc4c5c09	-0.012473115
77	0xbc87f024	-0.016594
78	0x3bc82d80	0.0061089396
79	0xba4adbfa	-0.00077384675
80	0x3b5a087d	0.003326922
81	0x3c0b1b03	0.008490327
82	0x3ba3e485	0.005001607
83	0x3af4532d	0.0018640511
84	0xbc5cfa58	-0.013487421
85	0x3bb85cf9	0.0056263176
86	0xbca19fa3	-0.019729441
87	0xbc21f191	-0.009884254
88	0xbc35bcaa	-0.011092344
89	0xbc278166	-0.010223722
90	0xbb9526a4	-0.0045517255
91	0xbb5b2ef0	-0.0033444725
92	0xbc40e506	-0.011773353
93	0x38d57496	0.00010178347
94	0xbac5958b	-0.0015074475
95	0xbbc364fe	-0.005962967
96	0x3b4b1e98	0.0030993577
97	0x3aafb0de	0.0013404151
98	0x3a78ef13	0.0009496074
99	0x3bec6e26	0.007215279
100	0x3b1e2bf6	0.002413509
101	0xbc62fd21	-0.013854296
102	0x3c253a83	0.010084751
103	0x3b4adee1	0.00309556
104	0xbc9af278	-0.018914446
105	0x3b683b36	0.0035435683
106	0x3a4babe0	0.0007769447
107	0xbcaf67b2	-0.02141175
108	0x3c8906bc	0.016726844
109	0x3aee7585	0.0018192983
110	0x3b855b07	0.004069689
111	0x3c2b7326	0.010464465
112	0xbbcd81ee	-0.0062715923
113	0x3ba09d67	0.0049015763
114	0xbab4990a	-0.0013778519
115	0x3c473cac	0.012160461
116	0x3b7a7750	0.0038218088
117	0xb8510ed6	-4.98433e-05
118	0xbbc008e1	-0.0058604334
119	0xbb93a78c	-0.004506057
120	0xbc039c00	-0.008032799
121	0xbbda09f4	-0.0066540185
122	0x3ac4f261	0.0015025848
123	0xbbbf14a9	-0.0058313203
124	0x3b3033db	0.0026886377
125	0xbb9014e7	-0.004397023
126	0x3b7ef643	0.0038904108
127	0x3c87cb24	0.016576357
128	0x3c0e7adb	0.008696283
129	0x3bfb77dd	0.007674201
130	0xbb8cea1a	-0.004300368
131	0xbb922005	-0.0044593834
132	0xb9aa2bdb	-0.00032457602
133	0xbc95612b	-0.01823481
134	0x3b5b0813	0.003342156
135	0xbc2a06b4	-0.010377575
136	0x3c347841	0.011014999
137	0x3ca25f17	0.019820733
138	0x3bbad269	0.0057013524
139	0x3be18fba	0.0068835886
140	0xbb63b30f	-0.0034744178
141	0xbc3396d9	-0.010961258
142	0xbb8d878c	-0.004319137
143	0x3c345ed4	0.011008937
144	0x3c85a689	0.016314762
145	0xbc6a5633	-0.014302778
146	0xbc228594	-0.009919543
147	0x3b9535d0	0.004553534
148	0xbb8d180e	-0.004305846
149	0x3c492b08	0.012278326
150	0x3c266e13	0.01015808
151	0x3a92d5c3	0.0011202622
152	0x3c9327ab	0.017963251
153	0x3bb2997d	0.005450426
154	0xbb68be4c	-0.0035513816
155	0x3b825c45	0.0039782845
156	0xbbc989fc	-0.006150482
157	0x3b783076	0.0037870682
158	0xbb72cb22	-0.0037047346
159	0xbc3362a1	-0.010948808
160	0x3c3eb8a9	0.011640706
161	0xbaed6945	-0.0018113038
162	0x3c10e26b	0.008843045
163	0xbc853ddf	-0.016264854
164	0xbc1aa023	-0.009437594
165	0x3c3608b1	0.011110471
166	0x3bb67025	0.005567568
167	0x3c3096f4	0.0107781775
168	0xb98a0c50	-0.00026330585
169	0xbc0beec9	-0.008540818
170	0xb990e603	-0.00027637192
171	0xbb57b8db	-0.003291658
172	0xbc967aae	-0.018369045
173	0x3c427a10	0.011869922
174	0x3bbb37ab	0.0057134232
175	0x3c0e80f8	0.008697741
176	0xba8c852b	-0.001072084
177	0x3cb317f8	0.021862015
178	0xbc19d844	-0.009389941
179	0xbc3f2f31	-0.011668966
180	0xbbea40fa	-0.007148859
181	0xbbbef61b	-0.005827678
182	0x3c3a4f3a	0.011371428
183	0xbbcf519b	-0.006326867
184	0xbb87ccd0	-0.0041442886
185	0x3c04cb06	0.008105045
186	0x3b9fb5c6	0.004873964
187	0x3bf9da27	0.0076248827
188	0xbc7f4253	-0.015579778
189	0xbc4112d8	-0.011784278
190	0xbbb48798	-0.005509328
191	0x3b347cd7	0.002754023
192	0xbb8c8f39	-0.0042895344
193	0x3bada4b2	0.005299174
194	0x3b7c6a1f	0.0038515402
195	0xbbc552e5	-0.0060218447
196	0xbc820399	-0.015870856
197	0xbc362104	-0.01111627
198	0xb9a5a5a5	-0.00031594667
199	0x3c2527c1	0.010080279
200	0x3c47a3fb	0.012185092
201	0xbc07553a	-0.008260066
202	0xbae386a0	-0.0017358847
203	0x3c20fdfd	0.0098261805
204	0x3c090c70	0.008364782
205	0x3c626674	0.013818372
206	0x3c9cfe5d	0.019164259
207	0xbc1d699d	-0.0096077
208	0xbbd353d2	-0.006449201
209	0xbadc6a43	-0.0016816336
210	0xbaecfa73	-0.0018080011
211	0xbb9d4e8c	-0.0048006233
212	0xbc61df5e	-0.013786165
213	0xbb5c6d0c	-0.0033634333
214	0x3b911682	0.004427732
215	0x3c4600f1	0.012085185
216	0x3be2b359	0.0069183526
217	0xbcb123fd	-0.021623606
218	0xbb852d98	-0.004064273
219	0x3c130099	0.00897231
220	0xbc6320e5	-0.013862823
221	0x3be75910	0.0070601776
222	0x3c6df33a	0.014523322
223	0xbc3854c1	-0.011250676
224	0x3cec9cc6	0.02888335
225	0xbc0e2a31	-0.008677051
226	0xbc5808fc	-0.013185736
227	0xbc25c48e	-0.010117663
228	0x3c1a6aa2	0.009424837
229	0x3b3384a5	0.0027392295
230	0x3c0fe667	0.00878296
231	0xba0fa4a6	-0.00054795516
232	0xbca3e30c	-0.020005725
233	0x3a78abe4	0.0009486063
234	0xbc636b25	-0.013880526
235	0xbbb13d5c	-0.005408926
236	0xba0c8797	-0.00053607806
237	0xbcb600bb	-0.022217145
238	0xba3f128f	-0.0007288837
239	0xba734be5	-0.00092810235
240	0xbaa84263	-0.0012837168
241	0xbbc1ddae	-0.005916319
242	0xbbc8dd81	-0.006129921
243	0xbc11727f	-0.008877396
244	0xbc7fc553	-0.015611011
245	0xba23222d	-0.0006223049
246	0x3c1ea3f9	0.009682649
247	0x3c17b831	0.009260223
248	0x3b8ce856	0.0043001575
249	0xbb8c3443	-0.004278691
250	0x3bdf236d	0.006809643
251	0xbc99ebe9	-0.018789249
252	0xbc25a473	-0.0101100085
253	0x3b5e2aa0	0.0033899918
254	0x3c1f5be1	0.0097264955
255	0x3a8d40e0	0.001077678

net.2.linear.bias f4 [32]
0	0x3e10bb6b	0.14133994
1	0xbdb46caa	-0.088097885
2	0x3dd91479	0.10599608
3	0xbe10b917	-0.14133106
4	0x3df03093	0.11728015
5	0xbd4dd0b4	-0.050247863
6	0xbdf3e65c	-0.11909172
7	0x3ce94b8f	0.028478412
8	0xbd8a9d17	-0.06768244
9	0xbd46919b	-0.048478704
10	0x3e23fbc7	0.16014014
11	0x3d8964b1	0.067086585
12	0x3dbc4a61	0.09193874
13	0xbe2bdc2b	-0.16783206
14	0xbcd413f9	-0.02588843
15	0x3e163500	0.14668655
16	0xbd8e6f32	-0.069548026
17	0xbd0a6ad5	-0.03379329
18	0xbe348209	-0.1762773
19	0x3c6a6a80	0.014307618
20	0xbcd5f217	-0.026116414
21	0x3d3fb983	0.046807777
22	0x3db59c35	0.08867685
23	0xbc08dfb1	-0.008354113
24	0x3d9736a0	0.07383466
25	0x3b91a506	0.004444721
26	0xbb9c9786	-0.004778805
27	0x3de08caa	0.109643295
28	0x3d8c5950	0.068529725
29	0x3d63217f	0.055451866
30	0xbe044375	-0.12916358
31	0x3d840c34	0.0644764

net.3.linear.weight f4 [32, 32]
0	0xbb879ba6	-0.004138428
1	0x3aec453e	0.0018026007
2	0xbc840107	-0.016113771
3	0xbca8564b	-0.02054896
4	0x3c0595b2	0.008153366
5	0xbc0793ce	-0.0082749855
6	0x3b1b07be	0.0023655738
7	0x3c37689b	0.0111943735
8	0x3beba207	0.007190946
9	0x3c55f597	0.013059041
10	0x3c36392e	0.011122031
11	0x3a820a37	0.0009921257
12	0xbbde9066	-0.006792116
13	0xbc0324db	-0.0080043925
14	0xbbff80d7	-0.0077973413
15	0xbbcff6ee	-0.006346575
16	0x3c38d7bf	0.011281907
17	0x3a0ee214	0.00054505584
18	0x3bcba2c7	0.006214473
19	0xbcb3d85f	-0.02195376
20	0x3a1a7f69	0.00058936194
21	0x3bee8052	0.0072784806
22	0xbc71eaba	-0.014765436
23	0xbbe9e1c1	-0.0071375077
24	0xbc824f35	-0.01590691
25	0xbbd3ec6d	-0.006467393
26	0xbc4d9be4	-0.012549374
27	0x3c5228a5	0.012827073
28	0x3c0f7bf5	0.008757581
29	0xbbb05c33	-0.0053820848
30	0x3ca6a3b4	0.020341732
31	0xba58931a	-0.0008261666
32	0xbc5eea06	-0.0136056
33	0x3c869270	0.016427249
34	0x3b8e2b6b	0.004338672
35	0x3c5027da	0.012704814
36	0xbc19bfe6	-0.009384131
37	0xbc5aadca	-0.013347099
38	0xbc5a6f39	-0.013332182
39	0xba2e9819	-0.00066602376
40	0xbca13c71	-0.019682141
41	0x3c41794a	0.011808703
42	0xbc73c9a0	-0.014879614
43	0x3c015ac0	0.007895172
44	0xb98949ae	-0.00026185572
45	0x3b81aceb	0.003957381
46	0x3ba59a9c	0.0050538313
47	0xbab80646	-0.0014039956
48	0xba2dbd84	-0.00066276663
49	0xbb690283	-0.0035554476
50	0x3c7e9639	0.015538746
51	0x3b87f274	0.0041487757
52	0xbb0b25c1	-0.002123222
53	0xba22ea61	-0.0006214735
54	0xbc2f7f36	-0.010711482
55	0xbcc4bbab	-0.024015268
56	0xbc6ad0e5	-0.014332031
57	0x3bdc439f	0.0067219283
58	0xba6e8bf9	-0.0009099837
59	0x3c16c6de	0.009202687
60	0xb9780551	-0.00023653104
61	0x3b1d8056	0.0024032793
62	0x3c061b3a	0.008185202
63	0xba8f2d9f	-0.001092363
64	0x3c3d187b	0.011541481
65	0xbcc15d2f	-0.023604004
66	0xbb41557f	-0.0029500423
67	0xbbffde70	-0.007808499
68	0xbbeeac8d	-0.0072837532
69	0xbbfbe4f5	-0.007687206
70	0xbc5eafe9	-0.013591745
71	0x3a075e4d	0.0005163893
72	0xbc0a0f6e	-0.00842653
73	0xbba090e5	-0.0049000853
74	0x3b2c2b4c	0.0026270924
75	0x3b27c3c8	0.0025598872
76	0x3a847db8	0.0010108268
77	0xbc040b08	-0.008059271
78	0xb9420e9a	-0.00018506721
79	0x3b5c30a4	0.0033598328
80	0x3ca98ac9	0.02069606
81	0xbbc8a7b9	-0.0061235097
82	0x3b7d43fd	0.003864526
83	0x3a8db0a5	0.001081009
84	0x3bdc7eec	0.0067289975
85	0x3a590fac	0.00082802284
86	0x3b42c35d	0.0029718496
87	0xbc4c97eb	-0.012487392
88	0xbc0718d3	-0.008245665
89	0xbc8b592d	-0.017010296
90	0x3c85c859	0.016330885
91	0x3c30d297	0.010792396
92	0xbb8b4ba3	-0.00425096
93	0xbc87cb9a	-0.016576577
94	0xbc745db6	-0.014914921
95	0xbbaccb58	-0.005273264
96	0x3b386444	0.0028135935
97	0xbb8d9c08	-0.004321579
98	0xbc783c08	-0.015151031
99	0xbbc52b42	-0.0060171196
100	0xbc585b68	-0.013205387
101	0x3adf6ae4	0.0017045406
102	0xbb7e90e0	-0.0038843676
103	0x3cde3996	0.027127068
104	0xbc8b644d	-0.0170156
105	0xbc4d4f16	-0.012531063
106	0xbc1f82af	-0.009735747
107	0x3bc8553e	0.0061136773
108	0xbb96b562	-0.0045992592
109	0x3c6fd557	0.0146382665
110	0xbc266d55	-0.010157903
111	0x3b613d0c	0.0034368662
112	0xbbdce7cc	-0.0067414995
113	0xba38cba0	-0.00070493855
114	0xbc01e0ce	-0.007927133
115	0xbc2975ea	-0.010343054
116	0x3b97c163	0.004631208
117	0xbc0d8d3b	-0.008639629
118	0x3c531451	0.012883262
119	0x3c692022	0.0142288525
120	0x3c957985	0.018246422
121	0x3bd57e58	0.0065153055
122	0x3c676640	0.014123499
123	0xbc8b3e44	-0.016997464
124	0xbc04e08d	-0.008110178
125	0x3b70db7f	0.0036751924
126	0xba99df4c	-0.0011739521
127	0x3c4e49b1	0.012590812
128	0x3c2a923e	0.010410843
129	0x3b34b82c	0.0027575595
130	0xbbf7b2e7	-0.0075591686
131	0xbc149a0f	-0.009069934
132	0xbc132353	-0.00898059
133	0xbb5977a5	-0.0033182886
134	0x3c7c518a	0.0154003
135	0x3c224c8e	0.009905947
136	0x3b484feb	0.0030565213
137	0x3c57be2c	0.013167899
138	0xb9b8245a	-0.000351223
139	0xbbb407f8	-0.005494114
140	0xbbd89e47	-0.006610665
141	0xbb5b2400	-0.0033438206
142	0xbb6fdfa9	-0.0036601818
143	0x3a9c8c17	0.0011943605
144	0x3a44ca91	0.00075069914
145	0x3c586036	0.013206532
146	0x39d50ca1	0.00040635935
147	0x3be19e74	0.006885344
148	0xbb563cd5	-0.0032690067
149	0xbc7218f1	-0.014776454
150	0x3ac90b2c	0.0015338412
151	0xbbed92b6	-0.0072501553
152	0x3c515800	0.0127773285
153	0xbc3b01ba	-0.011413986
154	0xbc01f8cf	-0.007932856
155	0xbad5259b	-0.0016261818
156	0xbc6738d0	-0.014112666
157	0xbb73a8f4	-0.0037179561
158	0xbc4d7195	-0.012539287
159	0x3c158569	0.009126046
160	0x3b2ea39e	0.0026647816
161	0xbaf165ad	-0.0018417143
162	0x3b3f9086	0.002923043
163	0x3b4c3a2d	0.0031162605
164	0x3c2dae7a	0.0106006805
165	0xbc31f1e5	-0.010860895
166	0x3cc97f65	0.02459688
167	0x3b37ddea	0.0028055855
168	0x3a34c27e	0.00068954367
169	0xbc92c5ee	-0.017916646
170	0x3b483ee1	0.0030555057
171	0x3be36621	0.006939665
172	0xbc80967b	-0.015696755
173	0x3c29164c	0.010320257
174	0x3b8abda1	0.0042340313
175	0x3b2fd568	0.002683008
176	0xbbf5643b	-0.007488755
177	0x3b81e0c6	0.0039635627
178	0x3bed4312	0.0072406614
179	0xbc07691f	-0.008264809
180	0xbc000486	-0.0078135785
181	0x3bc928a5	0.0061388784
182	0x3b43a18d	0.002985093
183	0x3c443b80	0.0119770765
184	0x3b5f06e0	0.0034031197
185	0x3b43cf37	0.0029878148
186	0x3c3dee01	0.011592389
187	0xbc357bc5	-0.011076872
188	0x3c4615aa	0.012090126
189	0x3c8f399e	0.017483529
190	0xbc17d094	-0.0092660375
191	0x3c5ffdda	0.013671363
192	0xbc445e5a	-0.011985386
193	0x3a2a587e	0.0006498172
194	0x3c46cfa4	0.012134466
195	0xb9fdd9ca	-0.00048418186
196	0xbcb9f725	-0.022700856
197	0xbbcf71ff	-0.006330728
198	0x3cd15f81	0.025558235
199	0x3c7fb777	0.015607706
200	0xbc2df1a2	-0.010616692
201	0x3b1107ee	0.002212997
202	0x3b86fcdc	0.0041194987
203	0xbca05cd5	-0.019575516
204	0x3c4250bf	0.011860072
205	0x3c57be97	0.013167999
206	0xbb5e9d12	-0.0033968133
207	0xbc4cf458	-0.012509428
208	0xbc08e0aa	-0.008354345
209	0xbc6de0b4	-0.014518905
210	0xbbad27ed	-0.0052843005
211	0x3cd8cece	0.0264658
212	0x3bc53706	0.006018522
213	0xba975828	-0.0011546658
214	0xbc36efb4	-0.011165548
215	0xbc1d0a60	-0.009584993
216	0xbc651ef7	-0.013984433
217	0xbbf6e427	-0.007534522
218	0x3b19932f	0.0023433676
219	0xbc61ad66	-0.013774252
220	0x3bd0d61b	0.0063731796
221	0xbbca9616	-0.0061824424
222	0x3b31b8a7	0.0027118118
223	0xba170308	-0.00057606446
224	0x3be5ce80	0.007013142
225	0x3c9716b9	0.018443452
226	0xbc43cebf	-0.011951148
227	0x3b05b6f9	0.002040325
228	0x3c3c22c0	0.011482894
229	0x3b6b5846	0.003591077
230	0x3b95e3dc	0.004574282
231	0x3c1d12fe	0.009587048
232	0x3cb7e14c	0.022446297
233	0x3c29c3c2	0.010361614
234	0x3c272b89	0.010203251
235	0xbb1240f7	-0.0022316554
236	0x3c354d08	0.011065729
237	0xbc948fc9	-0.018134968
238	0xbb4dcb9c	-0.0031401878
239	0xb7494da3	-1.199861e-05
240	0x3bc4a509	0.006001119
241	0xbd03b687	-0.032156494
242	0xbbc2a441	-0.0059399907
243	0x3b88dc2a	0.004176636
244	0xbb23e837	-0.0025010237
245	0xbca3dc98	-0.020002648
246	0xbbf801e8	-0.0075685866
247	0x3c03f0da	0.008053029
248	0xbc139b73	-0.00900923
249	0xb9fd97c8	-0.00048369006
250	0x3c93fef9	0.018065916
251	0x3b2e7de1	0.0026625323
252	0xbc44f7fc	-0.012022015
253	0xbc8fc735	-0.017551044
254	0x3c16032a	0.009156028
255	0xbbc3e811	-0.005978592

net.3.linear.bias f4 [32]
0	0xbc9442d5	-0.018098274
1	0xbd75d0d1	-0.060013596
2	0xbe135e3e	-0.1439142
3	0x3e0c4127	0.13696729
4	0x3df63bec	0.12023148
5	0xbd14a312	-0.03628833
6	0xbdf3578e	-0.11881934
7	0x3da3dd38	0.080011785
8	0x3e01a1e5	0.12659414
9	0x3c53df2b	0.012931625
10	0xbdc1cc52	-0.09462799
11	0x3bc3a910	0.0059710816
12	0x3b058b94	0.0020377384
13	0x3c999aaa	0.018750507
14	0x3db9b402	0.09067537
15	0xbdd985bd	-0.10621212
16	0xbca0f294	-0.01964692
17	0x3d2f63cb	0.04281978
18	0x3ca09b48	0.019605294
19	0xbd9a49b1	-0.07533587
20	0x3c91a4a0	0.017778695
21	0x3c538405	0.012909894
22	0xbdeb5164	-0.114901334
23	0xbd8085b8	-0.06275505
24	0xbdcc53ce	-0.09976922
25	0x3d7d1402	0.06178666
26	0xbde64160	-0.11242938
27	0x3bdb55c7	0.006693575
28	0xbde3db06	-0.1112576
29	0xbdba10f0	-0.09085262
30	0xbe17f626	-0.14839992
31	0xbd9285a3	-0.071543954

net.4.weight f4 [4, 32]
0	0xbca6739a	-0.020318795
1	0xbd17188c	-0.036888644
2	0x3c19468c	0.009355199
3	0xbd458ae4	-0.04822816
4	0x3c3aae04	0.011394028
5	0x3ceefe5d	0.029174024
6	0xbd7de135	-0.061982352
7	0xbd1dc8ea	-0.038521685
8	0x3d3af4d3	0.04564364
9	0x3dcc2f7c	0.099699944
10	0x3d6be4fb	0.05759142
11	0xbd9368f6	-0.07197754
12	0x3caa4f54	0.02078978
13	0xbce9282c	-0.028461538
14	0x3b9dfec0	0.0048216283
15	0x3bccaadb	0.0062459535
16	0xbc45ec80	-0.012080312
17	0x3c018ded	0.007907373
18	0xbdba8c13	-0.09108748
19	0xbc1c0cb1	-0.00952451
20	0xbd9f1cb1	-0.07769144
21	0xbc0bcbbb	-0.00853246
22	0x3cfd8bb0	0.030950397
23	0xbd756ae6	-0.0599164
24	0xbbdc6b2d	-0.0067266435
25	0x3c6f2184	0.014595393
26	0x3c9ba31b	0.018998673
27	0x3d00055e	0.03125512
28	0xbccaf7f0	-0.024776429
29	0xbcc3462e	-0.023837175
30	0xbd1243b3	-0.035709094
31	0x3d2f1581	0.042745117
32	0xbdff1e1a	-0.12456913
33	0x3d65759e	0.05602037
34	0xbcffd1a8	-0.031227902
35	0x3c9eed82	0.019400362
36	0x3dc63086	0.09677224
37	0x3d5c14b7	0.053730693
38	0x3cc09af5	0.02351139
39	0x3d1f99e9	0.03896514
40	0xbda4a2e3	-0.08038881
41	0x3d034017	0.032043543
42	0xbd51e241	-0.051241163
43	0x3d8cf417	0.06882494
44	0x3cee8c2e	0.029119577
45	0x3d7ccec9	0.061720643
46	0xbe08cb8a	-0.13358894
47	0x3d1d382b	0.038383644
48	0xbd964484	-0.07337287
49	0x3c81aee2	0.015830461
50	0xbc21072c	-0.00982837
51	0xbd7ff7c3	-0.062492143
52	0x3c2b456f	0.010453566
53	0x3ba3495d	0.004983111
54	0x3d975a2c	0.07390246
55	0xbd206076	-0.039154492
56	0xbce2f51b	-0.027704766
57	0xbd8ff66b	-0.070294224
58	0x3d242330	0.04007262
59	0x3d86a9a5	0.06575326
60	0x3dbd22fa	0.09235187
61	0x3ca632ee	0.020287957
62	0x3d4471e6	0.047960185
63	0xbd382c94	-0.044964388
64	0x3d9a5bfe	0.07537077
65	0xbd22f89b	-0.03978787
66	0x3d17e541	0.037083868
67	0xbcedb3d1	-0.029016407
68	0xbd883c81	-0.06652165
69	0xbd47e7fc	-0.048805222
70	0x3d052ec5	0.032515306
71	0x3d0c4bfb	0.034252148
72	0x3c8b678d	0.01701715
73	0xbd8f9dba	-0.07012506
74	0xbcb3c0ed	-0.02194258
75	0xbcc9f1b7	-0.024651391
76	0xbd52552b	-0.051350754
77	0xbd7c8459	-0.061649654
78	0x3cc848ed	0.024448836
79	0xbcd01c0e	-0.025404003
80	0xbc9bbacc	-0.01900997
81	0x3d60c242	0.05487276
82	0x3c0de13d	0.008659658
83	0x3ccc69cd	0.024952793
84	0x3d16465e	0.0366882
85	0xbce33b67	-0.027738286
86	0xbd1f8be6	-0.038951777
87	0x3b5fd12f	0.0034151783
88	0xbcebfb0f	-0.028806238
89	0x3d6ce953	0.057839703
90	0xbd6b83ac	-0.05749862
91	0x3cb089c7	0.021550072
92	0xbd89d2d8	-0.067296684
93	0xbd0e0b8d	-0.034678984
94	0xbc39a917	-0.011331818
95	0xbcc788f4	-0.024357297
96	0x3d82781b	0.063705646
97	0xbdbfc111	-0.09362996
98	0x3de023aa	0.109443024
99	0xbdd4a502	-0.10383035
100	0xbb9a58ae	-0.0047102785
101	0x3d0688e2	0.032845385
102	0x3c1dea62	0.009638401
103	0xbd3b7346	-0.04576423
104	0x3c4b19e4	0.0123963095
105	0x3ddfe32f	0.10932004
106	0x3dbe1e25	0.09283093
107	0xbd34280b	-0.0439835
108	0x3c96e434	0.018419363
109	0xbd64a39b	-0.05582009
110	0x3baf3d4e	0.0053478843
111	0x3dcfa8c2	0.1013961
112	0x3c8c981b	0.017162373
113	0x3c96fa6d	0.01842996
114	0xbd592aaf	-0.053019222
115	0xbc316f29	-0.010829725
116	0xbd2a4963	-0.041573893
117	0x3d9283ad	0.071540214
118	0x3d50e476	0.050999127
119	0xbd909804	-0.07060245
120	0xbd9526d1	-0.07282794
121	0xbd6268ad	-0.055275608
122	0x3b7ae763	0.003828489
123	0x3d39cf36	0.045363627
124	0xbdb4de13	-0.0883142
125	0xbdf589ce	-0.11989175
126	0xbd2aa91a	-0.041665174
127	0x3d323d1f	0.04351532

net.4.bias f4 [4]
0	0xbdaf98f9	-0.08574099
1	0xbdf6f4e1	-0.12058426
2	0xbd5fbbbe	-0.054622404
3	0xbd9cc3ac	-0.07654509
