outputs/chirp/1_nodes_given/model.pt (torch, 16367 bytes, 10 tensors)

net.0.linear.weight f4 [32, 1]
00000000: d90c 5f3f 6805 e4bd fa4a 0dbf e543 3c3f
00000010: 5293 7a3f fc2a ec3c ea84 2f3e d97a 8e3e
00000020: 9cb7 7ebf 3fe7 68bf bba9 eebe 4c3e 303f
00000030: 655c 14bf d7a5 6a3f add7 d93e 2ae2 ec3e
00000040: 5af4 58bf 4ffc 1a3e 6a50 06bf 1926 3e3d
00000050: eb8c 603f a30b 1dbf 7bc2 0ebf 884b 6d3e
00000060: a389 4f3f 67d0 dcbe 1454 f9be 0ab4 523e
00000070: 8a96 5f3e f2ab 05bf a7d9 713e 524a 4c3f
0.8712898 -0.11133844 -0.5519253 0.735411 0.9788104 0.02882909 0.17140546 0.278281
-0.99498916 -0.90977854 -0.4661387 0.6884506 -0.5795348 0.916593 0.4254736 0.462663
-0.8474785 0.1513531 -0.5246645 0.04642305 0.87715024 -0.6134588 -0.55765504 0.23173344
0.8106939 -0.43127748 -0.4869696 0.20576492 0.2183477 -0.5221549 0.23618184 0.79800904

net.0.linear.bias f4 [32]
00000000: 1b2b 08bf 8402 a6be 9d25 7f3f 5e71 59bf
00000010: 66cb 783f 8303 593d d2a6 543f 4dc2 ae3d
00000020: 1bf6 433f 4859 26bf caa6 f7bd 0a9c 57bf
00000030: c03f 0fbf 70ef d5bc 773f 7ebc 24eb 373f
00000040: b076 853e a59d 043f 1460 b33d cae5 b6bd
00000050: 7dcf 413f 1443 7e3e 82a4 36be 0d80 57bf
00000060: 11a6 ec3d d9a9 8d3e e430 bc3e 3ec0 60be
00000070: 3a46 1a3d 6cc1 e0bd 56ef 14bd 2cea 0bbe
-0.53190774 -0.32423794 0.9966677 -0.8493861 0.9718536 0.052981865 0.8306705 0.08533154
0.765474 -0.6497998 -0.12092359 -0.8422247 -0.5595665 -0.02611515 -0.015518061 0.7184317
0.26067114 0.51803046 0.0875856 -0.089305475 0.75707227 0.24830276 -0.17836192 -0.84179765
0.11555112 0.27668646 0.3675605 -0.21948335 0.03766463 -0.10974392 -0.03636106 -0.13663548

net.1.linear.weight f4 [32, 32]
00000000: 1334 ecba 06b8 573a 8e46 d9bb c285 1fbc
00000010: 68f0 f9bb e0fe 94ba 3137 00bc 9e38 84bb
00000020: 9b71 a83c 9c22 a63b e726 7e3c c56c 663a
00000030: 7695 f23b dda7 bb3b 7382 a73c 5734 223c
00000040: 97c2 8a3b d960 37bc af9b 08bb 3dbc 913c
00000050: ef2a 1b3c 97fd 4e3c 25b1 2fbc c19b 88bc
00000060: 0ba0 58bc 2e3b 11bc ce9d a8bb 13e2 6dbb
00000070: 0886 dc3b 0e6b a1bc 6048 10bc a614 a0bc
00000080: 12cd 4cbc 33d6 88bc ae77 99ba 0c55 afba
00000090: fa03 b3ba a096 f73b 0178 3cbc 4716 c33b
000000a0: 6d28 b13b c256 313c 2541 ffbb 82db cabb
000000b0: d4ec bc3c 162c eaba ebbb f43b a0d8 d8bb
000000c0: 7513 87bc d13c 9ebb a4cf 3bbb 2709 45bb
000000d0: ce19 53bc 7b0a 803c 8821 923c 1968 3a3c
000000e0: 61d9 513c 56f2 0b3c 78a2 b1ba bb30 62bc
000000f0: b76e f03b f5ea b93a c0b2 80bb 988b 443c
00000100: 2117 1bbc 50fd 053c aa17 043c 9498 a9bc
00000110: cde6 553b 67d1 e2bb c947 773c 2e7f 883b
00000120: a036 1fbc eaec 76bb 6e87 573b cbd6 b4bb
00000130: 7dc3 ec3a a9f1 b73b e440 9339 c490 613b
00000140: 10b7 a0bc eab5 22bc 2c4d 263c 9e53 25bc
00000150: 8e2c a43b 65f4 803c 1e28 c2bb 2043 43bc
00000160: 2547 a1bb 3a33 303c cb09 2a3b eabe 543a
00000170: 967b 843a 4461 303a 0379 a8bb 8905 4bbb
00000180: d702 52bb b9b8 2f3c de3f 9c3b 061a b83b
00000190: f6e1 213c d785 b9b9 4844 3fbc fea5 433c
000001a0: 5c9a 0f3b 8bde 9fbc d30e 1fba f165 d4ba
000001b0: f925 a3bb 6568 ffbb 1030 953c c1db c63b
000001c0: 3574 173b 484d 42bc 3234 863a dc4f 95ba
000001d0: f1bd f239 902b 5cbb 16c4 3a3b c782 a6bb
000001e0: 78c8 0d3a 9621 2fbc 9cbe 863c 133b ea3b
000001f0: 2dad a93b 8b3a 393c b9e7 123c 7ed4 5fbc
00000200: 01d4 973a 485c 87bc 23f4 a2bb 5be1 babc
00000210: 05a5 143c 42e9 a33a a58c 3c3b 6cbe 7dbc
00000220: 6844 e3bb 36c2 e0bb 261a e6bb 5ede 013b
00000230: 0c10 053c 60f5 873c c7ca dbbb 942f b1b9
00000240: a01b 603b dc51 a3bc befe b5bb 6fe0 173c
00000250: 2a0d 01bb 79dc 183c 3a5d 6fbb f32d 3d3c
00000260: c125 913c 0816 803b 697f 1a3b 9519 31bc
00000270: 63f2 99bb 73d9 e2bb 6f0b 76bb 2608 0e3a
00000280: 0bf9 efba c328 193c 6633 a3bc 22a5 2abc
00000290: d138 8dba ff08 783b 46c4 49bc 5219 44bc
000002a0: 10c6 3aba 6ea4 343c 893c 09bc bff7 b9bb
000002b0: 12c5 893b ad5d 95ba 879c 87bb 03ab 98ba
000002c0: 6f69 373c 750b 95bb 42cc a13b 34f4 5ebb
000002d0: 3b9f 56bb 7503 d539 2a30 213c e5b9 293c
000002e0: f3e5 c43a 8a50 27bc ef02 f33b 1642 e43b
000002f0: cac2 2bbc 276e dc3b f864 8dba b72a 0ebc
00000300: 64fe bcbb f227 71bb 8d09 17bb 5906 0b3c
00000310: 6a2d 82bb d86f f7bb 9d87 483c 42e3 80bc
00000320: 6826 1f3c ca88 50bc 760b 083c a99c 9ebb
00000330: 36b5 dbbb 5f66 663c 0292 7a3c d300 b73b
00000340: 6f01 c53b cf07 b8bb 6b20 a5bc 8a4f bbbb
00000350: 7909 87bb b688 0dbb f31d 76ba 74b4 8a3b
00000360: ccf9 f0bb a533 433c d257 a13c 15a3 7abb
00000370: 1181 e6b9 1698 ab3b cc77 16bc 49f3 403c
00000380: 8f91 c13b d1c7 123b 35bd c7bb 74a9 ef3b
00000390: 8cd9 05bb c1c6 e2ba e643 3f3c 53bc 80bc
000003a0: e973 1fb6 92d1 893c 42ec b0bb 2bbd a7bb
000003b0: d10e edbb 6f35 b63a 0ce5 98bb aa95 663b
000003c0: bd8b 933b 91f5 7f3b 2468 c23b f7bc 3a3c
000003d0: 4c2a 9dbb e693 533b 382c 88bb 4651 01bc
000003e0: 2f61 47ba cb52 fd38 dd9f 1d3b 01f9 663b
000003f0: 8d53 8f3b 1513 653c af0a 56bc 0be3 e2bb
-0.001802089 0.0008229021 -0.006630725 -0.00973648 -0.0076275356 -0.0011367463 -0.007825659 -0.0040350696
0.020561984 0.0050700437 0.015512205 0.00087900116 0.007403071 0.005726798 0.020447945 0.009900174
0.0042346227 -0.011192524 -0.0020844748 0.017789954 0.009470685 0.012633703 -0.010723387 -0.016675832
-0.013221751 -0.008864207 -0.005145765 -0.003629808 0.006729845 -0.019704368 -0.008806318 -0.019541096
-0.012500064 -0.0167037 -0.0011708641 -0.0013376786 -0.0013657801 0.0075557977 -0.011503221 0.0059535834
0.0054064305 0.010823907 -0.0077897483 -0.006190718 0.023062147 -0.0017865922 0.0074686906 -0.0066176206
-0.01648877 -0.004829027 -0.00286577 -0.003006527 -0.01288457 0.015629997 0.017838255 0.011377358
0.012808175 0.008541664 -0.0013552448 -0.013805564 0.007337417 0.0014184403 -0.0039275587 0.011996172
-0.009465964 0.00817807 0.008062283 -0.020702638 0.0032638789 -0.0069219354 0.0150927985 0.0041655516
-0.009717613 -0.0037677833 0.003288712 -0.0055187694 0.0018063631 0.005613525 0.00028086372 0.0034418562
-0.019618541 -0.009931067 0.010150235 -0.010090737 0.005010194 0.015741536 -0.0059251925 -0.011917859
-0.004921811 0.010754401 0.0025945778 0.00081156066 0.0010107632 0.0006728361 -0.005141379 -0.003097864
-0.003204515 0.010725194 0.0047683557 0.0056183366 0.009880533 -0.00035385668 -0.011673994 0.011941431
0.0021912074 -0.019515296 -0.00060675776 -0.0016204697 -0.004978892 -0.007794427 0.018211395 0.006068677
0.0023110036 -0.011859246 0.0010238944 -0.0011391598 0.00046299354 -0.0033595301 0.0028498224 -0.005081508
0.00054085953 -0.01068916 0.016448312 0.0071481555 0.005178115 0.011305462 0.00896638 -0.013661502
0.0011583568 -0.016523495 -0.004972951 -0.022812536 0.009072547 0.0012505429 0.0028770354 -0.015487295
-0.006935645 -0.0068590892 -0.00702216 0.001981638 0.008121502 0.016596496 -0.0067075226 -0.0003379552
0.0034196153 -0.019936495 -0.0055540493 0.009269818 -0.0019691684 0.0093299085 -0.0036524073 0.0115466
0.017718198 0.0039088763 0.0023574478 -0.010809322 -0.004698084 -0.0069228946 -0.0037543436 0.00054180843
-0.0018308474 0.009348097 -0.01992197 -0.010415347 -0.0010774379 0.003784716 -0.012314862 -0.011968927
-0.00071248505 0.011025531 -0.008376249 -0.0056752856 0.004204401 -0.0011395715 -0.0041385326 -0.0011647645
0.011194571 -0.004548485 0.0049376795 -0.0034020068 -0.0032748717 0.00040629102 0.009838143 0.010359262
0.0015022143 -0.010212073 0.007416121 0.006965886 -0.010483453 0.0067269984 -0.0010787537 -0.008677176
-0.0057676304 -0.003679749 -0.0023046464 0.0084854 -0.003972699 -0.0075511746 0.012239364 -0.015733365
0.009713747 -0.012727926 0.008303514 -0.0048404527 -0.0067049516 0.014062493 0.0152936 0.005584815
0.006012134 -0.005616165 -0.02015706 -0.005716269 -0.0041210023 -0.0021596379 -0.0009388618 0.0042329375
-0.007353997 0.0119141685 0.019695196 -0.0038244177 -0.0004396518 0.005236636 -0.009183835 0.011776754
0.0059072445 0.0022396932 -0.0060955533 0.0073139016 -0.0020423857 -0.0017301665 0.011673903 -0.0157148
-2.3760315e-06 0.016823564 -0.005399258 -0.005118986 -0.0072344323 0.0013901422 -0.0046659764 0.0035184422
0.004502742 0.003905628 0.0059328247 0.011397592 -0.004796302 0.00322842 -0.004155662 -0.007892912
-0.0007605729 0.000120794015 0.0024051585 0.0035243633 0.0043739737 0.0139816 -0.013064071 -0.0069240383

net.1.linear.bias f4 [32]
00000000: a9eb 0a3e ad34 ebbd b6a9 323e 5707 b83d
00000010: c3f5 b7bd a817 ca3d fcd1 6dbc 1ef1 91bc
00000020: 63dc 083e fc0b 1a3e 9ff3 1fbe e080 1bbe
00000030: 592d 2ebd 95e6 113e 3b41 a3bd 6c98 64bd
00000040: 847b 14be 8d99 053d a147 b43c b258 e3bd
00000050: 6807 6cbb 24f8 843d 4487 01be 9871 20be
00000060: 7941 96bb 6ca9 b73d 808a 31be 0289 9cbd
00000070: 4c35 d33c 56ea 55bd 908b 293e 63a6 30be
0.1356646 -0.114846565 0.17447552 0.08985775 -0.08982422 0.09867793 -0.014515396 -0.017815169
0.13365321 0.15043634 -0.15620278 -0.1518588 -0.042523716 0.14248116 -0.07971426 -0.055809423
-0.14500242 0.03261714 0.022006812 -0.11100902 -0.0036015157 0.064926416 -0.12649256 -0.15668333
-0.0045854417 0.089678615 -0.1733799 -0.0764332 0.02578225 -0.052225433 0.16557145 -0.17250971

net.2.linear.weight f4 [32, 32]
00000000: b508 10bb 8d53 c13b 5558 e23b b174 7cbb
00000010: b307 bf3c 73f7 f3bb 354c 21bc 84cd a1bc
00000020: e219 423c acec 48bb 4e2c 16bc a546 fe3a
00000030: 1ed9 aabb bbe4 3e3c 8735 72bb 6377 583c
00000040: a8a8 0b3c 57f7 33bb d713 633a 785d 3b3c
00000050: 6b2d 563c ca16 04bc a5c1 cc3b 179a 5dbc
00000060: 60cc 0dbc d5e0 163c 5244 113c 62f4 77bc
00000070: 741f f4b9 3d9c 163c e902 5bbc ee1c 7abc
00000080: a133 7c3c 2f4d a43c 78e8 9a3c 2b03 8eba
00000090: 5dd9 5d3c 0c2f 113b 366c f5bb cb41 033b
000000a0: 994e 56bc 879b 51bc ce3e 86bb f901 5bbc
000000b0: 135d 2b3a f8d4 45bc 25aa 093c 0769 373c
000000c0: 9b65 883c 3287 a8bb 275e c13b 04bc d8bb
000000d0: d2cf 8b3b 1495 573c 8388 83bc 3fc6 c8bc
000000e0: 211d 2a3c f1f4 d5bb bd8a 54bc 8a46 73bc
000000f0: fdba 5abc ea6a a7ba 3786 e5bb 3db2 823c
00000100: 8597 3cbb a460 dd3b 8b66 1e3c 67f7 92bc
00000110: 5d0f 0fbc 77eb a03b 5cf1 3fbb 5ff6 9a3a
00000120: aded 803b 3d9c 51bc 1218 b13c a716 8e3c
00000130: 1b6e f339 e5be da3b c898 ebbb 8f96 eb38
00000140: 06d5 6ebc d619 963b 017c 04bc 1f17 04bc
00000150: 5416 dbbb f2d4 cc39 9239 82bc 977c 4dbc
00000160: 33c4 2cba 6e84 2fba 6a3f 873a c8ec 483c
00000170: 306d 4d3b e17a 2abc 053d 41bc 9513 be3b
00000180: 33e7 90bc da84 c13b 8bd0 c43b f1c3 3ebc
00000190: f741 903c 36f5 973c 10d3 21bc 1463 84bc
000001a0: ca09 423c 9aa8 863b 827f 7dbb 73b5 6ebb
000001b0: 35c8 a63a ec92 85ba 8562 ee3b 6507 ff3a
000001c0: 8dd3 c43b a8e3 78bc 8ed0 943b 99b5 16bb
000001d0: 6922 1f3c 8f40 9fbc e319 60bc fd42 0bbc
000001e0: 8c33 0b3b a89d 1cbc cd07 f6ba 6958 3dbc
000001f0: f821 8c39 3903 e6bb 2997 933b 5979 85bb
00000200: 05dd fa3b de06 46bc e28b 9fbc 77eb 46bc
00000210: ce0a 533c 51ac 1fbc 2642 b2bb 71ed 0abc
00000220: 818a f83b 1752 a3bb 4a3e aabb c2a3 cbbb
00000230: fced 89ba 10fd 8bba 4fe7 48bc c9df 8a39
00000240: 1a76 49bc 7326 213c 09bd 3abc ec2a 503b
00000250: 504a 313c 6a40 b9b9 50a4 25bc afde e0ba
00000260: cc4d cd3b 50fe 5dbc ca67 b83b 5b83 b6bc
00000270: 2e82 ac3a 95b0 b3bb 491b 3abc b7cc 96bb
00000280: 81be 8b3a 27cf 9e3c 76c1 f339 e016 183b
00000290: 0f91 893c 632e 2539 1340 39bc 106c 413c
000002a0: 1f1d 8c3a f4c2 03bc 656e a9bc 1a65 593c
000002b0: 5a0d 3a3c 5c2e 993c 63e4 98bb cbae 84bb
000002c0: 33c2 34bc 9d5e f1bb 196a 53bc 7f1e 133b
000002d0: e640 57ba 97fa ee3a 8af3 a33b 103c dbba
000002e0: 8a2b 96bb f355 70bb eb92 833b e6e1 04bb
000002f0: cfc1 273b 3e95 18bc afcd 3ebc 0a09 d5bb
00000300: 133d 8a3a 0464 fa3b 34bf 0e3c b88a 7dbc
00000310: 50c8 9c3b c611 edbb 39c4 313c 3824 9b3c
00000320: 30bf 03bc a9f8 993c 7c67 4f3c 352c c6b9
00000330: 68eb 373b 191d 91bc a84e 173b 0577 5b3c
00000340: a2fc 34bc e149 debb 4d3e b53b 2e49 c239
00000350: 0ef4 d2bb c807 34bc 7329 703c 8404 a8bb
00000360: 5bfb 373c 8597 673b d565 073c 68ed 203c
00000370: 7bb8 fbbb 09e1 8eba f2e2 2b3c 3a12 73bb
00000380: 30d6 4cbb 8cca 363b f86d a3bb 1ee2 d2bb
00000390: 9845 8ebc b4a1 863b be81 39bb cdc3 37bc
000003a0: 6c81 58bc 0ad2 7f3b afa8 3fba 2100 d63b
000003b0: 6a2a 153c f311 233c 84ff f2ba a394 853c
000003c0: 541e 7a3b b5ba 3e3c 9d1b 3dbb 65ca 6d3c
000003d0: 9617 52bb 20a5 c2b9 4f20 d8ba 511c d4ba
000003e0: 471c e13b 72f5 703c 209c 363c e990 6d39
000003f0: a223 11bc ac06 803a 614f 38bb fee7 33ba
-0.0021977846 0.0058998526 0.0069075027 -0.0038521702 0.023319101 -0.0074452697 -0.009844829 -0.019751318
0.011846991 -0.0030658646 -0.0091658365 0.0019399716 -0.0052138707 0.011651213 -0.0036958174 0.013212058
0.0085240975 -0.0027460658 0.0008662319 0.011435859 0.013072352 -0.008062074 0.00624867 -0.013525507
-0.008654684 0.009208878 0.0088663865 -0.015133949 -0.0004656274 0.009192524 -0.013367393 -0.015265686
0.015393169 0.020056335 0.018909678 -0.0010834684 0.013540593 0.0022153286 -0.0074897064 0.002002823
-0.013080263 -0.012793428 -0.0040968424 -0.01336717 0.00065370015 -0.0120747015 0.008402382 0.011194474
0.016650012 -0.0051430697 0.0059011164 -0.00661421 0.0042667175 0.013158102 -0.016056305 -0.024508594
0.010382921 -0.0065294434 -0.012972531 -0.014848361 -0.013350246 -0.0012772952 -0.007004525 0.015954131
-0.0028776836 0.006755905 0.009668003 -0.017940236 -0.00873169 0.004910882 -0.0029288149 0.0011822692
0.003934583 -0.012793598 0.021617923 0.017344786 0.00046430607 0.0066755884 -0.007189844 0.00011233717
-0.014577156 0.0045807166 -0.008086205 -0.008062153 -0.0066860113 0.0003906857 -0.015896592 -0.012541912
-0.0006590515 -0.0006695454 0.0010318581 0.012263484 0.0031345598 -0.010405273 -0.011794333 0.005800674
-0.01768837 0.0059057297 0.0060063056 -0.011643396 0.01760958 0.018549543 -0.009876981 -0.016160525
0.011843154 0.0041094543 -0.0038680737 -0.003642407 0.0012724461 -0.0010190881 0.007274928 0.001945716
0.006006664 -0.015190996 0.004541463 -0.0022996424 0.009712794 -0.019439964 -0.013678047 -0.008499858
0.002124044 -0.009559073 -0.0018770635 -0.011556723 0.0002672819 -0.007019427 0.0045041037 -0.0040733037
0.007655742 -0.012086598 -0.019475881 -0.0121411 0.012880994 -0.009745673 -0.0054400144 -0.008479462
0.0075848703 -0.004984151 -0.0051954137 -0.00621459 -0.0010523195 -0.0010680277 -0.0122621795 0.00026488144
-0.012296224 0.009835827 -0.011397609 0.0031763865 0.01082094 -0.00035333942 -0.010109976 -0.0017156209
0.0062653776 -0.013549402 0.005627607 -0.022279432 0.0013161355 -0.0054836967 -0.011359044 -0.0046020406
0.0010661633 0.019385887 0.0004649271 0.0023206994 0.016792802 0.00015752907 -0.01130678 0.011805549
0.0010689831 -0.008042086 -0.020682523 0.013268733 0.011355722 0.018698864 -0.0046658977 -0.0040491573
-0.011032629 -0.007366015 -0.012903714 0.0022448597 -0.000821127 0.001823264 0.0050033974 -0.0016726274
-0.004582827 -0.0036672323 0.0040153167 -0.0020276248 0.0025597697 -0.009312926 -0.0116457185 -0.0065013217
0.0010546766 0.0076413173 0.008712579 -0.015474968 0.0047846213 -0.007234785 0.010850006 0.018938169
-0.008041188 0.018795328 0.01265895 -0.0003779844 0.0028063897 -0.01771407 0.0023087654 0.013395076
-0.0110465605 -0.0067837094 0.0055311085 0.00037057087 -0.006437785 -0.010988183 0.01465832 -0.0051274914
0.011229361 0.0035338115 0.008264025 0.009822227 -0.007681904 -0.0010900806 0.01049112 -0.0037089721
-0.0031255595 0.0027891723 -0.0049874745 -0.0064356467 -0.01736717 0.004108632 -0.0028306092 -0.011216116
-0.01321445 0.0039035105 -0.00073112076 0.006530777 0.009104351 0.00995301 -0.0018539284 0.016306227
0.003816505 0.011641194 -0.002885557 0.014513587 -0.0032057515 -0.0003712559 -0.0016489121 -0.0016182755
0.006869826 0.014706956 0.011145622 0.00022656065 -0.008858593 0.0009767613 -0.0028123485 -0.00068628776

net.2.linear.bias f4 [32]
00000000: 3f0d a2bd 4032 8d3d 46e7 103e afe1 ddbd
00000010: 96db acbd 383f e93d 38fd 96bd 36b9 863c
00000020: f300 d13d 50b6 2abd dfae 7f3d 4d7b a93d
00000030: 74be fcbd b189 dc3d 8e42 f6bc 79b3 1c3e
00000040: 5abe 17be 15a9 8a3d 3f75 e7bc c3f4 18bb
00000050: 60d2 143e 03f7 073e b588 123e 836c c53d
00000060: b27f c7bd 31be 0dbe 33fb 9d3d 27e3 0e3e
00000070: 48c5 293e aa98 a0bd d8d0 0dbe 7bcd f5bd
-0.07912683 0.0689435 0.14150724 -0.10834061 -0.0844032 0.11389011 -0.073725164 0.016445737
0.10205259 -0.041677773 0.06242263 0.08275471 -0.123410136 0.1076845 -0.030061033 0.15302838
-0.14818707 0.06770531 -0.02825415 -0.0023339249 0.14533377 0.13277821 0.14309962 0.096398376
-0.09741153 -0.13842084 0.07713928 0.13953839 0.16579163 -0.07841618 -0.13849199 -0.12002083

net.3.linear.weight f4 [32, 32]
00000000: d85e be3c d4e9 2cbc f237 58bc ebe8 97bc
00000010: 3fa4 dbba 0d74 aabc bca6 ca3c 89a6 4a3c
00000020: 1934 09bc 1492 08bc 0fa2 2e3b f545 4dbc
00000030: 6680 0e3c 084d b53c a39c 6abc 6d55 bf3b
00000040: 9320 e1bb 801c 4cba 7c85 003c 9520 36bc
00000050: 054e 423c 6300 7abc d215 0b3c cbce 24bc
00000060: 4678 75bb a5fd 043c 69ee f7bb a37e 33bc
00000070: 58e5 da3b 2711 053c 0593 07bc 963b b03c
00000080: 6431 16bd 3c84 3e3c bb4c 5d3c 3bd3 b03c
00000090: b070 433a 4ca2 053b e26c 99bc abd6 833c
000000a0: bc79 003c e8c8 1a3c a890 fe3b 8559 e9bb
000000b0: 0124 603b 882f 96bc c40a 2a3c 9725 b33b
000000c0: 846b 293c 6276 bebb 7231 8b3c 310f 71bb
000000d0: 5ad6 1b3c 714f a93c d183 333c 572f af3b
000000e0: 0a6a b43c 0de5 2a3c 8855 5d3c fc70 71ba
000000f0: 45a6 583b 2d06 ffb9 8ccc dabb 7a41 af3b
00000100: 06a7 1b3c 33b2 86bc 7db1 2d3c b0d3 ddbb
00000110: be92 893c 9014 bc3c 31ee 363c 7670 80bb
00000120: 706d af3c 71a8 0bbb 3d2f 4b3b b1f5 04bc
00000130: 9d35 993a 7a7c 7bbb 56f1 0d39 0c27 973b
00000140: 7886 a5ba d5aa 223c 7d54 60bc 52ea 843c
00000150: 30e7 01bb d3e7 bcbb 6344 323c ddb6 2ebc
00000160: 42e2 fcbb 3bff 273b d656 b93c 5c6a aebc
00000170: ce5a 8d3b 9185 acbb 8a01 a03b fb5a 5d3c
00000180: 08a3 3fbc 6763 483c 81cd 43bc 480b 8aba
00000190: 14fa a5bc c5ed 293c 438f 903c 784a e638
000001a0: aeae 1bbc 7d48 7abc 1bfd 26bc 18c2 26bb
000001b0: 25f9 13bc f9ea b0ba c313 273b ac34 e1bb
000001c0: bd75 1bbb 278d 833c cc2e 583c e6da 2fbc
000001d0: 3323 a1bc 057d 28bc 7c1f 2c3c cf07 943b
000001e0: 4f6b f93b ac11 a03b ae62 b8bb 8e99 0a3c
000001f0: 10b5 1a3c 50c0 23bc 74eb 693c fb89 6cbc
00000200: 3571 303c bb47 ff3b 3284 643c f75f 283c
00000210: 34c9 bbbb 077b ac3b 19f2 ad3b 198b 583c
00000220: 8690 913c e089 b9ba d0f1 443c dd5a 293c
00000230: 467d 5aba 4eeb ab3b de5e af3a 1628 26b9
00000240: c120 4abc 6000 b03c 7fee d53a f4fd 0c3c
00000250: 164f 173b 24e8 0fbc bacb 5ebc c44d b6bb
00000260: 4a84 b43c e025 75bc 79cf d4ba f72a 53bc
00000270: c44f 11bc fc1c 593c 8fc2 f73b 6ffe 3abc
00000280: 9321 0bbc e005 08bc c67b 74bc ddf9 643c
00000290: 7cd3 46bb dffd 3dbc f4db 94ba 5cfa 9cba
000002a0: 404f 3e3b 257b 9b3c 8bb8 823c 1a45 a73c
000002b0: a131 82bc d0a7 48bb 6d7e 643c f86e c8bb
000002c0: 4528 11bc aaf3 2b3b 2d51 7aba 02a6 023c
000002d0: a0b7 9e3b 837b 26bc 8d4c 313b 3b3b cbba
000002e0: aae0 0a3c 94cb 653c c5b2 893c a978 fcbb
000002f0: 8074 f4bb 55ce 0c3c 9558 88bc debc 9b3c
00000300: a800 b1bc b098 33bc c8f7 ea3b 856b 4dbc
00000310: 6f93 083c 9fb1 e6bb 468b acba d73c b139
00000320: 9595 50bb 7b06 3f3b 9787 32bc 3c97 5ebc
00000330: 3ba5 573b 185a 8dbc 0bbd 55bb 08cd 41bc
00000340: 5568 2fbc e2ff cb3b a13a 2e3c abc0 b93b
00000350: 740e 18bc 7da5 2c3c 4df0 dcbb 177f 0dbc
00000360: 3322 413c 5d45 7b3b 926e 4cbb 3111 3abc
00000370: 69af 8f3c 7c4d 833c 73e6 2b3c 2dbd 193c
00000380: 51f2 3b3b 465f 8fbc d4f6 1b39 606a ee3b
00000390: 0bfc cdbc 5bd7 d13c 24c1 8fbb 9014 973c
000003a0: 04d5 d43c 1798 e3ba 2ed7 8dbb 7555 0dbc
000003b0: 380c 21bc 16c5 f7ba bedc e13b 5fe9 8cbb
000003c0: 35be b53c 0053 a03c 06fc 7aba aa9c f53b
000003d0: ca61 e3bb 0217 023a ab2d 01bc 0999 81bc
000003e0: fa06 4a3c 6d58 2abb fb50 b5bc f57e 8fbc
000003f0: 17a1 1f3c daf6 3bba 4668 1abc 2aaa 913b
0.023238584 -0.010553796 -0.013196932 -0.018543681 -0.0016757323 -0.02080729 0.024737708 0.012368807
-0.008374237 -0.008335609 0.0026646887 -0.012528886 0.008697605 0.022131458 -0.014319572 0.005839041
-0.006870338 -0.0007786229 0.007844325 -0.011116167 0.011859422 -0.015258881 0.008489089 -0.010059069
-0.0037455722 0.008117114 -0.0075662625 -0.0109554855 0.006680172 0.008121765 -0.008274798 0.021512788
-0.036668196 0.011628207 0.0135070635 0.021585098 0.00074554514 0.0020390926 -0.018728677 0.016093573
0.007841524 0.009447314 0.007768709 -0.0071212673 0.0034201148 -0.018333212 0.010378543 0.0054671275
0.010340575 -0.005812452 0.01699135 -0.0036782736 0.009511555 0.020667763 0.01095672 0.0053462195
0.02202322 0.0104305865 0.013509162 -0.00092102564 0.0033058089 -0.0004864199 -0.006677216 0.0053483816
0.009500271 -0.016442394 0.010601399 -0.00676962 0.016793605 0.022959024 0.011165188 -0.0039196564
0.021414489 -0.0021310116 0.0031003498 -0.008115218 0.0011688952 -0.0038373754 0.00013536713 0.004612809
-0.0012628576 0.009928425 -0.013692019 0.016225014 -0.0019821636 -0.0057649403 0.0108805625 -0.010663715
-0.0077174017 0.0025634307 0.022624414 -0.02129095 0.0043138033 -0.005264946 0.004882996 0.013510461
-0.0116965845 0.012230731 -0.011950851 -0.0010531927 -0.020260848 0.01037163 0.017646438 0.000109811255
-0.009502096 -0.015276072 -0.010192181 -0.0025445279 -0.009031569 -0.0013497762 0.0025493957 -0.006872734
-0.00237213 0.016058518 0.013194751 -0.010733342 -0.019670105 -0.010283713 0.010505553 0.0045175324
0.007611669 0.004884919 -0.005626998 0.008459462 0.009442583 -0.009994581 0.014277328 -0.014437194
0.010769178 0.0077905334 0.013947533 0.010276786 -0.0057307724 0.0052636894 0.0053084013 0.013216757
0.01776911 -0.001415547 0.012020543 0.010336605 -0.0008334707 0.0052465564 0.0013379713 -0.00015845927
-0.012336911 0.021484554 0.0016321688 0.008605469 0.002308791 -0.008783374 -0.013598377 -0.0055634696
0.022035737 -0.014962643 -0.0016236148 -0.012888662 -0.008869115 0.013251539 0.007561035 -0.011413201
-0.008491891 -0.008302182 -0.014922088 0.013975588 -0.0030338457 -0.011596172 -0.0011357055 -0.0011976468
0.0029038936 0.018979618 0.015957138 0.020418692 -0.015892806 -0.0030617602 0.013946158 -0.006116744
-0.008859699 0.0026237764 -0.00095488393 0.00797415 0.004843667 -0.010161283 0.0027053684 -0.0015505323
0.008476416 0.014025588 0.016808877 -0.0077048135 -0.007460177 0.008594115 -0.016643802 0.019010957
-0.021606758 -0.0109616965 0.007170651 -0.012537842 0.008335932 -0.007040217 -0.0013164065 0.000338054
-0.003182744 0.002914815 -0.010896585 -0.013585862 0.0032904882 -0.017254874 -0.00326139 -0.011828668
-0.010706027 0.006225572 0.010634095 0.0056687198 -0.00928079 0.010537502 -0.0067425133 -0.008636258
0.011787939 0.0038340904 -0.0031193835 -0.011356638 0.017539697 0.016028158 0.010491955 0.009383482
0.0028678367 -0.017501485 0.00014873903 0.0072758645 -0.025144598 0.025615385 -0.004387038 0.018442422
0.02598048 -0.0017364052 -0.00432863 -0.008626332 -0.009829573 -0.0018903341 0.0068927696 -0.004300281
0.022185424 0.019570827 -0.00095742976 0.0074954825 -0.0069391476 0.0004962535 -0.007884423 -0.015820043
0.012330765 -0.0025992647 -0.022133341 -0.017516593 0.009742997 -0.00071702676 -0.009424275 0.004445334

net.3.linear.bias f4 [32]
00000000: 7daa 7cbd 43e2 be3d 10d4 06bd 3659 15be
00000010: 9f46 7c3d ef24 413d 0109 68bd 56f3 a2bd
00000020: 219a e03c 9e73 62bc 8018 fcbd 7fcc 2fbe
00000030: fc3d 8d3d 45e8 21bd c1d9 03be ec60 4b3d
00000040: 7861 f1bd 5981 c2bd 3e1e 22bb b963 26be
00000050: 6762 203d bd35 0ab9 7227 023e a410 2d3e
00000060: 4209 2dbe 4937 18be f175 2a3d a46f c9bd
00000070: d89f 423d 2f64 10be 3d61 7f3c 36e8 ee3d
-0.061686028 0.093205 -0.032917082 -0.14584813 0.061590787 0.047154363 -0.05664921 -0.07956569
0.027417244 -0.013821511 -0.123093605 -0.17167853 0.06896588 -0.03952815 -0.12876035 0.04965298
-0.11786169 -0.09497327 -0.0024737264 -0.16248979 0.039156344 -0.00013180725 0.1271036 0.16900879
-0.16898063 -0.1486484 0.041616384 -0.09835747 0.04751572 -0.14100717 0.015587148 0.116653845

net.4.weight f4 [4, 32]
00000000: cc8b 72bc f325 823c 3c11 f8bc bad2 04bd
00000010: e672 9c3d 2b26 bc3c dd49 303b 0c66 62bd
00000020: 16ec f3bb 9426 00bd a0ef 243d 7d88 b3bc
00000030: 28d2 443c 1b71 6bbc 98f6 2fbc 3e68 383c
00000040: 487d a8bc c961 f6bc 60e9 ee3c 54c9 bd3c
00000050: 1e55 6cbd 5b18 8b3c 1723 10bd 4a54 793c
00000060: 9916 373d 56af b23c b3cd 42bc edcd a6bd
00000070: c503 0dbc 91af fc3b 141c 1a3d 6801 e93b
00000080: 9444 0e3d f6c3 c23c 95a9 8c3d 215c acbc
00000090: c95d e43c d480 823b e518 733d cb05 003d
000000a0: ac92 b0bc 259b 12bd b2c1 76bd 2b45 0c3d
000000b0: f95c 4fbd f5df 693d ff54 1a3d 6635 1e3d
000000c0: 3e1d 83bc 38dc f53c aad8 4fbd 65a7 743c
000000d0: 9e0c de3c afe1 0fbd 8619 b13d 60a1 93bb
000000e0: 0bb7 df3d 6281 383a 242f c0bb 2827 12bd
000000f0: e3a3 21bd 892e 9e3c c545 743c 5991 483c
00000100: 1769 fc3c f85e 23bd a764 15bb 2da6 8f3c
00000110: 3bba 6cbd 4558 dabc a843 f1bc 5450 30bc
00000120: e834 1d3c c522 853a a547 cb3c 6865 e6bc
00000130: 6f7c 9e3c 3e43 4bbc bdd3 25bc 6fcd 0abd
00000140: 4ad6 3c3b 6182 c13c a73c d93c 1e8f edbc
00000150: da04 a2bc 5532 81bc 42d2 4cbd 2d8f 933c
00000160: ec1d 85bd 0460 e1bc fc50 afbb ea81 403d
00000170: 10dc 22bb 3b29 203c 2ff4 21bd 8e2d d43a
00000180: aed5 65bb 4389 033c ec6a 18bd b82d 86bd
00000190: 4929 303d 7831 493d db62 603d 1047 30bd
000001a0: c95d 2b3d 1e9e ebbc bffb 583d be13 65bd
000001b0: 37f2 2d3d 343f 5cbd 8800 17bd 1c5c 3f3d
000001c0: 2d7f 5bbd 11c8 1cbd 1b20 f93c 7692 3d3b
000001d0: 1678 33bd e912 1f3d b608 17bd 79bd 703d
000001e0: d1d2 413d 8b66 e53c 486e 3fbd 0d0a d6bc
000001f0: 6ca4 52bd d2b8 903d f4d5 c4bb bcb8 623d
-0.014803838 0.015887236 -0.030281655 -0.032427527 0.07639103 0.022967419 0.0026899495 -0.0552731
-0.007443915 -0.03128679 0.040267587 -0.021915669 0.012012996 -0.014370228 -0.010739945 0.011255322
-0.020567551 -0.030075924 0.029164016 0.02316729 -0.05769836 0.016979387 -0.035189714 0.01521785
0.044699285 0.021812122 -0.011889863 -0.08144746 -0.008606856 0.007711359 0.037624434 0.0071107633
0.03473337 0.023775082 0.06868283 -0.021040024 0.027876751 0.0039826427 0.059349913 0.031255525
-0.021554314 -0.03579249 -0.060243316 0.03424565 -0.050625775 0.057098348 0.037678715 0.038625143
-0.016005155 0.030012235 -0.050743736 0.014932488 0.027105626 -0.035127338 0.08647446 -0.0045053214
0.109235846 0.00070383225 -0.0058649946 -0.035681874 -0.039462935 0.019309299 0.0149092125 0.012241685
0.03081183 -0.03988549 -0.002279559 0.017535293 -0.05779479 -0.026653418 -0.029451206 -0.010761339
0.009595133 0.0010157457 0.024814436 -0.028124526 0.019346444 -0.0124061685 -0.010121283 -0.033887323
0.002881425 0.02362174 0.02651818 -0.028998908 -0.019777704 -0.01577107 -0.050005205 0.018012607
-0.06499848 -0.027511604 -0.0053502303 0.046998896 -0.0024850406 0.009775455 -0.039539512 0.0016187893
-0.003506999 0.008028331 -0.037211344 -0.06551689 0.043008123 0.049119443 0.054781776 -0.04303652
0.041837487 -0.02876192 0.05297446 -0.05592703 0.042467322 -0.053771213 -0.03686574 0.0467187
-0.05358808 -0.038276736 0.030410817 0.002892641 -0.043815695 0.038836394 -0.03687354 0.058774445
0.04732019 0.028002998 -0.04673603 -0.02612784 -0.051426336 0.07066502 -0.0060069505 0.055351958

net.4.bias f4 [4]
00000000: 56b4 bebd 527c 0a3d f937 7f3d 3f96 26bd
-0.0931174 0.033809967 0.06230924 -0.04067063
