outputs_ssh/noisy_data_NEW/chirp/1_nodes_given/10%_noise/25%_init_error/model.pt (torch, 16796 bytes, 10 tensors)

net.0.linear.weight f4 [32, 1]
00000000: e4d1 4ebf 6108 df3e 7630 7dbf 0994 d8be
00000010: 8b32 5abf 68b8 0bbf fb9c 643f 0182 d93e
00000020: 785e 4c3e 4ffb 45bf 31ac 413f ca85 f9be
00000030: 216e 3dbf 7624 8d3e 970e d73d f3aa db3e
00000040: 6116 63bf 6207 eabd 65f7 09bf c427 3cbf
00000050: aad1 c13e cb5a 19be 7ba9 babd 6ef6 073f
00000060: 3613 863e 1bc4 5c3f ab31 30be 1cbc 98be
00000070: c237 56bf 98d7 45bf c686 acbe 779f 713f
-0.8078902 0.4356108 -0.9890207 -0.42300442 -0.8523337 -0.54578257 0.89302033 0.42481998
0.19957912 -0.7733659 0.7565337 -0.48734885 -0.7399617 0.2756688 0.1050083 0.4290386
-0.8870602 -0.114271894 -0.5389312 -0.7349818 0.37855273 -0.14976041 -0.09114357 0.53110397
0.26186532 0.86236733 -0.17206447 -0.29831016 -0.8367883 -0.77282095 -0.33696574 0.9438395

net.0.linear.bias f4 [32]
00000000: 20b0 283d 7004 233f a480 22bf f80f 023f
00000010: cdda 44bf 87c0 45be c5cc 26be 310f 443e
00000020: fbc6 3a3f 9432 3d3e ece8 64bd 59c4 6e3f
00000030: 82e7 3a3e b90b 433e ab81 1b3d ca1f 493f
00000040: a207 023f 6b61 7bbf 572d 6b3f fa3d 183e
00000050: 53c2 c23e c4a1 b9be 4090 a93e 66f7 4cbf
00000060: 153e c63e a17f 413f 4822 9cbe cc78 713f
00000070: 27d2 a6be 3e67 91bd 5b12 d23e 586d 02bf
0.04118359 0.63678646 -0.6347754 0.50805616 -0.76896363 -0.19311725 -0.16289051 0.1914642
0.7295987 0.18476325 -0.055886194 0.9326835 0.18252376 0.1904744 0.037965458 0.7856413
0.50792897 -0.98195523 0.9186606 0.14867392 0.38038883 -0.3625623 0.33117867 -0.80065
0.3871924 0.7558537 -0.30494905 0.94324946 -0.3258221 -0.0709977 0.4102963 -0.50948095

net.1.linear.weight f4 [32, 32]
00000000: e972 423c 9336 72bc 1427 e53b 333c 4bbb
00000010: 1feb 283c 7bde b13c ecc8 a4ba ee14 5fbc
00000020: 5cc3 453c 3126 9abb 34a5 a9bc 58ab 4d3c
00000030: 4900 f73a 5573 dbba 1600 ec3b 9f9e 093c
00000040: 4b59 39b9 cd6d 14bb ffd6 9bbb fc7a cabc
00000050: 6d7c 5c3c 3719 58bc c7a7 31bb b424 b3bc
00000060: 6edc 6c3b fa2f 7f3c dca2 8ebc f3b5 21bc
00000070: 70fa d3bb 85d3 293b 8dfc 2e3c f912 953b
00000080: a60b b9bb 4a7e 8e3b e21d 88bb 7604 ba3b
00000090: 125f c6ba a364 4e3c 8a63 2b3c 3549 74b9
000000a0: 7dbd 8eb9 c2c1 d5bb 6f17 3fbc 817b 54bc
000000b0: 6452 f53b a355 05bc 6830 513c ffbf cb3a
000000c0: 769e 26bc 409c 283c e430 21bc acaa f8ba
000000d0: e007 cdba c907 393b ae5c ea3b 5c27 d1bb
000000e0: cfc3 66bb 09f7 f73b 4607 a8bc 1557 09bb
000000f0: dad7 68bc 2d29 e0bb 515a 84bc 1bfc 21ba
00000100: 3e52 6ebc 886e 66bb ec45 34bc c2c6 7d3b
00000110: 303f 20bc 9a65 fc3b 4f21 463a e15e a7b9
00000120: 95d9 23ba 54f3 293b 2891 933b 308c b63b
00000130: 7ce1 073c 9b01 213b 7f70 b0bb 0309 0d3c
00000140: 718a 343c 92ca 2dba 2e10 983c 8507 2a3b
00000150: b6b1 983b cb8c 98bc a8e7 a1bb 4b53 90bb
00000160: 926e 83ba 1a71 1dbc 2a42 e7bc 8ebc 6cbc
00000170: ef28 a63b db1b f6bb 2430 1ebb 74cb 173b
00000180: c176 003b 3020 03bc 322f 243b 1756 0bbc
00000190: 17b7 1abc 271b 0cbc 8c07 a33b 62ca 19bc
000001a0: 5ca4 c43c 3a3c 3abc 686c babb e4e0 51bc
000001b0: 4596 f83b 5d1d a93a da43 7bbc 2f7c 8fbc
000001c0: 4f03 053c c7d0 49bc 0848 073c 673d 65bc
000001d0: 4eb5 f4bb 4c05 bebb 713e 043c 402f 033b
000001e0: 50c9 eabb f2a7 6fbb 44df 81bc 0ed8 bf3c
000001f0: b916 eebb 5c1d 2f3a f0bd 27bc 66ba 19bc
00000200: 4084 683c aed8 43bc b2e9 9b3c 797b b139
00000210: 5e02 b13b 6892 a3bb c57a 5d3c 466d 2dbc
00000220: e6dc 01bb af79 61bc fc12 303c 6c16 2abc
00000230: ea51 59bc ff1d 8cbc 2c8a 5b3b 30cd 253a
00000240: 91dd 403b eb80 7ebb d401 59bc b79e c93a
00000250: 4a55 d83b b546 1ebc dfa8 e03b 9226 243c
00000260: 94db cabc 11f4 0abc 3262 11bc 2a57 603c
00000270: a05f c43b 71fb 6a3c f15a 99bc 48b2 873c
00000280: 233b 6cba 4ccf e43b 9d10 bfbb 1a71 b9bb
00000290: 5018 5fbc bf81 14bc ac95 033c ea1b 45bc
000002a0: c697 85bb 8d2e 68bb a323 353c 4d69 30bc
000002b0: 7ee0 e7ba c038 1e3c 0a13 4c3c 6d4b 82bc
000002c0: 18b9 fabb 6a2d 863c a3d8 11bc 59a4 803b
000002d0: 3559 943c 92d7 a1bc 9616 093b c675 1cbc
000002e0: b204 16bc 5b2f 70bb 78b3 c33c dcd5 48bb
000002f0: 4561 e539 2c62 19ba 8a5b 79bb f748 5abc
00000300: a108 c13c 64ba d1bb fe76 d13b 7195 073c
00000310: e971 0dbc 012d a7bb 1f94 c8b9 7b80 c8ba
00000320: b1e5 983b 53bf 8a3b 5181 9d3c e31a e73b
00000330: e275 b53b 5d32 403b 7f5f f3bc 5c9a 8dbc
00000340: 9f31 1c3b 2ff8 9abc 777f 0dbc 1fad bb3b
00000350: 64bd 503b 5712 b33c a51b 8b3c 74bb 09bc
00000360: ae97 dd3b d780 143c eab4 813c 2d27 c7bb
00000370: a2e3 07ba bfe8 1d3c de7c f53b 8bff 0c3b
00000380: 72be 4a3c 9ebe c83b 37b6 303b 6f82 6cbc
00000390: 0631 223b 4422 803c 1d9a 82bc 71f2 d3bb
000003a0: 3d19 d93b 6af3 0c3c 54ba 483b 32a1 0db9
000003b0: f492 963b cfa5 033c d4b6 b83b 700a 563c
000003c0: c102 f7ba 56e6 a1b9 b8ce 83bc 1140 7b3c
000003d0: c522 613b 3f29 973c 12ca d5bb a127 81bc
000003e0: 7983 dbbb 66d0 283b 3a26 de3b dd0b 723b
000003f0: d557 ee3b 0b20 c73b 5a75 193c cfe0 4fba
0.011868217 -0.014783519 0.006993184 -0.0031011223 0.0103099635 0.021712532 -0.0012572086 -0.01361583
0.012070503 -0.00470426 -0.020708658 0.012553059 0.001884469 -0.0016742746 0.0072021587 0.008399635
-0.00017676239 -0.0022648454 -0.004755854 -0.024716847 0.0134574 -0.013189605 -0.002710806 -0.021868087
0.0036142129 0.015575403 -0.017411642 -0.00987004 -0.0064690635 0.002591343 0.01068033 0.004549381
-0.0056471406 0.004348551 -0.004153953 0.0056768013 -0.0015134534 0.012597236 0.010460744 -0.00023296925
-0.0002722553 -0.006523342 -0.011663302 -0.012968899 0.0074866284 -0.008138093 0.012767889 0.001554489
-0.010169616 0.010291159 -0.009838317 -0.0018971763 -0.0015642606 0.00282334 0.0071521616 -0.006382866
-0.0035211926 0.0075672907 -0.02051128 -0.0020956446 -0.014211619 -0.006840846 -0.016156347 -0.0006179229
-0.014545975 -0.0035161097 -0.011002999 0.0038723205 -0.00978069 0.0077025415 0.0007558064 -0.00031923412
-0.0006250379 0.0025932388 0.004503388 0.005570911 0.008293506 0.0024567607 -0.0053845043 0.008608106
0.011019335 -0.00066296116 0.018562403 0.0025944423 0.0046598567 -0.018621823 -0.0049409457 -0.0044044605
-0.0010027459 -0.009609485 -0.028229792 -0.014449252 0.0050707976 -0.007510645 -0.002413758 0.002316204
0.0019602033 -0.00800328 0.0025052545 -0.008504412 -0.009443066 -0.0085513955 0.004975265 -0.009386631
0.024004154 -0.011366898 -0.0056891926 -0.012809966 0.007586273 0.0012902428 -0.015336001 -0.01751527
0.008118465 -0.012317843 0.00825692 -0.01399169 -0.0074679023 -0.0057989713 0.008071528 0.0020017177
-0.0071651116 -0.003656861 -0.015853532 0.023418453 -0.0072658923 0.0006680095 -0.010238156 -0.00938282
0.014191687 -0.011953516 0.019032333 0.00033852065 0.0054018935 -0.004991818 0.01351804 -0.010585135
-0.0019815504 -0.013761922 0.010746714 -0.010381322 -0.013264159 -0.017104147 0.0033499105 0.0006324826
0.002942894 -0.0038834165 -0.013245065 0.0015382384 0.006601964 -0.009660413 0.0068560685 0.0100189615
-0.024762906 -0.0084810415 -0.008873509 0.0136926565 0.0059928447 0.014342175 -0.018720122 0.016564503
-0.00090114976 0.0069827195 -0.005830838 -0.0056592347 -0.013616636 -0.009064137 0.00803129 -0.012030581
-0.0040769307 -0.0035428137 0.01105586 -0.010767293 -0.0017690805 0.009657085 0.012455711 -0.015905106
-0.0076514594 0.016379077 -0.008901748 0.003925842 0.018108943 -0.019756112 0.0020918003 -0.009549564
-0.009156393 -0.003664932 0.023889288 -0.0030645048 0.00043750755 -0.00058511156 -0.0038048946 -0.01332306
0.023563685 -0.0064003933 0.006392359 0.008275376 -0.008633115 -0.0051018004 -0.00038257331 -0.0015297079
0.004666053 0.0042342334 0.019226702 0.0070527657 0.0055377344 0.0029326894 -0.029708622 -0.017285518
0.0023833287 -0.018917171 -0.008636347 0.0057274248 0.0031851167 0.021859331 0.016980955 -0.008406509
0.0067624664 0.009063921 0.015833337 -0.006077668 -0.0005183761 0.0096380105 0.007491692 0.002151462
0.012374507 0.006126239 0.0026964077 -0.014435395 0.0024748459 0.01564134 -0.015942628 -0.0064681103
0.006625323 0.008602956 0.0030628638 -0.00013506858 0.004595155 0.008035137 0.005637029 0.013064012
-0.0018845425 -0.00030879927 -0.016089782 0.015335099 0.0034353 0.018452285 -0.006524333 -0.015765967
-0.0066990224 0.002575898 0.0067794593 0.003693334 0.007273654 0.006076818 0.009366358 -0.00079299224

net.1.linear.bias f4 [32]
00000000: 42a0 813d 6b0c 07be 68e6 92bd 8a31 053d
00000010: fac9 323e 87c7 e33d beb7 de3d 6ef5 083e
00000020: 29b2 37be bc3a 7abb 25bc a23d 2723 8a3c
00000030: dbcc 883d 2e05 d3bd c131 11be 673e 263e
00000040: 683d 80bb debc c1bc 9ed3 1f3e 72d9 20bd
00000050: fe4c 13be b441 803d 6c13 75bc 6f69 3abd
00000060: fa2a 0bbe 4869 e5bd be48 de3d 48d0 c2bd
00000070: dc92 e23d 3ac2 7a3c 4213 203e 7e43 a53c
0.06329395 -0.13188331 -0.07172853 0.032517947 0.1745986 0.11122041 0.1087489 0.13374874
-0.17939056 -0.003818198 0.07946042 0.016862465 0.06679698 -0.10303722 -0.14179136 0.16234742
-0.00391357 -0.02364963 0.1560807 -0.039269872 -0.14384839 0.06262532 -0.014958244 -0.045510706
-0.13590613 -0.112017214 0.10853718 -0.09512383 0.110631675 0.015305096 0.15632346 0.020173784

net.2.linear.weight f4 [32, 32]
00000000: 60aa c43b 3d74 803c 4e48 f4bb de99 f63a
00000010: 2b77 283c 966f bb3c a7e7 be3b 4ef0 ccbb
00000020: 3ccd 0ab8 420b 873c 172b 863c 4d81 93bc
00000030: 8eab 62bc 3d23 c03b 7962 8bbc 66c0 c53b
00000040: ae21 6f3c aa5b 1e3c 3a82 2cbc bc55 243c
00000050: 2e1c 5b3c 78ee c8bb 7263 13bc c609 a73b
00000060: a05c 70bc 56ef 403c a163 a4bb 8892 85bc
00000070: 76f8 a23c 96df 45bc 8061 273c 1990 15bc
00000080: d11e 29bb 239b 053c ab5a cc3a b515 a0ba
00000090: 6d82 b039 787b 6abc 2356 16bc 3b9b 993b
000000a0: 7523 13bc 234d a9b8 1904 7cbb 0e89 623c
000000b0: a702 253c 7236 363c b6e7 b7bc 57f3 32bc
000000c0: 6601 b5b9 9c22 c93a 154a ad3b e374 df3a
000000d0: 3417 03bc ac95 143c 02c0 b83a c1fd 793c
000000e0: ceaa 91bc 1c1a 863c b590 0f39 d7a7 893c
000000f0: 39ab 783b 6189 db3b f6a0 e93a b9a1 88bc
00000100: 36f3 94bc 8db9 d6bc e635 7a3c ed03 4bbc
00000110: ec09 0b3c 02a4 30bc cce4 d83b e686 7c3b
00000120: e5e5 aa3b 0433 c03b b9bb 31bc 32c3 50bb
00000130: a19b 97bb f463 eebb fc79 b93a 017e 5e3c
00000140: 5ff3 6fbb 9cf2 343c 070f 4e3c ea0e 003c
00000150: 889b 9cbc 0f9a bd3b 58cc 1dbc 9023 9cbb
00000160: f4af fabb 8db1 bf3b 7971 cabc 9854 be3b
00000170: 29e4 003b 299b 19bc 2d32 75bb 144e a73b
00000180: f2d7 16bc 2981 4e3c 5900 b83a c5cd 4ebc
00000190: a49a 9ebc 1f76 2d3c 948d 08bc a86c 253c
000001a0: ae87 18bc c258 7e3c 8a70 83bb 6de5 bdbc
000001b0: 757a dfbb 4bd2 eb3a e891 1abb 3e7e 4a3b
000001c0: 96e8 5bbc a5ab 3c3c 6bb7 333c 0044 163b
000001d0: 2e2d 2fbc bf35 6cbb 0f4d ab39 dc60 8e3b
000001e0: 4727 ee3b 3285 c53b bf37 953c fb7e 2b3c
000001f0: a6f7 ea3b 80ab 4cbc 173d 823b ad61 4a3c
00000200: d7c8 2d3c a973 883c 7bab 7bbc d214 d13b
00000210: 39b9 1f3c 4bb2 783b 8f7e 8b3b 9b9a 0d3c
00000220: 5b75 353c f3fa 8a3a ead9 843c 958f 743c
00000230: df83 773c 32f1 7e3c 9dfb fe3b 97b5 233b
00000240: 4f7f b0bc b5e5 2c3c 0ff9 9bbc a93c b9ba
00000250: fe6c 83bb 9de5 0d3b 3e51 fbbb d9c9 4cbc
00000260: 420a 8a3c 0689 fd3b 5725 20ba da9e 81bc
00000270: ef49 163c 96fa bd3c 2b43 46bc 8d45 9f3c
00000280: 6ada 76bc c3a7 55bc 3402 ecbb b8ff a13b
00000290: 3535 983b 4c89 db3b 7ee1 e03b d0e1 bdba
000002a0: a32e 313c ae61 c2bb ef0f 853b 37d2 b6bb
000002b0: 8c0d 483c c486 9cbc a4b4 263a 0744 73bc
000002c0: 60d4 f8ba c96a 3bbc 12a6 9abb d07f dabb
000002d0: 9189 7bbc 6486 ac3b d9d7 353b 38e1 6c3b
000002e0: 3e97 8e3b 67d9 43bb f816 db3b 0a2d d3bb
000002f0: 5432 02bc 49e1 6b3b 07ab 193b 4385 7abb
00000300: 4ec9 493b 8b1f 85bb df40 803b fc59 b13c
00000310: aac2 6fbc 56c6 7fbc f0f4 7a38 df71 3f3c
00000320: 3c03 22bc a98b ac3b bfba 2bbc bef9 cc3a
00000330: 2f1e 9abc 5a4e 45bb 623c e93b e5b7 81bc
00000340: 948c a8bb b09b 5b3b 4427 92bc c8a3 28bc
00000350: e3dd 7abb 9b9e 323b cdd1 11bc 80e3 a4bb
00000360: 850e 6fbc 7177 3dbc 9603 87ba 3065 5e3c
00000370: e6cc 953b 6583 9b3b 6467 073c ea92 4a3c
00000380: 77fe 9b3b 6da0 2abb d926 d53b 6e33 eb3b
00000390: 3d2b 51bb aa30 703c 9ec7 12bb 417f 3b3b
000003a0: 1905 2c3b a446 e93b 62b2 263b 8276 1d3c
000003b0: 8a7e f03a 27a4 74ba a9e8 e6ba b22b ae3b
000003c0: c13d db3b 36ec 183b f764 013c e067 063b
000003d0: ddc4 81bc 7c68 e63b c4a9 113b a64f 1bbc
000003e0: 98bf e5bb d5d5 443c c937 823c 219b 83bb
000003f0: 2f63 8ebc d65e ea3b 50dd 863c 8b60 c8bc
0.0060017556 0.015680427 -0.0074549085 0.0018814167 0.010282318 0.022880357 0.005825955 -0.0062542325
-3.3092903e-05 0.01648486 0.016377969 -0.018005991 -0.013834847 0.0058635757 -0.017014729 0.0060348986
0.014595432 0.009665409 -0.010529095 0.010030206 0.013373418 -0.0061319433 -0.008995878 0.0050976006
-0.014670521 0.011775812 -0.0050167595 -0.016305223 0.019893866 -0.012077233 0.010216117 -0.009128594
-0.0025805722 0.008154663 0.0015590986 -0.00122135 0.0003366651 -0.014311664 -0.00917581 0.0046876944
-0.008980622 -8.072916e-05 -0.003845459 0.013826622 0.010071433 0.011121379 -0.022449356 -0.010922275
-0.00034524052 0.0015345397 0.0052883723 0.0017048385 -0.0080011375 0.009068888 0.0014095309 0.015258254
-0.017781641 0.016369872 0.0001369145 0.016803665 0.0037943854 0.0066997265 0.0017824459 -0.016678678
-0.018182378 -0.026211524 0.015271639 -0.012391073 0.008486252 -0.01078129 0.0066190716 0.0038532554
0.005215394 0.0058654565 -0.010847979 -0.0031854627 -0.0046267067 -0.007275099 0.0014150734 0.013579846
-0.0036613566 0.011044171 0.012576825 0.007816056 -0.019117132 0.0057861875 -0.009631239 -0.0047649816
-0.00765037 0.005850023 -0.024712311 0.005808424 0.0019667244 -0.009375372 -0.003741394 0.005105743
-0.009206759 0.012604036 0.001403819 -0.0126223015 -0.019360848 0.010587244 -0.008334536 0.010096706
-0.009309692 0.015524091 -0.0040112184 -0.023180688 -0.006820018 0.0017991749 -0.0023585502 0.0030898
-0.013422152 0.011515533 0.010969023 0.0022928715 -0.010691924 -0.0036042777 0.00032673075 0.0043450426
0.007267866 0.006027841 0.018215058 0.010467286 0.0071706353 -0.012492061 0.0039745676 0.012352389
0.010606966 0.016656714 -0.015360708 0.006380656 0.00974875 0.0037948068 0.0042570303 0.008642818
0.011075343 0.0010603353 0.01621719 0.014926811 0.015107124 0.015560435 0.0077814595 0.0024980062
-0.02154508 0.010552813 -0.019039659 -0.0014132458 -0.0040107956 0.0021651753 -0.007669597 -0.012499296
0.016850594 0.0077372817 -0.00061090797 -0.015822817 0.009172901 0.023190778 -0.012100975 0.019442344
-0.015066722 -0.013040486 -0.007202411 0.004943814 0.0046450146 0.0066997167 0.0068628183 -0.0014486853
0.010814342 -0.0059320545 0.0040607373 -0.005579259 0.012210261 -0.01910723 0.0006359315 -0.014847762
-0.0018984191 -0.011439034 -0.004719504 -0.0066680685 -0.015352623 0.005265044 0.0027747063 0.0036144983
0.0043515256 -0.002988422 0.0066860877 -0.006444578 -0.0079465695 0.0035992435 0.0023447888 -0.0038226403
0.0030790153 -0.004062598 0.0039139832 0.021649353 -0.014633814 -0.015611252 5.983276e-05 0.011684864
-0.009888466 0.005265672 -0.010481535 0.0015638394 -0.01881322 -0.0030106516 0.007117794 -0.015834758
-0.0051437113 0.0033509545 -0.017840989 -0.010292955 -0.0038279227 0.002725518 -0.008900118 -0.005032003
-0.014590864 -0.011564122 -0.0010300751 0.01357393 0.004571545 0.004745888 0.008264396 0.012364129
0.004760559 -0.0026035563 0.006504875 0.0071777618 -0.0031916641 0.01466004 -0.0022396813 0.0028609785
0.0026248156 0.0071190167 0.0025435914 0.009610774 0.0018348258 -0.0009332322 -0.0017616946 0.0053152675
0.0066907112 0.0023334152 0.007897607 0.0020508692 -0.015840942 0.0070314985 0.0022226432 -0.009479439
-0.007011365 0.012013872 0.015895741 -0.0040162955 -0.017381279 0.0071524186 0.016462952 -0.024460098

net.2.linear.bias f4 [32]
00000000: e352 1cbe 7f88 873d cc9e 56bd 4ae3 27bd
00000010: 48fc ac3d 3def 163e 219f 16be 7870 983d
00000020: ad12 9fbd b827 24be 2eb8 2fbe 8397 da3d
00000030: 0180 573d 8b6e 493d bd0a 51bb 6ff4 183d
00000040: b16b 673d 36dd ed3d 6689 79bd 4e86 6abd
00000050: 8c15 33be 9b81 d73d f60a f9bd 9906 0a3e
00000060: 076f 24be 13ce 89bc 080f b03d 164f 75bd
00000070: 457e 7b3d e6e7 64bd cdd1 c03c b5e6 24be
-0.15265994 0.066178314 -0.052397534 -0.040988244 0.08446556 0.147397 -0.1470914 0.07443327
-0.07767234 -0.16030777 -0.17160103 0.1067343 0.05261231 0.049177688 -0.003189727 0.037342485
0.056499187 0.11614458 -0.06092205 -0.05725699 -0.17488688 0.10522767 -0.12160294 0.1347908
-0.16057979 -0.016821897 0.08596617 -0.059889875 0.061399717 -0.055885218 0.02353754 -0.16103633

net.3.linear.weight f4 [32, 32]
00000000: 99b0 92bc ae59 4cbc 0580 8a3c 42b6 da3b
00000010: fcdc 9abb 028a c63b 604b fabb ad50 4b3c
00000020: 61c8 57bb b780 403b b836 febb d420 4b3c
00000030: 28d4 e9bb b3fd 943b 5994 af3c 66eb 7ebc
00000040: d098 b6bb c9e6 ddbb 2fe3 a739 0d37 8d3b
00000050: 015e 973c b8d3 2a3c 25cd 2c3c aa29 0a3c
00000060: 3d63 b0ba c846 26b9 7802 18bb a3ad ee3b
00000070: c232 10bc ad28 243b 7f3e 8cbb 0de8 b7bb
00000080: b463 3abb bc55 f539 739c 69bb 10cf 613b
00000090: 113a dbbb a52e 31bc c438 06bb 810e a0bc
000000a0: d5b8 dcbb d96e 8bbc 541d 1abc 8e00 16bb
000000b0: 914c 453c 4aff bd3a 46a8 413c e525 b13a
000000c0: ebff 3abc b5a2 053b b151 bdbb 83c1 08bc
000000d0: f8d3 99bc b973 a13b 16e2 19bc 29ae 7f3a
000000e0: bf7d 17bc 4412 023c 9e76 aebc 38e6 ac3c
000000f0: d1f4 40bc d26b cbba 6647 373c d275 e8bb
00000100: 1239 97bb 5964 45bc 5460 70bc 38c0 4d3c
00000110: fd94 2239 47fa a53c 9508 01bb 1288 14bc
00000120: 6d42 5f3c 0aa7 b8bc cddf 65bc 620f b4bc
00000130: 8730 d93a 581d 21bc cc90 5fbc 04dc f53b
00000140: 22dd f03b 0e1c f73a e64a d03c 4096 7c3c
00000150: 1482 79bc 695c d03c 3f28 a0bc 2d64 7c3c
00000160: 2b13 debb ebc0 1e3c f9e1 e53c 91cf 933c
00000170: 5e45 5abb 14b3 09bc a230 afbb 4c84 94bc
00000180: 03b8 393c 145e 12bc ff30 cd39 27c4 93bc
00000190: bae1 67bb cf7b 14bc 1309 25bc 659d d8bb
000001a0: 64fe 473c 4eea 403c 37f0 a1bc 52d0 103b
000001b0: 0933 923c baab 723c c9e6 973c 931d 423b
000001c0: f8fc 11bd fb7a 603b 5126 35bc 2f97 67bc
000001d0: 5994 303c 139e ffbb be43 ebb9 9873 03bc
000001e0: 1b6f 873c cab3 a0bb 709c 87bc bef0 943c
000001f0: 3547 97bc 0335 42bc 08c8 8ebb 52ee c839
00000200: a8dc ecbb add8 c63b c46b b8bb d942 ce3b
00000210: efa6 33bb a43c 003c 080b 6dbc 4835 36bc
00000220: dda7 ea3a 9f41 9cbc f22e afbc 9430 5e3c
00000230: 015c 20bc 98c5 59bc aada b53b 9499 cbbb
00000240: da7c 99bc fa14 e2ba 2cf1 a73c 288d cfbb
00000250: b0c8 603a 4830 653c 88c8 de3b 5b04 18bb
00000260: 9193 0dbc 20dc 433c b416 d83c 2b56 873c
00000270: d4c6 c0bc 19dc 01bc 71fa aabc 800a 2fba
00000280: cd55 c43a bfbb aabb eb44 de3b 6a71 693c
00000290: 83f3 9fbc e622 ad3b 8df8 063c 25a0 d93a
000002a0: 166b 9d3a 8ce0 943a 438c 973c 6c2c 663c
000002b0: 33a9 54ba 04c8 b13a 2bea 5cbc cf48 05bb
000002c0: 4f7f 65ba 564f 5f3c 67cf 523b 7cde 8d3b
000002d0: d6be 95bc 4c66 23b9 6cca 143c 3af8 b03a
000002e0: 76e7 edbb e2c2 20bc b46a daba 8b28 c53a
000002f0: 4723 ae3c cc15 6c3c 2da3 91bc c5b7 00bc
00000300: ae0b a5bc aa7a bdbc ac6d 2dbc dc64 d2bb
00000310: b7c9 4a3c 447e 853b 79ba 453c ab2f 0c3c
00000320: 9496 74bc d512 1dbb d27a 72bc 2d77 64bc
00000330: 2995 013c ed4e 1b3c ad5c 2b3c a21b 81bc
00000340: 9e2b 30bc 0aa5 83bc de2a 08bc 4290 afbb
00000350: edf0 b13c 2e88 b33b c249 5cbc 9dba 79bb
00000360: 6237 47bc 4b9f 053c 0071 893b e0f0 253c
00000370: aa6f 1a3c 0148 463c fa92 35bc d1e2 a73b
00000380: 0acb 5bbc 3b1c f23b 399a a53c 7818 9ebc
00000390: b85f b7bb bb10 f3bb f65d a33c 13de 0d3c
000003a0: edd5 793c 9bfe 06bc 129a 763b b49a 34bc
000003b0: 5a8a 7ebc ea79 9fba f4f4 b83a 7160 92bb
000003c0: b5f9 8d3c e7fc ddba 602e 89bc eac3 c6bc
000003d0: 7654 743b d2ba 80bc 1b49 1a3c 3ccb 103b
000003e0: 50a3 9bbc 5b68 2a3c 3b67 c13b bcc1 7aba
000003f0: 99e5 7fb9 9768 623c 4d8e f63b 58b0 04bc
-0.017906474 -0.012472553 0.016906748 0.006674559 -0.0047260504 0.0060589323 -0.00763838 0.012409371
-0.0032925832 0.0029373595 -0.007757988 0.012397964 -0.0071358867 0.004546845 0.021433042 -0.015559053
-0.005572416 -0.0067718965 0.00032021987 0.004309541 0.018477442 0.010426454 0.010546957 0.008432785
-0.001345731 -0.00015857362 -0.002319483 0.0072838827 -0.008801164 0.0025048659 -0.004279911 -0.0056123794
-0.0028440775 0.0004679392 -0.003564623 0.0034455694 -0.0066902717 -0.010814344 -0.0020480612 -0.019538166
-0.006735901 -0.01702063 -0.009406406 -0.0022888514 0.012042181 0.0014495638 0.011819905 0.0013515322
-0.011413555 0.002039117 -0.0057775606 -0.008346918 -0.018777832 0.0049271253 -0.009392282 0.000975343
-0.009246289 0.007938925 -0.021296795 0.02110587 -0.011777119 -0.0015519804 0.011186456 -0.0070941234
-0.0046149576 -0.0120478505 -0.014671404 0.012558036 0.00015505026 0.020260943 -0.0019688953 -0.009065645
0.013626677 -0.022540588 -0.014030409 -0.021979991 0.0016570248 -0.009833656 -0.013645362 0.0075030345
0.00735058 0.0018852965 0.02542634 0.015416682 -0.015228767 0.02543469 -0.01955044 0.015404743
-0.0067771873 0.00968955 0.028061854 0.018043311 -0.0033305506 -0.008404512 -0.0053463737 -0.01812949
0.011335376 -0.008933563 0.00039137152 -0.018037869 -0.0035382346 -0.009062721 -0.010072964 -0.0066105598
0.012206648 0.011774613 -0.019767864 0.0022096825 0.017846601 0.014811451 0.018542664 0.0029619678
-0.03564164 0.003425299 -0.011056499 -0.014135166 0.010777556 -0.0078008263 -0.00044873165 -0.008023165
0.016532471 -0.004904245 -0.016554087 0.018181201 -0.018466571 -0.011853459 -0.0043573417 0.00038324535
-0.0072284527 0.0060683102 -0.005628081 0.00629459 -0.0027412733 0.007826958 -0.014467962 -0.011121102
0.001790281 -0.01907426 -0.02138469 0.013561387 -0.00978756 -0.013291739 0.0055497484 -0.0062133763
-0.018736292 -0.0017248683 0.020500742 -0.006333966 0.00085748266 0.013988562 0.0067988075 -0.0023195955
-0.00864114 0.011954337 0.026378013 0.01652058 -0.023532309 -0.0079260105 -0.020871373 -0.0006677285
0.0014979184 -0.0052103694 0.006783118 0.014248231 -0.019525295 0.0052837012 0.00823797 0.0016603513
0.0012010064 0.0011358424 0.0184995 0.014048677 -0.0008112371 0.0013563638 -0.013483564 -0.0020337587
-0.0008754627 0.013629755 0.0032167078 0.0043295007 -0.018279474 -0.00015583 0.009081464 0.0013501712
-0.0072602583 -0.009812089 -0.001666388 0.001504199 0.021257056 0.014409494 -0.017778004 -0.007856314
-0.02014717 -0.02312978 -0.01058523 -0.006420715 0.012377194 0.00407389 0.012068384 0.008556287
-0.014928479 -0.0023967524 -0.01479979 -0.013944429 0.007909098 0.009479267 0.010459107 -0.015760247
-0.010752587 -0.016069908 -0.008311002 -0.005357773 0.021721328 0.0054788804 -0.01344532 -0.0038105615
-0.0121592 0.008155654 0.004194379 0.01012823 0.009426037 0.012102128 -0.011082405 0.005123474
-0.0134151075 0.0073886192 0.02021514 -0.019298777 -0.0055961274 -0.007417766 0.019942265 0.008658904
0.015248758 -0.008239414 0.0037628454 -0.011023212 -0.015535915 -0.001216707 0.0014111088 -0.004467063
0.017330984 -0.0016936333 -0.016745746 -0.024263341 0.0037281788 -0.015714083 0.009416844 0.0022093793
-0.018998772 0.010400857 0.0059021986 -0.0009565612 -0.00024404227 0.0138188815 0.007524288 -0.008098684

net.3.linear.bias f4 [32]
00000000: aef4 753c 0441 e1bc 6175 7e3d 2794 8d3d
00000010: 5a1e 3fbe 2ab8 bf3d 5c36 a03d 49ae 28be
00000020: 9a7d 8fbd e05b a1bd 7057 3ebe 4213 66bd
00000030: cd77 9b3c 5abf f63d 2a21 09be ea53 2c3b
00000040: 4d38 49bb c44b 72bd c8c6 2a3e f1c8 38bd
00000050: f017 83bd 1003 933d ddc9 c03d bca0 103d
00000060: 056b b4bd 1227 01be 9dd5 02be 1747 3cbe
00000070: 4951 8e3d 78f3 8c3d 5e77 08be 794a 08be
0.015011949 -0.027496822 0.06212366 0.069130234 -0.18663922 0.093612984 0.07822868 -0.16472735
-0.070063785 -0.07878852 -0.18588042 -0.05617071 0.018978024 0.12048216 -0.13391557 0.0026295134
-0.0030703724 -0.059154287 0.16677392 -0.045113508 -0.0640105 0.071783185 0.09413502 0.03530954
-0.08809475 -0.1261256 -0.127768 -0.18386494 0.06949098 0.068823755 -0.13326785 -0.13309659

net.4.weight f4 [4, 32]
00000000: f055 023d beca db3d f055 293d 2fa6 24bd
00000010: 62e9 cd39 4f33 993d d1c6 da3c 9e85 563d
00000020: 9f5f 39bd 074e 42bc c481 103c 1598 6bbb
00000030: baf7 07bd f04a b63b a5a4 ff3d 6d20 9c3d
00000040: 0d10 353d 4d3c 9d3c 1c96 95bc 834d f1bc
00000050: 95b1 8b3c ccdf 02bd 75e2 acbc 96ef 3a3d
00000060: 844b 82bd 7f5c 463d 1820 d63c 9e23 e03c
00000070: bb7d 713d 4d99 babb 3246 f0bc 3ead d63c
00000080: 0e88 973d 1d92 18bd 67f4 2fbd 415f efbc
00000090: 27b8 29bd e198 e1bd b8d8 24bd aa74 613b
000000a0: 7459 b83d 7675 12bc 3e50 823d db72 5c3b
000000b0: f520 8e3c 5ba0 b93d 8799 85bc 48a5 c33c
000000c0: f030 ce3d 6a57 8a3d ab6e 4bbd 4560 3dbd
000000d0: 2540 72bd a970 adbd ccae 473d 8a21 95bd
000000e0: 3585 3cbd 59f6 5dbc 2555 83bd f3a2 af3d
000000f0: 512c adbd b7ec e1bd efac 9b3d bdcd 62bd
00000100: 2737 7cbd df08 b1bc cf1a 0dbc d18d 813c
00000110: f775 b73d fff2 84bc 31ab 2a3c 6d8e 81bc
00000120: 4308 2abd 0887 aa3d 2e48 63bd 5e96 2d3c
00000130: d70a 09bd a965 b9bc faf6 80bd a699 1abd
00000140: 4bba b5bc 16ba 10bc 5fc4 183d 02c8 753d
00000150: b446 3e3d 8b4f 78bc 5f27 7dbd 8d8c 8e3b
00000160: 5a4c 5c3d 795b 59bd d675 843c 1959 3fbd
00000170: a950 43bb 1f86 1e3d 0e13 90bd 239c 893d
00000180: e721 f73c 6fa8 133e 8e83 423d 6d6e 1fbd
00000190: 58d6 0d3e 39a7 093e 325e 8cbd 2e01 97bc
000001a0: f90b 48bc eb8a abbc a004 9abc aca0 a63d
000001b0: 89cc 75bd 35b2 203c ff9d 063e 37a5 ca3d
000001c0: feba 083e 1a8e 363d 96a3 2d3d 4f09 1c3b
000001d0: 24d0 943d 5b04 47bd de46 0e3d 5887 d33c
000001e0: ab97 62bd 2b9f d339 f2c9 983d cf0c 9f3a
000001f0: fb90 da3c 85f9 393d 7693 b3bd f132 863c
0.031820238 0.107320294 0.041341722 -0.040197548 0.0003927453 0.074804895 0.026706131 0.05237352
-0.045257207 -0.0118594235 0.008820001 -0.0035948802 -0.033195235 0.0055631325 0.12482575 0.07623372
0.04420476 0.019193793 -0.018260054 -0.029455906 0.017052451 -0.03195171 -0.021104077 0.045638643
-0.0636206 0.048428055 0.02613835 0.027360734 0.058957797 -0.0056945444 -0.029330347 0.026205655
0.07398997 -0.03724872 -0.04295769 -0.029220225 -0.041435387 -0.110154875 -0.04024574 0.0034401813
0.09001437 -0.008939138 0.06362961 0.0033637795 0.0173497 0.090637885 -0.01630856 0.023882523
0.10067928 0.06754954 -0.049666088 -0.046234388 -0.059143204 -0.08468754 0.048750684 -0.07281788
-0.046025474 -0.013547503 -0.064127244 0.08576002 -0.08455718 -0.11031478 0.07601344 -0.05537199
-0.061576035 -0.021610675 -0.008612349 0.015814694 0.08958047 -0.01622915 0.010416792 -0.015814984
-0.041511785 0.083265364 -0.055488758 0.010594932 -0.033457603 -0.022631483 -0.06297107 -0.037744187
-0.022183558 -0.008833429 0.03729665 0.060005195 0.046454147 -0.015155683 -0.061805125 0.004350251
0.053783752 -0.05306575 0.01616947 -0.04671583 -0.0029802716 0.038702127 -0.070348844 0.06719234
0.030167533 0.14419721 0.04748874 -0.03892367 0.13851297 0.13442697 -0.06853904 -0.01843318
-0.012209886 -0.020940265 -0.018801033 0.081361145 -0.060009513 0.009808113 0.13146208 0.098947935
0.13352582 0.044569112 0.042392336 0.002380926 0.07266262 -0.048588138 0.034735553 0.025821373
-0.055320423 0.00040363646 0.07460393 0.0012134555 0.02668046 0.045403976 -0.0876836 0.016381713

net.4.bias f4 [4]
00000000: 8f21 b1bc dfd1 863d 7459 74bc 6f92 8c3d
-0.021622447 0.065829985 -0.014913905 0.068638675
