outputs/noisy_data/chirp/1_nodes_given/10%_noise/20%_init_error/model.pt (torch, 16367 bytes, 10 tensors)

net.0.linear.weight f4 [32, 1]
000000 e7 01 45 3f ef e6 ec be a6 7b 78 be 65 83 c3 be
       0.7695603 -0.46269938 -0.24265918 -0.38186184
000010 2a d6 19 3f de af 7d 3f 57 b7 49 3f c1 57 1e 3f
       0.60092413 0.9909648 0.7879538 0.6185265
000020 ff 46 16 3f 07 fe 2d bf a8 ca 6c 3e f3 53 ff 3e
       0.5870208 -0.6796574 0.23124182 0.49868736
000030 3d fb 1f 3f f8 32 8d be cf ec 03 bf 32 af e0 bd
       0.62492734 -0.2757795 -0.51533216 -0.10970916
000040 a3 8f 6d bf 96 2b 59 3f 28 96 ec 3e 63 04 21 be
       -0.927973 0.8483213 0.4620831 -0.1572433
000050 77 d8 14 3e 11 14 0a bf 84 b0 8f be 7a f1 c9 be
       0.145357 -0.5393687 -0.28064358 -0.39442044
000060 26 db 53 3f 92 da 5e bd e3 d9 44 3e 1a 7a f5 3e
       0.8275627 -0.054407664 0.19223742 0.4794472
000070 a5 d0 e6 3e 5e ce bb 3e 3a 29 6b 3e 24 62 39 be
       0.45081058 0.36680883 0.22964945 -0.18103844

net.0.linear.bias f4 [32]
000000 98 62 70 be 51 8c bb be 1a 11 e7 3e 0b 79 1e 3f
       -0.2347511 -0.3663049 0.45130235 0.61903447
000010 e5 88 6a be f8 4c 60 bf c3 11 cc bd c8 93 08 bf
       -0.22903784 -0.87617445 -0.09964325 -0.53350496
000020 3e a1 63 3f 08 04 6d bf 86 9a 15 3f 49 d4 dc bd
       0.8891791 -0.92584276 0.5843891 -0.10782678
000030 e2 a0 1d bf 06 1c 3a 3f 2d 83 97 3e 75 45 88 3d
       -0.6157361 0.7269901 0.29592267 0.06653873
000040 94 2d 6d bd 71 48 48 bf 89 59 5a bf d4 20 76 3f
       -0.057904795 -0.78235537 -0.8529287 0.9614384
000050 ca 5b c3 be 04 33 c4 3e a6 c1 97 be 0a 9e 69 3f
       -0.38155967 0.38320172 -0.2963993 0.91256773
000060 8d d0 ab bd 91 80 83 be 77 f8 36 bf 24 e1 f5 3e
       -0.08389387 -0.25684026 -0.7147288 0.4802333
000070 26 cc 2f be 15 4e 05 bf ee 32 0a bf e5 88 d3 be
       -0.1716772 -0.5207227 -0.5398396 -0.4131538

net.1.linear.weight f4 [32, 32]
000000 f5 da 8e 3b 4d 1a 86 3b 3a ff df bb 14 e1 9f bb
       0.004359598 0.0040924908 -0.0068358453 -0.0048791263
000010 65 35 f8 bc 2c 25 1a 3b 29 3f aa bb 2b 5e 8f 3c
       -0.030298898 0.0023520691 -0.0051955176 0.017500957
000020 63 61 53 bc 17 33 3d 3c 13 24 aa 3b f9 c9 e1 3b
       -0.012901637 0.011547825 0.0051922887 0.006890532
000030 14 f3 dc 3b 41 f5 ee bb 68 05 65 3b 08 4f 80 bc
       0.0067428444 -0.00729242 0.003494585 -0.015662685
000040 60 b3 b5 3b f1 3d 1c 3c 42 b4 2c 3c 12 dc 2c bc
       0.005545065 0.009536252 0.010541024 -0.010550516
000050 90 3b ec bb 20 ae 1f 3c 29 dd 21 ba 0b 8d 6b 3c
       -0.007209249 0.0097461045 -0.0006174618 0.014376889
000060 43 a6 42 3c fe c6 e4 bc e6 02 4f 3b 8f 0d 8c bc
       0.01188046 -0.027926918 0.003158742 -0.017096309
000070 ad 84 0e 3c 7d c0 96 3c 79 a0 a6 3b 20 5d 81 bc
       0.008698625 0.018402332 0.005085048 -0.015791476
000080 4f 79 81 3b 14 11 01 3b e9 9e b8 bc 43 1b 1a 3b
       0.0039512287 0.0019694017 -0.022536712 0.0023514784
000090 14 04 82 3c d9 4d 27 3c cd 15 2f 3c 1e ce 05 3c
       0.015871085 0.010211431 0.01068635 0.008166818
0000a0 8a 6a 6e 3b 41 b1 58 bc 24 37 b7 ba fc 8e 1d bb
       0.003637942 -0.013225854 -0.0013978225 -0.0024041524
0000b0 cb f4 47 bc 24 46 65 3b d1 d9 ed 39 13 9d 8a 3c
       -0.012204359 0.0034984434 0.00045366448 0.016920602
0000c0 d3 f1 ed 3a 07 bb 8a 3c aa d3 0b bc 83 65 8d bb
       0.0018153734 0.016934885 -0.008534351 -0.0043150797
0000d0 2e ae ea bc 95 5f ab bb 35 c2 a1 bb 79 8c 38 3c
       -0.028647508 -0.0052299 -0.0049364814 0.01126396
0000e0 b5 d1 0d 3c 29 3f 40 3b 9f cc b9 3b b3 da 8e bb
       0.008655955 0.0029334521 0.0056701447 -0.004359567
0000f0 27 45 44 3b 71 54 9c bb 57 36 6b bc 9b d4 b3 3c
       0.0029948445 -0.0047708084 -0.014356217 0.021951964
000100 8b 40 4f bc 82 fa ff 3a 2a 15 93 ba 83 3c 3a ba
       -0.012649666 0.0019529613 -0.0011221517 -0.0007104354
000110 a1 fc 15 3c e4 65 1d 3b 22 74 f2 3a ef 89 74 3c
       0.00915447 0.002401703 0.0018497745 0.014925464
000120 3a dc c7 bc 8b b4 a7 ba 88 96 27 3c 98 4d 16 bb
       -0.024397004 -0.0012794895 0.010228761 -0.0022934433
000130 af ec c1 bb 66 51 c0 3b d6 18 ee 39 6c ba 40 bb
       -0.0059181075 0.0058690784 0.00045413402 -0.002940799
000140 9d 2e 23 3b 82 9f 2a 39 b9 dc 67 bc bc 52 d3 3b
       0.002489961 0.00016271885 -0.0141517455 0.0064490717
000150 71 bc c3 bb 99 4b d4 bb d2 99 9d bc ac ad c5 3a
       -0.0059733917 -0.0064787385 -0.019238386 0.0015081665
000160 b1 f8 29 bb 59 f0 56 3c 2a 98 52 3c ec 0b c2 bb
       -0.0025935585 0.013118827 0.012853662 -0.0059218314
000170 cc 02 40 bb a2 aa e9 3b 39 70 48 3b a8 e1 37 3c
       -0.0029298542 0.0071309367 0.0030584468 0.011223234
000180 b5 b8 b3 3c ab 7f 5a bc 32 0e fc 3a 84 61 b1 3c
       0.021938661 -0.0133361025 0.0019230305 0.021652944
000190 4c 02 b4 3b c7 5f 3f bc 54 12 6d 3b 2d be f4 3b
       0.005493438 -0.01168055 0.0036174254 0.00746896
0001a0 7a 47 8a bb ed 81 93 bb 73 3a c3 bb 53 6d 03 3c
       -0.0042199465 -0.0045015723 -0.0059578954 0.00802167
0001b0 86 79 c8 3a e9 f2 77 bb 43 1f 92 3c f4 25 17 b9
       0.0015295006 -0.0037833995 0.017837172 -0.00014414621
0001c0 89 66 5a 3c de d4 a2 3c 49 46 5d ba bb 20 a1 bc
       0.01333011 0.019876894 -0.0008440954 -0.019668927
0001d0 15 b0 8c bc 78 3d 33 3c 5b 5d 0b 3c fa 75 58 bc
       -0.017173806 0.010939948 0.008506144 -0.013211722
0001e0 0a 86 31 3c 48 1a 4b 3c 94 55 d1 bb 51 6e fb bb
       0.01083518 0.012396403 -0.0063883755 -0.007673063
0001f0 12 36 d7 bb 58 55 b6 3c ce 72 5b b9 d1 f8 31 3c
       -0.006567725 0.022257492 -0.00020928236 0.010862545
000200 a9 22 da bb b5 ac 84 3c c0 48 0f bc cb 75 9b bc
       -0.006656964 0.016195634 -0.008745372 -0.018977067
000210 61 4c a5 bb b7 42 8e 3b cf 5f 02 3c 08 e3 bb 3b
       -0.0050445055 0.004341449 0.007957413 0.0057338513
000220 c0 b8 54 3c 91 28 b5 3b 17 f2 7d bb 78 37 69 bc
       0.012983501 0.0055285175 -0.0038749033 -0.014234416
000230 ce 0a 4b 3b a4 c9 a3 3b b6 69 53 3c 40 bd 3c bb
       0.0030981782 0.0049984027 0.012903621 -0.0028799325
000240 6f a9 7e bb 0f 91 05 3c 3c d8 07 bc 92 2f 53 bc
       -0.0038858315 0.00815226 -0.0082913 -0.01288976
000250 a0 8b a0 bc 08 c9 10 3c e2 23 e5 3b 63 ef 0b bc
       -0.019597828 0.008836992 0.006992803 -0.008540961
000260 cf e6 f4 bb 10 b3 ae bc a3 84 50 bc 10 a7 da 3c
       -0.0074738036 -0.021325618 -0.012726936 0.02669099
000270 0c 97 49 3c 81 6e c7 bc fb 9b e5 3b 6e 44 05 ba
       0.012304079 -0.024344685 0.0070071197 -0.0005083744
000280 81 7f f1 3b 00 b9 de 3b ed de 1e bc a4 27 00 3c
       0.007369936 0.006796956 -0.009696704 0.007821951
000290 a3 e1 9f 3c 09 be 4e 3b a6 df 84 3c 1c 07 6c 39
       0.019516772 0.0031546375 0.016219925 0.00022509362
0002a0 2b cb 7d bc e1 5f 46 3b fd 68 85 3c a9 7b c8 bb
       -0.015490334 0.003026955 0.016285414 -0.006118257
0002b0 76 48 3a 3c 6c e5 28 bc 57 9a 18 bc 6d af 63 bc
       0.011369815 -0.010308605 -0.009314141 -0.013896805
0002c0 86 6b 99 3c 63 da 03 3c ec f4 95 3c 2b 23 75 3b
       0.018728029 0.008047673 0.018305264 0.0037404995
0002d0 3e 84 5f 3c 8e 80 8d bb 3f f9 6d bb 3f c9 92 bc
       0.013642369 -0.0043183034 -0.0036311892 -0.017918227
0002e0 6d 47 be bb e0 14 38 3b 16 c2 65 3c aa d0 ec bb
       -0.0058068545 0.0028088614 0.0140233245 -0.007227023
0002f0 bd b4 79 3c 4e 1f 84 3b 9c ff 17 3c 33 9e 19 bc
       0.015240845 0.004032052 0.009277251 -0.009376097
000300 7c 9f a8 39 8b 86 15 bc 21 4b 3b 3c 4d 27 0a 3b
       0.00032162282 -0.009126316 0.011431486 0.0021080554
000310 ca 1f fb ba 12 03 3f 3c 02 a2 34 3c 40 fa ea 3a
       -0.0019159254 0.011658447 0.011024954 0.0017927364
000320 f4 c2 57 bb 8a bc a5 3b 84 b3 42 bc 98 4d 61 3c
       -0.0032922598 0.005057876 -0.01188362 0.01375141
000330 ea 63 46 3b 8a 23 5c 3b dc 5b 68 bc 6e 4f 19 bc
       0.0030271956 0.003359052 -0.014182057 -0.009357316
000340 2f 91 b4 3b 55 f4 23 bc d9 9b 22 bc 99 9c 60 3c
       0.0055104713 -0.010006984 -0.009924852 0.013709211
000350 82 36 1f bc 75 20 e7 3b b2 d4 05 3c db 60 08 bc
       -0.0097175855 0.0070534297 0.008168386 -0.008323873
000360 96 30 03 3a 85 a5 af b9 5f b5 97 3c 6a af 5a bc
       0.0005004493 -0.00033501923 0.018519102 -0.013347486
000370 11 e1 bf bb b6 e1 d7 ba 4b c8 7b 3b e2 7d 5a 3c
       -0.0058556874 -0.0016470465 0.0038418944 0.013335677
000380 45 92 e2 3c 85 da 63 bc 03 69 23 bc 1d da 4a 3c
       0.027657637 -0.01390708 -0.009973767 0.012381104
000390 04 89 89 ba 91 55 6d 3b c0 40 17 bc 91 f7 21 3b
       -0.0010493104 0.0036214332 -0.009231746 0.0024714211
0003a0 ab 3d 18 bb 25 98 3e bc 28 05 dd 3b 7e 65 eb bb
       -0.0023230116 -0.011632954 0.0067449994 -0.0071837297
0003b0 24 04 ef 3b 3e c5 12 ba 5d d5 8a 3c aa 5b bc bc
       0.007294195 -0.00055988494 0.016947443 -0.022992928
0003c0 9a b5 bd b8 57 58 10 3c 0e 90 a0 bb 33 54 e3 ba
       -9.046048e-05 0.008810124 -0.004899985 -0.0017343819
0003d0 99 3e a1 bc c4 70 a8 ba 4a 4c 0d 3c 7b 24 98 bc
       -0.01968317 -0.001285099 0.008624146 -0.018572083
0003e0 44 ad 7d 3c df 31 11 bb 97 64 12 bc 69 0f ff 3b
       0.015483204 -0.002215497 -0.008935115 0.0077838195
0003f0 a5 32 34 bc 82 a9 7f 3c 54 5b 13 bb 51 8f 2c bb
       -0.010998403 0.015604379 -0.0022484856 -0.002633054

net.1.linear.bias f4 [32]
000000 1d 00 4e bd 5b d1 b0 3d 89 81 ab b8 13 89 83 3d
       -0.050293077 0.086336814 -8.178043e-05 0.06422629
000010 97 9c ba bd ab e5 12 3e 42 ec 00 3e e8 32 30 be
       -0.091118984 0.14345424 0.12590125 -0.17206919
000020 1e 11 09 bc 66 8b e8 3d c5 5a 7b bd 96 f9 e6 bd
       -0.008365897 0.11354713 -0.06136586 -0.112780735
000030 09 f0 06 3e af 17 55 3d 6a 58 8d bc 47 54 0e be
       0.13177504 0.05202454 -0.017254073 -0.13899337
000040 d0 b6 35 3e 74 13 9a 3d 35 fb b9 bd 40 d7 7c bd
       0.17745519 0.07523242 -0.09081117 -0.061728716
000050 c9 76 e6 3d 05 4b 30 be 64 c9 e0 3d cc 70 af 3d
       0.11253125 -0.17216118 0.10975912 0.08566436
000060 65 a6 14 bc 82 5f 56 3b 20 ef 16 3e 43 fb 86 bd
       -0.009072875 0.0032710736 0.14739656 -0.06590893
000070 e8 cd fd bd 16 66 21 3e 32 52 a9 bc f4 1b 36 be
       -0.12392789 0.15761599 -0.020669077 -0.17784101

net.2.linear.weight f4 [32, 32]
000000 69 63 41 bc b7 05 f4 bb af fa 9a 3c 23 76 30 3c
       -0.011803486 -0.0074469703 0.018918363 0.0107703535
000010 8c 39 9e bb 38 26 9c bb a7 d0 3a 3c 2d cb c8 bb
       -0.0048286375 -0.004765298 0.011402286 -0.006127736
000020 38 7c b3 3b 48 e8 03 bc a3 55 92 ba c2 81 9a 3b
       0.0054774545 -0.008050986 -0.0011164438 0.0047151754
000030 82 0d 92 bc 57 74 2d bb c4 dd 83 3b 1a d9 5a 3c
       -0.017828707 -0.002646705 0.0040242393 0.013357425
000040 f0 88 ef bb 07 9c 79 3c 33 5e 14 bc b3 89 f2 ba
       -0.0073100254 0.015234954 -0.009055662 -0.0018504172
000050 d3 39 95 bc e6 36 6e bb 43 35 40 bb 5a 65 0a bc
       -0.01821605 -0.003634864 -0.0029328621 -0.008447016
000060 97 b7 f6 3b cc 2b 88 bb 33 77 b2 39 ff 8a 55 ba
       0.00752921 -0.0041556116 0.00034039616 -0.0008146017
000070 2c 6b a6 3b 97 42 2b bc c5 5c 04 bc d8 11 bd 3c
       0.005078694 -0.010452888 -0.008078759 0.023079798
000080 91 1b 87 3c 32 63 2d 3b 26 b8 b9 3c b2 fb 00 bc
       0.016492637 0.002645683 0.022670817 -0.007872509
000090 b1 b7 7b 3c 19 78 92 3a af 47 aa 3b 60 ae 3b bc
       0.01536362 0.0011174708 0.0051965336 -0.011455148
0000a0 2a 72 f2 bb e5 72 93 bb 1c 00 eb 3b 39 cb bf ba
       -0.0073988633 -0.0044997805 0.007171644 -0.0014632709
0000b0 1b 79 b2 3a 53 aa 7a bb f7 86 6d 3c e7 cc 3f bc
       0.0013616415 -0.0038248494 0.01449751 -0.011706567
0000c0 d6 c7 c3 bb bf f7 1e 3c 8e f0 97 3b 09 e1 ed 3b
       -0.00597475 0.009702622 0.0046368307 0.0072594923
0000d0 93 5f 10 3b 81 ba c3 bb 98 c3 98 3b f9 97 63 3c
       0.0022029623 -0.0059731607 0.0046619885 0.013891214
0000e0 46 aa 0d 3c 59 06 5b bc ae 42 82 3c bb 01 41 3c
       0.008646553 -0.013368213 0.015900936 0.011780198
0000f0 de 4f 34 bc 35 8d 72 3b 27 b1 2a 3c 01 42 2e bc
       -0.01100537 0.0037010435 0.010418213 -0.010635854
000100 bf 1f c3 3b 0c 7f ea bb 75 99 2e 3c 3c 91 92 bb
       0.005954712 -0.0071562584 0.010656704 -0.0044728797
000110 b7 00 9a bb 29 6c 20 bb d2 f9 cc bc 96 e8 68 3a
       -0.0046997922 -0.002447853 -0.025021467 0.00088847557
000120 2b 64 51 3c 4e 44 9b bc 35 0b 4b 3c 05 5e 36 3c
       0.01278023 -0.018953469 0.012392809 0.011130814
000130 b8 fc 45 3c d7 1b 16 3c 55 d5 85 3c 90 a4 b8 bb
       0.012084179 0.009161911 0.016337076 -0.0056348518
000140 99 b8 9a 3a 3a fc a3 ba 9e 31 2e bb 2c 33 bd bb
       0.0011804282 -0.0012511082 -0.0026579867 -0.0057739224
000150 f3 66 89 bc 17 d3 69 bb 81 0a 8d bc 80 f6 e1 bc
       -0.016772723 -0.0035678798 -0.017216923 -0.02758336
000160 ef 44 a2 bb 07 5c 99 bb 37 a7 7c bb cf 80 ea 3b
       -0.004952065 -0.00468016 -0.0038551816 0.0071564685
000170 43 10 15 bc 9c 69 6a bb 40 5a c3 3b 51 25 e7 bb
       -0.009098115 -0.0035768514 0.0059616864 -0.007054009
000180 8c 52 06 3c 31 a3 9a 3c aa da 59 b9 66 d7 a3 3b
       0.008198392 0.018876644 -0.00020776191 0.0050000427
000190 38 a6 cd bb d6 91 f5 ba e1 8d 17 3c 11 ef 39 3c
       -0.0062759183 -0.0018735479 0.009250135 0.011348502
0001a0 e6 66 a2 3b 04 59 21 bc 62 7c d5 bb 26 64 46 3c
       0.004956114 -0.009847883 -0.0065150717 0.012108838
0001b0 2b c9 f1 3b 17 74 c5 3b bb 55 4a bb 48 01 1f bc
       0.0073787174 0.006025802 -0.0030873853 -0.009704895
0001c0 8e 99 5f 39 46 f5 28 bb 19 e4 58 bb ba 5b 49 bb
       0.00021324141 -0.002578096 -0.0033094941 -0.003072484
0001d0 8e 54 1a 3c 14 cd 09 bc 5f 8b 13 3c 6e 67 47 bc
       0.0094195735 -0.008410711 0.009005397 -0.012170656
0001e0 b6 ae dc bb e2 9d c6 3b 82 ef 35 bc 41 e7 1c 3c
       -0.0067346944 0.0060613016 -0.011104466 0.00957662
0001f0 3d 7f 64 bb 0d 5a bd 3b 62 0a 24 3c 24 cb 3a bc
       -0.003486588 0.005778557 0.010012241 -0.011400972
000200 d7 49 ad 3b d8 39 ab 3b 83 0a 87 3b 0d fb a1 3b
       0.0052883434 0.0052254014 0.004121126 0.0049432577
000210 d5 94 bc bb ad dc 41 bc 92 d8 83 3a d1 47 e2 bb
       -0.005755047 -0.011832398 0.001005905 -0.006905534
000220 d7 ef 08 bc 98 71 90 3c 43 b7 27 3c a3 39 31 3c
       -0.0083579635 0.01763229 0.010236564 0.010816964
000230 c9 d2 d5 3b 94 aa 7d bb de 91 3f bb fa 70 3a bc
       0.0065253717 -0.0038706409 -0.002923123 -0.011379475
000240 fb a0 0d bc 1f 14 e2 bb a6 11 c2 bc 38 d1 64 b9
       -0.008644338 -0.0068993713 -0.023690056 -0.00021821714
000250 cd ff 91 bc 55 67 97 3a d6 d8 23 bb 6e ca 4c bc
       -0.01782217 0.0011551181 -0.002500107 -0.012499435
000260 5f 02 c9 39 2a 51 ce bb 99 a3 21 bc 80 14 08 3c
       0.00038339474 -0.0062962966 -0.009865665 0.008305669
000270 45 0a b8 bb d9 86 fc 3b 86 df ff 3b f5 4d c5 ba
       -0.0056164586 0.007706505 0.0078086285 -0.001505314
000280 ad 02 34 bb 8c cc bd 3b ff ec 85 bc c8 49 7b 3b
       -0.0027467415 0.005792206 -0.01634836 0.0038343538
000290 eb e1 c6 bb 1e 68 67 3c 83 0c a7 3b 22 dd bc 3b
       -0.006069412 0.014123945 0.005097927 0.005763666
0002a0 d2 c4 bc bb a8 ff ac 3c a4 f7 d8 bb 21 19 bc bc
       -0.0057607675 0.021118 -0.006621318 -0.022961201
0002b0 14 c5 d0 bb 5c d1 cd ba 75 4a 13 bc 64 f3 3c bc
       -0.00637115 -0.0015702653 -0.00898992 -0.011532638
0002c0 68 83 b4 3c 5f f2 26 3b 99 91 7a bb b0 d0 4f bc
       0.022035316 0.0025474054 -0.0038233756 -0.012684032
0002d0 41 3f cb bb c9 d2 bc 3a f5 84 02 3c 1d 49 a6 3a
       -0.006202609 0.0014406081 0.00796627 0.0012686584
0002e0 ed 27 9f 3b 69 52 81 3c 08 72 a5 b9 f3 a1 93 3a
       0.0048570544 0.015786367 -0.00031556212 0.0011263475
0002f0 c8 3f 5e bb 42 88 8c 3c a0 f0 bf bb 31 90 1e 3c
       -0.0033912528 0.017154817 -0.005857542 0.009677933
000300 df 64 5e 3c 19 14 04 3c ec ea 42 3c 7c 79 43 3b
       0.013573854 0.008061432 0.01189683 0.002982705
000310 2b b6 de bb 2f 6a fb bb 04 57 9c ba 7f e3 89 3b
       -0.0067966185 -0.00767257 -0.0011927788 0.004208028
000320 2d 1f ab bb 43 d0 f3 bb a8 09 95 bc 36 7a 52 3c
       -0.0052222223 -0.007440598 -0.018193081 0.01284652
000330 6a 99 8d 3a ab 04 7e bb 29 87 ea b9 87 ee e5 bb
       0.0010803167 -0.0038760107 -0.0004473266 -0.00701696
000340 f1 1c 99 ba 14 bb 1a bc 95 73 86 38 6a 66 2c bb
       -0.0011681599 -0.009444017 6.411147e-05 -0.002630616
000350 5a ad 6f bc a1 9f 7f bb d9 bd e3 3b 40 99 35 3c
       -0.014628733 -0.0039005058 0.006950122 0.011083901
000360 ef 1b 8b 3b 8f 34 96 bb dc 2d 0b 3c 57 77 01 bc
       0.0042452733 -0.004583902 0.00849482 -0.007901988
000370 b4 8c c8 bb 9f d5 ef bc 48 98 6a 3b c1 a6 d0 3b
       -0.0061202887 -0.029276667 0.0035796333 0.006367535
000380 65 68 dc 3b 5d 23 38 bb ac 51 64 3c 2c 0e 01 3a
       0.006726312 -0.002809725 0.013935488 0.0004923071
000390 5c 12 26 3b 8c 25 dc bb 82 94 59 bb c4 ad 4f bc
       0.0025340533 -0.006718343 -0.003320009 -0.012675706
0003a0 d0 03 b6 bb df 8a ed 3c ae bf 6d 3a e3 2b dc 3b
       -0.0055546537 0.028996883 0.0009069395 0.006719099
0003b0 b3 f8 4d 3c 86 02 5a bb 41 06 93 3c 6d e2 57 bc
       0.012571502 -0.0033265664 0.017947318 -0.013176543
0003c0 8d 08 7e 3c 0c bd 95 3a e1 3b 9e 3b a2 37 9f 3b
       0.015504968 0.0011424138 0.0048289155 0.004858927
0003d0 f9 d3 97 3b db 37 5f 3b 57 cd 6a 3c ab f0 ee 3b
       0.0046334234 0.0034060392 0.014331183 0.0072918735
0003e0 b7 b4 45 3c bd 43 c6 bb 4e f5 38 bb 1b 77 94 3b
       0.012067012 -0.0060505555 -0.0028222385 0.0045308
0003f0 8b ab 53 3b 48 aa bd 3a d4 a9 90 3c d2 3f 2e 3b
       0.0032298292 0.0014470303 0.017659105 0.0026588333

net.2.linear.bias f4 [32]
000000 fd 62 64 bd 22 56 b4 3c a3 70 a4 bd 5a 68 0c 3e
       -0.055758465 0.022013728 -0.08029296 0.13711682
000010 f2 28 38 3d e2 1b b7 bd 7d ae 23 be ad b6 46 bd
       0.044960923 -0.08940865 -0.15984531 -0.048514057
000020 c3 25 ea 3d 18 73 11 be 82 96 0e 3e b6 7a f4 3d
       0.11432984 -0.14204061 0.13924602 0.11937468
000030 35 ad 99 3d 01 81 fc 3d fd a1 c6 bc 28 17 18 3d
       0.0750374 0.12329293 -0.024247164 0.03713146
000040 63 22 07 3e 70 3f c4 bd 78 40 46 bc ee 2a 2f 3d
       0.13196711 -0.09582412 -0.0121003315 0.04276555
000050 98 7d de 3d a8 35 38 3d 7e b7 18 bd 57 7a 94 bd
       0.10863799 0.044973046 -0.037284367 -0.07249897
000060 db e9 42 bd 68 8c df bc b9 ac 06 3d 85 9d ee 3d
       -0.047586303 -0.02728863 0.032879565 0.11651138
000070 45 08 bf 3c d6 b0 19 be bb 49 02 be 61 af 35 bd
       0.023319373 -0.15008864 -0.12723438 -0.044356707

net.3.linear.weight f4 [32, 32]
000000 51 cd 54 ba 34 9a ba 3a 22 12 d8 ba f0 48 3a bc
       -0.0008117753 0.001423663 -0.0016484896 -0.011369929
000010 86 69 82 3c f7 45 b7 3b 1d 73 9b bb 33 35 98 3c
       0.015919458 0.0055930573 -0.004743947 0.018580055
000020 b3 3f 52 3c 6b 05 96 b9 1b 46 89 bc 33 7e b4 3c
       0.01283257 -0.00028614266 -0.016757062 0.022032833
000030 ce eb 35 3a bd 2d 69 bc de 4a 0c bc 4d 31 99 bb
       0.00069397397 -0.014232096 -0.008562772 -0.0046750666
000040 18 cb ac bb 57 37 8a bb c1 91 8d 3c 38 f9 51 3b
       -0.005273234 -0.004218023 0.017281415 0.0032039415
000050 f5 09 2e bc 9c a2 09 bc 8e 7e 76 3b 9c ac b0 3b
       -0.010622491 -0.0084005855 0.0037612054 0.0053916704
000060 4a 39 f6 3c a7 17 58 3c 33 20 d2 3b a5 3b 3e 3c
       0.030056614 0.013189233 0.00641253 0.0116109
000070 ff 54 1d 3c d7 7a 48 bc d3 b4 3c 3c a8 0b 29 3b
       0.009602784 -0.012236319 0.011517721 0.0025794301
000080 33 62 0e bc 44 ed 12 3c ef f7 95 bc f6 ac 55 3c
       -0.008690405 0.008967701 -0.0183067 0.013041725
000090 92 59 61 bb 52 33 fd bb 71 16 10 3c 7f 92 7a 3c
       -0.0034385663 -0.007727065 0.008794413 0.015293716
0000a0 b7 e3 98 3b 91 d4 e6 3b 2e ca 6b 3c e4 c7 87 3a
       0.0046658176 0.007044383 0.014391465 0.0010359255
0000b0 92 e3 5f b9 2b 80 3c bb 2a 92 88 bb 51 d1 03 3b
       -0.00021351714 -0.0028762917 -0.0041678147 0.0020113776
0000c0 a2 2b 95 3b 68 58 47 bc fd c9 cd b8 b4 0e 3f bc
       0.0045523206 -0.012167074 -9.812785e-05 -0.01166122
0000d0 ee e0 92 3b c1 7b c5 bb 65 54 15 bc 1f 0c 11 bb
       0.00448238 -0.0060267155 -0.0091143595 -0.002213247
0000e0 3e 33 6a 3b 84 67 cf 3c 2b e4 1f 3d 73 40 97 bc
       0.003573611 0.025317915 0.039035957 -0.018463349
0000f0 9a 2b 2a 3c e6 13 14 3c 0a 1a 04 3b 01 e7 0a 3c
       0.010386372 0.009037947 0.0020157122 0.008477927
000100 c2 46 ef 3b 54 22 81 3a 54 38 7a bb aa 93 2b bc
       0.007302136 0.000985215 -0.0038180547 -0.010472218
000110 a8 1c 0f bc 86 82 7a 3c e8 e5 b8 bb 2b 99 a8 bb
       -0.0087348595 0.015289908 -0.0056426413 -0.005145212
000120 5a 4d 4c bc 5d f1 a0 39 e3 0a b0 3c 74 23 24 37
       -0.012469614 0.00030697408 0.021489566 9.783416e-06
000130 63 da 32 bc ca 6a fa 3b d4 c0 03 bc 92 a4 f3 3b
       -0.010916325 0.007642125 -0.008041579 0.00743539
000140 49 77 06 3c 79 31 1d bc fb b1 46 bb 6b 50 00 bd
       0.008207151 -0.009594315 -0.0030318487 -0.031326693
000150 78 53 14 bc 66 c0 39 bc f6 89 06 3b 0b 29 b4 3b
       -0.009053104 -0.011337375 0.0020529008 0.0054980568
000160 3b 3c d3 bb ab 35 53 3c 0b 5c 3a 3c bc 0b ae 3c
       -0.006446389 0.012891213 0.011374484 0.02124583
000170 c1 42 52 bc c8 2b 6e 3c 44 21 b1 b9 85 d2 37 3c
       -0.012833298 0.014536805 -0.00033784856 0.011219625
000180 5e 44 ba bb 75 c3 c3 bb a2 71 c1 3a 91 cb b2 bc
       -0.0056844195 -0.005974228 0.0014758597 -0.021825584
000190 10 b2 3c 3c be ef 21 bc c5 2c 94 3b 91 80 d2 3b
       0.011517063 -0.009883819 0.0045219385 0.0064240177
0001a0 fe 5f 0d bc 14 bd 27 3c 30 d0 70 3a 46 40 93 bb
       -0.008628843 0.010237951 0.0009186296 -0.004493746
0001b0 01 de e0 3b f3 e0 7b 3b 66 6a 0a 3c 18 b5 29 bb
       0.0068624024 0.003843364 0.008448219 -0.0025895294
0001c0 38 a6 0a bc 85 a3 01 ba 74 b8 54 bc 20 48 32 bb
       -0.008462481 -0.0004945326 -0.01298343 -0.0027203634
0001d0 77 80 86 bc 82 b7 7a ba f5 ec 4a 3b 5b 4e 31 bc
       -0.016418679 -0.0009564088 0.0030963991 -0.010821904
0001e0 b2 fc 3a bc f1 2d da 3a 6e 4d 89 3c 35 a8 24 3b
       -0.011412786 0.0016645772 0.016760554 0.0025124673
0001f0 5d 49 16 bb 34 0b 18 3b ae 0f e3 bb 88 df 2c bc
       -0.0022931912 0.0023200037 -0.0069293594 -0.010551341
000200 4e aa 9f bb 90 2d 42 bc cd 9c 3b 3c 42 89 4a 3c
       -0.004872597 -0.011851683 0.011450958 0.012361826
000210 51 4e 0e 3c 2d 1f 34 3b 49 da f8 bb 4e a7 04 bc
       0.008685664 0.0027484403 -0.007594381 -0.008096529
000220 cb d9 4d 3b bb 08 8f 3b 2c 93 9d 3b 0c b2 1b 3c
       0.0031410332 0.0043650544 0.004808804 0.009502899
000230 3d 8a 8a 3b 00 9e 5b 3c ff 04 8b 3b d8 80 a9 bb
       0.004227905 0.013404369 0.004242539 -0.00517283
000240 67 d1 73 3c 7d a8 eb bb 8e af 6e bc 6a 6d 9e bb
       0.014881468 -0.007191716 -0.014568223 -0.0048348205
000250 50 cd 35 bc af fa cb bb 59 0d 91 3c fe b4 e5 3b
       -0.011096314 -0.006224952 0.01770656 0.0070101013
000260 69 e3 8d 3b 44 3e a6 3b 3d 6d f8 ba 96 0c 26 bc
       0.004330088 0.0050733406 -0.0018953454 -0.010134837
000270 11 4d 10 bc fa d0 86 bb 08 cc 9a bb a8 c3 f3 bb
       -0.008807437 -0.0041142674 -0.0047240295 -0.0074390955
000280 67 01 37 bc 25 96 67 3b 93 f2 36 3a 7b 93 06 3b
       -0.011169768 0.0035337296 0.00069788954 0.0020534683
000290 20 f5 a5 bc 22 f6 ad 39 63 0e 47 bc c3 d7 5d bc
       -0.020258486 0.00033180515 -0.012149426 -0.013540211
0002a0 09 14 aa bc 13 98 a3 39 d5 c7 cc 3c 47 76 44 bb
       -0.020761507 0.00031203087 0.024997631 -0.0029977725
0002b0 a5 2f 72 3c 32 ff 62 bc 05 17 d4 3b 9d ae b1 bc
       0.014781867 -0.013854789 0.0064724707 -0.021689707
0002c0 aa c0 9d 3b 16 14 af bc 0c b1 b4 bc 48 01 f9 ba
       0.004814227 -0.021371882 -0.022057079 -0.0018997574
0002d0 4f d8 db 3a b0 77 3d 3b c6 84 df b9 67 12 30 3c
       0.0016772839 0.002891045 -0.00042632798 0.010746575
0002e0 8d 7e 86 3b 9d 34 c7 bb 90 77 19 3c 34 df 0d 3c
       0.0041044415 -0.00607927 0.009366885 0.008659173
0002f0 91 86 dc 3b d6 5e 44 bb 90 cc a2 bc 3a 85 c6 3b
       0.0067299088 -0.0029963753 -0.019872934 0.0060583623
000300 f3 fc 3a bc 61 6b 0c 3b 7c e2 94 3b 97 21 54 bc
       -0.011412847 0.0021426308 0.0045436006 -0.012947462
000310 6c de 00 3c ae ee 0a 3a 0a 56 92 bc 23 b0 68 3c
       0.0078655295 0.0005299848 -0.017863292 0.0142021505
000320 14 f3 3a 3b 97 9a 69 b9 53 2c 25 bc 75 4f 01 bb
       0.0028526234 -0.00022278201 -0.0100813685 -0.0019731198
000330 1e 36 96 3a fd 2f 94 39 d9 78 2e bc 8b f6 99 bb
       0.001146022 0.00028264514 -0.0106489295 -0.0046985797
000340 6c df 83 3b 94 8c f4 3b 76 9c 29 3c a5 02 4a 3c
       0.0040244367 0.0074630473 0.010352245 0.012329732
000350 2b e4 de 3a 26 e7 9b 3c ee 4b 52 3c b0 97 77 bc
       0.0017005255 0.019031119 0.012835486 -0.015111849
000360 7e db d8 3b a4 2a 07 bc f6 62 6c 39 16 8c 27 3c
       0.0066179624 -0.008249912 0.0002254358 0.01022627
000370 85 f3 8d 3a 0f ba 97 37 2b 96 f9 ba 3b 68 82 bc
       0.0010830021 1.8087243e-05 -0.0019041946 -0.015918842
000380 9c 25 81 3b 67 0c 0f bc 78 9e cd 3a e6 81 7c bc
       0.003941251 -0.008730984 0.0015687486 -0.01541183
000390 28 b8 3c bb ea c1 99 3c ed 48 b2 3b 3e 8b 2d bc
       -0.002879629 0.018769223 0.0054408223 -0.01059228
0003a0 ac 5d b8 bb 7c 3a ad 3c 88 ee 05 3b cb 18 20 3c
       -0.005626401 0.021146052 0.0020436365 0.009771536
0003b0 53 e7 ea 3b ae 14 df ba e6 12 87 3b 4d c7 09 3c
       0.0071686893 -0.0017019713 0.004122126 0.008409333
0003c0 ce a5 af bb 6b 38 20 3c dd f7 91 bb 61 2f b0 3c
       -0.0053603416 0.009779076 -0.0044545964 0.021506967
0003d0 62 90 91 3c e9 80 c9 bb 58 44 30 bc 34 d4 29 bb
       0.017769042 -0.0061494005 -0.010758482 -0.0025913836
0003e0 d9 d0 fd bb fd 21 7a bc 7a 3b 26 3c b3 80 8d bc
       -0.007745844 -0.0152668925 0.010146016 -0.017273283
0003f0 dc 1d 6e 3b 0b 52 d9 3a 07 f3 8e 3c 2c d6 1c 3c
       0.0036333716 0.0016580237 0.017449869 0.009572547

net.3.linear.bias f4 [32]
000000 61 e6 06 3d 8d 11 5e 3d be 12 fe bc 43 8a 1b be
       0.03293455 0.054215956 -0.031014796 -0.15189461
000010 6d 50 92 3b b0 4e 4c 37 16 50 c8 3d 03 ec 4b 3d
       0.004465154 1.2177668e-05 0.097809 0.049785625
000020 5e c6 d7 3d 27 c2 27 be 68 7f 6e bc 59 2f 10 3d
       0.105358824 -0.16382657 -0.014556743 0.035201404
000030 65 27 24 be 58 77 2c be 4b 76 03 3d 9f 6f 0b 3d
       -0.16030653 -0.16842401 0.032095235 0.034041997
000040 2c 66 43 3c 4f 4d af bd 67 f1 d6 bd b7 26 9c 3c
       0.011926215 -0.08559667 -0.104952626 0.01906143
000050 f4 8b 54 bd b3 01 0b 3d e6 58 e5 bb 5e a1 de bd
       -0.051891282 0.033937167 -0.006999123 -0.10870622
000060 7c 04 27 be 70 f1 c2 3d b9 d7 e7 bd a0 ef 2a be
       -0.16310304 0.09518707 -0.11320443 -0.16692972
000070 0b 90 c2 bd 7e 89 18 3e 37 e2 d4 3c f0 81 49 bd
       -0.0950013 0.14896199 0.025986774 -0.049196184

net.4.weight f4 [4, 32]
000000 11 03 78 3c cd 7a 81 3b c0 fb 9c ba fb 38 10 3d
       0.01513745 0.0039514066 -0.0011976883 0.03521059
000010 6f 18 85 3c 83 fb 3c bc 18 8e 8f bd 6b 51 31 3d
       0.016247002 -0.011534574 -0.07009524 0.043290537
000020 38 0d 18 3d 85 96 2d bd fa d0 07 bd 13 52 21 bd
       0.03712198 -0.042379875 -0.03315828 -0.039384913
000030 8b e6 7e 3d 3e d0 58 3d 6c 02 99 3a bd 70 99 3d
       0.06223158 0.05293297 0.0011673695 0.07492206
000040 67 fa 3d bc 62 7f f6 3c eb 3d 9b bb 73 12 0f bd
       -0.011595345 0.030090038 -0.004737606 -0.034929704
000050 65 ef a0 bd 1f 7b 6a 3d 8a 69 c5 bd 67 87 c2 3d
       -0.07858161 0.057246324 -0.096392706 0.09498482
000060 29 11 c6 bc 8b 38 24 3d 31 89 0c bd 06 52 4c bd
       -0.024178104 0.040092986 -0.034310523 -0.04988291
000070 4c 4a 69 bd 1d 95 10 bd a8 64 17 bd 18 23 cc 3c
       -0.05695562 -0.035298456 -0.036961228 0.024919078
000080 d9 21 05 ba ad b8 69 3c ac 0f b6 bd 87 64 de bd
       -0.0005078591 0.014265222 -0.08889708 -0.10859018
000090 9b 33 93 3d db bc 92 3c 4b f2 03 be 3b ce 51 bd
       0.07187577 0.017912319 -0.12885396 -0.051222067
0000a0 3e 55 9a bd 10 c3 a8 3d e2 d6 fe 3b 56 ae 1b 3d
       -0.0753579 0.0824033 0.007777081 0.038008057
0000b0 40 94 c4 bd 1f 97 f3 3b cc 0b 9a bc b1 8d 80 bd
       -0.09598589 0.0074337865 -0.018804453 -0.062770255
0000c0 f6 ef 35 39 35 69 02 3e b2 72 73 bd 49 3d 8f bd
       0.00017350898 0.12735446 -0.059435554 -0.06994111
0000d0 ca aa 0e bd e0 50 4e bd 92 b5 9c 3d be 32 41 bc
       -0.034830846 -0.050370097 0.07651819 -0.011791883
0000e0 5f 77 6a bd d3 27 20 bc 9b 4f d0 3d 9c 89 a3 bd
       -0.057242747 -0.00977512 0.101714335 -0.07985231
0000f0 60 2c 68 3c cd a4 d0 bd 08 38 0f 3d b0 28 95 bd
       0.014170736 -0.10187683 0.034965545 -0.07283151
000100 bd 80 6e bd 0a 70 87 bc 2c 95 54 3d e8 dd b7 3d
       -0.058228243 -0.016532917 0.051900074 0.08977872
000110 f3 36 56 bd 7c 3a 6a 3c 87 66 a6 3d f4 c7 01 bd
       -0.052298497 0.01429617 0.08125024 -0.03168483
000120 19 e0 85 bb dd 28 2b bd b6 0b 25 3d ea 95 1e bd
       -0.0040855524 -0.041787017 0.04029437 -0.038717188
000130 66 90 bc 3c ed 0f 68 bd ae 85 13 bd 3d d1 e8 3b
       0.023018073 -0.056655813 -0.03601616 0.0071050213
000140 73 cf a7 3c a5 52 25 bd 95 19 c3 bc 18 bf 02 3d
       0.020484662 -0.04036202 -0.02381591 0.031920522
000150 bb 51 41 3d 8d e2 e1 3c c0 cd 0d 3d 4e 94 09 bd
       0.047197085 0.027573848 0.034620047 -0.0335887
000160 b9 c3 57 3d 8d ad 53 3d 51 fd 35 bd 81 7c c4 3c
       0.05267689 0.051679183 -0.044431034 0.02398515
000170 72 b5 86 3c de b2 b6 3c f6 fa a8 bc df 54 81 3d
       0.016443942 0.022302087 -0.02062748 0.06315016
000180 9c 73 23 3d 04 71 b9 bd 99 89 b8 bc a6 d6 4e 3d
       0.039905176 -0.09054759 -0.02252655 0.050497673
000190 e9 fe 76 3d 2f ff ba bd 02 37 c7 bd 55 79 96 3d
       0.060301695 -0.09130704 -0.09727289 0.07347361
0001a0 bc 21 c1 3d 44 1d 72 bd be 6f 1d 3d bb 61 de bd
       0.094302624 -0.05910994 0.038436644 -0.10858484
0001b0 90 1e c9 3d 82 b5 d9 3c 21 e3 a2 bd d5 54 cc 3d
       0.098202825 0.026575807 -0.07953478 0.09977118
0001c0 f5 f8 7b 3d 78 84 17 bd 75 21 9f bd 4f 80 ac bd
       0.06151672 -0.036991566 -0.07770053 -0.084229104
0001d0 5c 6d 7c bd 02 e4 66 3c 18 5e 65 bd a3 bd ac 3d
       -0.06162773 0.014092447 -0.055997938 0.08434608
0001e0 38 ea 41 bd 2f 8f 7d 3d 08 85 8e bd 75 cc 2e bd
       -0.04734251 0.06190413 -0.069589674 -0.042675454
0001f0 95 a4 88 bd ad 7c e7 bc 60 c6 99 bd a1 1c b6 3c
       -0.066720165 -0.028257692 -0.0750854 0.022230448

net.4.bias f4 [4]
000000 0e 4b 40 3d 37 fb 4e 3d 0f 00 d9 3d e0 c9 d5 3b
       0.046946578 0.050532546 0.10595714 0.0065243095
