outputs_ssh/noisy_data_NEW/chirp/1_nodes_given/5%_noise/-20%_init_error/model.pt (torch, 16796 bytes, 10 tensors)

net.0.linear.weight f4 [32, 1]
0.14985675 0.6284251 -0.5932144 -0.8382372 -0.27544823 -0.7596711 0.3183191 0.5307795
0.50437564 0.40344945 0.5538581 -0.30906516 -0.40994325 -0.95856607 -0.25472975 -0.11482227
-0.8164663 0.6563409 0.9896573 0.75965023 0.5850407 -0.19083638 0.21928619 0.026590994
-0.10478507 0.99379385 0.50068486 0.51225275 0.7872906 -0.76975924 -0.15240729 -0.33956283
00000000: 0c74 193e 78e0 203f e6dc 17bf b796 56bf
00000010: 8d07 8dbe ce79 42bf b9fa a23e 2ae1 073f
00000020: c31e 013f ed90 ce3e a5c9 0d3f ca3d 9ebe
00000030: 15e4 d1be 9664 75bf f06b 82be f027 ebbd
00000040: ef03 51bf f505 283f 2e5a 7d3f 7078 423f
00000050: 3ac5 153f 9d6a 43be 8f8c 603e 5bd5 d93c
00000060: 8e99 d6bd 4669 7e3f e22c 003f ff22 033f
00000070: e08b 493f f10e 45bf a810 1cbe 2edb adbe

net.0.linear.bias f4 [32]
0.5628225 0.15593556 -0.36579874 -0.16868375 0.24079075 -0.12872122 -0.31022313 0.86182654
-0.4837042 -0.18701768 0.37273744 0.30061248 -0.5104229 0.41106072 -0.5120738 0.774161
-0.23129103 -0.2329791 0.41235504 -0.9519862 0.6917515 0.41780335 -0.6381638 0.3814261
-0.9402369 -0.058683425 0.92919797 0.50735724 0.41868877 0.19907309 0.3782855 -0.96076494
00000000: 2315 103f 92ad 1f3e f949 bbbe 6fbb 2cbe
00000010: da91 763e 7fcf 03be 91d5 9ebe aaa0 5c3f
00000020: 14a8 f7be 9081 3fbe 71d7 be3e e1e9 993e
00000030: 13ab 02bf 8d76 d23e 4517 03bf 6a2f 463f
00000040: 8ed7 6cbe 1392 6ebe 3320 d33e 5eb5 73bf
00000050: a016 313f 52ea d53e b45e 23bf 484a c33e
00000060: 5eb3 70bf 085e 70bd ebdf 6d3f 2ae2 013f
00000070: 605e d63e d1d9 4b3e a3ae c13e b1f4 75bf

net.1.linear.weight f4 [32, 32]
0.013312952 0.004400062 0.010083273 0.000926602 0.00852884 0.0077493233 0.0030162889 -0.00021466656
0.009699367 -0.004331457 0.027124835 -0.0035262322 -0.014155852 -0.012762092 0.015777279 0.01902607
0.008909154 0.0098912 -0.0008097 0.008713831 -0.00066411967 -0.0076492103 0.0032149889 0.019613825
-0.0007519985 -0.0021247556 -0.023554271 -0.019209415 0.009958003 -0.005231297 0.012326479 0.007750788
0.0061513595 0.009354215 0.009230347 0.013491119 -0.002991906 0.007904058 -0.009565403 -0.00108251
0.016686598 -0.008032758 -0.00047268832 0.008638112 -0.001198306 0.005880596 0.00091333233 -0.014041616
0.019177657 -0.0007382828 0.0032579205 -0.015862437 -0.0054139253 0.023560882 -0.0016616157 -0.011400436
-0.00889207 0.0037346557 -0.0031110493 -0.0074437396 -0.0017802637 -0.012831408 -0.006197628 0.006850301
0.010025619 -0.0048770034 0.003626058 -0.0011572399 0.014033773 -0.0074197575 -0.003167489 0.006161282
-0.009215151 -0.0129297525 0.012838684 -0.010020249 0.015554517 0.017963894 -0.004058406 -0.004366903
0.010160048 -0.006800874 0.023776298 -0.0048096147 -0.011652116 -0.0027834142 0.021192119 -0.0022091065
0.0015006275 0.002981426 -0.012099099 -0.015682787 0.011223676 0.00228384 0.0025848236 0.0043594977
0.003668579 0.0016086017 0.0021167984 -0.0066844337 0.0035092402 0.0060057817 0.002521698 -0.0052104206
-0.011039947 -0.0147227 0.009085005 0.009528027 -0.0034620536 0.0012463264 0.012803266 0.0010736507
-0.010313386 0.002712244 0.009094969 -0.0066972724 -0.0011236911 0.0016069454 0.0069597843 0.006755664
0.0041672904 0.00073156145 0.0049905805 0.00048281162 0.009844845 -0.011791641 -0.0013352687 0.018890085
-0.004825546 0.011001633 0.007891288 -0.01303304 -0.003066563 0.0109015135 0.0049128253 0.010111896
-0.020293318 -0.0067484686 -0.013415616 0.0012202585 0.0027044462 -0.00992916 0.0030552607 0.008148469
0.0023572368 2.163719e-05 0.008681719 0.012024392 0.0059521724 -0.020884084 0.013608123 -0.010179401
0.01597609 -0.0028561505 -0.0048028785 -0.0072667194 0.0073739276 -0.0023983933 -0.005363235 0.008367983
0.0069568143 0.0035709885 -0.018541435 0.0013827961 0.0032122799 0.009236654 2.2437029e-05 0.015095232
-0.023037631 0.016997678 -0.0046662595 -0.0011941182 0.0032147465 0.010662087 0.017097902 0.00071573735
0.0062610013 -0.033189453 0.009844241 0.007610333 -0.004850915 0.0057114605 0.006749828 -0.0038047659
-0.0076541076 -0.0056233513 -0.00036305262 0.0046318583 -0.0061751357 -0.00166093 -0.0016787393 0.009188174
0.0019089306 -0.012833852 -0.014940343 0.0007641141 0.0030410632 -0.0047434648 0.003924048 0.008091329
0.0153061515 -0.019505631 0.010508934 0.007237902 -0.021887548 -0.0073186434 -0.0012246179 -0.0060074963
0.007698051 -0.010703732 0.00092628 -0.0035487828 0.00048619867 -0.0035560315 0.016769111 0.015683355
-0.011689294 0.0030949102 0.014629942 0.01622456 0.007081194 0.016356133 -0.0040192213 0.005340288
-0.017657928 -0.004573851 -0.013567021 0.0049536824 -0.0072613703 -0.00054301013 -0.0154014705 0.0013593003
-0.0071114516 -0.018849507 -0.0006045607 0.010975341 0.004359774 0.00095420633 -0.009198624 -0.0135510545
-0.006048936 0.002896777 -0.013972279 0.00032114712 -0.015661588 -0.018947046 -0.0044510346 0.0105193425
-0.0035726891 0.0013612506 -0.0046321424 -0.006771884 -0.00094103126 0.0085281255 -0.024496805 8.8541834e-05
00000000: 911e 5a3c 652e 903b 5034 253c 35e7 723a
00000010: 8cbc 0b3c 09ee fd3b eeac 453b 1e18 61b9
00000020: 18ea 1e3c e5ee 8dbb e734 de3c 5c18 67bb
00000030: f2ed 67bc 1818 51bc 5a3f 813c 90dc 9b3c
00000040: b3f7 113c b30e 223c 0c42 54ba 75c4 0e3c
00000050: 5118 2eba 3aa6 fabb 90b2 523b 2cad a03c
00000060: c421 45ba 7c3f 0bbb e3f4 c0bc 105d 9dbc
00000070: e426 233c 4d6b abbb 00f5 493c 52fa fd3b
00000080: 5891 c93b 6c42 193c e23a 173c db09 5d3c
00000090: da13 44bb 0680 013c 35b8 1cbc 02e3 8dba
000000a0: 55b2 883c d49b 03bc 27d3 f7b9 de86 0d3c
000000b0: 7a10 9dba 04b2 c03b b26c 6f3a ce0e 66bc
000000c0: 761a 9d3c 5289 41ba d682 553b f1f1 81bc
000000d0: 4c67 b1bb c002 c13c 92ca d9ba e5c8 3abc
000000e0: 0bb0 11bc 20c1 743b bfe2 4bbb 9dea f3bb
000000f0: bd57 e9ba d33a 52bc 7915 cbbb 7d78 e03b
00000100: 7e42 243c 45cf 9fbb 29a3 6d3b 87ae 97ba
00000110: e9ed 653c 7021 f3bb a695 4fbb 94e4 c93b
00000120: 25fb 16bc 50d7 53bc 5859 523c f82b 24bc
00000130: 5fd8 7e3c 0429 933c 61fc 84bb 3d18 8fbb
00000140: 5476 263c ded9 debb 83c6 c23c f999 9dbb
00000150: 84e8 3ebc f169 36bb 189b ad3c a8c6 10bb
00000160: b4b0 c43a 0764 433b 4d3b 46bc 3079 80bc
00000170: 82e3 373c 7aac 153b 2566 293b 1eda 8e3b
00000180: 8b6c 703b b7d7 d23a fcb9 0a3b 1809 dbbb
00000190: 48fb 653b 26cc c43b 1243 253b 2dbc aabb
000001a0: e5e0 34bc 7b37 71bc 46d9 143c 711b 1c3c
000001b0: 9fe3 62bb c65b a33a cac4 513c bdb9 8c3a
000001c0: 7af9 28bc e7bf 313b 1103 153c cb74 dbbb
000001d0: d148 93ba 24a0 d23a e70e e43b 9e5e dd3b
000001e0: c48d 883b 42c6 3f3a 0688 a33b e121 fd39
000001f0: 464c 213c ba31 41bc 2f04 afba 61bf 9a3c
00000200: 9d1f 9ebb 3140 343c 764a 013c 8888 55bc
00000210: 64f8 48bb 439c 323c c4fb a03b 5eac 253c
00000220: 2c3e a6bc 4222 ddbb 2ccd 5bbc 15f1 9f3a
00000230: 143d 313b eaad 22bc c53a 483b 2881 053c
00000240: df7b 1a3b 8381 b537 c53d 0e3c f501 453c
00000250: 710a c33b 1915 abbc 9bf4 5e3c 81c7 26bc
00000260: 4ae0 823c 412e 3bbb 7761 9dbb a91d eebb
00000270: fda0 f13b 5d2e 1dbb 13be afbb dd19 093c
00000280: fdf5 e33b 3f07 6a3b 35e4 97bc f03e b53a
00000290: 1d85 523b 5655 173c 2737 bc37 fe51 773c
000002a0: 6ab9 bcbc b73e 8b3c 6ce7 98bb f583 9cba
000002b0: 7fae 523b 09b0 2e3c e610 8c3c 52a0 3b3a
000002c0: 1629 cd3b aaf1 07bd bd49 213c 1a60 f93b
000002d0: 6df4 9ebb 3427 bb3b a92d dd3b 6159 79bb
000002e0: 4fcf fabb 1744 b8bb 1958 beb9 d8c6 973b
000002f0: cb58 cabb 90b3 d9ba 2509 dcba ff89 163c
00000300: 1535 fa3a 1445 52bc 57c8 74bc d44e 483a
00000310: 934c 473b 116f 9bbb 4d95 803b 7e91 043c
00000320: a7c6 7a3c 46ca 9fbc aa2d 2c3c ec2b ed3b
00000330: 844d b3bc 3bd1 efbb 5c83 a0ba 88da c4bb
00000340: ef3f fc3b b55e 2fbc 99d1 723a b292 68bb
00000350: 7be8 fe39 4f0c 69bb 605f 893c 617a 803c
00000360: 7484 3fbc fad3 4a3b 6db2 6f3c 5ee9 843c
00000370: 5c09 e83b 4cfd 853c acb3 83bb 95fd ae3b
00000380: 5ca7 90bc 3ee0 95bb 3648 5ebc 8052 a23b
00000390: caf0 edbb cb58 0eba 7356 7cbc 8d2a b23a
000003a0: 2e07 e9bb 486a 9abc 627b 1eba ebd1 333c
000003b0: 6fdc 8e3b b423 7a3a d3b5 16bc 3e05 5ebc
000003c0: 2736 c6bb dad7 3d3b fceb 64bc a35f a839
000003d0: bb4c 80bc d636 9bbc fcd9 91bb 5259 2c3c
000003e0: c723 6abb fe6b b23a 3ac9 97bb aee6 ddbb
000003f0: 8aaf 76ba 8db9 0b3c 86ad c8bc 89af b938

net.1.linear.bias f4 [32]
-0.05746276 -0.16945392 -0.09409985 -0.0152046075 -0.11345357 0.118335575 0.12031297 0.06891638
0.03229759 0.1843756 -0.004512588 -0.05810535 -0.099446274 0.06976514 -0.1689174 -0.08639683
-0.10948299 -0.04059391 0.170134 -0.06733723 -0.16955043 -0.09803201 -0.097187094 -0.025415182
0.02868711 -0.10953776 0.09617629 -0.014693607 0.16435598 0.11610985 -0.1578412 0.13972934
00000000: 125e 6bbd 5485 2dbe 6cb7 c0bd bf1c 79bc
00000010: 585a e8bd ec59 f23d a566 f63d 0824 8d3d
00000020: 7a4a 043d f5cc 3c3e 55de 93bb e0ff 6dbd
00000030: 7daa cbbd 07e1 8e3d aff8 2cbe d2f0 b0bd
00000040: 9e38 e0bd cd45 26bd 9b37 2e3e 1ae8 89bd
00000050: a19e 2dbe 02c5 c8bd 070a c7bd 8033 d0bc
00000060: 3b01 eb3c 5555 e0bd 13f8 c43d 74bd 70bc
00000070: ef4c 283e 00cb ed3d 20a1 21be 3515 0f3e

net.2.linear.weight f4 [32, 32]
-0.0032544478 0.0005767208 0.0043690526 -0.0069240993 0.0052222116 0.005431163 -0.009299789 -0.011329777
0.013931082 -0.010444559 -0.013538915 0.006255579 -0.009355106 -0.00024944215 0.00216724 0.013922944
0.0012498059 -0.001036634 -0.0032427737 -0.011915899 0.0030075696 -0.00885906 0.010825478 0.0034342182
0.005225064 -0.018706009 -0.0100040715 0.0022482083 0.0059719007 -0.010707461 0.0008936452 -0.007969413
0.009884656 -0.004984565 -0.012956532 -0.0048556617 -0.025353484 0.003715331 0.011353753 -9.598053e-05
0.003934245 0.004848583 0.022374114 0.0064581325 -0.008259279 -0.007536793 0.012914577 0.0089981565
-0.0027043403 -0.0015018351 -0.004426257 -0.0052340375 -0.017009044 0.005986265 0.019233666 0.012149637
-0.0125025865 0.0021058419 -0.0012588913 0.007013422 -0.012715113 -0.00034672354 0.0014869969 -0.013357189
-0.006832807 -0.018932443 -0.02060727 0.02078758 0.017596154 -0.0010748556 0.012775667 -0.00012985282
0.0040085455 0.0021214506 0.004803291 -0.0028304555 0.020543015 0.010735979 0.005587008 0.006881017
0.0014748566 0.0050951224 -0.006081164 0.0008828357 -0.009281499 0.0054772794 -0.019999018 0.017750459
-0.010599572 -0.0022112986 -0.0009025426 0.0046619424 -0.010257655 -0.003483169 0.00044957935 0.0022571224
-0.0072260927 -0.0051746927 0.013934716 -0.012354941 0.016899163 -0.013011944 0.0068801497 0.012034764
0.014601891 -0.012997832 -0.009894141 -0.0028844543 -0.0044905324 0.019736152 0.000104732644 -0.016249249
-0.012719027 -0.006538146 -0.0073342174 0.0030210891 0.004360129 0.026400339 0.0039135753 -0.007843119
-0.00046063133 0.0015251776 0.0044242335 -0.00672013 0.0039879438 0.0028957832 0.005819909 -0.01547233
0.007817318 -0.0046606124 0.015242528 -0.006218493 0.00042926427 0.0007617434 -0.010805905 0.00017653436
0.005674364 0.0044820784 -0.014712403 0.009726378 -0.012771758 0.0006810116 0.0030529855 0.001018576
0.017986257 -0.008812841 0.0070048925 -0.005448001 -0.007684023 -0.018262904 0.0063367523 0.01963223
0.007683425 0.007230479 0.0044238414 0.020348048 0.00050175545 0.0068820477 -0.0052795364 0.018397529
0.013787034 -0.0070914547 -0.0061261817 -0.0071504703 0.009596038 -0.0024372807 0.014478734 0.00277206
-0.0044813002 -0.0044702254 -0.0060947877 -0.010974794 -0.0014773776 -0.0001518173 -0.0060324217 -0.007979019
0.007035149 -0.0025610796 0.007795821 -0.004185426 -0.0018050853 0.006227286 0.0049314396 0.006422975
-0.0012264688 0.011536102 -0.0051387534 -0.015237817 -0.0006639635 -0.022207124 -0.0030350266 0.008606684
-0.012433914 0.00028559336 -0.0049062604 -0.0003679941 -0.0038774128 0.001434333 0.009197344 0.012897287
0.0031363743 0.0018363884 -0.004565728 -0.0040742806 0.0064084097 0.0012216996 0.014212242 -0.008001774
0.0033196388 0.0042203483 0.005484959 -0.006233036 0.012986363 -0.0011950273 0.0075318743 -0.020346193
-0.010139478 -0.013821859 -0.0025368938 0.006449411 0.0032247906 0.006746479 0.012696938 -0.0152024925
-0.019358883 -0.0072503453 0.006044594 -0.003368177 0.014834291 0.021338847 0.004101232 0.0005565991
-0.0011339198 -0.0062663094 -0.0011534146 -0.0034291155 0.010326307 -0.014771966 -0.009110692 0.02372953
-0.0034363104 0.0006932016 0.008953403 0.008201684 0.007601595 0.0064699044 -0.010153324 -0.0085297935
-0.0024211865 0.014779087 0.010493763 -0.009791601 -0.0012301413 -0.006094147 0.0038369163 -0.0070420667
00000000: 9348 55bb 142f 173a 452a 8f3b 8ee3 e2bb
00000010: 161f ab3b e6f7 b13b 245e 18bc 87a0 39bc
00000020: 313f 643c a81f 2bbc 53d2 5dbc 9afb cc3b
00000030: 2946 19bc 8fc7 82b9 4108 0e3b 0f1d 643c
00000040: 87d0 a33a aadf 87ba b784 54bb e73a 43bc
00000050: a51a 453b 9725 11bc 585d 313c 9f10 613b
00000060: 0337 ab3b 583d 99bc 1ee8 23bc ad56 133b
00000070: efaf c33b 596e 2fbc 8443 6a3a 2492 02bc
00000080: 41f3 213c 9055 a3bb a247 54bc 3e1c 9fbb
00000090: 1cb2 cfbc e97c 733b 1705 3a3c 2849 c9b8
000000a0: d7ea 803b dde0 9e3b eb49 b73c be9e d33b
000000b0: ed51 07bc 34f7 f6bb a997 533c 016d 133c
000000c0: 4d3b 31bb 39d9 c4ba 230a 91bb 4a82 abbb
000000d0: 8d56 8bbc 6e28 c43b ec8f 9d3c 450f 473c
000000e0: a6d7 4cbc 2a02 0a3b 6201 a5ba d9d0 e53b
000000f0: 0d53 50bc 72c8 b5b9 56e7 c23a 1cd8 5abc
00000100: bde5 dfbb 3618 9bbc 94d0 a8bc b74a aa3c
00000110: cf25 903c 2be2 8cba 0851 513c 1a29 08b9
00000120: 1e5a 833b 0908 0b3b ed64 9d3b 2a7f 39bb
00000130: d349 a83c f6e5 2f3c 3813 b73b 277a e13b
00000140: fa4f c13a fcf4 a63b 8044 c7bb 1a6e 673a
00000150: 6e11 18bc c07a b33b fbd4 a3bc 6969 913c
00000160: d4a9 2dbc 6feb 10bb 9c98 6cba 35c3 983b
00000170: b90f 28bc e145 64bb 85b5 eb39 3bec 133b
00000180: dcc8 ecbb 7890 a9bb 6f4e 643c 616c 4abc
00000190: 1d70 8a3c 0c30 55bc e172 e13b 752d 453c
000001a0: c53c 6f3c dcf4 54bc 091b 22bc 1d09 3dbb
000001b0: 5125 93bb b6ad a13c e9a3 db38 251d 85bc
000001c0: 7763 50bc f23d d6bb e053 f0bb 77fd 453b
000001d0: 6adf 8e3b 8645 d83c 733d 803b 6d80 00bc
000001e0: e480 f1b9 78e8 c73a 29f9 903b 8934 dcbb
000001f0: 4cad 823b 2ec7 3d3b efb4 be3b a87f 7dbc
00000200: 3514 003c 0db8 98bb ccbb 793c 80c4 cbbb
00000210: e00e e139 bcaf 473a 400b 31bc 151c 3939
00000220: 04f0 b93b 66de 923b 4a0c 71bc 635b 1f3c
00000230: a340 51bc ea85 323a 9914 483b bd81 853a
00000240: ea57 933c bc63 10bc 4c89 e53b 2585 b2bb
00000250: 42ca fbbb 169c 95bc 88a4 cf3b c5d3 a03c
00000260: 3ec5 fb3b a7ed ec3b dff5 903b f3b0 a63c
00000270: 3d88 033a cd82 e13b f6ff acbb 6ab6 963c
00000280: 03e3 613c 6f5f e8bb 23be c8bb 7e4e eabb
00000290: b338 1d3c c9ba 1fbb 3638 6d3c 73ab 353b
000002a0: dfd7 92bb f87a 92bb c9b6 c7bb 9fcf 33bc
000002b0: 91a4 c1ba 2531 1fb9 9fab c5bb 6eba 02bc
000002c0: 1b87 e63b c9d7 27bb 1674 ff3b e625 89bb
000002d0: 9d98 ecba 430e cc3b ea97 a13b d277 d23b
000002e0: 77c1 a0ba eb01 3d3c fd62 a8bb 09a8 79bc
000002f0: d60d 2eba b7eb b5bc 4ce7 46bb 0d03 0d3c
00000300: 9db7 4bbc b1bb 9539 b2c4 a0bb 55ef c0b9
00000310: 311c 7ebb 3b00 bc3a 75b0 163c 244f 533c
00000320: a18b 4d3b f8b2 f03a 1a9c 95bb 8b81 85bb
00000330: a3fd d13b 7021 a03a 77da 683c df19 03bc
00000340: 4c8e 593b d94a 8a3b 2cbb b33b 7f3e ccbb
00000350: c1c4 543c 76a2 9cba f1cd f63b 0fad a6bc
00000360: 0e20 26bc 1475 62bc 0442 26bb 9555 d33b
00000370: 0257 533b 9111 dd3b d106 503c e013 79bc
00000380: 8596 9ebc 4e94 edbb bb11 c63b a2bc 5cbb
00000390: 870b 733c cece ae3c a163 863b bce8 113a
000003a0: 09a0 94ba 9d55 cdbb 2c2e 97ba 03bb 60bb
000003b0: ac2f 293c 1e06 72bc 0345 15bc 6e64 c23c
000003c0: b933 61bb f9b7 353a 4bb1 123c 5b60 063c
000003d0: cd16 f93b 7e01 d43b 215a 26bc 8cc0 0bbc
000003e0: c5ac 1ebb fc23 723c 08ee 2b3c f46c 20bc
000003f0: b13c a1ba 69b1 c7bb c674 7b3b 23c1 e6bb

net.2.linear.bias f4 [32]
0.052474037 0.043165725 -0.053367157 0.17354092 -0.04893045 -0.03247159 -0.13508265 0.11169879
0.054251652 -0.07782085 0.1366689 0.17450862 -0.07965919 -0.07419519 -0.03572577 0.046114817
-0.14531241 0.17118448 -0.09360705 0.0067482907 0.068046935 -0.094120376 0.1016433 0.099258296
0.059923932 0.047998168 -0.11017314 -0.015877552 -0.07799541 0.02436313 0.16457807 -0.025938349
00000000: 04ef 563d 8bce 303d 8597 5abd b6b4 313e
00000010: 4c6b 48bd ee00 05bd 1b53 0abe 56c2 e43d
00000020: fb36 5e3d 8a60 9fbd eff2 0b3e 63b2 323e
00000030: 5b24 a3bd a6f3 97bd 2f55 12bd e4e2 3c3d
00000040: c7cc 14be fc4a 2f3e 0eb5 bfbd c420 dd3b
00000050: 315c 8b3d 2fc2 c0bd 5d2a d03d ef47 cb3d
00000060: cc72 753d ba99 443d 75a2 e1bd a411 82bc
00000070: 0fbc 9fbd 3095 c73c 2787 283e a97c d4bc

net.3.linear.weight f4 [32, 32]
0.004575158 0.013920986 -0.013121508 -0.0009453065 -0.01155557 0.009875932 0.00703638 -0.0042240433
-0.007826606 -0.008570109 0.012860527 -0.010047208 -0.004377941 0.0062885256 0.003432054 -0.0062896363
-0.013862971 0.0031837353 -0.0048813787 0.010031515 0.0005814638 -0.0073984186 0.009717048 -0.011246846
-0.00643625 -0.009581366 0.005431053 0.0130734425 -0.004469512 0.015968721 0.008105459 -0.0033405903
-0.020872585 0.0048000906 0.008883612 0.01526756 0.0040447963 0.014122673 -0.021452682 0.010918143
-0.013400777 -0.005927456 0.00080029055 -0.008424425 -0.013116738 0.0052570403 -0.013901808 0.021267407
0.011735426 0.01336098 0.011561768 -0.003694111 -0.010666906 0.010843971 -0.015770597 0.008031771
-0.013562908 -0.0197533 0.008835348 -0.0047821845 0.01871162 -0.012091796 0.018152526 -0.016073018
-0.009323111 -0.002439401 0.008699675 -0.0021632644 0.023033531 0.0043312116 -0.0035475318 0.0097694155
-0.0017341994 -0.006964044 -0.0039955913 0.009413482 0.011584528 0.005973695 0.0015208006 0.007536128
0.0038084837 -0.019091673 0.022804787 -0.011073668 -0.0007179458 0.018003695 -0.005476459 0.003400423
0.004351411 -0.010027642 -0.010507 0.016325269 0.011603312 0.01422517 -0.010806231 0.021578161
-0.0077783815 0.0020144014 0.008577892 0.016523927 0.003399215 0.0027142244 -0.002855108 -0.021605613
-0.014794099 -0.007911558 -0.009186707 0.006225463 -0.024925265 0.009215889 -0.008754831 -0.006371976
0.0033834623 -0.00978938 0.02053671 0.0059210705 0.0007209304 -0.000744025 0.0154627 -0.01455293
-0.0024439176 -0.007733696 0.007860915 -0.0007315431 -0.003395695 0.008377889 -0.009720003 0.000741551
-0.007832967 0.00726835 -0.014664214 0.016668824 0.0026576358 -0.00087143277 -0.005704051 -0.007321927
0.0074401577 0.0042051487 -0.016996438 0.0016708706 -0.009371688 0.012340474 -0.0054628383 -0.01674647
-0.024552228 -0.012103569 -0.00022934811 -0.0134755885 0.016791966 -0.001278747 0.0023141534 0.016054194
-0.0032173307 0.0074217357 -0.0046219174 -0.0044345595 -0.0263796 -0.006723613 -0.005094875 -0.0046529896
0.003458157 -0.009429219 0.00010648261 0.013716798 -0.015016481 0.008204095 0.008021231 0.004719075
0.00929569 0.0025126827 -0.0023708788 -0.013431505 -0.0004571867 0.002826423 -0.004287434 -0.0052962424
0.0024041075 8.28355e-05 -0.0050341818 -0.00039772879 0.002242632 -0.011073948 -0.0019354771 -0.004917944
0.008154324 0.01876356 -0.0063059838 0.010824382 0.008258951 -0.0024094286 -0.013752037 -0.0049570487
0.009817922 0.005292195 -0.00025889784 0.00059823494 -0.00368101 -0.02435342 0.019745972 -0.006338855
0.016323283 -0.020323569 -0.016789354 -0.003966648 -0.007352432 -0.002921296 0.016658649 -0.0104248645
-0.00024885975 0.0033019276 0.0022188798 0.0008471134 -0.0037170604 0.013677833 -0.009455589 0.0051204637
0.016819319 0.010040831 0.008769218 0.0103410985 0.0027541243 -0.004655261 0.0020468535 -0.014610446
-0.01074319 0.011918797 -0.016006282 -0.007219299 0.016939342 0.006765915 -0.026996229 -0.0031209094
0.0038863653 0.0064494377 0.012480699 0.011011159 0.013547925 0.00042090222 -0.00010776933 -0.011771379
0.01675282 0.006678394 0.0022036086 -0.0076998896 -0.011570883 0.0064218906 0.00457324 0.0032378824
0.004069087 -0.016813923 -0.004248812 0.014264853 0.012890315 -0.016159965 0.0029395665 0.0010988513
00000000: 35eb 953b d914 643c 98fb 56bc 72ce 77ba
00000010: 9353 3dbc a9ce 213c 6f91 e63b d869 8abb
00000020: 2a3b 00bc a469 0cbc f6b4 523c 0b9d 24bc
00000030: d574 8fbb fa0f ce3b 50ec 603b 4b19 cebb
00000040: 8421 63bc 37a6 503b f9f3 9fbb 395b 243c
00000050: 606d 183a 6f6e f2bb 4134 1f3c b144 38bc
00000060: 2ee7 d2bb 29fb 1cbc faf6 b13b fe31 563c
00000070: fc74 92bb d6d0 823c c2cc 043c ceed 5abb
00000080: fcfc aabc 144a 9d3b 928c 113c ca24 7a3c
00000090: 368a 843b c962 673c 89bd afbc 03e2 323c
000000a0: ef8e 5bbc 1b3b c2bb 97ca 513a 9906 0abc
000000b0: 96e7 56bc 4043 ac3b 69c4 63bc fc38 ae3c
000000c0: f245 403c 03e8 5a3c 926d 3d3c e618 72bb
000000d0: 3fc4 2ebc e9aa 313c 5731 81bc b097 033c
000000e0: f636 5ebc acd1 a1bc 23c2 103c dfb3 9cbb
000000f0: 1c49 993c ab1c 46bc 9bb4 943c 90ab 83bc
00000100: f6bf 18bc 5cde 1fbb 1589 0e3c 8ec5 0dbb
00000110: d1b0 bc3c d6ec 8d3b b57d 68bb e60f 203c
00000120: 134e e3ba a332 e4bb 73ed 82bb 013b 1a3c
00000130: 08cd 3d3c fcbe c33b 9a55 c73a a0f1 f63b
00000140: c197 793b 2466 9cbc 1bd1 ba3c 546e 35bc
00000150: 8734 3cba 7c7c 933c de73 b3bb a2d9 5e3b
00000160: 4896 8e3b fb4a 24bc 8d25 2cbc 92bc 853c
00000170: d11b 3e3c b010 693c 9e0c 31bc afc4 b03c
00000180: cbe1 febb 0c04 043b 498a 0c3c 305d 873c
00000190: 5dc5 5e3b 21e1 313b c31c 3bbb 41fe b0bc
000001a0: f362 72bc 7b9f 01bc d883 16bc f8fe cb3b
000001b0: 1230 ccbc 3dfe 163c 6c70 0fbc 02cc d0bb
000001c0: 14bd 5d3b a363 20bc 9a3c a83c 8a05 c23b
000001d0: d2fc 3c3a ac0a 43ba 4457 7d3c 6a6f 6ebc
000001e0: 222a 20bb f26a fdbb 11cb 003c 07c5 3fba
000001f0: 4f8a 5ebb 6a43 093c a640 1fbc a564 423a
00000200: d855 00bc 572b ee3b 2c42 70bc 0f8d 883c
00000210: bb2b 2e3b dd70 64ba 0ce9 babb c7ec efbb
00000220: 91cc f33b 58cb 893b 1d3c 8bbc 1d01 db3a
00000230: b58b 19bc b32f 4a3c 9c01 b3bb e52f 89bc
00000240: c121 c9bc 0c4e 46bc 2a7d 70b9 b7c8 5cbc
00000250: 4e8f 893c a19b a7ba 0da9 173b 1684 833c
00000260: dad9 52bb 0832 f33b 7473 97bb c84f 91bb
00000270: 081a d8bc c151 dcbb e9f2 a6bb 1b78 98bb
00000280: 3fa2 623b 037d 1abc 6a4f df38 6cbc 603c
00000290: b007 76bc 786a 063c 7b6b 033c 78a2 9a3b
000002a0: f34c 183c d2ab 243b bf60 1bbb d10f 5cbc
000002b0: 8fb2 efb9 823b 393b 9a7d 8cbb 1a8c adbb
000002c0: 3b8e 1d3b f8b7 ad38 c7f5 a4bb 4186 d0b9
000002d0: 1ff9 123b 816f 35bc d6af fdba b426 a1bb
000002e0: b799 053c 0ab6 993c 6da2 cebb c058 313c
000002f0: 8d50 073c 81e7 1dbb 3950 61bc bd6e a2bb
00000300: 59db 203c 266a ad3b aebc 87b9 ded2 1c3a
00000310: 1a3d 71bb d380 c7bc 4ec2 a13c 2bb6 cfbb
00000320: 68b8 853c 9d7d a6bc d489 89bc a8fa 81bb
00000330: abec f0bb 3773 3fbb b877 883c 0dcd 2abc
00000340: 6479 82b9 2765 583b a06a 113b d110 5e3a
00000350: ed99 73bb fd18 603c 9deb 1abc 90c9 a73b
00000360: abc8 893c 4c82 243c c4ac 0f3c b66d 293c
00000370: 8a7e 343b 298b 98bb 8124 063b a760 6fbc
00000380: 3404 30bc 0f47 433c 9b1f 83bc df8f ecbb
00000390: 60c4 8a3c 9cb4 dd3b 3227 ddbc 2c88 4cbb
000003a0: 64b2 7e3b ce55 d33b d97b 4c3c 2668 343c
000003b0: 1ef8 5d3c 8aac dc39 3802 e2b8 bedc 40bc
000003c0: 363d 893c 6ed6 da3b 6b6a 103b 5b4f fcbb
000003d0: cd93 3dbc b96e d23b 1edb 953b a732 543b
000003e0: fa55 853b 5abd 89bc 9e39 8bbb 21b7 693c
000003f0: e631 533c e761 84bc bea5 403b 5507 903a

net.3.linear.bias f4 [32]
-0.07457122 -0.11399222 -0.02638452 -0.09579029 -0.15611166 0.074044585 0.04993527 0.028546728
-0.18660145 0.14189316 0.07667408 -0.053766023 -0.1550588 0.063817754 -0.08092493 -0.18879308
0.09021724 0.0650628 0.11978973 0.13804711 0.0080166655 0.14093438 0.07102244 0.12765688
0.17093456 0.15737413 -0.08968763 -0.0017337566 0.046394352 -0.13737933 0.0876684 -0.024896957
00000000: ccb8 98bd c174 e9bd 5924 d8bc b32d c4bd
00000010: bcdb 1fbe b0a4 973d ed88 4c3d d4da e93c
00000020: 7314 3fbe 714c 113e 4d07 9d3d c339 5cbd
00000030: bcc7 1ebe e2b2 823d f8bb a5bd f952 41be
00000040: d1c3 b83d a53f 853d 5154 f53d 395c 0d3e
00000050: 5558 033c 1a51 103e 3774 913d 7cb8 023e
00000060: 7809 2f3e af26 213e 26ae b7bd 383f e3ba
00000070: 0108 3e3d 2bad 0cbe 7d8b b33d b4f4 cbbc

net.4.weight f4 [4, 32]
-0.013938748 -0.0055907015 -0.061758783 0.10521808 0.018201029 -0.02741912 -0.04009872 -0.01904613
-0.02220314 0.019586278 0.033804838 0.003085062 0.091687076 0.010182036 -0.0029432198 -0.06099975
0.033972785 0.061616223 -0.045862127 0.018998884 -0.0009347264 0.061751265 -0.010509655 0.059343766
0.07595842 0.012605672 0.0071946634 -0.05852525 -0.01699248 0.03122955 0.013411193 0.046609513
0.09027615 0.059045773 0.072875336 -0.07351897 0.061761953 -0.10242856 0.07036579 -0.08824569
-0.08551684 0.05195576 0.020808488 -0.019947447 0.011338958 -0.01655382 0.030571762 0.06371103
-0.03069723 -0.021926291 -0.038470067 -0.14125898 0.10308055 -0.006636371 0.09737576 -0.045381207
-0.021360531 -0.038520206 -0.1330179 -0.0395172 -0.008746427 0.059033196 0.053071372 -0.02229276
-0.06620193 0.034074906 -0.026963737 -0.027251594 0.038538758 0.08203954 -0.04483564 0.04107206
0.04459139 -0.04470994 0.021870855 -0.028913572 0.009887154 -0.00445975 -0.036648735 -0.03132439
0.035525527 0.0074819913 0.000100389996 0.06615434 -0.0020787856 -0.049139827 -0.025777945 -0.0030725733
-0.03186517 0.04247249 0.0684358 0.050277226 0.062816784 -0.04238147 -0.05917241 -0.05213209
-0.08251052 0.048958205 -0.055794477 0.10229195 0.06068094 -0.02993246 -0.066690326 -0.055888772
-0.02680927 0.03969984 0.071599625 -0.06928753 0.00079007284 0.09057644 -0.08344358 -0.068267316
0.08851252 0.06201317 -0.015332472 0.0061477805 -0.107268855 0.036305662 -0.05244969 0.14050774
0.053444814 -0.0115117 -0.019550597 -0.022004953 -0.009970345 0.10066772 -0.0248507 0.059291556
00000000: 595f 64bc 3432 b7bb c7f6 7cbd 947c d73d
00000010: 531a 953c 109e e0bc 8e3e 24bd a106 9cbc
00000020: 5ce3 b5bc 6773 a03c f176 0a3d c02e 4a3b
00000030: 6fc6 bb3d 8ed2 263c 09e3 40bb e0da 79bd
00000040: 0c27 0b3d 4b61 7c3d edd9 3bbd 8ca3 9b3c
00000050: 6d08 75ba e5ee 7c3d b030 2cbc 7312 733d
00000060: 1790 9b3d 0588 4e3c 36c1 eb3b 2cb8 6fbd
00000070: d033 8bbc 1dd5 ff3c 9fba 5b3c 9ee9 3e3d
00000080: b4e2 b83d fbd9 713d aa3f 953d 1d91 96bd
00000090: 1afa 7c3d 11c6 d1bd f01b 903d 28ba b4bd
000000a0: 7423 afbd 90cf 543d 9076 aa3c d468 a3bc
000000b0: 09c7 393c e09b 87bc a271 fa3c ee7a 823d
000000c0: c278 fbbc c49e b3bc ca92 1dbd 32a6 10be
000000d0: e51b d33d ea75 d9bb f16c c73d a5e1 39bd
000000e0: 48fc aebc 5dc7 1dbd d835 08be cadc 21bd
000000f0: 2c4d 0fbc cbcc 713d 5e61 593d 4e9f b6bc
00000100: e194 87bd 2192 0b3d 0ee3 dcbc bc3e dfbc
00000110: d1da 1d3d 5904 a83d 93a5 37bd 2d3b 283d
00000120: 76a5 363d c521 37bd 822a b33c 28dc ecbc
00000130: bbfd 213c 1823 92bb fc1c 16bd 014e 00bd
00000140: 3783 113d 7e2b f53b 7888 d238 ed7b 873d
00000150: 3c3c 08bb d846 49bd 452c d3bc 3a5d 49bb
00000160: 0d85 02bd a2f7 2d3d 1228 8c3d 7eef 4d3d
00000170: 16a6 803d 3198 2dbd c55e 72bd 7588 55bd
00000180: 47fb a8bd 6688 483d c088 64bd 717e d13d
00000190: 948c 783d eb34 f5bc f094 88bd a0eb 64bd
000001a0: 1d9f dbbc 4d9c 223d d3a2 923d 9fe6 8dbd
000001b0: e41c 4f3a 2480 b93d 78e4 aabd bccf 8bbd
000001c0: 0d46 b53d 8601 7e3d 0c35 7bbc 5273 c93b
000001d0: c6af dbbd 3fb5 143d 7cd5 56bd 43e1 0f3e
000001e0: f3e8 5a3d 929b 3cbc 9328 a0bc bb43 b4bc
000001f0: a85a 23bc e12a ce3d b293 cbbc b4db 723d

net.4.bias f4 [4]
-0.12750037 -0.086043745 -0.06683909 -0.11796978
00000000: 758f 02be b437 b0bd efe2 88bd 249a f1bd
