FE-PINN1/1_nodes_given/0%_noise/30%_init_error/model.pt (torch, 16796 bytes, 10 tensors)

net.0.linear.weight f4 [32, 1]
000000 62 fd 58 3f 40 85 88 be 18 ac 6b 3f 6a 02 47 3f
       0.8476163 -0.26664162 0.9205947 0.7773806
000010 37 af 27 bf de ea 51 be 59 66 6b bf b4 a6 7d bf
       -0.6550173 -0.20499751 -0.91953045 -0.99082494
000020 2f fd 4c 3e 64 2f 11 bf 24 62 0c bf a9 c2 3f 3f
       0.20018457 -0.5671294 -0.5483725 0.749064
000030 67 e7 34 3f be 80 f7 3e 73 33 2d bf d6 f6 06 bf
       0.7066559 0.4834041 -0.6765663 -0.5272039
000040 56 fb 59 3f ef 70 98 3e a4 f3 b4 be 27 df 3d bf
       0.85149133 0.29773661 -0.35342133 -0.7416863
000050 27 b7 3a 3f 64 17 6f 3f ce be 4c bf 02 93 7d 3f
       0.7293572 0.93395066 -0.79978645 0.9905244
000060 c9 9d 89 3e 55 d7 6b bf 7a 2a 3a 3f 0c 62 35 bf
       0.26878193 -0.92125446 0.72721064 -0.7085273
000070 99 60 18 bf 0a f3 2a 3e 98 fa 4a bf 98 38 c4 3e
       -0.59522396 0.16694275 -0.79288626 0.38324428

net.0.linear.bias f4 [32]
000000 44 0c b9 be c2 d6 53 3f f6 62 ae 3e 8c 50 a4 3e
       -0.3614217 0.8274957 0.34059876 0.32092702
000010 73 de 5c bf 96 1f db be fd 43 4a be 4e ea 53 3f
       -0.8627693 -0.42797536 -0.19752498 0.82779396
000020 0d 95 0d bf 31 16 1d bf 09 1d 2b bc 31 5e 80 bf
       -0.5530556 -0.61361986 -0.010443934 -1.0028745
000030 6a 1c 31 bf c0 dd 6b bf 77 a0 0e bf 09 e0 a3 be
       -0.6918398 -0.9213524 -0.557136 -0.32006863
000040 12 6e cc 3d 42 48 6c bf f7 05 d9 be b9 78 ca 3e
       0.09981932 -0.92297757 -0.42387363 0.3954523
000050 21 8a 28 3e 1c 29 b2 be 8a 93 f9 3d 7b 50 ec be
       0.16458942 -0.3479699 0.12186344 -0.46155152
000060 81 27 37 bf 2e fb 0e bf 99 ac 3e bf 89 4a 80 3e
       -0.71544653 -0.5585202 -0.74482113 0.25056866
000070 04 a6 ca bc df 93 f5 3e d9 f3 83 be 6f 5a 37 3f
       -0.024737366 0.4796438 -0.25771978 0.71622366

net.1.linear.weight f4 [32, 32]
000000 2b ae 9a 3b 29 3d 2e bc 1d 4a 23 bb 68 e7 7e bb
       0.0047204695 -0.010634699 -0.0024916 -0.0038895253
000010 d3 d7 8a bc aa cc 13 3b 5c 68 1b 3c 3d 7a 5f bc
       -0.016948616 0.002255241 0.00948533 -0.013639984
000020 80 71 b1 3c 9c 19 43 3b 95 e4 23 bc b5 6c 3a 3c
       0.021660566 0.0029769903 -0.010003229 0.011378457
000030 c7 1f 66 ba 56 2b 2b 3b be 4e 87 bb f4 9b 66 3b
       -0.0008778539 0.002611836 -0.00412926 0.003518817
000040 42 f2 3b bc 93 35 11 bc ab d8 4f bc be f8 20 3c
       -0.011471333 -0.008862871 -0.012685935 0.00982493
000050 cf e4 bb 3b b9 ea 92 ba 61 ed a9 bb d1 e4 b2 3a
       0.005734063 -0.0011208869 -0.0051857685 0.0013648515
000060 ad 20 ae bc 0c ff 8b 3b 31 03 27 3b 6e dd 1e bc
       -0.021255815 0.0042723473 0.002548408 -0.009696348
000070 42 84 03 3c 36 19 54 bb df 52 7f 3b e3 48 36 bb
       0.008027138 -0.003236366 0.0038959307 -0.002781444
000080 f0 d0 a8 bc 12 ab 81 ba d1 8b 27 bc 1f 97 f9 ba
       -0.020607442 -0.0009892902 -0.010226206 -0.001904223
000090 9e 8c a7 3b cc c3 3d bb f9 35 1f bb af 27 23 3c
       0.0051131984 -0.0028955815 -0.0024293645 0.009958192
0000a0 e8 52 0a bc bd 8a f4 bb a4 c8 29 3b 01 0c 33 bc
       -0.008442618 -0.007462828 0.0025906945 -0.010928155
0000b0 11 d8 39 3b eb 6e 37 3c 9b d4 08 bb b8 34 8a bc
       0.0028357545 0.0111958785 -0.0020878676 -0.016870841
0000c0 fa 8b 1b 3c a8 a0 9c 3a a8 07 95 3a 16 39 18 3c
       0.009493822 0.0011949735 0.001137008 0.009290954
0000d0 5e 42 03 bc 31 8c e1 3b ee ba 10 3c 65 07 2e bb
       -0.008011429 0.006883167 0.00883363 -0.00265547
0000e0 c1 e8 40 3c bb 45 3d 3c 19 74 08 3c 92 85 08 3c
       0.011774243 0.01155227 0.008328461 0.008332627
0000f0 bd 03 8c 3c c6 e8 91 3c 52 31 2c 3c 2c 81 b1 bb
       0.017091626 0.01781119 0.010509806 -0.00541701
000100 50 72 6a bc 52 96 a5 3b 95 30 0f bc d5 cf 5b 3c
       -0.014309481 0.00505332 -0.00873961 0.01341625
000110 34 a9 9b bc 60 28 52 bb 9a 89 25 bc 36 1b 0a bc
       -0.01900158 -0.0032067522 -0.010103608 -0.008429339
000120 2f 8b a3 bc 23 5b 07 bb 30 35 cf 3a 33 76 f5 ba
       -0.019963829 -0.0020653687 0.0015808698 -0.0018727243
000130 60 6f 11 3b 48 4d 61 ba 15 28 87 3b 09 6f e2 bb
       0.0022191629 -0.00085945847 0.004124651 -0.006910209
000140 4e 16 c2 3b 46 cd 90 bb 7d 0c 01 3b 6c 89 75 3c
       0.005923069 -0.0044190018 0.0019691281 0.014986377
000150 4f b9 4c 3c 60 ff 14 bb c3 74 fa ba 0e d4 85 3b
       0.012495353 -0.0022735223 -0.0019108284 0.004084117
000160 11 42 2d 3c 55 36 45 3c 9b 68 93 3b 56 63 02 3b
       0.0105748335 0.01203688 0.004498554 0.0019895635
000170 48 7c 4a bc 87 de 93 3c 83 d1 4d bb d3 83 d6 bb
       -0.0123587325 0.018050445 -0.0031405396 -0.0065464764
000180 f9 b4 ef 3a 6a 0d a4 bb a6 e8 52 bc 3e 52 9d bb
       0.0018288187 -0.005006482 -0.0128728505 -0.004801064
000190 9f 69 46 bc a0 8f b7 3b 00 4d 7a 3b 26 bb 78 bb
       -0.012110143 0.005601838 0.0038192868 -0.0037953346
0001a0 8b 86 29 3c b6 db 52 3c d3 51 0f bb 50 4d c3 3b
       0.010347019 0.012869766 -0.002186884 0.005960144
0001b0 05 01 3b 3b 76 4e 06 3c 80 fe 51 bc c0 35 d2 bb
       0.0028534543 0.0081974175 -0.012817025 -0.006415099
0001c0 88 d6 3f bb 17 0c 57 3c 49 67 29 bb b3 ba 87 3c
       -0.0029272158 0.013125441 -0.0025848916 0.016568517
0001d0 19 9a 64 bb 74 06 4b bc ba e5 c9 3b 3c 2a 8f 3b
       -0.0034881888 -0.012391675 0.0061614187 0.0043690484
0001e0 26 77 e3 3b 53 9f b0 3b dd 60 48 3c a3 90 1e bc
       0.006941694 0.0053900867 0.012230125 -0.009678039
0001f0 c5 91 2e bb d5 3b 83 3a 6f 10 16 bb 54 6d a2 bc
       -0.0026637178 0.0010012338 -0.0022897979 -0.019827522
000200 6f 14 cb bb f5 8d 92 bc 64 29 7e bc 28 71 b7 bb
       -0.0061975042 -0.017889956 -0.015512798 -0.005598206
000210 79 ef 36 bc 86 8e 73 bc 39 f8 e5 bb e6 80 b6 3b
       -0.011165493 -0.014865523 -0.007018116 0.005569565
000220 8e b9 e3 ba 49 54 c3 3b 43 66 0b 3b 65 5a 85 bc
       -0.0017374025 0.0059609753 0.002127067 -0.016278455
000230 65 0b 3a 3b 8a d8 6c bb 30 7c 02 bb 2b 28 17 3c
       0.002838814 -0.003613981 -0.0019910447 0.009225885
000240 13 ab 87 bb 04 8d 03 bb 61 df 9b ba 69 68 aa 3c
       -0.0041402667 -0.0020073066 -0.0011892134 0.02080174
000250 3c d8 23 bc 5f 4e 29 3c fd 88 05 ba 4b 81 3b 3c
       -0.010000285 0.0103336265 -0.000509396 0.0114444
000260 db ce cb bc 3c 27 16 bb 42 31 b2 3b 26 d5 28 bc
       -0.02487891 -0.002291157 0.005438001 -0.010304725
000270 f6 b7 0e 3b 98 15 4c 3c cc e2 e5 bc e8 d5 13 3b
       0.002177713 0.01245632 -0.028062247 0.0022557918
000280 27 fe 42 3c 38 c9 c2 3b 8c ba 20 bb 9c c3 67 bc
       0.011901415 0.0059443973 -0.0024525253 -0.014145758
000290 e9 9e b1 bb 7e e1 a5 3b 04 89 fc bb ee 3f 3b 3c
       -0.005420555 0.005062281 -0.007706763 0.011428816
0002a0 c1 7d 01 3d a4 4c 09 bc 23 67 f5 3b 69 e8 a7 ba
       0.03161407 -0.008380089 0.0074891015 -0.0012810352
0002b0 b7 9b 64 3c 5b c0 ba bb 3e 7b 83 3b d2 55 ad 3b
       0.013953141 -0.0056992 0.0040124943 0.0052897716
0002c0 b4 f1 9f 3c c4 3f 65 bc f2 de c3 bc 2e 9a b1 39
       0.019524433 -0.013992254 -0.02391002 0.00033874944
0002d0 8a 31 f5 bb cc df 30 3b a7 a4 b5 bb 02 cf 9c ba
       -0.007482712 0.0026988862 -0.0055433097 -0.0011963549
0002e0 3b b5 3c 3c 1c 9d 3d bb 16 a2 11 bc 52 8e 01 3c
       0.011517818 -0.0028932756 -0.008888742 0.007907467
0002f0 9b 19 09 3c d2 12 da 39 1a 46 25 3c 7b 3e fb 3a
       0.008367921 0.00041594222 0.010087514 0.0019168401
000300 75 66 cd bb b2 15 ae 3b 1d 58 aa bb 1a af 9b bc
       -0.0062683173 0.005312645 -0.005198492 -0.019004393
000310 49 0b d1 3b f0 2f a0 bb 81 9c 44 bb fe 32 24 bb
       0.006379519 -0.004888527 -0.003000051 -0.0025054808
000320 f1 9b 0e bc bb ce 5e 3c 6a fc cd 3b c7 af 79 3c
       -0.0087041715 0.013599093 0.0062861936 0.0152396625
000330 0a e5 db bb ae 80 5c bc 63 7b 41 bc 00 59 18 3c
       -0.006710653 -0.013458414 -0.011809203 0.009298563
000340 d8 1a 00 3c 10 80 7d bc 60 30 4a 3c 3e c5 aa 3c
       0.0078189 -0.015472427 0.012340635 0.020846006
000350 7c 65 51 3c 95 59 b6 bb 77 0b 03 bb bc 64 2f bc
       0.012780543 -0.005564878 -0.0019995847 -0.010705169
000360 1d b4 f8 3b 75 a9 30 3a dc ad 1e bc fe af c2 3a
       0.0075898306 0.0006739118 -0.009685006 0.0014853475
000370 b4 00 a0 bb 0f c3 3a 3c e1 e3 1b 3c d9 d4 9f 3a
       -0.0048828963 0.011399045 0.00951478 0.0012194171
000380 36 20 01 3b c2 fe 5a 3c ae 28 0c 3b 98 49 c1 bb
       0.0019703037 0.013366403 0.0021386552 -0.0058986656
000390 a4 0d 42 3c ee 87 28 bc fa 69 73 3b 19 04 1f bc
       0.0118440725 -0.010286314 0.0037142024 -0.009705567
0003a0 f5 33 73 bc 4e 21 22 bc 9c 20 93 bb dd 61 2e bc
       -0.0148439305 -0.009895636 -0.0044899713 -0.01064345
0003b0 3b 68 53 3c f3 d9 62 bb 67 61 b5 3b b5 de 75 bc
       0.012903268 -0.003461477 0.005535293 -0.015006711
0003c0 09 05 95 bc fc b0 51 3c b8 e7 2a bc fd e1 c7 3b
       -0.018190878 0.012798544 -0.010431223 0.006099938
0003d0 1d 17 33 3b 16 27 0b bc eb ac 07 bc 07 45 21 ba
       0.002732701 -0.0084932055 -0.008280973 -0.00061519485
0003e0 b7 26 3d 3c d8 c4 9e 3b 78 03 f2 bb be 5e 42 bc
       0.011544875 0.004845243 -0.0073856674 -0.011863409
0003f0 a2 6f 09 bc 65 b0 8f bc 42 0d e5 bc 25 67 50 3c
       -0.008388432 -0.017540166 -0.027960423 0.012719904

net.1.linear.bias f4 [32]
000000 87 4c 5a 3c 21 e7 9a 3d 41 31 49 3d ea f5 ac 3d
       0.01332391 0.075636156 0.049119238 0.08445342
000010 dc 2e 47 bd 81 ac 93 bd d7 45 62 bd 88 93 83 3d
       -0.048628673 -0.07210637 -0.055242386 0.06424624
000020 ba 73 ca bd e8 23 a3 bd 7d a0 39 be 3d f8 85 3c
       -0.09885354 -0.07965833 -0.18127628 0.01635372
000030 6d a4 c2 bc 5f 44 c6 3d 8c b6 75 bd d4 65 c8 bd
       -0.023760045 0.096810095 -0.059988543 -0.09785047
000040 27 dd 90 bc a2 da db bc 0d 40 c4 3d d6 a0 bf 3d
       -0.017683579 -0.02683765 0.09582529 0.09356849
000050 47 cb 10 be fb b8 78 3d 3a a4 b0 bc 08 bf da 3d
       -0.14140044 0.060723286 -0.021562684 0.106809676
000060 cd 7a e0 bd b3 0a c9 3d 2e 37 2c 3e 98 df a6 3c
       -0.109609224 0.09816494 0.16817924 0.02037029
000070 85 15 64 bd 2c d4 ba 3d 47 a7 7d 3b 85 92 f5 3d
       -0.055684585 0.091225 0.0038704441 0.11990837

net.2.linear.weight f4 [32, 32]
000000 0f dc bf 3b 6a be 5a 3c f3 3a a6 bb 69 9d a7 3a
       0.0058550905 0.013351062 -0.0050729453 0.0012788001
000010 24 d8 5a bc 48 d0 99 3b 22 3c a8 bc 4f 98 a8 bb
       -0.013357196 0.0046940185 -0.020536486 -0.0051451097
000020 f9 48 85 3a 68 53 af bc c1 fa ed bb 3a 6d 1b 3c
       0.0010168842 -0.021402076 -0.007262558 0.009486491
000030 77 db a5 39 73 7c f8 ba e8 3c a9 bb 0b 67 04 bc
       0.00031634766 -0.0018957987 -0.0051647313 -0.008081208
000040 a1 ee 8a 3a d5 a3 60 bc ee ca 16 3c 1f 7b 36 bc
       0.0010599681 -0.013710936 0.009203656 -0.011137753
000050 a7 cf 13 39 f1 ba f0 3a 02 92 c4 bc 55 ad 0f bc
       0.00014096369 0.001836626 -0.023995403 -0.008769353
000060 90 13 a3 3b 15 1f c2 b9 8f 58 12 bc 22 31 f8 3b
       0.0049766973 -0.0003702572 -0.008932247 0.0075742165
000070 25 db 9b bc fc 91 83 3b b5 80 47 3c a0 26 f7 bb
       -0.019025395 0.0040152054 0.012176682 -0.0075424463
000080 9d b3 bc 3c d6 19 0e bb 5e cf 9f bc ca d3 47 3c
       0.023034865 -0.002168288 -0.01950806 0.012196491
000090 28 5f 7c bb 48 46 9d bc 8e 61 90 3c 4f b2 5c bc
       -0.0038508866 -0.019198552 0.017624643 -0.013470246
0000a0 a4 dc 52 bc 3b 2f c5 bb f8 ab 4e 3c d5 b8 51 bc
       -0.012869988 -0.006017593 0.012614243 -0.012800415
0000b0 d2 c9 96 bc fc 9e 21 3c 55 4b 22 3c 8c 2f 82 3c
       -0.018406782 0.009864565 0.009905656 0.015891813
0000c0 7d 28 69 3c e7 4e 53 bc 98 13 d1 3b 49 b7 f0 bb
       0.014230845 -0.01289723 0.0063805096 -0.007346068
0000d0 55 b2 a2 bb 28 30 f1 3b 35 1c 7c 3c 36 16 8e 3c
       -0.0049651065 0.007360477 0.015387584 0.017344575
0000e0 7d 5c 6b 3c 09 ac 8c bb 67 d8 d5 bb 5f 55 2f 3b
       0.014365313 -0.004292969 -0.0065260413 0.0026753766
0000f0 4c 95 10 3b aa b6 c3 bb b8 54 84 3a d8 6c a3 3a
       0.0022061644 -0.005972703 0.0010096049 0.0012468351
000100 34 4b 3d bb ed 0b 73 3b c9 63 90 bb 3a 06 19 3c
       -0.0028883936 0.0037085966 -0.0044064266 0.009339863
000110 37 25 df ba d3 59 7e 3b d9 b0 73 bc c9 a0 38 3c
       -0.0017024641 0.0038810864 -0.014873707 0.011268803
000120 9c a3 9f bc 76 4f 69 bc a9 6a d3 3b a1 42 b5 3a
       -0.019487195 -0.014240136 0.006451924 0.0013829061
000130 2f b9 15 ba ff 9c 66 3c e2 e5 7c bc 40 9f c0 bb
       -0.00057114934 0.014075517 -0.015435668 -0.005878359
000140 3e 72 ae bb 15 61 e8 3b dc ba 0f bc 4e 1d 93 ba
       -0.0053236773 0.007091651 -0.008772578 -0.0011223943
000150 97 bb 24 bb 9c 2f 40 3c 91 21 d4 bb d7 56 08 bb
       -0.0025136226 0.011730101 -0.006473728 -0.0020803714
000160 f3 f6 75 3c cb 2d ca bc c5 cd 07 3c 7a 62 96 3b
       0.015012491 -0.024680039 0.008288805 0.004589376
000170 81 4c ce 3b 57 fd b3 b8 c6 1e 7b bc 39 ad a3 3b
       0.006295741 -8.582573e-05 -0.015327161 0.004995015
000180 d1 8b bc 3b b8 3a ad 39 2e 5a 93 bc a3 e2 57 bc
       0.005753972 0.0003304088 -0.017987337 -0.013176593
000190 d3 1e c7 3a fc e6 d6 3c a4 80 ae 3b 54 cb 12 bc
       0.0015191681 0.026233189 0.0053253938 -0.00895961
0001a0 77 74 55 3c e4 de cc bb 65 b8 91 3b 8b db 1e bc
       0.013028256 -0.0062521566 0.0044470304 -0.009695898
0001b0 ff 61 1c 3c 04 96 2b bb d2 4d 2e b9 65 19 4e 3c
       0.009544848 -0.0026181946 -0.00016622923 0.012579297
0001c0 d5 2a 38 ba c7 06 c4 3b 71 b7 73 bb 82 32 96 bc
       -0.00070254254 0.0059822532 -0.0037188197 -0.01833463
0001d0 a0 9d 9f bb d6 cf 0b bb fd 76 32 ba 55 6a 2a 3c
       -0.0048710853 -0.0021333597 -0.0006807892 0.010401328
0001e0 58 9d 5c 3b 2d 62 b7 3b a5 d3 2f 3c 4c 13 1e bc
       0.003366312 0.0055964203 0.010731612 -0.009648155
0001f0 a2 f2 ee 3b 98 b3 aa 3a 81 a4 03 bc a0 fd 24 3c
       0.0072921077 0.0013023494 -0.008034826 0.010070235
000200 1c df a8 3c e0 ca 2b bc d0 c0 82 ba 08 5f 47 bc
       0.0206142 -0.010485381 -0.0009975675 -0.012168653
000210 78 66 3c 3c d9 b2 73 3c 7d 6b 38 3c c3 4f 65 3b
       0.01149904 0.014874184 0.011256096 0.0034990169
000220 10 c3 2b 3c 54 86 07 bb ea 46 c9 ba dc b7 73 bc
       0.010483518 -0.002067943 -0.0015356217 -0.014875378
000230 d5 d3 91 bb 67 29 84 bb 9a 29 34 3c 81 8c 8a bc
       -0.004450301 -0.004033256 0.010996247 -0.0169127
000240 67 a9 d3 3b 28 4a 5e 3b 67 b7 68 3b 5f 82 0d 3c
       0.0064594033 0.0033918712 0.0035509707 0.00863704
000250 45 57 52 3b 77 f4 44 bb 5e de 26 ba 30 71 09 3c
       0.0032095474 -0.003005294 -0.0006365533 0.008388802
000260 80 0f a4 3b 7e ba 7a bb 18 c2 7f 3c b2 76 65 3c
       0.0050067306 -0.003825813 0.01561024 0.01400535
000270 d2 6d 95 3b a2 76 9d 3b 36 63 89 3b 77 64 64 bc
       0.0045602107 0.004805402 0.004192735 -0.013939968
000280 43 ea 07 bc a1 07 6f 3b 93 17 20 3c ab ef f6 3a
       -0.008295598 0.0036473053 0.0097712455 0.0018839737
000290 ec 5d 59 bb f6 da 01 bc af 50 19 bc cd db 75 3c
       -0.0033167554 -0.0079257395 -0.009357615 0.015006018
0002a0 c3 d4 e6 bb a2 52 c8 bb 17 4a d8 bb e3 99 20 3c
       -0.007044406 -0.006113366 -0.006600629 0.009802314
0002b0 b5 e8 39 bc 17 c7 8d b8 2c f6 b3 39 ae ea 86 3b
       -0.011346986 -6.760487e-05 0.00034324953 0.0041173315
0002c0 cf 5f 0c 3c 33 3b 21 bb 17 d0 a2 bb 8f 3e 5f 3b
       0.008567764 -0.0024601936 -0.004968654 0.0034064387
0002d0 47 7d 0f 3c 95 14 4e 3c 79 50 3e bc ad 84 10 bc
       0.008757896 0.012578149 -0.011615866 -0.008820695
0002e0 eb 21 5f 3c 93 3d 5b 3c a4 e1 c0 bb 0f dd 04 bc
       0.0136189265 0.01338138 -0.0058862735 -0.008109345
0002f0 81 48 54 bc da 1f 50 3c bd e8 ba 3b 25 c5 b0 bb
       -0.012956739 0.0127029065 0.005704014 -0.005394595
000300 41 34 05 3d e2 4e c8 3b 42 ac 16 bc 75 fc b7 3c
       0.032520536 0.006112919 -0.009196343 0.022459248
000310 4a 6d 33 ba 47 b0 c3 3b 64 1e 1d bb 9c 34 01 38
       -0.00068445934 0.0059719416 -0.0023974413 3.0804993e-05
000320 0c 58 0f ba ea a5 60 3a 92 59 2f 3c c8 9a 4c bc
       -0.0005468137 0.0008569645 0.010702508 -0.012488075
000330 e0 33 89 3b 06 fa d0 bb a4 7d 60 3b 06 92 86 bb
       0.004187092 -0.0063774614 0.0034254575 -0.004106763
000340 d8 e9 5a 3b 70 fa 3a ba 90 97 ea b9 45 5b 3c bc
       0.0033403542 -0.0007132655 -0.0004474488 -0.01149637
000350 1d 70 05 bb 86 5e 14 3c 91 5c 8b bc 1f 73 81 3b
       -0.0020361014 0.009055739 -0.017011913 0.003950491
000360 d0 03 76 bc 72 8d 92 3a 74 db 38 bc 1d c7 f8 bb
       -0.015015557 0.001118107 -0.01128279 -0.0075920955
000370 a2 42 67 bb 22 5e f3 3b d2 16 fd 3b 4c 02 47 bc
       -0.003528752 0.007426993 0.0077236677 -0.012146544
000380 d8 fc e1 bb 0c b7 52 b9 54 16 05 3c 60 29 3c 3b
       -0.0068965964 -0.00020095351 0.008122999 0.0028711185
000390 1e fe 75 3b fe 3b 18 bc 98 49 83 bb 24 35 77 ba
       0.00375355 -0.009291647 -0.004006576 -0.0009430221
0003a0 53 49 5b ba 45 d4 6f 3c a8 c0 5e 3c 9d dc 0a bc
       -0.0008365113 0.014638011 0.0135957375 -0.00847545
0003b0 00 e2 5c bc aa a7 81 bb 85 44 77 bb 74 e5 2c 3c
       -0.013481617 -0.0039567547 -0.003773005 0.010552753
0003c0 bc a1 09 3c 04 4f c4 bb 12 47 8c bc 94 e4 4d bc
       0.008400377 -0.0059908647 -0.017123733 -0.012566704
0003d0 61 69 55 3c a9 ec dc ba d7 47 c7 3a 02 93 87 bc
       0.013025613 -0.0016855198 0.0015203905 -0.016549591
0003e0 5d 62 50 3c 1c 5c c7 3b 4d e2 0b 3c 7c e0 88 bb
       0.012718764 0.0060839783 0.008537841 -0.0041771512
0003f0 e4 6c c1 3a 4c c6 5b 3b 24 0b e5 3b 64 51 66 3b
       0.0014757183 0.0033534942 0.0069898535 0.0035143727

net.2.linear.bias f4 [32]
000000 db 62 48 3e bb 92 61 3d 31 e4 f0 3d e0 ba 05 be
       0.1956896 0.055071574 0.11762274 -0.13059568
000010 61 7f 38 bd c0 27 cd 3d 87 7b c2 3d 2b 15 bb 3d
       -0.045043353 0.10017347 0.09496217 0.09134897
000020 44 55 14 be eb 6a 92 bd f7 7e fb 3d fe da fb 3d
       -0.14485651 -0.07149299 0.12280076 0.12297629
000030 98 d2 d4 3d 22 9e 38 3a a6 fd 0f 3e 22 ad 0a be
       0.1039173 0.00070426066 0.14061603 -0.13542607
000040 44 8a c3 3d 44 70 45 bd 6d f2 10 be 8f 40 fe bd
       0.095478565 -0.048202768 -0.14154978 -0.12414657
000050 3f 42 03 be 2b d6 f5 bb b8 92 14 3e d1 72 61 3d
       -0.1281824 -0.0075023375 0.14509094 0.055041138
000060 75 71 14 3e 54 bf 8b 3d 56 d3 20 be cd c6 19 be
       0.14496405 0.06823602 -0.15705618 -0.15017243
000070 73 96 0d 3e c2 f4 1e be 9a 68 f3 3d 20 11 e8 3d
       0.13826923 -0.15523055 0.118851855 0.11331391

net.3.linear.weight f4 [32, 32]
000000 84 af 8c 3b fd 25 bd bb 3e 75 bd bb 3f 77 3f 3b
       0.004293384 -0.005772351 -0.0057817986 0.0029215363
000010 ac ad 69 bc e3 92 a3 3b 89 b2 c9 bb ed e4 84 3a
       -0.014262598 0.0049918755 -0.0061553163 0.0010139026
000020 f9 72 53 3b 4b d8 84 bc 3c f2 9c bc cc 7f 46 3a
       0.0032264574 -0.016216418 -0.019158475 0.0007572144
000030 85 6f b6 3a 8e a6 82 bc 2d 64 5e bc da 35 99 b8
       0.0013918733 -0.01594856 -0.013573688 -7.305639e-05
000040 b5 c1 11 3c dd 7e 81 3c 11 28 ea bc 72 f2 42 3c
       0.008896281 0.015807563 -0.028583558 0.011898624
000050 e1 88 c8 bb 3a 22 61 b9 ed ed 32 38 9b f6 8c bb
       -0.006119833 -0.00021470423 4.2660093e-05 -0.0043018586
000060 6f db 05 3c be 61 41 3c 48 d1 89 bc d2 38 cd bb
       0.008169993 0.011803089 -0.016823426 -0.006262877
000070 5a 54 82 bc 94 79 ad 3a 8e 22 41 3c 6f d1 1b bb
       -0.015909363 0.0013235086 0.011788024 -0.0023775955
000080 b4 33 87 bb 3a 55 79 bc 9f d3 6e bc 1b 30 b6 3b
       -0.0041260365 -0.0152180735 -0.014576822 0.005559934
000090 22 63 03 bc f0 85 cc 3b 99 9c 65 3c e2 5a ab bb
       -0.008019241 0.0062415525 0.014014387 -0.00522934
0000a0 75 ea c4 3b 26 c2 b8 bb cf a1 5a 3b 0c 9d a4 bc
       0.006009395 -0.0056383787 0.0033360606 -0.020094417
0000b0 73 d7 41 3b 1a da fa 3b 06 0b bd bb 91 81 93 3b
       0.002957788 0.0076553943 -0.0057691364 0.0045015295
0000c0 4b 19 ab 39 d4 60 0d bc 98 2d 07 bb 7f 6f 11 3b
       0.00032634506 -0.008629043 -0.0020626541 0.00221917
0000d0 87 5c 26 3c bc 8f 2b bc 02 7c 0a 3c de 1b 2e bc
       0.010153896 -0.010471281 0.008452417 -0.010626761
0000e0 ed e4 af 3b 22 14 4e bb 72 02 e4 39 c4 9d e8 bb
       0.0053678663 -0.0031445106 0.0004348937 -0.0070988853
0000f0 c2 0f 0e 3c a5 f9 e8 bb 48 15 51 bc fa b5 43 3c
       0.008670749 -0.007109838 -0.0127614215 0.011945242
000100 9c 96 d3 bc 21 c6 f4 3a 7f 55 01 3c ea cd 11 3c
       -0.025828652 0.001867477 0.007893919 0.008899191
000110 c2 8a 72 bc cb ca 62 bc ce c6 bf 3a 78 8b 6e 3b
       -0.01480359 -0.013842295 0.0014631392 0.0036399048
000120 89 c8 82 3b 63 ef 16 b8 d3 37 1d bc 09 65 3d 3b
       0.003991191 -3.5985733e-05 -0.009595829 0.0028899333
000130 6d db 81 3c fc a3 27 bc 6f cd 56 3c 73 6d 22 3c
       0.0158517 -0.010231968 0.013110503 0.00991379
000140 6c 6b 94 bc a5 66 47 3c d1 f7 16 bc 56 15 62 38
       -0.018117629 0.012170468 -0.0092143575 5.390247e-05
000150 fc 5a 91 3c b5 34 60 bc a5 f0 9e 3b d3 6b 98 bc
       0.01774358 -0.013684441 0.0048504644 -0.018606102
000160 e2 59 f6 bb 39 ba 50 3b c3 32 92 bc 90 bb 90 3c
       -0.007518039 0.0031849279 -0.01784647 0.017667562
000170 e7 f5 55 3c cf 70 08 3c 97 85 15 3c dc 3e 51 bc
       0.013059116 0.008327677 0.009126089 -0.0127713345
000180 22 bd 8e 3c 38 ab 33 3c 5a 97 8c 3c e9 04 f2 3b
       0.01742417 0.010966115 0.017162014 0.0073858392
000190 03 a3 6d bc 08 8b c4 3c 66 a8 00 bc 77 50 e9 ba
       -0.014504197 0.023992077 -0.007852649 -0.001780047
0001a0 4f 95 4f bc 5a 88 68 bc cb c6 8d ba aa cb 2b bc
       -0.012669875 -0.014192665 -0.0010816691 -0.010485569
0001b0 a3 fd 02 3c 59 8f 4b bc ce fc 31 bb 90 da 4b 3b
       0.007995042 -0.012424313 -0.002715874 0.0031105615
0001c0 9e a8 23 bc 3c 1d 9e ba 21 7e bd bb 03 ce b4 3b
       -0.009988932 -0.0012063156 -0.005782858 0.0055177226
0001d0 30 71 99 3c 22 7f 4e bb 66 27 60 3c 33 fe 73 bb
       0.01873073 -0.0031508883 0.013681268 -0.0037230372
0001e0 ad 40 73 3c f2 37 1b 3b 68 6a 70 bb 60 27 15 3c
       0.014846963 0.002368447 -0.0036684517 0.009103626
0001f0 c6 56 22 bc 0f d2 79 3c 19 22 be 3b e7 90 19 3c
       -0.009908384 0.015247836 0.0058024046 0.009372926
000200 41 92 3d 3a 4e 69 2d 38 fb 5d a3 3b 50 40 af 3b
       0.00072315714 4.1344487e-05 0.0049855686 0.005348243
000210 c9 9b 15 bc 53 3f ed bb 57 91 10 3c 63 9e ce bc
       -0.00913138 -0.007240215 0.008823714 -0.025222009
000220 f3 32 3f 3c e9 32 5e ba 45 61 40 b9 e3 9c c9 3c
       0.011669862 -0.0008476214 -0.00018346783 0.024610942
000230 fb 98 2e 3c c2 64 b5 3b 31 dd 90 bc 63 6a 81 3b
       0.010656591 0.005535693 -0.017683597 0.00394945
000240 da 88 88 3c 34 78 70 bc 88 4a b6 3b 8b d8 d4 3b
       0.016666818 -0.014677096 0.005563084 0.0064955405
000250 60 57 1d bc 1b d2 00 ba ef ce 9e ba 42 04 ba bb
       -0.009603351 -0.00049141207 -0.0012116114 -0.005676777
000260 30 ad 68 bc f4 4e cc bc a0 cb bd 3b af bf 6d 3c
       -0.014201447 -0.024939992 0.0057920963 0.014511033
000270 d1 b1 b7 bb 2a d0 38 bb df b2 8e 3b 0c 76 a1 3b
       -0.005605914 -0.0028200247 0.004354819 0.0049274024
000280 d7 27 a3 ba f9 e8 98 3b e1 d4 e8 bb 31 fb dd bc
       -0.0012447786 0.0046664444 -0.0071054553 -0.027097316
000290 5a aa 4d bb 12 36 6f bb 0d 9f 8c 3c e8 7b 5a 3c
       -0.0031382055 -0.0036500734 0.017165685 0.013335206
0002a0 f0 b5 d8 bb b8 4a 07 3b 4a ce 31 bc e2 83 0d bc
       -0.0066134855 0.00206439 -0.010852406 -0.0086374
0002b0 7a dd 13 39 d6 d9 54 3c b9 fe 4b bc 63 71 86 bc
       0.00014101519 0.012991389 -0.012450867 -0.016411489
0002c0 18 1a 43 3a 79 4f 01 3c e9 4d 52 3b 0a d4 bb bc
       0.0007442548 0.007892483 0.0032089895 -0.022928257
0002d0 bb 85 bd bb 2d f3 da 3b 65 3a 22 3c ef e5 61 bc
       -0.005783764 0.006681821 0.009901618 -0.013787731
0002e0 61 ef b4 3b 57 e4 31 bb 96 c3 37 bc 4d e3 49 bc
       0.0055217003 -0.0027144158 -0.011216065 -0.012322259
0002f0 ec 5a e1 3a ec f0 57 3c 89 ad d7 ba 53 1e 1d bc
       0.0017193235 0.013179999 -0.0016454916 -0.009589749
000300 37 ba 61 3b ef f1 a7 3c dc 04 94 bb d2 d5 04 bc
       0.0034443268 0.020501105 -0.004517181 -0.008107619
000310 81 36 13 3b 69 58 b9 3b ca 87 85 b8 b4 ed bf 3b
       0.0022462907 0.0056562913 -6.367227e-05 0.005857194
000320 f6 09 1c bd 83 76 ed 3c cf c1 88 bc 4e 2a 08 3c
       -0.038095437 0.028987175 -0.016693978 0.0083108675
000330 99 1f a6 3b bf c3 a5 bb a6 07 00 bc 62 85 3f bc
       0.0050696847 -0.005058735 -0.0078143235 -0.011689516
000340 f2 ac d3 bc 02 43 1c bc 11 43 85 3c ea 56 1e 3b
       -0.025839303 -0.00953746 0.016267331 0.0024160692
000350 91 10 1b 3c 2e c8 19 3c 45 e2 90 3b 55 04 36 bb
       0.009464399 0.009386105 0.0044215047 -0.0027773578
000360 06 df ef 3b a0 aa 19 3c f0 43 98 bb 43 31 80 3c
       0.0073202876 0.009379059 -0.0046467707 0.01564849
000370 62 9b ad 3c e9 d7 17 3c 80 00 ac bc b0 78 08 bb
       0.021192256 0.009267786 -0.020996332 -0.0020823888
000380 ab c4 f6 3b b2 a3 b9 3b d3 5b 03 3c c4 2f cb 3b
       0.007530769 0.005665266 0.008017498 0.0062007625
000390 4e ac 09 bc 5e 49 45 3c f5 43 97 bb 06 02 c8 bb
       -0.008402897 0.012041418 -0.0046162554 -0.006103757
0003a0 ac 5e eb bc 51 21 8c 3c 27 79 a0 3a 39 9a 15 3c
       -0.028731667 0.01710573 0.0012243137 0.009131008
0003b0 5d cd 82 bc 32 6f 4c bb 82 b8 7d 3c 05 ed 31 bb
       -0.015967065 -0.0031194207 0.015485885 -0.0027149331
0003c0 36 8b 65 3c d4 35 9b 3c fb 41 2d bc 65 d0 61 bc
       0.014010241 0.018946566 -0.010574813 -0.013782595
0003d0 cf 40 6b bb 1f 18 73 bc 1d db 33 3b a5 db 3f bc
       -0.0035896783 -0.014837294 0.0027443834 -0.011710082
0003e0 ad 31 44 bc e0 3f 80 bc 64 25 71 bc 22 ee 8e bc
       -0.011974734 -0.015655458 -0.014718387 -0.017447535
0003f0 68 6d fb 3c 4e 72 95 bc 7d d3 e2 3c 38 67 8f bc
       0.030691817 -0.018242981 0.027688736 -0.017505273

net.3.linear.bias f4 [32]
000000 4d cd 25 3e 7e e3 fb bc 88 17 27 bd fb 54 0d be
       0.16191597 -0.030748125 -0.040793926 -0.13801949
000010 f9 91 0e be 81 92 03 be e5 45 83 bd 2d bc b9 bd
       -0.13922872 -0.12848856 -0.06409816 -0.09069095
000020 32 60 e3 3d a7 1b bb bd 7a ec b5 3d 4d 65 dc 3d
       0.11102332 -0.09136134 0.08882995 0.10761509
000030 99 81 45 bd d8 5a 2e bd 12 bb d9 39 73 c1 b6 bd
       -0.048219297 -0.042567104 0.00041528844 -0.08923616
000040 f6 57 da bd 50 1c c7 bd 64 3c 52 bd 8d 7e 60 3d
       -0.106613085 -0.09722197 -0.051327124 0.05480819
000050 be b7 bf bc b6 75 d4 3d ba cf 02 be 23 df dc bc
       -0.023403045 0.10374014 -0.12774554 -0.026961869
000060 6c 5e f0 3d ad 8e 21 be b5 da 7a 3d 1d 98 e9 3d
       0.117367595 -0.15777083 0.06124373 0.114059664
000070 15 31 77 bd aa e1 e1 bd 59 8b 0e be 29 11 16 be
       -0.060349543 -0.1102937 -0.13920344 -0.14654984

net.4.weight f4 [4, 32]
000000 2d 60 f7 3c 25 00 14 3c 2a cf 5d 3d e3 14 36 bd
       0.030197227 0.009033238 0.054152645 -0.044453513
000010 fd 70 3c bd c8 d5 b0 bd 47 2b 31 3c ac 07 67 3b
       -0.04600619 -0.086345255 0.010813541 0.0035252376
000020 b8 38 d4 3c 07 2a 37 3d c6 59 4c 3c 1d 53 8a 3c
       0.025905952 0.044717815 0.0124725755 0.016885335
000030 68 65 2a 3c 0b 95 f3 bc d3 05 d8 3c 93 43 fb 3c
       0.010400154 -0.029734155 0.026369965 0.03067187
000040 f2 97 4b 3d 53 64 fb 3c e3 28 f5 3c 32 57 1b bd
       0.049705453 0.030687487 0.029926723 -0.037924953
000050 79 14 69 3d 13 48 d5 bc 3f 7c 46 bc cf 44 98 3d
       0.05690429 -0.026035344 -0.0121145835 0.07434999
000060 4c 90 86 3d c8 33 55 bd 1b 34 8f bc 5e 5f 24 bc
       0.06570491 -0.052051336 -0.0174809 -0.010032503
000070 da b7 78 3d b6 db 74 bd 64 d2 d8 bc ad 88 57 bd
       0.06072221 -0.059779845 -0.02646751 -0.05262058
000080 f2 f5 a4 bd a1 b7 d7 bd 04 7f cb bc 85 d7 81 3d
       -0.08054723 -0.10533071 -0.02484084 0.06339935
000090 83 a2 12 bd 98 13 30 3d 0d 5d 8a bd f3 d4 5a bd
       -0.035799515 0.042987436 -0.06756029 -0.05342574
0000a0 5d 5d 06 3d 16 28 23 be e1 80 79 bc 64 00 45 3d
       0.032803882 -0.1593326 -0.015228481 0.048096076
0000b0 81 c3 71 bc 39 84 84 3d 7c 53 b0 3d 42 32 b2 b9
       -0.014756084 0.06470532 0.086096734 -0.0003398825
0000c0 88 62 03 bd a1 dc f9 3d 30 00 d1 3c f3 b8 47 bd
       -0.03207639 0.12200285 0.025512785 -0.048760366
0000d0 bf 19 5a 3d 33 33 11 be 2a 19 13 3d a2 8e 1c 3c
       0.05324721 -0.14179687 0.03591267 0.009555491
0000e0 cd b7 17 bd 2e f8 09 3d 20 0a f8 bd 30 3a 71 bd
       -0.03704052 0.03368395 -0.12111306 -0.058893383
0000f0 2d 7e 83 bd ec 1b bc 3c aa 39 a5 3c 02 d9 51 3d
       -0.064205505 0.022962533 0.020169098 0.051232345
000100 87 cc 19 3d 87 4b 94 3d d2 fd 10 bd 31 64 29 3c
       0.037548568 0.07240968 -0.035398312 0.010338829
000110 ec b2 25 3d 61 e7 8f bd 2c e3 7e 3c 89 db ee 3c
       0.040453836 -0.07026554 0.015557092 0.029157417
000120 af 2e ae b6 cb 46 f1 3d 91 47 cf 3c b5 eb 22 bc
       -5.191039e-06 0.11781081 0.02530268 -0.009943892
000130 63 81 e5 bc 4d 18 82 bd 55 af b2 bb 0f bf 20 3d
       -0.028015798 -0.06352291 -0.00545303 0.039244708
000140 fe 52 88 3a 87 73 c9 bd 85 7e d8 bc 8c 7d 5f 3d
       0.001040071 -0.09836488 -0.026427517 0.05456309
000150 ae 0a c3 bc 54 d0 57 3d e9 83 be bc 2a 74 26 bd
       -0.023808803 0.05268891 -0.023256259 -0.040638126
000160 02 a2 0c 3c 45 b1 0c 3d 9d 27 ed 3c fc f6 21 3d
       0.008583548 0.034348745 0.028949553 0.039542183
000170 9e 76 5b b9 36 de 44 3c 0e 52 61 3d b7 52 6a 3d
       -0.00020929656 0.01201587 0.055009894 0.05720779
000180 72 ce 73 3d 5d b9 81 3c 40 04 f6 3c d5 1e 77 bd
       0.059523053 0.015835458 0.030031323 -0.060332138
000190 9f 34 6b bc 34 ce 09 be 7c 53 a7 3d 8e d5 58 3d
       -0.014355808 -0.13457566 0.0817022 0.052938037
0001a0 da e7 86 3d 61 a7 ae 3d 6e 79 cc 3d e1 a9 11 3e
       0.06587191 0.08528019 0.099840984 0.1422496
0001b0 db 75 a6 3d 9f a9 8c bb 8a 63 bf 3c 4c 59 d5 3d
       0.08127948 -0.0042926813 0.023362894 0.10417423
0001c0 c7 fa 97 3d 41 09 53 bc 42 55 8a 3d 2b 3c b3 bc
       0.07420879 -0.012880624 0.06754543 -0.021879276
0001d0 88 fb d0 3d 99 31 31 bd d2 ef 0f 3d f2 63 b4 3b
       0.10204226 -0.04326019 0.03514082 0.0055050785
0001e0 c0 b1 94 3d 49 80 5e 37 5d bf 0c bd 45 57 1b bd
       0.072604656 1.32621e-05 -0.034362186 -0.037925024
0001f0 6e df 81 3d 2f 81 2c bd 8d 28 02 bd 75 ac 87 bc
       0.06341444 -0.042115387 -0.031776953 -0.016561726

net.4.bias f4 [4]
000000 64 c3 14 3e 98 9b 2d bc 68 2f 9a bd 23 ca 1c 3e
       0.1452766 -0.0105961785 -0.07528573 0.15311484
