outputs_inverse/sine/0_nodes_given/model.pt (torch, 16367 bytes, 10 tensors)

net.0.linear.weight f4 [32, 1]
00000000: e296 be3d a6b7 9c3e f192 42bd 3ff5 633f
00000010: bc4d 333e fa8e 65bf 9c34 383f 72b7 71bf
00000020: b238 1bbe 7bd5 0dbf 3ea7 f6be b74d 89be
00000030: d4f2 1f3e 1ed5 503f ea3e cbbe 8bc9 4d3f
00000040: e20a 4dbe 42ff 9f3e 4e56 24bf a496 333f
00000050: 6943 fd3e 04f4 313f 9e39 84be 449c 52bf
00000060: 353b 96be 2017 11bf 4669 c23e 9f9f 33bf
00000070: 0724 63bf f3f5 24be 17e5 de3e c80f 02bf
0.09306122 0.30608863 -0.047503415 0.8904609 0.17510122 -0.8967129 0.71955276 -0.9442054
-0.15158346 -0.5540387 -0.4817447 -0.26817104 0.15619975 0.8157519 -0.39696437 0.80385655
-0.20023683 0.31249434 -0.6419419 0.70151734 0.49465492 0.69512963 -0.25825208 -0.8226969
-0.29342046 -0.5667591 0.37970942 -0.7016544 -0.8872685 -0.16109447 0.43534157 -0.5080533

net.0.linear.bias f4 [32]
00000000: a977 ccbe 3db0 57bf 53b1 2fbf 94c1 ee3b
00000010: 082f 1e3f 7f77 773f 17f7 1dbe 8a03 90be
00000020: cc54 14bf d691 1e3f 0e8b 98be c151 723f
00000030: a63d d73e e32b 13bf 69de 55bf c7e2 2a3f
00000040: 6258 60bf aa21 443f 24b2 3d3f 0710 503e
00000050: a849 303f 5b0d 44bd 0c85 c53e 6c02 30bf
00000060: 146b 6b3f 4264 62be 78c5 e5be 0f93 4f3f
00000070: a2ad a8be fd44 3abf 4176 673f 4b6d 09bf
-0.39935043 -0.84253293 -0.6862995 0.00728626 0.61790514 0.9666671 -0.15426289 -0.281277
-0.5794189 0.6194128 -0.2979359 0.94655997 0.42039222 -0.5748884 -0.83542496 0.66752285
-0.8763486 0.7661387 0.74099946 0.20318614 0.6886239 -0.0478643 0.3857807 -0.68753695
0.91960263 -0.22108558 -0.4487722 0.8108377 -0.3294497 -0.7276152 0.90414816 -0.5368239

net.1.linear.weight f4 [32, 32]
00000000: 2f4d cd3a 1ce1 dd39 4dff 82bc 45ce fc3b
00000010: ee73 073c a1f8 82ba 08b3 123b 09bf 84bb
00000020: b140 8e3c 432c 79bc af58 0d3a 1b7b a6bc
00000030: c344 863c 78ac 12bb 6221 18bc 6e74 1a3b
00000040: 9cd1 eeba 5824 9ebb ecee 66bb c133 a53a
00000050: a5c2 d8ba 4274 973b ad9f 013c c877 403b
00000060: d267 463c ad4a 833c 978c 00bc ea9c a6ba
00000070: 508f 20bc cda1 32bb b5cd fa3b 6cb4 57ba
00000080: 20d6 3aba 5fa4 283c 0a0f 863b f2d3 b03b
00000090: fead 3dba 6ef8 a93a 0d4c afba 6b62 bfb8
000000a0: a7ab 393b 1c60 fc3b 71a4 a3bb 8df6 fb3a
000000b0: 41ad 8cbc 4442 f83a 03d1 8cbc 73c2 11bb
000000c0: b466 8b3c 9052 60bb 409c acbb 29fd 01bb
000000d0: 9696 143c 21b9 8fbb 7012 a13a e1eb 0f3c
000000e0: 3009 b63b 1607 413c b247 acba a8b5 543c
000000f0: 7f2d 42bc dc5c aabb b07a a23a 795d da3b
00000100: 8096 f3bc e3c7 bbbc 8476 52bc 6ffe 16bb
00000110: fea1 923a 22d6 d83b 12bb 723a 2ea8 7aba
00000120: 8667 2fbc baaf 47bc 5568 0ebc 9e39 a53c
00000130: c6fa b83b 4b40 323b f109 e33b cec3 26bb
00000140: 106d 9ebc 6c9c d3bc 73ff 4d3c 148b 0ebc
00000150: 899e 113c 48d2 ad3b 4c7f 363c 99f4 5ebb
00000160: 100f 89bb dbe1 5b3c 6049 54b9 7287 27bc
00000170: 7ac4 8eba dec3 273c b047 083c 0609 16bc
00000180: 0d0b 43bc 04c6 013c 7365 87bb cd82 4cbb
00000190: 199e 9bbb 47d2 203c 589a 04ba 0e45 573b
000001a0: 7294 39bb afd4 9cbb b9ff 3bbb f2a3 afbb
000001b0: 5941 aabb a9c3 dbb9 154b 7d3b e944 1abc
000001c0: 4f77 6d3c 298e 973c 5ee4 23bc 8ad4 883a
000001d0: fc2c 63bb 5b7e 793b 2d69 963b 238e 373b
000001e0: d033 c2bb 82b0 723c 3f58 083c f484 1c3c
000001f0: b9ff afba 5a0c 0d3c ca45 23bc 2ceb 523b
00000200: 1d34 63bc 55cc 413c 204f c63b e449 90ba
00000210: fbd2 533c 898b 213b 4fb1 7cbb b1b9 8a3b
00000220: c1a8 003c 4e0a 96bb 826e 8e3c a563 863b
00000230: 585f a03b 71b5 f2bb 9a10 11b9 5307 063c
00000240: e609 de3b 0bd7 363c 7f38 f13a 9895 b73b
00000250: 20d7 9ebc b321 6fba 2a01 173b 253d 26bb
00000260: d049 513c 52c7 44bb 9bce c33b c760 a83b
00000270: 464b fdbb 3604 a03b 2f26 80bc 3b42 1d3c
00000280: 4ed5 a43b 3d23 843c 8cd7 72bb b36c 2e3c
00000290: 7976 dc3b 6e25 8abb c054 853b c56f 8fbb
000002a0: 568e 2cbc 3210 d2ba ca12 8ab9 29db c0b9
000002b0: e5b1 b83a 6288 2ebb a29f c93b 15bc 933b
000002c0: 5c15 21bb 17cd 89bc c6f3 393c 5880 f1b9
000002d0: 9bb0 a7bb d280 693c f2f8 05bb 10f6 0bbb
000002e0: 284d b83b 9fb7 6e3c ce3b 88bb 69b5 02bc
000002f0: 51d7 bcba c111 4bbc dc38 36bc ca82 5dbc
00000300: 4aa5 b93c ca65 4cbc b969 a2bc baad 6f3c
00000310: 23bf 9dba addc f7ba c614 f4bb a5ac 7b3a
00000320: 7906 4a3c 9593 003c 469c 49bc 41fd 08bc
00000330: 3b9b b83a 36c6 39bb 457e 1bbb 496c 213b
00000340: 6d2b 79bb e9a7 cfba d364 943b 98c8 7e3b
00000350: bcf3 f33a bf3f b8bb ff14 0bbc 9045 923b
00000360: 3ebf 273b 8c37 b8bb 6da2 15bc 57e9 753c
00000370: 8c7e f7bb a127 edbb 6505 99ba 281b 253c
00000380: 1139 2fbc 7b88 323c a0a1 98bc db0b 88bb
00000390: 3814 87bb b727 92bb 268f 313b 3c2c 4eba
000003a0: 73fe bb3c 2593 c6bb e154 92bc 01a4 93bc
000003b0: aa68 8f3c 60c8 943b 1c4b 313b b6b0 b3bb
000003c0: bc8b 563a 6238 5dbc c913 53bc 1c6f a43b
000003d0: e579 0abc c3c1 07bc 0ae5 2fbc 5ce7 a23b
000003e0: e0f1 db3b e31c 38bc b3a2 cc3b f21c 1e3c
000003f0: efd8 b03b 09f5 173b c87f c9bb dff7 813a
0.0015663261 0.00042320124 -0.015990878 0.007715019 0.008267386 -0.000999231 0.0022384543 -0.0040510935
0.017364832 -0.015208307 0.0005391938 -0.020322373 0.01639021 -0.0022380631 -0.009285303 0.0023567933
-0.0018220427 -0.00482611 -0.0035237623 0.0012603925 -0.0016537501 0.0046220133 0.007911605 0.002936827
0.012109714 0.01602682 -0.007846019 -0.0012711559 -0.009799793 -0.0027257085 0.0076539167 -0.0008228484
-0.0007127244 0.010293095 0.0040911483 0.0053963596 -0.00072357047 0.0012967715 -0.0013374105 -9.1259215e-05
0.0028331073 0.007701887 -0.004993968 0.0019223258 -0.017172458 0.0018940647 -0.017189508 -0.0022241145
0.017016746 -0.0034228899 -0.00526765 -0.0019834733 0.009069106 -0.0043860828 0.001228882 0.008784265
0.0055552945 0.011781475 -0.0013143925 0.012982763 -0.011851667 -0.005199058 0.0012396183 0.006663975
-0.02973485 -0.022922462 -0.012845639 -0.0023039838 0.0011187193 0.0066173235 0.0009259443 -0.0009561804
-0.010705834 -0.012187893 -0.008691867 0.020169076 0.005645129 0.0027198966 0.0069286753 -0.0025446299
-0.019339114 -0.025831424 0.012573111 -0.008700151 0.008887895 0.0053046085 0.011138748 -0.0034020303
-0.004182704 0.013420547 -0.0002024523 -0.010225164 -0.0010892295 0.0102395695 0.008317873 -0.009157425
-0.01190449 0.007920746 -0.0041319667 -0.0031205893 -0.0047490713 0.009815759 -0.00050583994 0.0032847556
-0.002831724 -0.004786096 -0.0028686358 -0.00536012 -0.0051957783 -0.00041916713 0.0038649489 -0.0094158435
0.014493777 0.018500404 -0.010003177 0.0010439318 -0.0034664264 0.0038069698 0.0045901746 0.0028008304
-0.0059265867 0.014812591 0.008321821 0.009553183 -0.0013427652 0.008608902 -0.0099653695 0.003218363
-0.013867405 0.011828502 0.006051913 -0.0011008349 0.01292872 0.002464982 -0.0038557833 0.004233562
0.007852734 -0.004578865 0.017386679 0.004101234 0.0048941784 -0.0074068834 -0.00013834462 0.008180457
0.0067760823 0.011159669 0.0018403678 0.0056025498 -0.019389689 -0.0009122148 0.0023041465 -0.0025366035
0.012773946 -0.003002603 0.005975557 0.00513849 -0.0077299206 0.0048833145 -0.015643207 0.00959831
0.0050303107 0.016130084 -0.0037054745 0.010646033 0.00672799 -0.0042158877 0.004068941 -0.0043773376
-0.010531982 -0.0016026555 -0.0002633541 -0.0003678438 0.0014091103 -0.0026631583 0.006153063 0.004508505
-0.0024579382 -0.016821427 0.011349624 -0.00046062726 -0.0051174886 0.014251905 -0.0020442572 -0.0021356381
0.005624432 0.014570146 -0.00415752 -0.007977822 -0.0014407431 -0.01239437 -0.011121955 -0.013519952
0.022661824 -0.01247544 -0.019825803 0.014628822 -0.0012035113 -0.0018910371 -0.0074487654 0.0009600616
0.012330645 0.007847686 -0.012305325 -0.008361162 0.0014084348 -0.0028346903 -0.0023726386 0.0024631193
-0.0038020269 -0.0015842888 0.0045286207 0.0038876887 0.0018612067 -0.0056228335 -0.008488893 0.004463859
0.0025596167 -0.005621856 -0.009132964 0.015009246 -0.0075529274 -0.00723739 -0.0011674581 0.010077275
-0.010694758 0.010896797 -0.018631756 -0.004151804 -0.0041222833 -0.004460301 0.002709338 -0.0007864868
0.02294848 -0.0060600215 -0.017862739 -0.01802254 0.017505962 0.004540488 0.0027052825 -0.005483712
0.0008184274 -0.013502212 -0.012883135 0.005018128 -0.0084519135 -0.0082859425 -0.0107357595 0.004971428
0.0067121834 -0.011237356 0.006244981 0.009650456 0.0053969542 0.0023186824 -0.006149266 0.000991579

net.1.linear.bias f4 [32]
00000000: a720 0d3c f1f9 c4bd 346a 693c 97d1 663d
00000010: fa36 2abd e9d5 2a3d cc27 593d df6c a13a
00000020: 131a c43d 9732 febd b946 af3c f1e2 18be
00000030: 6706 15be 98bf 4c3d f15c 0a3e 8b53 79bd
00000040: fa4a ea3d 5250 7ebc a728 24be 83ca afbb
00000050: 61d3 843d 056a f8bd 2e84 03be 8851 173e
00000060: f466 b3bd 44c2 1d3d 9bde ab3d 7450 17be
00000070: e1b2 343d 3c06 133e d24d 683d 89d6 193e
0.008613742 -0.09617985 0.014246512 0.056352224 -0.041556336 0.041707907 0.05301647 0.0012315771
0.09575286 -0.12411993 0.021396028 -0.14930321 -0.14553224 0.049987406 0.13512017 -0.06087069
0.11440082 -0.01552208 -0.16031133 -0.0053647174 0.0648563 -0.121295966 -0.12843391 0.14777195
-0.08759871 0.038515344 0.08392068 -0.14776784 0.044115905 0.14357847 0.05671484 0.15023245

net.2.linear.weight f4 [32, 32]
00000000: d2ff 54b9 8a87 2ebb 51f1 3dbb eca4 8cbc
00000010: 376d 2b3c 76aa 073c 8a21 bdbb a31a 1e3b
00000020: 0227 ac39 d7e8 e8bb 2f55 b03b 86a2 a43a
00000030: a6c3 dc3b 6491 ee3b 4221 d4bb 3cf2 b03a
00000040: 6ac5 a3bb 7b5f 873a cfbd 00bc 6776 a53b
00000050: 4d8c 3bbb 3838 483c 1cd5 bebb 8655 0b3c
00000060: 87fc 88bb 70d1 2a3c a7ab b53a 50a1 ca3b
00000070: 8bb6 4dbb 7ea9 0e3c 4b62 98bb 4c1d a5bb
00000080: 069e 80bb 44b7 37bc 86bc 1d3c 6566 01bc
00000090: adc2 86bc b09c 563b 3d2f c03b 4a29 953c
000000a0: af04 3d3b 369c b13b 65fb 03ba 336f c3b9
000000b0: f918 ea3b b881 14bc ad79 143c 014b ceba
000000c0: 3da0 b6bb b93f a2bb c9c5 dd3b c635 013c
000000d0: ef0f 5bba da37 983b 127a 29bc 8b34 21bc
000000e0: 9c5b 653c b659 373b 598b 6dbc c7ec 5b3c
000000f0: beca 963c 67b8 7ebb 37f2 06bb a51c 463c
00000100: fca1 d03b 8222 333b f841 bf3a 8046 993b
00000110: 2f94 163c 87be 363c 7d11 d5bb b434 8bbb
00000120: 2c3a 043c bf08 25bc 541b a1bb 70e9 a63b
00000130: c269 283a 507d 923c 1997 d3bb d450 6b3c
00000140: e854 d03a 10a0 bebb f8a8 d43a 323a 14bc
00000150: 893b 293c fb44 903c 7551 0ebc f1c7 a1b9
00000160: d0a9 aabb c1a2 be3a 9407 563c 84d4 68bc
00000170: d339 72bc 650c 863c a29b f93b a142 5ebc
00000180: 4f39 21bc db2c 1abc af8f 9d3b 408f 523b
00000190: 7034 0cbc 4092 69bc c109 02ba e47e e9bb
000001a0: 1388 a93b 597f 5eba e274 48bc af72 3ebb
000001b0: eb55 a53c 64f0 b83b 5360 6e3b 634e 2a3c
000001c0: 9aa8 9a3c fb8e ea3b facd b5bb a594 493c
000001d0: 0af4 53bc b69d 6d3b 8075 85bb dce8 5b3b
000001e0: 64f2 3c3b aa7f 1d3c b742 553c a2bb a337
000001f0: 2fbe 41bb 49f9 1637 89c0 8b39 3abe 28bc
00000200: d094 223c 9758 4bba b424 f43b 9b9d 073c
00000210: f668 4d3c aef1 193c 5665 43bc 9d29 3539
00000220: 3f77 643c 6569 923c 24de 5e3b 5620 043c
00000230: 7d73 153a dab1 973c 4054 e9bb 4186 9b3b
00000240: 6695 6d3c eae1 a5bb 7048 efbb f46b 38bb
00000250: d06e 253c 8406 ac3c 64b8 8dbb 4c53 c03b
00000260: c2b9 c7bb d662 c4bb b6ec a83b dc62 8b3b
00000270: c5ff d2bb 0372 b73c 551f 9b3b a993 80bc
00000280: a6b7 963a 93f5 2aba e462 b73b 5ea4 51bb
00000290: ad86 1b3b 5bb6 ee3b ab86 acbc f884 92bb
000002a0: 0898 4a3b 6478 8cbc 7fed fbbb 4386 7c3b
000002b0: 9f3c ca3a fd00 6d3b c5b5 5ebc d6ac 8abb
000002c0: e8fe da3b 52db 22bc 1e7b 573c f943 e6bb
000002d0: 612b 10ba 94e7 c33b e436 b13a b937 a43b
000002e0: 64ed c4bb 2803 59bc 7852 143b 24db 0a3c
000002f0: 13fc 3fbb e0f8 5a3c 9da8 3d3c 14aa 24bc
00000300: 4131 913c d26b 08ba 5c41 1a3c 0085 39bc
00000310: fce6 533c 65cb 14ba bbad 86bc 9551 55b9
00000320: ccc2 fc3a 66af 8ebb 2c3f c93b 0955 3bbc
00000330: 7811 19bc 8532 9abc ab13 73bc 37b1 76bc
00000340: 55b8 483c 8d58 cabb 3630 1c3c 998d eabb
00000350: df4f 58bc 8fdc d0bb 2736 73ba 75ca 49bb
00000360: 1422 bdbb 46da 87bb 6153 f1ba 9b0d 443b
00000370: c32a b53b 65f5 b9bb 1fbe 9c3a 1887 18bc
00000380: 73bb 723c 65b8 443b 4fe4 56bb 1a86 a0bc
00000390: 6b0b ac3a e1ce ab3b 1de7 d4bb 8958 c93b
000003a0: ae9f 413c fd44 39bc 5fae 08bb 4057 0ebc
000003b0: 4245 6b3c de93 93bb 7456 54bc 3816 593b
000003c0: 58a5 65ba 59a1 47bc e97a 58bb 4e9f eb3a
000003d0: 70dd c9b9 8d91 d93b 03df 00bb 9ad9 453c
000003e0: 6fbd d63a ee7f 9dba 7dae 773a 4220 023c
000003f0: d901 fb3a 659b ec3b 74a8 0e3b d5b2 07bb
-0.00020313196 -0.002663108 -0.0028982947 -0.017168485 0.010463051 0.008280387 -0.0057718204 0.0024124763
0.0003283546 -0.007107835 0.0053812484 0.0012560643 0.0067371903 0.0072805155 -0.006473691 0.0013499926
-0.004997899 0.0010328138 -0.007857754 0.005049515 -0.0028617561 0.012220435 -0.0058237445 0.008504277
-0.004180494 0.01042591 0.001386036 0.0061837807 -0.0031389322 0.008707402 -0.0046503893 -0.005038893
-0.003925088 -0.0112131275 0.009627467 -0.007897948 -0.01645025 0.0032747202 0.0058650062 0.018208165
0.0028841903 0.005420233 -0.0005034714 -0.00037276148 0.0071440903 -0.0090641305 0.009062213 -0.0015738906
-0.005573301 -0.004951444 0.0067679626 0.007886356 -0.00083565613 0.00464533 -0.010344045 -0.009839187
0.013998892 0.0027977056 -0.014498555 0.013423151 0.018407222 -0.0038867237 -0.0020591149 0.01209179
0.0063669663 0.00273338 0.0014591804 0.0046775937 0.009190603 0.011153824 -0.006502329 -0.004248226
0.00807051 -0.010072886 -0.004916588 0.005093746 0.00064244505 0.01788202 -0.006457221 0.014362533
0.0015894445 -0.005817421 0.0016224673 -0.009047078 0.010329136 0.017611017 -0.008686413 -0.0003085728
-0.0052082315 0.0014544354 0.01306333 -0.014210824 -0.014784294 0.016363332 0.00761743 -0.01356569
-0.009840324 -0.009410108 0.004808388 0.003212884 -0.008557424 -0.01425606 -0.000496056 -0.0071257222
0.005173692 -0.0008487604 -0.012234898 -0.0029060056 0.02018257 0.005643891 0.0036373332 0.010394665
0.018879224 0.007158158 -0.005548236 0.012303506 -0.012936601 0.0036257333 -0.004072845 0.0033555543
0.0028831 0.009612957 0.013016394 1.9518488e-05 -0.002956282 8.998738e-06 0.00026655596 -0.01029926
0.009923175 -0.00077570364 0.0074506644 0.008277322 0.012537232 0.009396 -0.011926016 0.00017277007
0.013944446 0.017872522 0.0034006918 0.00806435 0.0005701108 0.018517423 -0.007120639 0.004746229
0.014500951 -0.0050623314 -0.0073023364 -0.0028140517 0.010097221 0.0209992 -0.0043249596 0.0058693048
-0.006095142 -0.0059932275 0.0051551713 0.0042537283 -0.0064391815 0.022393232 0.0047339597 -0.01569541
0.0011498823 -0.0006521579 0.0055965055 -0.003198884 0.0023731396 0.007284922 -0.021060308 -0.0044714175
0.0030913372 -0.01714725 -0.007688224 0.0038532175 0.0015429443 0.003616392 -0.013593142 -0.0042320294
0.006683219 -0.009939985 0.013151912 -0.007027146 -0.0005499628 0.005978534 0.0013520387 0.0050115255
-0.0060097445 -0.013245381 0.0022632163 0.008475099 -0.0029294535 0.0133650005 0.011575845 -0.010050315
0.017723681 -0.0005204055 0.009414997 -0.011323214 0.012933489 -0.000567606 -0.016440263 -0.00020343655
0.0019284128 -0.004354405 0.006141564 -0.011433848 -0.009342544 -0.018822918 -0.014836232 -0.0150569
0.012250979 -0.006175107 0.009532979 -0.007157993 -0.0132026365 -0.006373949 -0.00092777837 -0.003079084
-0.0057718847 -0.0041458933 -0.001841169 0.0029915336 0.0055287792 -0.0056750053 0.0011958516 -0.009309553
0.014815199 0.0030017134 -0.003278989 -0.019595195 0.0013125961 0.0052431677 -0.0064972774 0.0061445874
0.011817856 -0.011307952 -0.0020855886 -0.008687794 0.014359774 -0.004503711 -0.012960065 0.0033124816
-0.0008760295 -0.012184464 -0.0033032245 0.0017976554 -0.0003850269 0.0066396655 -0.0019664175 0.012075806
0.001638336 -0.0012016275 0.0009448303 0.007942261 0.0019150331 0.007220673 0.0021767886 -0.0020705957

net.2.linear.bias f4 [32]
00000000: a445 f0bd f3e7 e4ba 8677 e2bd b529 2c3e
00000010: c648 0b3e 491e 883d 4d81 c23d eba5 a33d
00000020: 73f6 bb3d aca9 bcbd da47 adbd a748 d1bb
00000030: b7b9 283e a069 183d 79de 9dbd 3b74 2bbd
00000040: 605d 3b3d d13c 093e 8da5 c73c ddc8 e63d
00000050: b318 833d 7573 20be eb73 4e3d 1911 0ebd
00000060: c64e 5c3d 6470 26bd 1fb0 47bc 8f4c 19bd
00000070: 239f 9b3d 5f59 073d 19f9 a03c f6e3 2cbe
-0.11732033 -0.0017464146 -0.110579535 0.16812785 0.1360198 0.066464014 0.094973184 0.07990631
0.09177866 -0.0921205 -0.0846097 -0.0063868347 0.16477095 0.037210107 -0.07708449 -0.041858893
0.045743346 0.13402106 0.024370933 0.112687804 0.064011954 -0.15669043 0.050403517 -0.034684274
0.05378606 -0.040634528 -0.012187987 -0.037426528 0.07598712 0.033044215 0.019650029 -0.16883835

net.3.linear.weight f4 [32, 32]
00000000: e5eb b43b e526 b239 ff48 d63c 3649 81bc
00000010: 2e3e bc3c dfd4 563b 4444 863a 6cac 543c
00000020: 9c44 d0bb 2bd9 1b3c 3c66 8bbc 505c 9c3b
00000030: 60e9 a239 1e81 c8bb 036c 5b3c f2e8 24bc
00000040: 2289 0c3b 3014 8e3c ca67 ecbb 2233 92bb
00000050: 769b cf3c 9833 033b 60fb ba3a b3b6 cf3c
00000060: 9fd0 5fbc 6d5a f83b dfa1 1ebc a925 dd3b
00000070: 3e7a fc3a 7ae5 af3b acbf 7ebb b55a a3bb
00000080: 6f47 15bc 5c8f e73c 50c8 4a3a 0f3c b4bc
00000090: 0d12 39bc 3668 903c 17a5 bfbb 9654 88bb
000000a0: 025a cfbb bcc2 cd3c b748 7abc 7799 833b
000000b0: ca02 6bbc d8cd 393c 8724 87ba 1307 b4bb
000000c0: ae18 a4ba fcea 8a3b 7516 6e3c 4d2f 203c
000000d0: 5c72 d73a 2371 8ebc 493d 403c dea0 7a3b
000000e0: c4bf 9abb a8a9 31bc 66c7 913c 933c 853a
000000f0: e9bd 033a 4043 a13c 6312 633c c29d 64bb
00000100: c910 7dbb eb61 2cbb da57 0ebb b113 2a3c
00000110: 8e2e 6e3b 15b6 c0bb a292 b73a aab4 b4bb
00000120: 752b 063c 68b7 eb3b 73f8 e039 faf9 0d3c
00000130: 7042 1a3c 929d 8a3c f412 a73b 8ec6 48bc
00000140: cdcf e13b 829e 88ba 1113 11bc 968a 85bb
00000150: 5588 2b3a 34e8 ddba d10a c4ba 492f b13b
00000160: 2fd9 1ebb 72bd 963a 59b6 dfbb 4a8a 80bc
00000170: eda6 f03a 75a6 5abb 31a5 d4ba 4e17 a23c
00000180: 5a8a 53bb ab3e 95ba 07af ffbb d3d5 92b8
00000190: 7aa0 2ebc a0eb 2a3c 8e4d 6cbb 315e 3e3c
000001a0: bf87 723b c1cf 8abb c20e 953b 5016 66bb
000001b0: 255a 093c d5bc fabb 8bd8 013c e025 47bc
000001c0: 08f6 f63a 24bf 103b a960 143b 063a 8eba
000001d0: f457 ad3a 2cdf 24bc b9f6 033c 9a87 153c
000001e0: c1d4 12bb 0e08 3bbb e5bf 05bc 3f27 68bc
000001f0: 363a cf3b 1eb6 10bc 384b 5abc 34cb 173c
00000200: 0546 84bb dc4c 82bb 408c 253c 6bc5 b1bb
00000210: b0cf 383c faea 2cbc 99ca 1fbc 6066 d1b7
00000220: 7b94 703b a9b1 c63b 3732 cbba 3647 72bc
00000230: 238c a43b b3d4 0eba 735e 7dbc 3f9c 9cb8
00000240: 2843 21bc c3bf 88bb 5e2e 473b 4dcf 9dba
00000250: 7eec a8bb 6c31 583b 1f2d 58bb 82de 0bbc
00000260: 39dd 8ebb cd46 b1bb 5ae4 3f3b 2830 e43b
00000270: 1d13 b4bb 8f12 10bb dc1e 4b3c 57b0 a1bb
00000280: 438e e3ba 2ced 28bc 82b1 4d3c 7f73 8ebb
00000290: 8864 523a 873c 933c 0986 fb3b 3945 bd3c
000002a0: cc00 10bc 8d83 8e3c 0614 82bc 6cfd a73b
000002b0: 7562 703b c6c5 073b 0bc6 1dbb 1a86 f03b
000002c0: c208 223c f23b 273b 1995 043c 04d3 3fbc
000002d0: 549b 14bb 068b eebc 72c7 33bc cddb c8bb
000002e0: 6ab3 143b 9d8b 32bc e43a 923c 8001 0a3c
000002f0: 00cb cbbb de42 c7bb 2132 013c 6e20 5f3b
00000300: 8a18 c93b 8f9a f83a 0abf 113c 8793 babb
00000310: 94c0 c43b 4a0b e6bb 3cc5 2ebc c25d 8f3a
00000320: b2f1 7bbb 9c22 253b 2b14 ce3a 91c2 563c
00000330: 241e 5cbc 681b a63b 8d40 35bc 3a0c 3a3b
00000340: 9f3b 66bc 8ee9 d6bb 7ec3 643c 88dc 863b
00000350: a844 2e3b 05f8 903b a102 96bb 6c82 3cbc
00000360: fafe 9f3b d284 a1bb c44e db3b d44b 1e3c
00000370: d7ca 423c a342 5b3c 7a08 e53b 92fa 083b
00000380: 45c8 173c 703d 87bc 6253 0bbb fe24 013c
00000390: 5dcb 6e3b f44c 2dbc bcc6 933b 5c38 6cbc
000003a0: 76d6 a23b a5a5 b3bb f497 a33c 8ee6 6abc
000003b0: 0060 6d3b f602 0fba 49b7 d1bb 9be3 6bbc
000003c0: 225b 84bb 93cb 88bb c25d 49bc a238 203c
000003d0: 9a4a 88bc cf90 523c 3625 36ba 4b87 a8ba
000003e0: 0c7e 043b 2f3f 963b 3734 b33b 23e1 5ebb
000003f0: 5fcb 20ba dff2 f1bb d3ee 753b 92bc f2bb
0.005521285 0.00033979784 0.026157854 -0.01578198 0.022978868 0.003278069 0.0010243733 0.012980562
-0.006355835 0.009512226 -0.017016523 0.0047717467 0.00031072926 -0.0061189076 0.013392451 -0.010065304
0.0021444042 0.01734361 -0.007214521 -0.004461662 0.025342684 0.0020019766 0.0014265589 0.025355672
-0.013660579 0.007579139 -0.009682148 0.006748874 0.0019262505 0.005367932 -0.003887157 -0.0049851784
-0.009111269 0.028266601 0.00077355374 -0.022001294 -0.011295808 0.017627817 -0.0058485377 -0.004160474
-0.0063278684 0.02511727 -0.015276126 0.004016097 -0.014343927 0.011340581 -0.0010310569 -0.0054940074
-0.0012519562 0.004239438 0.014531721 0.009776902 0.001643728 -0.017387932 0.0117333615 0.0038242857
-0.0047225673 -0.010843672 0.017795276 0.0010165147 0.0005025552 0.019685388 0.013859364 -0.003488407
-0.003861474 -0.002630348 -0.0021719844 0.010380671 0.0036343667 -0.005881081 0.0014005492 -0.005514701
0.008189072 0.0071934946 0.00042909718 0.008665556 0.009415254 0.016920839 0.005098695 -0.01225437
0.006891227 -0.0010423216 -0.008854643 -0.0040753586 0.00065434474 -0.0016930164 -0.0014956837 0.005407248
-0.0024238338 0.0011500551 -0.0068271575 -0.015690941 0.0018360295 -0.0033363376 -0.0016223547 0.019786503
-0.003227851 -0.0011386474 -0.0078028473 -7.0016504e-05 -0.010658378 0.010432154 -0.0036056968 0.011619137
0.003700718 -0.004236192 0.0045488784 -0.0035108514 0.008383309 -0.007651905 0.007925163 -0.012155026
0.0018841634 0.0022086585 0.0022640622 -0.0010851033 0.0013225065 -0.010062974 0.008054429 0.009126568
-0.0022404643 -0.0028538737 -0.008163427 -0.014169513 0.006324078 -0.008832483 -0.013323598 0.009264756
-0.0040366673 -0.0039764475 0.010104239 -0.0054251454 0.011279985 -0.01055407 -0.009752893 -2.4962414e-05
0.0036709595 0.006063659 -0.0015502636 -0.014787486 0.0050215884 -0.0005448565 -0.015464413 -7.467763e-05
-0.009842671 -0.0041732504 0.0030392627 -0.001203993 -0.005155145 0.0032988442 -0.0032985879 -0.008536937
-0.004359868 -0.0054100514 0.0029280395 0.0069637485 -0.0054954425 -0.0021983718 0.012397494 -0.0049343514
-0.0017361123 -0.010310452 0.012554528 -0.0043472643 0.00080258446 0.017973198 0.0076758903 0.023104297
-0.0087892525 0.017396713 -0.015878689 0.005126646 0.0036679779 0.0020717247 -0.0024074342 0.007340205
0.009889783 0.0025517908 0.008092188 -0.011708025 -0.002267559 -0.029119026 -0.010972844 -0.006129718
0.0022689947 -0.010897544 0.017850347 0.008423209 -0.006219268 -0.0060809692 0.007885487 0.003404643
0.0061369585 0.001896696 0.008895645 -0.005693856 0.0060044024 -0.0070203887 -0.0106671415 0.0010937976
-0.0038443622 0.002519763 0.0015722563 0.013107912 -0.01343492 0.005069185 -0.011062753 0.0028388635
-0.014052301 -0.0065586036 0.013962625 0.004115645 0.0026591215 0.0044240975 -0.00457795 -0.011505704
0.0048826905 -0.0049291635 0.006692739 0.0096616335 0.011889181 0.013382587 0.006989536 0.0020901305
0.009264057 -0.016508788 -0.0021259417 0.007882355 0.0036437132 -0.010577429 0.004509775 -0.014417734
0.0049694134 -0.005482393 0.019969918 -0.014337195 0.003622055 -0.00054554583 -0.006400023 -0.014397527
-0.004039184 -0.0041746586 -0.01229042 0.009779127 -0.016637135 0.012851908 -0.0006948294 -0.0012857703
0.0020216731 0.004585169 0.005468871 -0.0034008704 -0.000613382 -0.007383689 0.0037526384 -0.0074077332

net.3.linear.bias f4 [32]
00000000: 46cd 1dbe 77ac 14bd 6a70 4abc 0662 e6bd
00000010: d817 2fbe 808b 933c 2efa 0abe 3b23 e13c
00000020: 89d3 6dbd 54c1 90bd 68de 10be c0b3 be3d
00000030: 2f35 e63d 200d 6a3d ed96 7ebd a11a 5f3d
00000040: 423a 0d3e 86d9 17be 2371 5e3d 870a b7b9
00000050: e43b 9b3d 3acd 153e c3df b83b a2c4 313e
00000060: 431b 9e3c 8dce 9c3d d88d b3bd 2783 2a3e
00000070: 5cd8 01be f28b 68bc fed1 5fbd 516d eb3c
-0.15410337 -0.036297288 -0.012355903 -0.11249165 -0.1709894 0.018010855 -0.13571998 0.02748262
-0.058063064 -0.070681244 -0.14147341 0.09311628 0.11240613 0.057141423 -0.062155653 0.054468755
0.13791755 -0.14829072 0.054307114 -0.00034912323 0.075797826 0.14629069 0.005641909 0.17360166
0.019300109 0.07656584 -0.08767289 0.16651593 -0.12680191 -0.014193522 -0.054643624 0.02873865

net.4.weight f4 [4, 32]
00000000: a916 623c 7f0b bf3d 023c 88bd 8896 b83d
00000010: 8cd4 ca3d f1d4 cb3d 007a b6bd b5d3 08bd
00000020: abfb c9bd 36cc 593d 8ef4 bd3d 85af 633d
00000030: 4ebd b4bd 34f9 dcbd 1b9c ce3c 9cf4 c43d
00000040: 3992 a8bd 8434 c23d d012 95bd f3ff 93bd
00000050: 4d0b 7cbd 5366 e8bd 9805 b3bd bf48 693d
00000060: 5b3c 87bd 4b37 a6bd 2395 a13d 2f63 b03d
00000070: f2a8 9d3d c5b9 fd3d b2cb cf3d ede3 953d
00000080: c3a8 84bc 3557 023d 06e0 37bd 1aa5 f13c
00000090: cab4 6e3d 3c85 e23c 17cf 76bd 8564 63bd
000000a0: 9aca 5abd deee 6b3d 9f79 523d b6b8 b93c
000000b0: c87b a1bd 57dd edbc 2669 c83a 6062 363d
000000c0: 19ac 32bd e49b 4f3d 96c1 71bd 7e60 8dbd
000000d0: 8a00 dabc 647f 40bd 5fc2 91bd 898f 2f3d
000000e0: add0 b8bc 62c4 66bd b85e c73c 922d 973d
000000f0: 2e76 7b3d 2478 113d 5af5 783d 7a04 6f3d
00000100: 8635 a1bc cb24 d63d ed9b d1bd bb6d 053e
00000110: 34ec 033e a6aa cc3d c881 bbbd b20f 90bd
00000120: 3f24 fdbd 0481 993d fb0e cc3d d35b 863d
00000130: c458 02be fa8d 04be a3f1 973d 4818 0c3e
00000140: e587 c0bd d919 e43d 95a1 d9bd cdec f1bd
00000150: 2e12 d5bd b660 04be 22b5 05be 643f f23d
00000160: dbd5 afbd 2567 cabd 8fcc 253d 9460 bd3d
00000170: 50eb 063e 1fca 043e 371c 003e c883 c83d
00000180: e3b8 f33d d73b 05be a790 0a3e 2c3e 0ebe
00000190: 82ab 0cbe ff6f 0ebe 476a 103e 8f9f 053e
000001a0: 3f14 0c3e 906b 0abe 7db1 09be 1b2e 0abe
000001b0: e32a 0a3e 2ff3 0b3e a1b4 ffbd 60a7 0bbe
000001c0: 8fc0 0c3e cdc8 08be eb4d 0c3e ad3a 0d3e
000001d0: 5ff8 013e 3efe 0f3e 8283 0c3e 52db 0ebe
000001e0: 4dd8 073e 0337 0a3e d4ae d03d f37e 06be
000001f0: b096 0dbe 7c11 16be c1f3 0cbe f524 0dbe
0.013799348 0.093283646 -0.066520706 0.090130866 0.09903821 0.09952725 -0.089099884 -0.033405025
-0.09862455 0.053173266 0.09275161 0.05558731 -0.088251695 -0.10789719 0.025220921 0.09616968
-0.08231015 0.09482673 -0.07278979 -0.07226553 -0.061534215 -0.11347642 -0.08741301 0.05695414
-0.06603309 -0.08116015 0.07889774 0.08612668 0.076982394 0.12388948 0.10146274 0.07318864
-0.016193753 0.03182145 -0.04489138 0.029497672 0.058277883 0.027651422 -0.06025609 -0.055515785
-0.053415872 0.05760085 0.05138552 0.022671085 -0.078849375 -0.029036207 0.0015290126 0.04452741
-0.043621156 0.05068578 -0.05902251 -0.0690317 -0.026611585 -0.04699649 -0.071171515 0.042861495
-0.022560442 -0.05633963 0.024337158 0.07381739 0.061392 0.035514966 0.06078086 0.05835388
-0.019678842 0.104562365 -0.102348186 0.1303014 0.12883073 0.09993486 -0.09155613 -0.07034244
-0.12360429 0.07495311 0.09963795 0.06560483 -0.12729174 -0.12944785 0.074191354 0.13681138
-0.0940092 0.111377425 -0.106265225 -0.11812744 -0.10403858 -0.12927517 -0.13057378 0.11828497
-0.085857116 -0.098829545 0.040478285 0.092469364 0.13175702 0.12967728 0.12510763 0.0979076
0.11900499 -0.13011108 0.13531743 -0.13890904 -0.137373 -0.1390991 0.14103042 0.13049148
0.13679598 -0.13517594 -0.13446613 -0.1349415 0.13492922 0.13666986 -0.12485624 -0.13638067
0.1374533 -0.1335785 0.13701598 0.13791914 0.12692402 0.1406183 0.13722041 -0.13950852
0.13266106 0.13497548 0.10189596 -0.13134365 -0.13827014 -0.14655107 -0.1376486 -0.13783629

net.4.bias f4 [4]
00000000: 2a09 97bc 7dfb 02bc b13f 6dbc 4e35 bcbb
-0.018436987 -0.00799453 -0.014480517 -0.005743659
