FE-PINN1/1_nodes_given/5%_noise/15%_init_error/model.pt (torch, 16796 bytes, 10 tensors)

net.0.linear.weight f4 [32, 1]
000000 1f 5b 84 3e 3b 1c 8a be 82 61 01 3f e7 12 20 3e
       0.2585077 -0.26974663 0.5053941 0.1563221
000010 92 ad c0 3e 70 8f 65 3f 70 ae fb be 0d 68 4c bf
       0.37632424 0.89671993 -0.49156523 -0.7984627
000020 55 db 32 bf a4 5c f1 3e 5a c7 7a 3f 5c 78 27 bf
       -0.69865924 0.47140992 0.97960436 -0.6541803
000030 f1 3e 0a 3f 5a 31 d9 3e 89 bf 11 bf 8c a7 7b bf
       0.5400229 0.42420465 -0.56932884 -0.9830253
000040 57 43 69 3f c7 72 75 be 06 3b bc 3e af d7 2e 3f
       0.9111838 -0.23969565 0.3676378 0.6829786
000050 04 16 09 3d 4e b7 19 3f be 75 16 bf 8e ba ab 3e
       0.03346826 0.60045326 -0.5877341 0.33540767
000060 de b1 5b bf 52 e0 17 bf 81 6a 74 3f a8 18 6c 3f
       -0.8581828 -0.5932666 0.9547501 0.9222512
000070 94 6b 5d bf bf 30 60 be 0d b2 9a be f1 7a 18 3f
       -0.86492276 -0.21893595 -0.30213967 0.59562594

net.0.linear.bias f4 [32]
000000 a3 3c 1a be a3 68 07 bf 3f 08 40 bf 36 86 c1 be
       -0.15062194 -0.5289404 -0.7501258 -0.37797707
000010 58 43 75 bf 5c 0f 0c 3f c0 d0 1a 3f f4 94 44 bf
       -0.95805883 0.54710937 0.6047478 -0.76789784
000020 1a 07 d1 3d 78 6c d4 3e 10 15 33 bf f8 e7 8b bd
       0.10206433 0.41489005 -0.69954014 -0.06831354
000030 0a 03 36 3d 8b c1 d9 3e 20 98 23 bf 74 cf db be
       0.044436492 0.42530474 -0.63904 -0.42931712
000040 1c c1 19 3f 70 98 5c bf 25 bb 80 3e a9 1f 7a bf
       0.60060287 -0.861701 0.2514278 -0.9770456
000050 39 f8 ef be e6 0c 3c 3e 93 89 0a bf e1 40 ea be
       -0.46869066 0.18364295 -0.5411617 -0.45752624
000060 27 be c9 bd da 0e 07 3f a4 44 1f bf 52 fe 40 3f
       -0.09850722 0.52757037 -0.6221411 0.7538806
000070 2f 26 78 bf 6d e0 47 be 35 8f 30 3d 0a 9f a7 be
       -0.96933264 -0.19519205 0.043105323 -0.32738525

net.1.linear.weight f4 [32, 32]
000000 d6 7f e6 bb e3 fd ac bb 16 35 73 bb 14 fb af 3b
       -0.007034282 -0.005279289 -0.00371105 0.005370507
000010 25 e9 5a 3c c4 fc 88 ba 24 f9 a1 bb 4a 25 ad bc
       0.01336125 -0.0010451307 -0.00494303 -0.021135945
000020 69 4e 4c 3b 92 86 98 bc 90 14 4f bc 66 8e d2 bc
       0.0031174666 -0.018618856 -0.01263918 -0.025702666
000030 86 d4 4b 3c c4 c9 bc ba 38 69 04 bc ec 9e cd 39
       0.012440806 -0.0014403393 -0.008081727 0.00039219053
000040 cd 82 13 3c 91 89 bf 3c c3 77 74 bc a1 55 ba 3b
       0.009003353 0.023381026 -0.014921132 0.0056864773
000050 0e 95 e6 bb 85 40 d2 3b 91 c5 74 bb 81 b9 b1 3a
       -0.0070368117 0.0064163827 -0.0037349204 0.0013559313
000060 32 c9 6a 3c c3 27 26 3b c4 bb 4b bb 80 76 3c 3c
       0.014330195 0.002535329 -0.0031087259 0.011502862
000070 0c ec ca 3a 6d 51 03 3b d5 ba cf bb 43 80 06 bc
       0.0015481724 0.0020037547 -0.006339411 -0.008209291
000080 10 db 92 3c d4 f6 20 3c c7 66 f7 ba 8d 7d 0f 3c
       0.017926723 0.009824473 -0.0018875235 0.008757961
000090 ca 4a 28 bc 78 6d fb ba af 7e 85 3b 7e 14 57 3c
       -0.010271737 -0.0019182405 0.0040739398 0.013127444
0000a0 aa 8b 2d 3b 56 c5 9e bc 2c 73 a7 bb 99 82 1d 3c
       0.0026480951 -0.019381206 -0.005110165 0.009613656
0000b0 bb 5d 5d ba 06 ea a9 bb cc 5e de ba ae 35 4f bc
       -0.0008444448 -0.0051853685 -0.0016965508 -0.012647076
0000c0 5a 97 96 3b 8f 93 43 bc 5d 62 f1 bb b9 3e 91 bc
       0.004595679 -0.011937036 -0.007366462 -0.017730104
0000d0 61 6e 0f bc 72 71 e3 bb 78 d1 82 39 c4 e2 9f 3c
       -0.008754344 -0.006941014 0.000249516 0.01951731
0000e0 30 99 13 bc 99 80 3c 3b 3b 56 a6 bb df e8 e8 3b
       -0.009008691 0.0028763174 -0.0050761974 0.0071078385
0000f0 ae db 5c 3b 19 57 8b 3c 35 78 8c 3c 1c 05 7b 3b
       0.0033700275 0.017009305 0.017147163 0.0038302606
000100 02 bb 5b bc b9 4d 13 3b a3 72 00 3c f7 ff 75 bc
       -0.013411285 0.0022476746 0.0078398315 -0.01501464
000110 6d 80 29 bc 50 c9 b3 ba 84 e0 94 3c f2 53 d5 3a
       -0.0103455605 -0.0013716612 0.018173464 0.0016275628
000120 28 81 02 3c 6e 19 44 bc 28 0e 0b bc 07 81 d3 bb
       0.007965364 -0.011968954 -0.008487262 -0.0064545902
000130 ea 69 ce 3b 2e fe c6 3b 36 23 20 bb 8c 1f b8 3b
       0.006299247 0.006072781 -0.002443505 0.005618995
000140 2a 4e 39 bc 4f e9 7d bb 97 73 14 39 4c e4 1c 3b
       -0.01131014 -0.00387438 0.0001415744 0.0023939786
000150 96 61 56 bc 99 63 9b 3c da 1c 26 bc 10 c7 4b 3a
       -0.01308479 0.01896839 -0.010138715 0.0007773498
000160 5b 07 a5 3b 32 f3 44 3c 32 be ee bb 35 6e 89 3b
       0.005036277 0.012020873 -0.0072858566 0.004194046
000170 17 1d 27 bc 9b 0e a3 3a 5f 02 ee 3b 40 51 3f bb
       -0.010199807 0.0012440266 0.0072634663 -0.0029192716
000180 64 15 12 3c 2a da f0 3b a6 5b a1 bb a0 cb 96 3c
       0.008916233 0.007350226 -0.0049242554 0.018407643
000190 ca 65 b1 3a 4e 67 f5 ba 6c 0e 8c bc aa 08 59 3c
       0.0013534364 -0.0018722804 -0.01709672 0.013246695
0001a0 26 f0 bf 3c 4b ec b8 3b 22 cc d6 bb 86 5b e6 3a
       0.023429941 0.0056434027 -0.0065550962 0.0017574884
0001b0 91 e2 1d bc 4f 3b cc ba 10 d1 21 3a 22 31 d8 3b
       -0.009636537 -0.001558164 0.00061728153 0.006597654
0001c0 50 c9 de 3b 73 bb 98 3c 0a 4f ad bb 54 38 d3 3b
       0.0067989007 0.01864407 -0.005288963 0.006445924
0001d0 de d1 0d 3b 13 ab f1 bb 0c 38 61 3b f4 0c 66 bc
       0.0021639983 -0.00737513 0.0034365682 -0.014041174
0001e0 01 64 e9 3b 5f 25 58 3b 2f 6a 67 bc 97 ea dd 3b
       0.007122517 0.003298126 -0.014124437 0.00677235
0001f0 48 83 29 3b 68 9f ee 3b 61 34 89 3b e5 5c 96 3b
       0.0025865603 0.0072821863 0.0041871523 0.0045887106
000200 d9 09 9e 3c 10 7c 22 3c f6 fd 89 3c 43 8a 1c bc
       0.019291805 0.009917274 0.01684473 -0.009554449
000210 1c e6 6e bb b6 b0 4a 3c 33 ba f3 bb 1a d0 54 3b
       -0.0036453074 0.012371233 -0.007437968 0.003247267
000220 27 e9 ce bb a6 9e 87 bc 82 62 f3 38 74 ff 4b bc
       -0.006314415 -0.016555142 0.000116054915 -0.0124510415
000230 fa 08 3a 3b d2 db aa 3b 40 8a 00 3b 63 6f 16 3b
       0.0028386698 0.005214193 0.0019613653 0.0022954575
000240 23 b6 b1 ba 2c b5 10 bc 7a a9 82 3c 3c 85 21 bb
       -0.0013558309 -0.008832257 0.015949953 -0.0024646064
000250 79 7b 3f 3c ea 12 71 3b 5c 6e 86 3b 19 98 0c bc
       0.011687153 0.0036784955 0.0041025113 -0.008581185
000260 de 30 1d bb d4 1b 35 3c b5 e6 ee 3b c7 33 65 bc
       -0.0023985426 0.011053998 0.007290686 -0.013989395
000270 20 34 a7 3a 60 a6 54 bb a1 f4 37 bc 7b dd 94 3a
       0.0012756623 -0.00324478 -0.011227758 0.001135751
000280 6e 2a 85 3a 54 05 4c bc 06 e9 84 3c 25 81 5c bc
       0.001015974 -0.012452442 0.016224395 -0.013458525
000290 1e 8e be bc 0c d8 1e bb 49 b3 ba ba 3e 3b a9 bc
       -0.023261126 -0.002423766 -0.0014244105 -0.020658132
0002a0 bf 8c f5 3b a4 4e f4 bc df 83 2b 3c f6 e2 61 bb
       0.007493585 -0.029822655 0.010468452 -0.0034467555
0002b0 e2 35 2b bb 72 f3 c5 bc ac 91 bc 3b 4a 1b f8 bb
       -0.0026124646 -0.024163935 0.00575467 -0.0075716125
0002c0 f6 25 46 3c a5 02 06 3c 85 49 aa 3b ea 41 ba 39
       0.0120940115 0.008179341 0.0051967525 0.00035525794
0002d0 ff f9 66 3c 28 d4 c4 ba 46 d0 0b bc a0 3d e2 bb
       0.01409769 -0.0015016841 -0.008533543 -0.006904319
0002e0 85 42 6d bb 54 5e f7 3b 92 32 3a 3c 88 a3 08 bb
       -0.0036202979 0.0075490866 0.011364596 -0.0020849425
0002f0 7d 0b c5 3a a4 12 43 3b 7d c7 13 bc 11 2e 0f 3c
       0.0015033331 0.002976575 -0.00901973 0.00873901
000300 cc 60 92 bc db b0 56 bc fb a1 cd 3b d2 19 36 bb
       -0.017868422 -0.013103689 0.006275413 -0.0027786386
000310 e1 33 ef 3a 29 fa 52 bc 66 39 a7 3c d8 41 a1 3c
       0.0018249714 -0.012877026 0.020413112 0.019684717
000320 83 19 5b 3b 82 f1 f5 ba fa 99 01 bc 89 29 68 bb
       0.0033431954 -0.0018763992 -0.007910246 -0.0035425148
000330 19 90 a4 b9 02 1f f8 3b 13 e8 e0 3a cd 59 08 bc
       -0.0003138788 0.007572056 0.0017159007 -0.008322191
000340 fd 9e 53 bc 33 2c 4d 3c b3 f7 96 3c 0d 65 1c 3b
       -0.012916324 0.012522745 0.018428659 0.0023863942
000350 7e c5 8f bc 41 06 89 ba ee e3 92 3b c0 df 87 bc
       -0.017550226 -0.0010454134 0.0044827377 -0.016586185
000360 bb 36 38 3b 8e b7 73 bc f9 7e 22 3b d4 f2 52 3c
       0.0028108794 -0.014875306 0.002479492 0.012875278
000370 d8 6a 82 bc a2 45 25 bc 7c 7a 41 3c c7 a5 59 3c
       -0.015920088 -0.010087403 0.011808988 0.013284153
000380 50 dd 40 bb 56 de 5e bc a5 2d 92 bb d1 fb 38 bb
       -0.0029428788 -0.013602814 -0.0044610077 -0.0028226266
000390 f9 e0 aa bb 92 9e 18 3c fa a1 85 3b 52 51 eb 3c
       -0.005214807 0.00931515 0.004078147 0.0287253
0003a0 25 5d 4e 3c 47 f6 5b 3b a0 a3 0b 3b 7a 42 2a bc
       0.01259545 0.003356354 0.0021307245 -0.010391826
0003b0 3a 68 76 bc d9 66 08 3c 5d f8 b6 3b 68 50 0c 3c
       -0.015039498 0.008325302 0.0055838064 0.008564092
0003c0 2d 2f 43 bc 9f c4 e7 3b 85 3e 10 3c e0 43 64 bb
       -0.011913103 0.0070729996 0.008803968 -0.0034830496
0003d0 e9 1e 1e bc e5 a7 40 3b 42 cf dc 3b c8 e0 f5 bb
       -0.009650924 0.0029396948 0.0067385742 -0.0075036027
0003e0 b9 9a f1 3b 7d 03 e3 b9 1e 6a b2 bb ad 1b 8f ba
       0.0073731807 -0.00043299413 -0.005444779 -0.0010918282
0003f0 73 61 37 3b 91 79 de bb e0 86 c4 bc c9 1a 19 bb
       0.0027981668 -0.006789394 -0.023990095 -0.0023361912

net.1.linear.bias f4 [32]
000000 6d 63 20 be da 4d 08 3e 7c 18 d1 3d 3d 4e 13 be
       -0.15662928 0.13310948 0.10209748 -0.14385314
000010 6b 90 ea bd d8 c0 09 3e f9 84 16 3e 1b 03 d9 3c
       -0.11453327 0.1345247 0.14699163 0.026490739
000020 7f 58 11 3e 29 36 39 3c 38 93 2c be 1d 5e f5 bd
       0.14193915 0.011304417 -0.16853034 -0.11980841
000030 9f 5b b4 bc 51 5b cb 3c 90 a4 31 3e 5e 86 dd bd
       -0.022016345 0.024823816 0.17347932 -0.10816644
000040 c2 fa 60 3d 87 16 d1 bd a6 83 04 3e d8 71 94 bd
       0.05492664 -0.10209375 0.12940845 -0.072482765
000050 c4 0f 21 3e f6 e2 ac bc 97 4d b2 3d a5 04 17 3d
       0.1572867 -0.021104317 0.08706205 0.036869664
000060 b7 1e fb bc 3b 88 eb 3d 38 52 04 3c 8c 42 91 3d
       -0.030654294 0.11500593 0.008076243 0.07092771
000070 51 64 95 bd 06 28 e2 3d f0 62 0d be fe 4f ed 3d
       -0.072945245 0.1104279 -0.13807273 0.11587523

net.2.linear.weight f4 [32, 32]
000000 30 e8 08 3c 90 70 6d 3a eb 53 2d ba 63 7e e5 bb
       0.008356139 0.00090576056 -0.0006611931 -0.007003592
000010 49 43 c3 3b 6e 10 14 bc 20 ca 93 bb f9 2c ad bb
       0.0059589488 -0.00903712 -0.004510179 -0.005284902
000020 4f ae 2d ba b9 6f 28 3a 7e c3 f9 3a 1b 02 dc 3b
       -0.00066254 0.00064253394 0.0019055454 0.006714118
000030 0b 73 30 bc 8a bb 98 ba 9c b4 ca bc 0c e7 ec ba
       -0.010769616 -0.0011652571 -0.024744324 -0.0018074228
000040 4f 9d ee bb 1d 20 29 bc cc 8d 40 3c 75 ea ae ba
       -0.0072819362 -0.010322598 0.011752557 -0.001334502
000050 9b fc e8 bb 2d 98 c5 bb e8 8e 87 3c cb 72 0c 3b
       -0.007110191 -0.0060301037 0.016547635 0.0021430727
000060 ec b7 55 bc 65 31 9a 3c f8 6e c9 bb 0b 8d 81 3c
       -0.013044339 0.018822381 -0.0061472617 0.015814325
000070 72 d2 f3 bb e7 7e 35 3b 3e 26 11 bc 7c b4 a2 3a
       -0.0074408585 0.0027694048 -0.008859215 0.0012413408
000080 6b 29 5a bc 11 9c fc 3a be 09 4d bb b6 53 6a bc
       -0.013315539 0.0019272586 -0.0031286324 -0.014302185
000090 8d 84 b8 bb c5 83 2b 3c 6c be 42 3c 31 dd 75 bc
       -0.0056310357 0.010468428 0.01188622 -0.015006349
0000a0 9a a2 3c 3a 37 96 5e b9 59 52 02 bc 8a 80 42 3c
       0.00071958604 -0.00021227529 -0.0079542035 0.011871466
0000b0 23 42 3e 3c ed 94 b4 3c 8d bb 25 bc 51 1f 4c bc
       0.011612448 0.02204367 -0.010115516 -0.012458638
0000c0 f5 23 41 ba 70 68 65 bc 03 28 8d bb 3d e4 fe ba
       -0.0007367724 -0.014001951 -0.0043077483 -0.0019446682
0000d0 47 35 c4 3c 0c 7c c7 3c 42 fc 86 bc e2 cd 87 bc
       0.023951186 0.024351142 -0.016477708 -0.016577665
0000e0 0d 2c 10 3c 76 e8 02 bc 7c 96 32 3c 65 e6 ce bb
       0.008799565 -0.007989993 0.010900136 -0.0063140863
0000f0 68 5b 68 3c 82 f6 f6 ba e8 09 de bb 64 c6 ef bb
       0.014181949 -0.0018841776 -0.0067760833 -0.007317351
000100 90 53 a3 bb af 4e 9c 3c 46 91 10 bc 19 73 73 bc
       -0.0049843267 0.019080488 -0.008823698 -0.014858984
000110 46 3b 00 bb bd 97 f6 3b 35 e8 a5 b9 e8 65 90 3a
       -0.001956658 0.007525413 -0.0003164426 0.0011016699
000120 6b 1e 2c bc d3 8c c6 3b cb e8 83 bc bd b9 9c bb
       -0.010505299 0.006059268 -0.016102215 -0.004782884
000130 ce 85 0a bc 16 b9 f5 bb 4e 15 07 3c 71 2f e6 bb
       -0.008454753 -0.0074988706 0.0082448255 -0.0070246984
000140 92 66 e8 bb 41 d9 b3 3c 10 01 a2 3b 33 a0 3b 3c
       -0.0070923055 0.02195418 0.0049439743 0.011451769
000150 fa 00 db ba 10 24 f5 3b 5d 1d dc bc 71 31 b1 bc
       -0.0016708665 0.0074811056 -0.02686947 -0.02163002
000160 81 78 1e 3c 6d a3 1a bc db 14 fe bb ff ac 22 bb
       0.009672285 -0.009438378 -0.007753951 -0.0024822352
000170 97 99 1d 3c ec dd d1 bb 63 df 3d bc 5b 17 37 bb
       0.009619138 -0.006404629 -0.011588904 -0.0027937505
000180 0a c7 1d 3c 86 d4 ec 3b ff df 60 3c e5 24 4b 3c
       0.009629974 0.007227483 0.01372528 0.012398933
000190 ce 45 79 bb a5 1f 0e 3c 72 af 85 3b 52 ee 05 bc
       -0.0038035992 0.008674537 0.0040797526 -0.008174496
0001a0 0b 77 a7 bb 41 1e 14 bc 43 71 fd 3a f1 43 ea 3b
       -0.0051106266 -0.009040416 0.0019336123 0.0071492125
0001b0 c6 1d be bb f1 c0 81 bb 06 93 5e bc 3a 0c 16 3c
       -0.005801889 -0.003959768 -0.013584858 0.0091581885
0001c0 35 2b 03 3c b6 54 20 bc df 97 55 3c 08 92 64 b9
       0.008005907 -0.009785822 0.013036697 -0.00021798175
0001d0 54 bd 2c bc 38 f3 a4 bc 29 92 75 3b 68 5e e5 b9
       -0.010543186 -0.020135507 0.0037471151 -0.00043748622
0001e0 c5 ec 3a bc d4 92 67 ba 4f 6b 64 3c 24 0a 08 3c
       -0.011408989 -0.000883383 0.0139416 0.008303199
0001f0 f9 9a 2a bb a6 28 a9 bb ff 13 11 bc c2 88 37 bc
       -0.0026032312 -0.0051623164 -0.008854865 -0.011202039
000200 c2 db 4b 3c 06 62 6f 3b ba 4d e1 bb 6c 13 b0 3b
       0.012442531 0.0036526932 -0.006875721 0.005373409
000210 0f 86 0c bc 2c 50 a4 bb b9 56 2b bc c2 a0 60 3b
       -0.008576884 -0.00501444 -0.010457688 0.0034275507
000220 38 c8 36 3c e4 97 a6 3c 83 54 02 ba 60 51 d2 bb
       0.011156134 0.020336099 -0.00049716997 -0.006418392
000230 a3 ad 82 3a da b6 a1 bb 97 e2 5b 3c d2 4a 46 3c
       0.0009969961 -0.0049351277 0.013420722 0.0121027995
000240 aa 02 0e bb ec 89 26 3c 17 f2 e1 3b 20 ed 52 3b
       -0.0021669068 0.010164719 0.0068953144 0.0032184795
000250 ad 60 19 3c 52 aa 53 3c 98 7e c2 3b 4d 6c ca bb
       0.009361428 0.0129190255 0.0059355013 -0.0061774612
000260 86 19 10 bb 93 db 12 bc 92 64 3b bc 9b 88 46 bc
       -0.002198787 -0.008963483 -0.011437552 -0.01211753
000270 9f 94 b4 bb 40 0a 78 3c 49 da c1 3b 66 ab 34 3b
       -0.005510881 0.015139163 0.005915914 0.0027567982
000280 53 a2 0f 3c 8e d6 3f bc a6 ad 31 3c 9a 1e 3b bc
       0.008766728 -0.011708869 0.010844624 -0.01142087
000290 e6 01 79 3b 86 bd 0b bb 63 59 09 3c c7 b1 7a bc
       0.0037995516 -0.0021322682 0.008383128 -0.0153011745
0002a0 09 4b 07 bb a3 7a 2e bc d3 07 23 3c 3a d1 7b bc
       -0.002064409 -0.010649356 0.009950596 -0.015369708
0002b0 62 7c 34 bb bb 5f bb 3b 4d 8b 77 3c 47 ed 61 3a
       -0.0027539958 0.005718199 0.0151088955 0.0008618426
0002c0 a9 b4 0e 3c 37 e7 73 3c a7 ec 03 3c 96 9d b5 bb
       0.008710065 0.014886669 0.008052028 -0.0055424673
0002d0 b5 f1 db 3b b7 80 5d 3c a8 a3 1a bb 48 cb 80 bb
       0.0067121633 0.013519458 -0.0023596082 -0.003930483
0002e0 e5 d5 b5 3b 2d 70 5b 3a 8d ba 1e 3c b3 33 39 39
       0.00554918 0.00083709025 0.009688032 0.00017662234
0002f0 c0 23 98 3b a5 16 ab bb 5e 9b c5 3b 28 4f ce 3a
       0.0046429336 -0.0052212053 0.006030484 0.0015740143
000300 a1 5d 63 bc a8 72 c7 ba 87 33 14 3c d8 11 15 bc
       -0.013877303 -0.0015216665 0.009045488 -0.009098493
000310 7b 81 2f bc 36 7f a3 bb 3b 12 1f 3c a2 a8 95 bb
       -0.010712023 -0.00498953 0.009708936 -0.0045672217
000320 bc ea ad 3b eb 32 5e bc bf 50 3c 3b 49 67 a1 bb
       0.0053075235 -0.0135619445 0.0028734652 -0.0049256426
000330 17 92 40 bc 0f cb 8c 3b 15 a6 2d 3c 41 c7 d1 3b
       -0.0117535805 0.0042966674 0.010598679 0.0064019267
000340 99 71 3a 3a a4 af 21 bc 67 89 0e 3c 82 fc 9a bb
       0.0007112264 -0.009868536 0.008699751 -0.0047298083
000350 96 4f a8 3c b4 6d 09 3d ee ba 36 bc 94 a9 21 bc
       0.020545762 0.033551887 -0.011152966 -0.009867091
000360 db 59 00 3c 40 fe 9c 3b 01 7f b6 ba 58 a7 a3 bc
       0.007833923 0.004791051 -0.0013923348 -0.019977257
000370 52 1f 0a 3c 2f de 4a bc a7 0b 7d bc 21 05 86 3b
       0.008430319 -0.012382074 -0.015444673 0.004089967
000380 07 c5 a5 b9 f3 cb cf bb 12 89 46 bb b7 0e 0e bb
       -0.0003161805 -0.0063414513 -0.0030294103 -0.0021676251
000390 14 56 40 3c 57 c4 52 bc aa a0 8b bb 10 7b b7 3b
       0.011739273 -0.012864194 -0.004261096 0.005599387
0003a0 58 f4 8a b9 b4 d9 b4 3b b8 6c 13 ba fa 51 ec 3a
       -0.0002650346 0.0055191163 -0.00056238053 0.0018029802
0003b0 f8 38 f6 3a 00 df 91 38 28 31 a4 3b 34 ab 5c 3c
       0.0018785289 6.955676e-05 0.0050107427 0.013468552
0003c0 83 59 44 3c 7c 39 06 3c 27 f7 86 3c 6c 83 96 3a
       0.011984232 0.008192416 0.016475273 0.0011483259
0003d0 35 a0 7d 3a 7e 8e 0f 3c 40 87 13 bc f4 1e 92 3c
       0.0009675057 0.008762 -0.009004414 0.017837025
0003e0 38 a7 8a 3b d6 ed 23 3c 4f 8f 3a 3c 69 0f ff bb
       0.00423136 0.010005435 0.0113867065 -0.0077838195
0003f0 5b 2b 26 3c c8 b2 fb bb 5b a9 60 3c 7f 66 32 bb
       0.010142173 -0.0076812245 0.0137122525 -0.0027221737

net.2.linear.bias f4 [32]
000000 ab 29 f5 bd 46 fc 1e 3e 7c 1f c9 bd 8a a3 c1 3d
       -0.11970838 0.15525922 -0.09820458 0.09455021
000010 e7 5b 04 be 12 b1 30 bd 17 fc 8f bd d3 01 13 be
       -0.12925683 -0.043137617 -0.07030504 -0.14356165
000020 86 1c 0c be 86 64 b3 3d db a1 9c bc 6f dd 2f 3d
       -0.13682756 0.08759408 -0.019120147 0.042935785
000030 c2 52 09 bd 8a 37 ff 3d a6 ea 2d 3e 10 10 ae bd
       -0.03352619 0.12461765 0.16984043 -0.084991574
000040 aa 84 00 3e e0 f6 8c bb 09 81 b9 bd c4 b4 e2 3c
       0.12550607 -0.0043018907 -0.09057815 0.027674086
000050 25 d9 e3 3d db 76 00 3d 8b 52 3a bd a8 71 03 be
       0.111254014 0.03136335 -0.045488875 -0.12836325
000060 7a d2 69 3c 7e 4e 28 3e c9 aa d0 3d 4a 9e 93 bd
       0.014271373 0.16436192 0.10188825 -0.072079256
000070 fa d8 21 3e 81 df 0a bc 89 5f a7 3d 6d a9 91 bd
       0.15805426 -0.008476139 0.08172519 -0.071123935

net.3.linear.weight f4 [32, 32]
000000 24 05 8c 3b fc 08 c3 ba dc cd 0c bc 56 e8 fa bb
       0.0042730737 -0.0014879997 -0.008594003 -0.007657091
000010 1a 8f c9 bb 6a 3b 16 bc 13 93 74 3c 25 5c 88 bb
       -0.0061510922 -0.009169439 0.014927643 -0.004161375
000020 79 33 94 bc f5 ff 3d 3c 82 ba d7 3b b5 5b 6b 3b
       -0.01809095 0.011596669 0.0065835128 0.0035912816
000030 4c f3 01 3c 6a 82 0c bc 6d c0 35 3c f8 39 af 3b
       0.007931542 -0.008576015 0.011093241 0.0053474866
000040 cc 91 a7 3c 57 97 71 3c d8 5a f7 3b 6a 97 a7 bb
       0.020455264 0.014745555 0.007548671 -0.0051144855
000050 d3 31 c0 bb 60 c5 b4 bb 15 6b 1a 3c 7c 2d aa 3c
       -0.0058653145 -0.005516693 0.009424944 0.020773642
000060 05 5e b5 3a 3c f4 bc 3b 31 77 3e 3c 41 f6 49 ba
       0.0013837224 0.0057664197 0.011625097 -0.0007704236
000070 a0 ba 49 3c 7b 13 e2 bb b5 88 49 bb 54 0d 15 3c
       0.012312561 -0.006899295 -0.003075165 0.009097416
000080 df 73 89 3c ab 68 fa 3b 3b 67 9a 3a 0b 4c 19 bc
       0.016778884 0.007641872 0.0011780033 -0.009356509
000090 e5 6c 13 bc b3 ca 97 bb 79 95 22 bc 5d 10 6c bb
       -0.00899813 -0.004632318 -0.009923332 -0.0036020495
0000a0 75 5e 37 3c 8c 46 e4 bc 37 22 77 bc b6 64 39 bc
       0.011191954 -0.02786567 -0.015083841 -0.011315515
0000b0 d0 e5 8a bc 92 94 e0 b5 b2 aa 3f bc 1a 45 a5 ba
       -0.016955286 -1.673254e-06 -0.011698412 -0.0012609095
0000c0 51 73 31 3b 13 9a 2a bc de 1c aa bb 72 fb 85 bc
       0.002707679 -0.010412711 -0.0051914295 -0.01635525
0000d0 44 0a 42 bc e4 1b 37 3c fe 84 ca 3b 26 4d 0a 3c
       -0.011843268 0.011176083 0.0061804047 0.008441245
0000e0 f6 34 03 bc f4 59 2c 3b 55 7f ac 3c 55 49 dd 3b
       -0.008008232 0.0026298733 0.02105681 0.0067531266
0000f0 c8 95 76 bc 43 f8 0d 3b ce 6e 08 bc bd 77 46 3c
       -0.015050359 0.0021662868 -0.008327199 0.012113509
000100 d0 87 c5 ba cb 23 3d bc 65 b5 cd bb d0 53 b1 bb
       -0.0015070383 -0.011544178 -0.0062777274 -0.0054116026
000110 02 25 3f 3c 45 1d b5 bb 47 4f fb bb e9 ce 9f 3b
       0.011666538 -0.005527171 -0.0076693627 0.0048769605
000120 9f 0f 53 3c 8f 6b 62 bb 15 a6 39 bc db e7 54 3c
       0.012882142 -0.0034548973 -0.011331101 0.012994732
000130 a6 5f 2a 3c d6 54 35 3c 1e 61 a3 bb f3 07 a3 bb
       0.010398781 0.01106759 -0.0049859425 -0.004975313
000140 2a fd 8d bb 9d a8 62 bc 16 ee ca 3b df c5 84 3c
       -0.004333158 -0.013834146 0.006192933 0.016207634
000150 12 25 b6 3b 20 10 7e bc b4 8c 9d bc b0 67 72 b9
       0.0055586183 -0.015506774 -0.019232132 -0.00023117545
000160 e7 76 4a 3c 9a c8 f9 bb e7 a0 29 bc 11 da 99 3b
       0.01235745 -0.0076227905 -0.0103533035 0.004695185
000170 59 be 74 bb c1 2d 21 ba 12 d4 b9 3c 84 09 a6 bc
       -0.0037344901 -0.00061484805 0.02268413 -0.02026821
000180 bf 25 33 3c be 5d d5 bb d0 0a 4f bc e6 fb 1d ba
       0.010934292 -0.006511419 -0.012636855 -0.00060266105
000190 e0 f7 a0 37 81 e2 b9 3b 16 11 8c bb a2 fa 99 bb
       1.9188912e-05 0.0056727533 -0.0042744977 -0.004699067
0001a0 3a 38 b5 bb 6c 71 bc 3b b8 8d e1 3c ff 06 62 3c
       -0.0055303844 0.0057508256 0.027533397 0.013795613
0001b0 87 6c f0 bb 68 ca 94 3c 9e 35 17 bc ac 0f 51 3b
       -0.007337156 0.018162921 -0.009229092 0.003190021
0001c0 73 6d a0 bc 37 11 53 bc 13 92 5b 3c 55 b7 de 3b
       -0.01958344 -0.012882522 0.013401526 0.006796757
0001d0 55 c8 df bb 91 4c fc 3b 30 85 1e 3c 6d bc 66 bc
       -0.0068293014 0.007699557 0.009675309 -0.01408301
0001e0 38 58 47 bb c5 cc 89 bb 8c e7 50 3c e4 ad 4e b9
       -0.0030417573 -0.0042053186 0.012750518 -0.0001971047
0001f0 bf bf 48 3c 73 2b 1f 3c 77 5d 81 3c 95 fb 18 bc
       0.012252747 0.009714949 0.015791638 -0.009337326
000200 9c 33 e3 3b 4a 88 65 3b e7 cc 11 bc 46 8e cd 39
       0.0069336426 0.0035023862 -0.00889895 0.0003920665
000210 1c 01 92 bc b7 1e cb 3a e0 46 3c bc 12 29 03 bc
       -0.017822795 0.0015496825 -0.011491507 -0.008005397
000220 5e 3e 04 bb e6 d2 b9 bc 5f f0 fb 3b b3 c7 06 3a
       -0.0020178775 -0.022683572 0.0076885666 0.0005141452
000230 27 39 81 3b db 37 29 bc e2 07 bf bb 69 01 95 bb
       0.0039435807 -0.010328258 -0.005829797 -0.0045472872
000240 e1 e8 62 3c 85 6d d3 bb 41 6b 01 3d 01 d5 d2 ba
       0.013849468 -0.0064522647 0.031596426 -0.0016085209
000250 c2 b6 c4 bb 4f 10 b3 3b 28 48 cb b8 cd e5 81 bb
       -0.0060032317 0.0054645906 -9.6932345e-05 -0.003964162
000260 36 2b 55 bb 09 7e 09 3c d8 21 86 3c e9 f3 e8 3b
       -0.0032526976 0.0083918655 0.01637356 0.0071091545
000270 b1 2f 86 bb 23 e3 42 3b 4d 3c 33 3b 94 a6 64 bb
       -0.0040950407 0.0029737435 0.0027349174 -0.0034889327
000280 c4 ee d1 3c 9f 7a 69 bb ea c6 a6 3b b8 c4 af ba
       0.025626548 -0.0035626066 0.0050896304 -0.0013410067
000290 7e 0c b1 3c 71 08 23 bc 18 b1 42 3c ab 20 b8 3c
       0.021612402 -0.009950743 0.011883043 0.022476515
0002a0 05 db c4 3a 9a d4 b3 bc 65 5d 12 3c 16 8b 5d ba
       0.0015018886 -0.021951962 0.0089334 -0.00084512064
0002b0 c9 2d 25 3b 00 05 17 bb 98 59 77 bc 54 9b 99 bb
       0.0025204292 -0.0023043752 -0.015097044 -0.004687706
0002c0 4c ea 65 ba 10 78 55 bc 32 6d 21 3c a0 0d e8 3c
       -0.00087705697 -0.013029113 0.009852694 0.02832681
0002d0 d5 41 73 3b 73 a0 ae 39 f5 39 55 bc 1b 1a 01 3d
       0.0037118096 0.0003330741 -0.013014306 0.031519037
0002e0 74 6d bc 3c 8e 54 19 bc 88 5b d8 bb 51 99 70 3a
       0.02300141 -0.009358538 -0.0066027083 0.00091781194
0002f0 28 20 99 bc f4 fe 6b 3b ae ed 96 b8 9a 1b df ba
       -0.018692091 0.0036010118 -7.196829e-05 -0.0017021776
000300 a5 17 80 bb b3 19 63 bb b0 9b 1c bb 13 e8 df bc
       -0.0039090686 -0.003465277 -0.0023896508 -0.027332341
000310 6e af 60 3a 62 8a 89 3c be f0 55 bc 5c 28 23 3c
       0.0008571063 0.016789619 -0.013057886 0.009958353
000320 25 3a 27 bc c0 f9 04 3b 27 30 7a 3b 22 73 04 bb
       -0.010206734 0.0020290464 0.0038175674 -0.0020210226
000330 7c f2 23 3c 73 20 67 3c cd a6 fa bb f9 9a 54 bc
       0.010006543 0.014106858 -0.0076492787 -0.0129764015
000340 40 7b 82 bc 0c 95 7f bb bc b9 51 3c e3 ad 17 3b
       -0.01592791 -0.003899875 0.01280063 0.0023144416
000350 e6 21 82 3c f1 6b 4c ba 91 2c 5d bc a9 48 89 3b
       0.015885305 -0.0007798067 -0.013499395 0.00418957
000360 4f 28 33 3b c9 e9 fe 3b d2 c0 72 bc 15 1e 92 bc
       0.0027337258 0.007779334 -0.01481648 -0.01783661
000370 45 05 a0 bc 54 e5 12 3c ca 48 cf 3b b8 33 21 bb
       -0.019533763 0.008965809 0.006325816 -0.0024597477
000380 ac a9 c7 bb 30 94 33 bb 6c f8 d3 bc b8 b8 82 3c
       -0.0060932245 -0.002740156 -0.025875293 0.015957221
000390 9b 57 6e bc 7f 18 fb ba e7 f5 b5 3b d4 04 d3 3b
       -0.014547254 -0.0019157081 0.0055529955 0.0064397845
0003a0 5e ec b8 bc bc f2 25 bb 0c 88 02 3c 2d 27 ff bb
       -0.022573646 -0.0025321683 0.007967006 -0.0077866525
0003b0 23 31 27 3b a6 94 7c bb 6a 03 9c 3c f8 f8 93 3c
       0.0025511466 -0.003854075 0.019044597 0.018063053
0003c0 6f 80 0e 3b 41 7c c1 ba 16 59 19 bc 72 ab 19 bc
       0.0021744033 -0.0014761762 -0.009359619 -0.009379255
0003d0 c3 66 5d 3c 83 86 15 bc ce cd ba bb ee 25 34 bb
       0.01351327 -0.009126308 -0.0057008034 -0.0027488428
0003e0 75 4c d8 bc 06 ae 7b 3b 0b 7a a7 bb 3b 1d 21 3b
       -0.026403645 0.0038403287 -0.005110984 0.0024584073
0003f0 3d 70 c5 3b 63 40 0e 3c 4e 13 84 bc 7b 7c 2e 3c
       0.0060253427 0.008682343 -0.016122486 0.010649796

net.3.linear.bias f4 [32]
000000 42 23 95 bd 12 81 ea bc 38 eb 0a be bc 2d 16 3d
       -0.072821155 -0.028625999 -0.13566291 0.03666471
000010 33 d3 85 3d 08 45 9e 3d ff 43 e4 bd 56 70 9a bd
       0.06534424 0.077280104 -0.11145782 -0.07540958
000020 b1 71 b2 3d 09 2f ba bb 92 c5 a3 bc 6c 69 16 3e
       0.08713091 -0.0056818766 -0.01999167 0.14688653
000030 21 2b c5 3d 0f d3 0f 3d 19 ab 37 bd a9 46 75 3c
       0.09627367 0.03511339 -0.044840906 0.01497046
000040 d6 85 fc bd 9c 0f 8d bd a6 0b 1b 3e cd f9 27 3e
       -0.12330215 -0.06887743 0.15141162 0.16403885
000050 76 88 43 3e bd f7 0d be a6 8f 55 3d 14 ec 1e bd
       0.19095024 -0.13864036 0.052138947 -0.03879936
000060 15 f3 c2 bb 19 bc c2 bd 7b 54 15 be 0d d1 75 ba
       -0.005949388 -0.09508533 -0.14583008 -0.00093771593
000070 48 58 81 3d cc 46 77 3c a9 06 24 be f1 72 28 be
       0.063156664 0.015092563 -0.16018166 -0.16450097

net.4.weight f4 [4, 32]
000000 b7 92 01 bd 29 c5 a6 bc 47 8c 8f 3d e2 d1 2a 3d
       -0.03163406 -0.020357685 0.07009178 0.041704066
000010 ab bd a9 3d 7a 6c 19 bb 65 f1 c5 3d f2 a4 a8 3a
       0.082881294 -0.0023410604 0.09665183 0.001286654
000020 12 7a 05 bc 6d 9c 33 bd 15 74 90 3d db eb 15 3d
       -0.00814678 -0.04385035 0.07053391 0.036601882
000030 4c 1e 51 3d cf d0 93 ba 13 90 4e 3c 9f 2e 7d 3d
       0.051054284 -0.001127744 0.012607592 0.06181204
000040 1a d8 9c bd 9c 99 75 bd 6d 14 23 bd 36 7c ce 3c
       -0.076584056 -0.059960946 -0.0398144 0.025205713
000050 a2 bb c1 bd 34 34 74 3c 3c 1e db 3c 27 d2 b6 ba
       -0.09459616 0.014905024 0.026747815 -0.0013948128
000060 56 56 55 3d c0 e0 b5 3c 74 ef 51 bd 6e 00 ba bc
       0.05208429 0.022201896 -0.05125375 -0.022705283
000070 f8 f6 c9 3c 3a 60 c4 3c af e4 14 3d d7 3f e6 3c
       0.024653897 0.023971666 0.036350902 0.028106613
000080 c4 6e 17 bd 67 31 c4 3d 81 ab b3 3d 0a 3f a4 bd
       -0.03697087 0.09579735 0.08772946 -0.08019836
000090 b0 b7 75 bd 90 df ab bc 68 99 8c 3b bb 9d d2 bd
       -0.05998963 -0.020980626 0.0042907484 -0.10283991
0000a0 43 d1 88 bd af 1f 87 bd 9f 28 a9 bd 21 97 01 3d
       -0.066805385 -0.0659784 -0.08259701 0.03163827
0000b0 ed 18 07 3d 61 27 7f bd fc 20 25 bb f2 70 61 bd
       0.032982755 -0.062293414 -0.0025196662 -0.055039354
0000c0 71 50 01 bc 7b 9e 92 3d 8c 39 25 3d 61 2e 8a 3d
       -0.007892714 0.07159134 0.040338084 0.06747127
0000d0 a8 b6 86 3c 6c 53 64 bd ca 4e 30 bd a3 cc b3 3d
       0.01644452 -0.05574362 -0.04304389 0.08779266
0000e0 64 d7 bb bc d1 8d cb 3d a2 09 96 bd 03 39 51 bd
       -0.022929855 0.09939159 -0.07326056 -0.05107976
0000f0 4d a5 a6 bd 0e ec d0 bd 8d 42 1f bd 71 81 de bd
       -0.08136997 -0.10201274 -0.038881827 -0.10864533
000100 e6 f4 4f 3d a9 0c 18 3c 19 a5 19 3a 2b f6 57 3b
       0.050770663 0.009280362 0.0005861088 0.0032953124
000110 55 d1 97 bb 44 17 a4 3d a0 87 5a bd bc c2 0e 3d
       -0.0046331086 0.0801225 -0.053352 0.034853682
000120 9e d7 c2 3d 82 0d 5a 3d 46 72 50 3c 36 e0 dc bb
       0.09513782 0.05323554 0.012722557 -0.006740595
000130 4f ea 5d bd 59 5a 29 3d 3e 8e 28 bd a6 75 81 bc
       -0.054178532 0.041345928 -0.041151278 -0.01580317
000140 ef 77 77 3d 1a bb 58 bd 1c 23 21 bd f7 9f aa 3b
       0.060417112 -0.05291281 -0.039340124 0.0052070576
000150 36 74 1d 3d 5f 6f 08 3d 79 5f c1 3c 0e 59 72 bd
       0.038440906 0.033309337 0.023605095 -0.05916696
000160 ff 4e 52 bd 55 30 01 bd 6b ff c7 3c 7b 7d 6f 3c
       -0.051344868 -0.031540234 0.024413785 0.014617319
000170 1b 8d 3f 3d dd 5b 97 3c b7 22 15 3d 1e 49 81 3d
       0.046765428 0.018476421 0.03641006 0.06312774
000180 b0 0c 80 bd 4a 0b 82 3c 9d 0a f2 3c 9e 2c 78 bb
       -0.0625242 0.015874524 0.029546076 -0.003786839
000190 12 52 b6 3d b3 27 9a 3c cc 85 cf 3d 3d 41 ec 3b
       0.089023724 0.018817758 0.101329416 0.0072099254
0001a0 78 73 30 bd 93 12 6a bd aa 07 b7 3d 0f 90 b1 3d
       -0.04307887 -0.05714662 0.08937009 0.08670055
0001b0 67 43 03 3e ec eb c0 3c 2f d1 ca bd 29 fd 69 3d
       0.1281868 0.023549996 -0.0990318 0.057126198
0001c0 95 7d 64 bd f6 2f 0e be 8d 97 95 bd fe 28 a5 3d
       -0.055783827 -0.13885483 -0.07304297 0.08064459
0001d0 26 36 cf bd 95 15 db 3d bb a8 8b bd 0d e4 e8 3b
       -0.1011775 0.10697476 -0.06819292 0.007107264
0001e0 03 9f ee bb a2 6a 59 bd 9d 33 df bc 87 37 91 bd
       -0.0072821393 -0.05308021 -0.02724629 -0.07090669
0001f0 4b 0d 2a 3d a0 e5 8e 3d 5b 54 cb 3d 06 4a 28 3d
       0.041516583 0.06977391 0.09928199 0.04108622

net.4.bias f4 [4]
000000 b3 6e 39 3d 4f 3f 0a 3e de 82 41 ba 34 83 00 bd
       0.045271587 0.13500713 -0.00073818665 -0.031375125
