outputs_inverse/gaussian/3_nodes_given/model.pt (torch, 16367 bytes, 10 tensors)

net.0.linear.weight f4 [32, 1]
000000 bb e3 cc be 7f 14 25 3d d6 ed 70 be 31 41 d8 bd
       -0.40017495 0.04030275 -0.23528227 -0.10559309
000010 c1 68 77 bf 80 94 ed 3e c1 1b 5f 3f 71 20 1c 3f
       -0.96644217 0.4640236 0.87151724 0.60987
000020 5d e4 34 bf f8 2c 4e bf 7d f6 d4 3e 27 e1 95 3c
       -0.70660955 -0.80537367 0.41594306 0.018295838
000030 ec df d1 3e 84 9d 77 bf 0a af 74 bd 88 e3 33 3f
       0.4099115 -0.96724725 -0.059737243 0.7026906
000040 9b ab f2 3e 4e b5 1b 3d 11 e4 48 3e 55 5d d6 bd
       0.4739655 0.038014702 0.1961825 -0.104670204
000050 21 03 0c bf 05 e8 c4 be 9a 30 1c bf b0 7f 55 3f
       -0.54692274 -0.38458267 -0.6101166 0.8339796
000060 a9 cc 0c 3f 2b 40 b5 3e 5e ee 45 bf ab 38 45 3f
       0.54999787 0.3540052 -0.77316844 0.77039593
000070 ed c6 9c 3e 6a e2 2f 3f c6 b0 cb be 6e fa 5b 3e
       0.30620518 0.68704855 -0.39783305 0.2148225

net.0.linear.bias f4 [32]
000000 30 3c df 3e d9 f9 ce 3e 92 cd 55 3f 00 07 08 be
       0.43600607 0.40424994 0.835168 -0.1328392
000010 d5 da 58 bf f1 ac 94 be 79 5a 35 bf 8c e2 8d 3d
       -0.8470891 -0.29038194 -0.70841175 0.06927976
000020 2e a5 40 be 38 fb 08 bf d5 52 b5 bd 7c 1e 71 3f
       -0.18813011 -0.5350833 -0.088536896 0.9418714
000030 34 c3 a6 bd d5 dc 02 3d ad 7d 1b be 76 28 1c 3e
       -0.08142701 0.031948883 -0.1518466 0.1524981
000040 0c b1 65 3f 5a 9e 1c 3f 8c 6e b6 3e c2 bb 5a 3e
       0.8972328 0.61179125 0.35631216 0.21360686
000050 71 13 6c 3e 50 f0 c6 3e 75 13 00 be e1 af 6c bf
       0.23054291 0.3885522 -0.12507422 -0.9245587
000060 71 19 1e bf bb f6 5a 3f 6a 8e 48 3d 55 63 4f bf
       -0.6175757 0.8553273 0.04896394 -0.81010944
000070 25 fe 23 3e 75 38 53 3f 2b 0c 72 bf 1a 12 2c bf
       0.16014917 0.8250802 -0.94549817 -0.6721512

net.1.linear.weight f4 [32, 32]
000000 28 7c ea 3b 3c 3a 0f bc 61 8e 11 3c 3e b8 94 3c
       0.007155914 -0.0087419115 0.008884043 0.01815426
000010 a2 73 b1 bb 6d e2 e1 ba 1f a4 1b 3c f3 0b 93 bc
       -0.005415396 -0.0017233618 0.009499579 -0.017950034
000020 80 71 09 b9 44 d3 69 3c 12 01 1b bb a3 63 8d bb
       -0.0001310762 0.014271561 -0.002365176 -0.004314856
000030 36 8b 47 3c d7 2a 16 bc 50 fb 7e 3c f7 1a f2 ba
       0.012179187 -0.009165487 0.015562847 -0.0018471171
000040 79 f0 51 3c bf 15 13 3c ce 1b 0e 3c 67 a0 22 bc
       0.012813681 0.008977353 0.008673621 -0.009925938
000050 3f 53 f7 3b a9 da 3e 3c 4e eb 18 bc a7 12 36 3c
       0.0075477655 0.011648812 -0.009333445 0.0111128455
000060 87 0e 93 b9 f1 4b 25 3c 71 99 ff bb 33 cf 05 3c
       -0.0002804885 0.010088907 -0.007800274 0.008167076
000070 f5 db 3a bc b5 43 4c 3c 3d 09 ec ba c0 1a 26 bc
       -0.011404981 0.0124673145 -0.0018008124 -0.010138214
000080 24 40 70 bc 78 78 88 3b 55 e1 a1 bb 1c 5a 1f 3c
       -0.01466373 0.0041647516 -0.0049401917 0.009726074
000090 80 9e 51 3c 08 5c 94 bc bc 9c 85 bb a6 8d 80 3a
       0.012794137 -0.01811029 -0.004077522 0.000980784
0000a0 ae 86 3f 3b ed 46 a5 bb 9c 2d 34 3c a3 08 35 3b
       0.0029224562 -0.0050438554 0.010997202 0.0027623556
0000b0 c7 96 d6 bb 30 27 53 3c 4b 8e 53 b9 7f cc 17 bc
       -0.006548736 0.012887761 -0.00020175536 -0.009265064
0000c0 de 53 8c 3b 47 1c 29 3c d0 dc e1 bb 17 6b 06 3b
       0.0042824587 0.010321683 -0.006892778 0.0020510608
0000d0 2d a1 2d 3b 0e 0d 59 3c 59 f9 20 bc 25 de fa bb
       0.0026493773 0.013247741 -0.009825074 -0.007655876
0000e0 81 87 04 3c 26 66 21 bc 04 d7 f4 bb 8a b4 01 bc
       0.008088947 -0.009851014 -0.007471921 -0.007916579
0000f0 2d cb ca bb 53 48 c5 bb 24 e0 3b bc 35 8d 2e bc
       -0.006188771 -0.0060205846 -0.0114670135 -0.010653784
000100 60 90 24 bc ee e9 0e 3c 1a a4 e6 bb 14 79 d8 bb
       -0.010044187 0.008722765 -0.0070386054 -0.0066062305
000110 ff 67 1f 3c 28 a0 67 3c 28 6e 60 3b df a2 fd 3b
       0.009729384 0.014137305 0.0034245346 0.007740363
000120 aa 23 23 3c 0b cf 25 3a f9 6c 7d bb 7e 07 a6 3a
       0.009957233 0.00063251023 -0.003866969 0.0012667028
000130 ca 43 a1 bc 08 cf af bb 4e 5b a6 3c b0 b4 49 3b
       -0.019685645 -0.005365256 0.02030721 0.0030777864
000140 2f 0f e1 bb 18 b4 7d bc 6a 20 67 bc e9 85 50 bc
       -0.006868265 -0.015484832 -0.014106849 -0.012727239
000150 6f 94 b5 bb 06 f9 31 3b 82 1d 24 3a 58 ab cc 3b
       -0.0055413763 0.0027156486 0.00062605005 0.0062460117
000160 f7 b9 92 3a 07 e6 5f bc 64 d7 8a bc 18 bc ea 3b
       0.0011194338 -0.013665683 -0.01694841 0.007163536
000170 51 e3 01 bc b6 04 c7 bb 2f e4 12 3c c3 dc 88 bc
       -0.007927732 -0.0060735596 0.008965536 -0.01670683
000180 a9 ba 7b 3b 6a a3 28 bc 82 90 85 bc cf 7c b0 3c
       0.0038410819 -0.010292867 -0.016304258 0.021543888
000190 2b ac 6b bb e3 0a ff 3a b9 c2 f4 3b f0 df 59 bc
       -0.0035960774 0.00194582 0.007469502 -0.01329802
0001a0 eb 5f 3e 3c c3 ab 03 bc a8 50 5e 3c 81 df 19 3c
       0.011619548 -0.008036557 0.013569035 0.009391666
0001b0 cf 1f 13 3b 77 22 fc bb 30 05 2e 3b 63 70 27 3c
       0.002244938 -0.007694538 0.0026553385 0.010219666
0001c0 29 c4 79 3b 37 58 86 3a 80 69 e9 bb 05 f0 0e bb
       0.0038111305 0.0010249679 -0.0071231723 -0.0021810543
0001d0 73 b7 28 bc f6 a9 55 bc 35 b4 a2 3a 20 7d b0 3b
       -0.010297644 -0.01304101 0.0012413325 0.00538601
0001e0 5e a0 ab bb 72 26 a0 3b 1e 43 03 3c 4d 0d 28 bc
       -0.005237623 0.0048873955 0.008011607 -0.010257077
0001f0 46 1e 28 3c 54 58 29 3c 3d 28 27 bc ec 69 40 ba
       0.010261124 0.0103360005 -0.010202465 -0.00073400023
000200 1a 59 f1 bb d2 f0 9f 3b 5b df ad 3a 6c 5e df 39
       -0.007365358 0.004881003 0.0013265418 0.00042604224
000210 21 85 da 3b 87 be bb bb 64 67 3c bc 68 69 1c bc
       0.0066687022 -0.0057294997 -0.01149926 -0.009546615
000220 ef 2b 96 ba d4 3e 14 bc a9 8e e9 3b 73 f1 d9 ba
       -0.0011457185 -0.0090481825 0.007127602 -0.0016627744
000230 a1 80 37 bc 81 2d 63 ba a7 e3 81 bc 8c ff 1a 3c
       -0.011200101 -0.00086661434 -0.015855623 0.009460341
000240 2c 6c 10 bb 11 55 8b 3c 25 83 f1 3b fa f8 54 bb
       -0.0022037132 0.017008336 0.00737037 -0.0032497034
000250 14 f2 38 bc 04 fc 8a 3b 1a 01 b8 3a 15 a5 6b 3a
       -0.011288185 0.0042414684 0.0014038414 0.0008989138
000260 99 79 30 3c 07 4d 9a 39 f5 c8 4b 3c b5 43 30 3c
       0.010771179 0.0002943056 0.012438049 0.01075833
000270 f6 93 87 bc 18 4f 0d bb ad fe 44 bc bd d5 06 bc
       -0.016550045 -0.0021562036 -0.01202361 -0.00822967
000280 a0 61 b1 bc 2f 5a 44 bc b0 cb b5 38 23 29 dd bb
       -0.021652997 -0.011984392 8.668692e-05 -0.0067492886
000290 5b ba 14 3b a5 32 02 bb 95 f9 40 3c fd 87 b2 3b
       0.0022694084 -0.0019866612 0.011778255 0.00544834
0002a0 dc 68 f5 3b ea 46 b4 3c ee 6a 47 3c 0f 8b 82 bc
       0.007489307 0.02200647 0.01217149 -0.015935449
0002b0 fb 62 ad bb a9 e6 76 bc 19 89 42 3c bc 36 0e bb
       -0.0052913404 -0.015069642 0.011873507 -0.0021700105
0002c0 d2 6d 74 3a f5 4a b1 3b f9 0d 5c 3b 54 90 f7 3b
       0.0009324226 0.005410547 0.0033577664 0.007555047
0002d0 05 69 2a bc 9f 99 3a bc a0 a5 8b 3b a3 f2 16 bc
       -0.010401015 -0.011389165 0.0042616874 -0.009213123
0002e0 e3 2a c1 3b 08 64 a0 bb 84 c4 b4 3b 9f 32 34 bc
       0.005895005 -0.004894737 0.0055165906 -0.010998397
0002f0 58 d9 98 bc ba c2 4f 3a 5c 18 05 3c 59 37 ac bc
       -0.018658325 0.000792544 0.0081234835 -0.021022486
000300 8a 2c 1f 3c 46 75 10 3c 62 30 09 3a 8a 4f 0c 3c
       0.009715209 0.008817023 0.0005233345 0.008563885
000310 76 b8 ff 39 c6 dc bf 3b b8 2e 19 3b c5 61 4e 3c
       0.00048774824 0.0058551757 0.0023373794 0.012596552
000320 72 ca 4c 3c 6c 01 5a 3c a6 28 44 3c f8 e4 d0 bb
       0.012499439 0.013306003 0.011972582 -0.0063749515
000330 12 85 13 bc 6d d4 0f bb 03 e2 0c 3b d9 8c 76 3b
       -0.009003894 -0.0021946684 0.0021497018 0.0037620573
000340 69 dc 07 bc a9 ef 19 3b 7c a6 1d 3b 0e 71 6a bb
       -0.008292296 0.0023488796 0.0024055531 -0.0035772952
000350 bd 87 1f bc fa 28 1e bc 13 47 cc 3b 3e 17 3f 3c
       -0.009736952 -0.009653324 0.0062340586 0.011663256
000360 8c e5 9c 3b 41 2a 56 3a 95 28 6c 3b b8 c1 7e 3b
       0.0047881063 0.00081697485 0.003603493 0.003887279
000370 b1 2d ad bb 36 57 d4 bb 4e 56 20 3a 7b 32 e3 3b
       -0.005284988 -0.006480123 0.0006116376 0.006933508
000380 89 03 1c 3c 3b 81 68 bc 9a 19 61 3c 82 5a 88 bc
       0.009522327 -0.014190967 0.013739014 -0.01664472
000390 09 37 c3 bb 84 0a 5a 3c b0 31 04 3c fe 3d 05 3c
       -0.0059574884 0.013308171 0.008068487 0.008132456
0003a0 65 ca 9c 3a a3 a2 82 bb 86 04 25 bc 74 16 27 3c
       0.0011962174 -0.003986673 -0.010071879 0.010198224
0003b0 04 57 04 3c 19 91 43 bc 83 1f 0b 3c 82 89 9d 3c
       0.008077387 -0.011936449 0.0084914 0.019230608
0003c0 6b 40 9f 3c 07 01 43 bc 8d 73 e8 ba 0e 7c 78 3c
       0.019439897 -0.0119021 -0.0017734632 0.015166296
0003d0 61 9b ba 3b 37 2b 47 3c f0 fb 75 3b 51 8a 04 bc
       0.005694792 0.012156299 0.00375342 -0.008089618
0003e0 fb 85 86 3c a7 b3 5d bb 01 27 bc ba 31 9f 44 3c
       0.016421309 -0.0033829005 -0.0014354886 0.012000845
0003f0 74 32 24 bc 4d b7 f7 b9 b9 aa 31 3c 96 1a 67 3c
       -0.010021795 -0.0004724808 0.010843926 0.01410546

net.1.linear.bias f4 [32]
000000 4d fa bb 3d 28 9f 1d 3e 24 7d c0 3c 01 fd 59 bc
       0.091786005 0.15392745 0.023497172 -0.01330495
000010 17 7c d7 3c 76 2a f8 bc 55 31 12 3e 79 59 5e bd
       0.026304288 -0.030293684 0.14276631 -0.054284547
000020 33 15 d8 bd 53 fc e8 3b e1 b6 98 bd 10 b7 17 3e
       -0.105509184 0.0071101575 -0.074567564 0.14815927
000030 e5 b4 2c 3e e2 2c 2a be 69 1a b3 3d 4c f9 e7 bd
       0.16865881 -0.16618684 0.08745272 -0.113268465
000040 06 4a 81 3d f8 1f 15 be 81 ef 20 3e 78 7d 12 be
       0.06312947 -0.14562976 0.15716363 -0.14305675
000050 99 e7 0c be a2 aa e4 3d b4 9f b6 3b 57 c3 ee bc
       -0.13760222 0.11165358 0.0055732373 -0.02914588
000060 28 b3 f9 3d ce 8a ab bd 4e e1 ae bd 67 3f 37 bd
       0.121923745 -0.08376084 -0.08539067 -0.0447382
000070 44 79 f0 3d b0 3c 17 be 2e 43 89 bd e1 1a c0 bd
       0.117418796 -0.14769244 -0.06702267 -0.09380127

net.2.linear.weight f4 [32, 32]
000000 43 90 85 3b b9 ef 7f 3c 07 db 3a bc bd 6e 4a 3c
       0.004076035 0.015621119 -0.011404759 0.012355504
000010 49 11 ff bb 66 f8 25 bb c3 2e 6c 3c be bc c8 3a
       -0.007784043 -0.002532506 0.014415446 0.0015315039
000020 c7 be 44 3c 8e 8e 00 3c 41 12 1d bc 30 d1 b1 3b
       0.0120083755 0.007846488 -0.009586872 0.0054265484
000030 99 3e 1f bc b0 d0 28 bc a1 37 14 3c e7 56 1b 3c
       -0.009719514 -0.010303661 0.009046466 0.009481168
000040 09 00 12 3c 40 e0 1c bc 55 0f c1 bb 11 4c 16 bc
       0.008911141 -0.00957495 -0.0058917203 -0.009173409
000050 b6 2b 31 3c b6 b7 1a 3c b5 51 da 3b b3 d5 39 3c
       0.010813644 0.009443214 0.0066625723 0.011342454
000060 49 a4 95 ba 54 56 4f 3c f0 3d 9d bb 10 1c 52 bc
       -0.0011416759 0.01265486 -0.0047986433 -0.012824073
000070 0c c6 bd 38 89 5b 96 bc fc dd 11 3c 8f 95 c3 ba
       9.0491114e-05 -0.018354194 0.008903023 -0.0014921891
000080 57 65 46 bc 96 09 99 3b 76 dc 05 bb 87 4a 8c 3c
       -0.012109122 0.004670332 -0.0020425594 0.017125381
000090 d3 c2 ce bb 79 ac 0b bc 91 2c 77 bc bc c2 31 bc
       -0.006309846 -0.008525007 -0.015086309 -0.010849651
0000a0 e4 7f 03 bc 25 82 09 3c e1 89 73 3c 1d 8b 33 3b
       -0.008026097 0.008392845 0.014864416 0.002739615
0000b0 a6 ee 6c bc 12 ee 78 3b 8a 6f 28 bc aa 5f 83 3b
       -0.014461195 0.0037983698 -0.010280499 0.004009207
0000c0 35 c9 c6 bb ab 04 ad bb 15 a2 00 bc 10 7b 60 3b
       -0.006066466 -0.0052800975 -0.007851143 0.0034253038
0000d0 a1 b3 18 3c 02 c5 4b bc 94 06 df bb b6 b7 4f 3c
       0.009320171 -0.012437107 -0.006806204 0.012678077
0000e0 e4 e8 2b 3c ce 19 13 bc 5d 77 05 bb a2 a5 31 3b
       0.010492537 -0.00897832 -0.0020365336 0.0027106781
0000f0 b9 7f df bb bd 08 a4 3c 1b a9 c8 bb f1 0f 30 3b
       -0.0068206456 0.020023698 -0.0061236746 0.002686497
000100 40 3f 9a 3b 91 31 0c 3c 80 fb 2b bc 5c 1a 28 3c
       0.004707247 0.008556739 -0.010496974 0.010260191
000110 5e 48 0f bc 7c 3a 79 bb ee 75 a6 3a c9 c5 30 3c
       -0.008745281 -0.0038029244 0.0012699941 0.010789343
000120 6e e6 bc bb c6 32 12 3b f8 46 72 bb bf 9a 1d 3c
       -0.005764774 0.0022308095 -0.003696857 0.009619414
000130 13 ce 0c bc be d3 a2 ba 40 e1 29 bc 2e 90 31 3c
       -0.008594054 -0.0012422723 -0.010368645 0.010837598
000140 6a d0 3a bc 3d 1a 98 bb 79 a5 cc b9 28 47 0c bc
       -0.011402229 -0.0046417997 -0.000390332 -0.008561887
000150 5e 76 7f 3c 36 08 9a bc 62 54 41 bb a7 a5 49 3b
       0.015592186 -0.018802743 -0.002949976 0.0030768903
000160 db 66 02 bb 90 b2 82 3a bc 5c d9 3b 46 23 64 bb
       -0.0019897732 0.0009971429 0.0066333693 -0.0034811064
000170 19 7c 39 bc 95 5a 2a bc 5a ca 08 3c c6 9a 22 3b
       -0.011321091 -0.010397573 0.008349026 0.002481149
000180 a5 5e 84 3b 4d 43 a3 bb e4 dc 66 ba c4 7e 03 3c
       0.004039603 -0.004982388 -0.0008806719 0.008025829
000190 cd 08 36 bc 3f d8 3c 3b c9 ca 84 3a 80 df a5 bb
       -0.011110497 0.0028815416 0.0010131235 -0.0050620437
0001a0 c6 db 0e 3b 04 7f 43 bc 27 03 1e bc 1a 44 58 bc
       0.0021798476 -0.011932138 -0.009644306 -0.01319983
0001b0 4d 44 91 3b a7 dd 8a bb e0 bd f8 ba 28 aa bf 3b
       0.004433191 -0.004237849 -0.0018977486 0.0058491416
0001c0 53 20 a3 3b 78 2f 35 bc 9f 62 81 3b 5b c7 70 bc
       0.0049782186 -0.011058681 0.003948524 -0.014695968
0001d0 0d 8f 48 bc 7c c1 04 bc 1e d2 a7 3b 03 f8 41 bc
       -0.012241137 -0.008102771 0.0051214835 -0.011838916
0001e0 8a af 4f 3c 52 df 44 bb fd 52 06 bc 60 a2 1e ba
       0.012676129 -0.0030040336 -0.008198497 -0.00060514174
0001f0 c9 69 99 3b 39 ab 78 bb f9 49 b1 bb ce 0d 47 3b
       0.0046818 -0.0037943854 -0.0054104296 0.0030373218
000200 40 e5 05 3c 93 f4 1a bc 05 aa 17 bc 1b 74 23 3c
       0.008172333 -0.009457725 -0.009256844 0.009976412
000210 fc 39 58 bb 2a a8 9f 3a c1 27 5c 3c 4a 40 9c bb
       -0.0032993546 0.0012180854 0.013437212 -0.004768406
000220 a0 c6 bf bb 2d f9 4e bb f2 8e c4 3b 87 ec 0f 3c
       -0.0058525354 -0.0031581626 0.0059984857 0.00878442
000230 17 c7 91 3c 89 cb a7 bb 12 ad af bb 44 49 05 bb
       0.017795129 -0.005120699 -0.0053612078 -0.002033786
000240 26 0a 85 bc 89 b3 35 bb 7c 43 14 3b 7a 51 09 bc
       -0.01624019 -0.002772542 0.0022623232 -0.008381242
000250 1d b8 eb b9 28 57 ea b9 44 83 c7 3c c6 a3 57 bb
       -0.00044959868 -0.00044696894 0.024354585 -0.0032904013
000260 60 47 8e bb 58 5d d0 3a f9 a3 5a bc c0 bb 7e b9
       -0.0043420047 0.0015896959 -0.013344758 -0.0002429327
000270 25 d2 69 3a 96 92 1d bc 9e b4 52 bc e1 7b 20 3c
       0.00089195586 -0.009617468 -0.012860445 0.00979516
000280 ce f6 10 bc 24 36 64 3c 36 24 8e bc 22 86 e4 3a
       -0.008847905 0.013928924 -0.017351251 0.0017434994
000290 b3 55 af 3b 96 3f 0e bc 4e 91 6b 3c 11 0e 07 bc
       0.0053507923 -0.008682152 0.014377905 -0.0082431
0002a0 44 a3 87 bc 6c b5 a9 bb 75 63 fd bb 31 d2 01 3c
       -0.016557343 -0.005179098 -0.0077328035 0.007923649
0002b0 0d 3e 53 bb b0 0f f6 ba 2b e3 ea bb 33 c9 fe 3a
       -0.003223303 -0.0018772986 -0.007168194 0.0019438624
0002c0 31 69 00 bc 13 a3 6a bc 39 78 26 3c c1 ab 92 bb
       -0.00783758 -0.0143211065 0.010160499 -0.004476041
0002d0 c2 2a ff ba c4 1d ea 3b 69 93 f5 3a 09 cf 75 39
       -0.0019467699 0.0071446616 0.0018735948 0.00023442147
0002e0 6c b0 93 3b 00 58 85 bc ec bd 0b bc 82 e5 9f 3a
       0.004507115 -0.016277313 -0.008529168 0.0012199136
0002f0 db 54 eb 3c fb 78 1b 3c c8 69 0b 3c c5 ae 69 3c
       0.028726986 0.009489293 0.008509107 0.01426286
000300 da 42 e6 3b cf 09 3d 3b da 4d 64 bc 75 c7 55 bc
       0.0070270123 0.0028844958 -0.013934577 -0.013048043
000310 3c 4c 47 3b bb 76 d0 bc 72 87 43 3c 61 8d 60 3c
       0.003041043 -0.02544724 0.011934148 0.013705582
000320 f6 fe 90 bb 89 0b 4f ba e8 4c 2f bc 3d 85 d8 3b
       -0.004424925 -0.0007898142 -0.010699488 0.00660768
000330 1f fa 80 bb 75 ba ce 3b f1 9e a1 3a 49 e5 52 3b
       -0.0039360668 0.0063088485 0.0012330693 0.0032180122
000340 31 6e 2b 3c 37 5d 65 bc d4 22 50 39 c8 35 95 bb
       0.010463283 -0.013999275 0.000198494 -0.0045535304
000350 12 89 89 3b 7f 2d 20 ba 20 e3 0b ba 46 a1 17 bc
       0.0041972483 -0.0006110295 -0.00053362735 -0.009254759
000360 dc 97 c7 3b 40 d9 5b bb ef e6 2c 3c 3c 93 66 bc
       0.006091101 -0.003354624 0.010553106 -0.014073189
000370 52 fb 3c bb 1c c5 55 3c ec 00 5d bb 39 72 1d bc
       -0.0028836322 0.013047483 -0.0033722473 -0.009609752
000380 7e 2e 99 b7 fd 64 2b bc 97 48 5d bc 21 72 c2 3a
       -1.8260671e-05 -0.010461089 -0.013506076 0.0014835038
000390 0e ef 1e bc cf 53 98 3b ea ff 99 3b db 64 79 3a
       -0.00970055 0.0046486626 0.004699697 0.0009513625
0003a0 96 69 96 bb 9e ed c1 3a 23 3c 92 39 ae 4e 6a 3c
       -0.0045902235 0.0014795547 0.00027892095 0.014300985
0003b0 d2 b9 69 bc 58 7e 21 bb 4e c3 d9 bb 0e 8a 1e bc
       -0.014265494 -0.0024641957 -0.0066455966 -0.0096764695
0003c0 e8 df 6b 3c 29 65 49 3c f5 e7 2e 3b f1 a7 25 bb
       0.014396645 0.012292185 0.002668855 -0.0025277103
0003d0 11 3b f4 3b 1f 58 86 bc b2 2d f2 3b 44 5b 3b 3b
       0.0074533303 -0.016399441 0.007390701 0.0028588334
0003e0 de 21 24 3c 18 8e 87 bc 6e 65 42 3b 0f ef 82 3a
       0.01001784 -0.016547248 0.0029662508 0.0009989458
0003f0 7d 94 12 3c 07 de b0 3a 32 4a 15 bb e9 f1 71 3b
       0.008946535 0.0013493904 -0.002277982 0.0036917871

net.2.linear.bias f4 [32]
000000 5b 5f 00 be c5 72 71 3d c2 03 1b be f7 df 28 3e
       -0.12536375 0.058947343 -0.15138152 0.16491686
000010 30 2a a8 bd 5d b7 23 3e a0 08 dc bd 2b f6 17 be
       -0.082111716 0.15987916 -0.107438326 -0.1484
000020 32 b8 22 3b 73 f7 15 be 5a b3 d4 3c a0 98 1d be
       0.0024829027 -0.14645176 0.025964428 -0.15390253
000030 8a 6b 30 bd 73 46 3b 3d 35 cb da bd ad 7f 93 bd
       -0.043071307 0.045721482 -0.1068329 -0.072020866
000040 e9 d7 06 3e 8d ee 94 bc 58 e5 c5 3c fd 4c 12 be
       0.131683 -0.018180156 0.024157211 -0.14287181
000050 d0 cf 2d be 51 3c 0b be c0 60 36 bd b1 50 06 3e
       -0.16973805 -0.13597228 -0.04452586 0.13116719
000060 2b 7d 88 3d 57 7a 57 bd c6 3b c5 bb b3 fb d9 3d
       0.06664499 -0.052606907 -0.0060190884 0.10643711
000070 68 c9 f8 3d 9b eb 00 be 92 66 e9 bd 07 16 ee bd
       0.1214779 -0.12589876 -0.11396517 -0.11625295

net.3.linear.weight f4 [32, 32]
000000 a0 9c 52 bc 81 1c b3 3b c2 41 6e 3b eb 1a 76 bb
       -0.012854725 0.0054660444 0.0036355113 -0.0037552665
000010 8e b6 d5 bb 6c 4c 79 bc 33 8b 57 3c 65 ff 9e 3b
       -0.0065220064 -0.015215974 0.013155746 0.0048522227
000020 0b 06 c4 bb 64 17 72 bc 22 7a 48 bc 9d 3e a1 bc
       -0.0059821657 -0.014776085 -0.01223615 -0.019683177
000030 7f eb 44 bc ca b4 24 bc fe bf e6 bb 51 43 75 bc
       -0.012019037 -0.010052869 -0.00704193 -0.014969663
000040 8a bb 7d bc 25 e9 6d 3c 97 d5 ab bc fa cf f2 3a
       -0.015486607 0.014520918 -0.020975871 0.0018525117
000050 e7 10 8f 3c 3c 8a 98 3b 1d ce cc 3b a9 34 91 bb
       0.017464114 0.0046551507 0.0062501566 -0.0044313264
000060 c9 59 ac 39 36 10 e7 3b e9 c1 4d 3c 4d 20 77 3b
       0.00032873292 0.007051493 0.012558439 0.0037708462
000070 33 81 ae 3c bd 3a 3e 3c 1b 47 ef bb 2c dd 66 3b
       0.021301841 0.011610684 -0.0073021776 0.0035227044
000080 15 c1 33 bc b9 c2 d6 39 03 50 a8 bb 67 0f 02 bc
       -0.010971327 0.0004096234 -0.0051364913 -0.0079382425
000090 b9 50 cc bb 40 4c dd bb a8 5e fc 3b 33 96 2f 3c
       -0.006235209 -0.0067534745 0.0077017136 0.010716963
0000a0 13 72 e8 3b 30 0c 15 bb 1e 73 48 bb 05 b2 f0 3a
       0.007093677 -0.002274286 -0.0030586193 0.0018363601
0000b0 6f d1 9d 3c 5b 6a cb 3b 66 d8 17 bc b2 8d 02 bb
       0.019264905 0.006207747 -0.009267902 -0.0019920883
0000c0 6c cf 6b 3c fd c4 b3 39 b0 1c 81 bc 25 fb 61 bc
       0.014392715 0.00034288308 -0.01576075 -0.013792788
0000d0 3e a5 67 3b 29 7c da bb a2 d1 f5 3b 11 49 a2 3b
       0.0035346295 -0.006667633 0.007501797 0.004952558
0000e0 8e 7a 52 bc 18 f9 98 3b 91 5c de bb 5d 09 65 bc
       -0.012846602 0.004668366 -0.006785937 -0.013979283
0000f0 79 6e b4 3a fe 94 21 bb f8 b8 36 3b 38 15 0a bc
       0.0013765834 -0.0024655457 0.0027881246 -0.0084279105
000100 18 22 b9 bb a4 b7 18 bb a4 7f e5 bb 33 7b 13 3c
       -0.0056498162 -0.0023302818 -0.0070037413 0.009001541
000110 05 18 e3 3b 1a ac 84 3c df 4e d6 3b 2c 23 39 bc
       0.0069303536 0.016195346 0.006540164 -0.01129989
000120 95 29 29 bc 88 13 b2 3a 0b b9 0a 3c c2 4c 5b 3c
       -0.010324855 0.0013586143 0.008466969 0.013385
000130 08 5b c0 ba c8 f2 47 3c fd 65 51 bb 6d 79 0b bc
       -0.0014675567 0.01220388 -0.003195166 -0.008512837
000140 79 5d 4f 3c f4 66 80 b9 ec 20 ac 3b 40 24 4d 3c
       0.012656563 -0.0002449077 0.005252948 0.01252085
000150 99 46 03 3a 69 79 80 39 3c b0 25 bc cd d2 3f 3a
       0.0005007773 0.0002450452 -0.010112818 0.00073174835
000160 0d 34 23 bb e6 f3 33 3c 54 37 1a bc 86 68 4d 3c
       -0.002490285 0.010983443 -0.009412605 0.012537127
000170 82 47 b0 bb 28 7b 15 bc b4 58 6a bb a1 d6 ae 3c
       -0.005379618 -0.009123601 -0.0035758438 0.021342577
000180 7c a4 84 3a fe 9c 65 bc 0c 28 d1 ba b1 2d e2 39
       0.0010119821 -0.014014481 -0.001595737 0.00043140122
000190 ba e5 69 3c 59 a2 18 3c ec 0e d3 bb da 94 13 bc
       0.0142759625 0.00931605 -0.006440988 -0.009007657
0001a0 b5 59 29 b9 30 b1 62 3c 16 b2 22 bc 94 68 41 bc
       -0.00016150514 0.01383619 -0.009930154 -0.0118047185
0001b0 46 03 84 ba c6 06 54 3c 4f a6 11 3b fe b5 1f 3a
       -0.0010071776 0.012941068 0.0022224372 0.00060924876
0001c0 1c cc 3e 3c 43 22 82 3b f2 ae 8d 3c e0 c0 f4 3b
       0.011645343 0.0039713695 0.017295334 0.0074692816
0001d0 64 5b 9f 3b 5a 18 82 bc 26 50 4e 3c 53 d6 08 3c
       0.0048631895 -0.015880752 0.012592351 0.00835188
0001e0 bd 94 ae 3b 38 f0 82 bb ef ce 58 bb ea 77 d2 bb
       0.0053277896 -0.0039959215 -0.0033082326 -0.0064229863
0001f0 d4 e2 cf bb f6 9b b1 3b e1 7b 05 bc 04 3c 2d bc
       -0.0063441787 0.0054202033 -0.008147211 -0.010573391
000200 b9 90 94 bb ca 2e 27 bb 1c 63 2b 3b 6b 05 b8 bb
       -0.004533854 -0.0025510066 0.0026151603 -0.0056158802
000210 26 1e c1 bb ff e8 55 bb 06 bc dd bb 28 8b e9 bb
       -0.0058934866 -0.0032640097 -0.006766799 -0.0071271844
000220 f7 b2 00 bc d1 9c 34 bc b0 18 48 bc a8 cf f8 bb
       -0.007855169 -0.011023716 -0.012212917 -0.007593114
000230 03 7a b3 3b e9 fa 3f 3c 6b 72 e8 39 1d c1 df bb
       0.0054771914 0.0117175365 0.00044335736 -0.006828441
000240 8e cf e8 3b 83 8d 6a 3b 7e 05 7d bc 2b 2f 6c bc
       0.0071048206 0.0035789914 -0.015443204 -0.014415543
000250 27 7c 1c bc a0 8f c1 bb 09 82 16 bc 74 89 bf 3b
       -0.009551085 -0.005907014 -0.009186276 0.005845243
000260 46 b3 ef bb 06 b1 b0 bb 8e 98 41 bc 14 75 0c bc
       -0.007315072 -0.0053921966 -0.011816157 -0.0085728355
000270 66 a5 0a bc 37 f3 33 3c b0 3d 61 3b d9 32 66 bc
       -0.008462286 0.01098328 0.0034369044 -0.014050209
000280 7f b3 85 3c 99 aa 5f 3b 1a 81 0a 3b 49 34 69 bb
       0.016320942 0.0034128784 0.002113408 -0.0035584143
000290 79 f9 96 bb 50 90 15 3c 3a 5d 30 3c f0 16 d7 3b
       -0.004607376 0.009128645 0.010764414 0.0065640137
0002a0 fb ff 55 3c f1 40 8d 3c dc 3c a1 3b 36 09 7b 3b
       0.013061519 0.01724288 0.004920585 0.003830505
0002b0 3e 4c bd bb 34 eb 09 3b cd f6 10 ba ca 4e fc bb
       -0.005776911 0.0021044733 -0.000552994 -0.007699822
0002c0 8e 64 78 bc 4e 20 ad bb bc ef fc 39 9e 37 26 bc
       -0.015160693 -0.005283392 0.00048243802 -0.010145096
0002d0 ce 41 90 3a ae 9d 1e 3c db b4 2b bb ff 56 af bb
       0.001100594 0.009681148 -0.0026200328 -0.005350947
0002e0 d8 c1 15 3b 8f af 88 3b d0 f6 80 bb 1e 3d d7 ba
       0.0022851136 0.004171319 -0.0039356723 -0.0016421413
0002f0 18 61 81 bb d7 71 0a 3b b7 59 8f 3c bb a7 27 bc
       -0.003948342 0.0021124983 0.017498834 -0.010232861
000300 2a ed 81 3b c8 3d e0 3b 12 2a e2 3a 38 e3 e1 3a
       0.0039650397 0.0068433024 0.001725497 0.0017233854
000310 1c c4 04 bb bb 29 00 3c fc e4 8d 3b 29 da 1e bc
       -0.0020258492 0.007822449 0.0043302756 -0.009695568
000320 2d 0a 21 3c 60 9e a3 3c 2c 45 cb bb 59 83 2f bb
       0.009829086 0.01997298 -0.0062033143 -0.002678117
000330 8b 6c c2 3b 1e 68 6c 3c 88 1d 00 3c 5c 20 08 3c
       0.0059333495 0.01442912 0.007819541 0.008308496
000340 88 7e 7c bc 0d 12 a5 3b f8 26 33 3b 74 01 c3 3b
       -0.015411027 0.005037552 0.002733646 0.005951101
000350 93 8a 26 3c 71 25 79 3c 38 35 5e 3c 83 ce 0a bc
       0.010164875 0.015206681 0.013562493 -0.008472088
000360 fc 68 86 bb a3 47 34 bb 7b 65 2b bc cc 87 97 3b
       -0.0041018706 -0.002750852 -0.010461207 0.0046243425
000370 cd 9c 9e 3a 9a 04 90 3c 11 06 13 3c 94 0f f9 b7
       0.0012101174 0.01758032 0.008973614 -2.9690367e-05
000380 ff fc c4 3b e0 91 28 bc e9 6b d3 bb b9 1d 58 bb
       0.006011605 -0.010288686 -0.006452073 -0.00329767
000390 3b 30 7d bc f8 4d 1a 3c 7a 27 33 bc 2b 3b 38 ba
       -0.015453394 0.009418003 -0.010934705 -0.00070278597
0003a0 d2 df 48 3c d8 71 5f bb 61 db 91 bb 59 e3 11 3b
       0.012260394 -0.0034094956 -0.004451201 0.0022260754
0003b0 4f fd e0 3b de ef 7c bb 2d 6a ca 3b 9c 24 b8 3b
       0.0068661342 -0.003859512 0.006177208 0.0056195986
0003c0 5f ab ba b9 d2 ef 78 3b f8 05 02 39 66 c4 2c 3c
       -0.00035604366 0.003798474 0.0001239999 0.010544872
0003d0 89 23 37 bc 72 99 15 bb d8 d5 90 bb 01 20 41 bb
       -0.011177906 -0.0022827056 -0.0044200234 -0.0029468539
0003e0 11 31 de 3b 70 83 27 3c 26 8b 02 3c c5 a7 d5 ba
       0.0067807515 0.010224208 0.007967746 -0.001630061
0003f0 db 68 95 ba a8 f6 2f bc 2d 56 3a 3c 48 73 25 bb
       -0.0011399047 -0.01073996 0.011373085 -0.0025245715

net.3.linear.bias f4 [32]
000000 48 7c 74 3d 4e c9 ad 3b 9b 4f f4 bd fe 5e 61 3d
       0.059688836 0.0053035384 -0.11929246 0.055022232
000010 14 d4 27 bd 44 5c dd 3d c6 39 37 3d 3c 12 a1 3d
       -0.040973738 0.10808614 0.04473283 0.07864806
000020 10 2b 77 bd e6 7a 9d ba 89 0c c3 bd 13 6d 25 3d
       -0.060343802 -0.0012014776 -0.09523875 0.040387224
000030 e8 15 32 bc d5 a5 1d be 5f 31 be 3d 17 8f 8d 3d
       -0.010869481 -0.15395291 0.092867605 0.06912058
000040 4a 6a cc 3d e0 65 a1 3d a9 c2 9d 3c eb 6f f7 3d
       0.099812105 0.07880759 0.01925786 0.120818935
000050 50 2c 1b be 3f 6f 51 3d 47 19 0f 3e 6a c0 f2 bc
       -0.15153623 0.051131483 0.13974486 -0.029632766
000060 89 05 0a 3e 4e 76 93 3d a9 3a 15 3e ed 8f 1a 3e
       0.13478674 0.07200299 0.14573158 0.15093966
000070 3b 98 9a 3d 6b 1d 8b 3c 5d dd 1b be 51 f7 87 bd
       0.07548567 0.016981801 -0.15221162 -0.06638969

net.4.weight f4 [4, 32]
000000 03 e2 0c 3d b8 f5 e6 bc 68 fb 25 3d bc 14 50 3c
       0.03439523 -0.02819334 0.040522963 0.012700256
000010 ce 8a 9f 3c ea 42 0e bd 64 10 b4 bc c6 8f 1e 3d
       0.019475367 -0.034731783 -0.021980472 0.03871133
000020 ae 47 d5 bc 3c 79 92 3b a6 c4 d2 3c fc ce 0b 3d
       -0.026035156 0.0044700187 0.025728535 0.034132943
000030 5e 9b d1 3b f7 f6 db bc 7b cc 13 3d 8d 34 34 3b
       0.006396695 -0.02685116 0.03608368 0.0027497143
000040 47 96 19 3d 0c 0a ab bc a6 c8 37 3d bc a1 1f 3d
       0.03749683 -0.020878814 0.044869088 0.0389726
000050 e6 b8 00 3d 26 60 20 3d 39 d9 b9 bc 67 b3 fd 3b
       0.031426333 0.039154194 -0.022686588 0.0077423337
000060 0b 5c 8d 3c aa f3 ff bc 74 f5 ab 3c ae 30 9f bc
       0.017255804 -0.031244118 0.020991065 -0.019432392
000070 a7 5b a4 3c 5c 48 52 3c 4a 22 1b 3d 5f 91 6d bc
       0.020063234 0.012834635 0.037874497 -0.014499991
000080 a3 35 57 3c c7 c0 94 bc 89 cd 70 3c ae 87 1c bc
       0.013135347 -0.01815833 0.014697441 -0.009553833
000090 3a 8b 23 3c 27 6a 20 bc 97 c8 0c bd 89 ab af 39
       0.009981925 -0.009790934 -0.034370985 0.00033506405
0000a0 ee 25 c1 bc b1 e3 17 bc 99 13 75 3c 8b 77 a3 3c
       -0.023577657 -0.009270594 0.014958286 0.019954463
0000b0 90 bd b1 bb 64 df 47 bc fd b0 01 3d 02 cb 5f bc
       -0.005424209 -0.012199257 0.03166293 -0.013659241
0000c0 de 8a 14 3b 9b 47 c5 bc 97 91 94 3c 01 23 0c 3c
       0.002266578 -0.024081996 0.018135829 0.008553267
0000d0 25 1d fa 3c 46 99 15 3c c8 15 ac bb 72 9f 1a 3c
       0.030531475 0.0091307815 -0.00525162 0.009437429
0000e0 a4 62 5a 3a 6b 5a d3 3a 36 66 f1 3b 37 69 14 bb
       0.00083307386 0.0016124969 0.007366921 -0.002264572
0000f0 73 97 b5 3c 3e d4 81 3c 29 6a 23 bb 5b 92 a7 ba
       0.022166943 0.015848275 -0.0024935103 -0.0012784706
000100 20 67 34 3d 79 f7 ce bc 9f 8c 39 3d bb 48 0a 3d
       0.04404366 -0.025264489 0.045300122 0.033760767
000110 e8 db d0 3c 72 d2 3a bd 0a ea 95 bc c9 c1 97 3c
       0.025495484 -0.045610853 -0.018300075 0.018525021
000120 a5 da 04 bd 16 40 7d bc 6a 77 24 3d db db 2b 3d
       -0.03243508 -0.015457174 0.040152945 0.041957717
000130 5e bc f3 3c 3c f9 17 bd 62 58 1f 3d 75 b1 a5 bc
       0.029752906 -0.037102923 0.038902648 -0.02022622
000140 cc 93 38 3d 6d 7a bd bc 92 bb 43 3d 77 47 ba 3c
       0.045062825 -0.023129666 0.047786303 0.022739155
000150 60 5b c3 3c a1 e6 d1 3c e4 0f f5 bc 91 a3 0f 3d
       0.023847282 0.025622668 -0.029914804 0.0350681
000160 a7 31 2a 3d 61 84 59 bd b7 64 03 3d fd af df bc
       0.04155126 -0.053104762 0.03207847 -0.027305597
000170 94 bd d9 3c 46 b3 25 3d 99 90 99 3c 1e 76 19 bd
       0.026579656 0.04045417 0.018745707 -0.03746616
000180 3f dc 05 bd a8 62 5b 3d 5a 77 0d bd 04 47 4b bd
       -0.032680746 0.053560883 -0.03453765 -0.049628273
000190 c4 fd 47 bd d1 99 42 3d a1 f2 1a 3d 87 c6 27 bd
       -0.048825994 0.047509972 0.037829045 -0.040960815
0001a0 64 13 10 3d c4 26 62 3d 6d 3c 51 bd ee 25 53 bd
       0.035174742 0.05521275 -0.051083017 -0.051549844
0001b0 99 11 48 bd 38 64 38 3d 00 84 21 bd df f6 64 3d
       -0.048844907 0.04501745 -0.039432526 0.055899497
0001c0 92 a1 46 bd df a7 3b 3d e9 9e f9 bc 45 1d 4d bd
       -0.04849393 0.04581439 -0.030471282 -0.05007674
0001d0 bf bc 4a bd 9e 45 40 bd 2b d2 21 3d 8b 7f 43 bd
       -0.04949641 -0.046941392 0.039507072 -0.047729056
0001e0 73 b9 4f bd 17 33 3d 3d ee 43 3e bd cc 60 4f 3d
       -0.050713968 0.0461913 -0.0464515 0.050629422
0001f0 0b ab 4f bd a2 05 5a bd a0 05 1e bd c7 5e 4f 3d
       -0.05070023 -0.053228028 -0.038579583 0.050627496

net.4.bias f4 [4]
000000 44 79 c7 bd d6 9f 90 3d c6 70 15 3d ce 69 7c bd
       -0.097399265 0.07061736 0.036484502 -0.06162434
