FE-PINN1/1_nodes_given/20%_noise/25%_init_error/model.pt (torch, 16796 bytes, 10 tensors)

net.0.linear.weight f4 [32, 1]
0.0040554656 0.30612838 -0.6811194 -0.59005594 -0.5491257 0.44871774 -0.46882835 0.29655352
0.3470823 0.8638439 -0.83373827 0.13632861 0.7152405 0.42545328 0.3637895 0.81135476
-0.8241467 0.7064918 -0.6604377 0.1608155 0.11385493 0.3625962 -0.43412992 0.35044977
-0.87913924 0.02217321 -0.094850026 0.3670193 0.6020395 -0.08640301 0.0868085 0.9364312
00000000: b6e3 843b dcbc 9c3e d75d 2ebf e80d 17bf
00000010: 8093 0cbf 55be e53e 450a f0be ddd5 973e
00000020: c5b4 b13e e024 5d3f df6f 55bf ba99 0b3e
00000030: 001a 373f 03d5 d93e 9e42 ba3e f2b4 4f3f
00000040: 47fb 52bf a6dc 343f 7212 29bf d2ac 243e
00000050: c62c e93d 36a6 b93e 4746 debe 276e b33e
00000060: 450f 61bf 97a4 b53c bb40 c2bd f4e9 bb3e
00000070: 431f 1a3f 10f4 b0bd a8c8 b13d f5b9 6f3f

net.0.linear.bias f4 [32]
-0.68886983 -0.95127535 0.32948625 0.8528917 0.05176366 0.47356853 0.737526 -0.76216763
-0.25869617 0.63490635 -0.019040387 -0.08154093 0.75867593 -0.24571736 -0.239579 0.85298824
0.7651707 1.0010189 0.88118047 -0.4648098 0.6434764 -0.18482368 0.41205198 0.776785
-0.6065318 0.49495983 -0.20359705 -0.45214733 0.85713595 0.3680514 -0.17515625 -0.0019806055
00000000: c659 30bf c886 73bf 6cb2 a83e 1c57 5a3f
00000010: 2206 543d 9377 f23e 81ce 3c3f 6b1d 43bf
00000020: d373 84be 3989 223f 96fa 9bbc eefe a6bd
00000030: 9638 423f 559d 7bbe 3354 75be 705d 5a3f
00000040: 3ae2 433f 6321 803f 0b95 613f 8dfb edbe
00000050: dfba 243f 6b42 3dbe 7af8 d23e 62db 463f
00000060: ab45 1bbf 606b fd3e bf7b 50be db7f e7be
00000070: 436d 5b3f 3c71 bc3e 295c 33be 0ccd 01bb

net.1.linear.weight f4 [32, 32]
-0.0049428623 0.030304043 -0.022108583 -0.009913776 -0.007952769 0.0027704877 0.0057809134 -0.012579342
-0.0056958715 -0.00967864 -0.012447049 -0.008024268 -0.002620504 0.004170522 0.0025458846 -0.017473487
-0.013003994 -0.021767832 0.00048263202 0.0005874435 6.209339e-05 0.01617304 -0.003279652 -0.0089167645
0.008453206 0.0036435977 0.014169807 0.02546549 -0.008254253 -0.0145241 -0.0037750995 -0.0037772595
-0.019100644 -0.016313864 -0.014798954 -0.012028429 0.0046191025 -0.0013811114 0.013664166 -0.005371964
-0.019699119 -0.0062173908 -0.006485897 0.0112152435 0.013094577 0.01909887 -0.010173634 -0.016920801
-0.0049122754 -0.010347601 -0.010383598 -0.016719792 -0.019002885 -0.0024878809 0.008211781 0.0034863807
-0.012712529 -0.012909849 0.028748136 -0.012015075 0.009826818 0.014074459 -0.004993235 0.016026942
-0.015121807 0.005320366 -0.011968796 -0.010242564 0.0020633428 0.00068498746 -0.02096708 0.0033006864
0.009373243 -0.0122785065 -0.008940588 0.0049591265 0.011552127 -0.008464086 0.009363584 0.025806397
0.015463101 0.0033391155 0.020945543 -0.018978294 0.0067366203 -0.003142623 0.023174776 -0.0028942926
-0.00032050515 0.012312981 -0.017684357 0.001948017 0.0050516427 -0.003197122 0.010249846 -0.0069800764
-0.022115162 -0.022713691 -0.017436223 -0.0024502606 0.0077674193 0.015839634 0.013766614 -0.014198803
-0.007021519 -0.004390611 -0.008314279 0.010771828 -0.012894443 -0.00010215622 -0.008397209 0.0019518185
0.0028824464 -0.0014891627 -0.005954101 -0.00010730014 0.010494015 0.004025825 0.014744133 0.01654065
-0.0017595727 0.008021085 -0.008376273 -0.0005731892 0.014915689 -0.012242688 0.010345831 0.011351143
-0.01079529 0.015033914 -0.00049094995 0.007889772 -0.003917006 -0.0045077973 -0.013010739 0.00063413574
-0.0026613495 0.0034515 -0.016082725 -0.009682586 -0.008859748 0.018377349 -0.010713965 0.013714162
-0.0056913514 0.010746706 -0.004092539 0.0035111322 -0.018152516 0.003272177 -0.020600041 -0.008660839
0.0036285522 0.012674047 0.011376651 0.00031955773 0.002507266 -0.0039497577 0.003637658 0.007323415
0.0046416693 0.013507162 0.011130736 -0.012619524 0.013214214 -0.008013518 0.0056472532 -0.015251856
-0.022364527 0.0070611537 -0.003928611 -0.005719639 0.00018445843 -0.0024498873 -0.013979955 0.002371282
0.0025451998 0.02100076 -0.0011432339 0.0036859303 -0.004009466 -0.0071091778 -0.008172183 0.003971322
-0.006390169 0.006840016 -0.009820856 -0.006126652 0.011984293 -0.015752 0.01980431 -0.011961533
-0.0012872799 0.014033306 0.0079916 0.002790254 -0.0006838891 0.021973018 0.012235296 -0.0066758776
-0.018460907 -0.0009605821 0.011258705 0.015936336 -0.0022376464 -0.01966616 0.002589011 -0.012350729
0.01191708 -0.0125138955 -0.012955393 -0.0073674717 -0.0075574317 0.0010643614 0.0070262747 -0.006946418
-0.004714011 -0.022699859 0.006881235 0.018391302 0.003111735 -0.0016050661 0.009325515 0.0043489225
-0.0014134407 -0.0096962545 -0.004199385 -0.017946757 -0.0034443764 -0.0018606692 0.0025646891 0.00210205
-0.0070317076 -0.0071311705 -0.010881115 0.008366626 0.0033528307 -0.010009123 -0.00038685626 0.0036289552
-0.027146703 -0.007887975 0.015134055 -0.009540148 -0.020995252 -0.01142912 0.009357747 0.005260192
-0.0107315555 -0.01445428 0.0133255785 0.018654946 0.011843626 -0.0022006307 -0.01810439 0.004232155
00000000: bcf7 a1bb 2f40 f83c 0f1d b5bc 646d 22bc
00000010: 554c 02bc 1291 353b d16d bd3b 9619 4ebc
00000020: 6fa4 babb 2993 1ebc b5ee 4bbc 3878 03bc
00000030: c3bc 2bbb e0a8 883b dbd8 263b 8f24 8fbc
00000040: b40e 55bc 7452 b2bc c609 fd39 aafe 193a
00000050: 2338 8238 537d 843c 6eef 56bb 9f17 12bc
00000060: 517f 0a3c 6dc9 6e3b 7a28 683c 019d d03c
00000070: d93c 07bc 7ef6 6dbc a967 77bb e68b 77bb
00000080: f478 9cbc a7a4 85bc 5077 72bc e312 45bc
00000090: d75b 973b 6906 b5ba abdf 5f3c 4d07 b0bb
000000a0: 0c60 a1bc 41bb cbbb a687 d4bb 24c0 373c
000000b0: a38a 563c 3c75 9c3c 50af 26bc 7e9d 8abc
000000c0: 27f7 a0bb fc88 29bc f71f 2abc f2f7 88bc
000000d0: f0ab 9bbc b70b 23bb b58a 063c c37b 643b
000000e0: 3648 50bc d583 53bc 3681 eb3c e1da 44bc
000000f0: a900 213c 8f98 663c 4b9e a3bb ef4a 833c
00000100: 75c1 77bc 7756 ae3b c518 44bc 6dd0 27bc
00000110: 2639 073b bb90 333a 27c3 abbc 5450 583b
00000120: 3b92 193c ca2b 49bc 8b7b 12bc 2b80 a23b
00000130: 2245 3d3c f3ac 0abc b869 193c f067 d33c
00000140: f258 7d3c 10d5 5a3b fd95 ab3c 5e78 9bbc
00000150: debe dc3b 77f4 4dbb 07d9 bd3c 2cae 3dbb
00000160: 7909 a8b9 63bc 493c c9de 90bc 9b54 ff3a
00000170: 4088 a53b ce86 51bb f8ee 273c 20b9 e4bb
00000180: db2a b5bc 1012 babc 69d6 8ebc 8d94 20bb
00000190: d685 fe3b 1fc2 813c 5d8d 613c 19a2 68bc
000001a0: c514 e6bb 1ddf 8fbb 9d38 08bc 527c 303c
000001b0: 3743 53bc b43c d6b8 7394 09bc 29d4 ff3a
000001c0: 6de7 3c3b 0230 c3ba 9f1a c3bb 5306 e1b8
000001d0: 17ef 2b3c 11eb 833b 6091 713c 4280 873c
000001e0: 76a1 e6ba de6a 033c a33c 09bc 1342 16ba
000001f0: ef60 743c 8e95 48bc 8f81 293c 25fa 393c
00000200: bade 30bc ce50 763c 18b3 00ba 1a44 013c
00000210: 3a5a 80bb 25b6 93bb ff2a 55bc 213c 263a
00000220: 096a 2ebb 9032 623b ebbf 83bc b6a3 1ebc
00000230: 7a28 11bc 188c 963c a089 2fbc 5db1 603c
00000240: 847e babb f412 303c b51a 86bb 061b 663b
00000250: 96b4 94bc 0572 563b 6bc1 a8bc 31e6 0dbc
00000260: 01cd 6d3b cea6 4f3c 2265 3a3c 508a a739
00000270: f150 243b f86c 81bb c665 6e3b 42f9 ef3b
00000280: 2519 983b 254d 5d3c b15d 363c 1fc2 4ebc
00000290: 6e80 583c 214b 03bc 980c b93b ece2 79bc
000002a0: d035 b7bc 4061 e73b 94bb 80bb cf6b bbbb
000002b0: 2f6b 4139 4a8e 20bb 2e0c 65bc 8367 1b3b
000002c0: 5ecd 263b c909 ac3c 90d8 95ba a68f 713b
000002d0: d761 83bb 1bf4 e8bb 9fe4 05bc dd21 823b
000002e0: 9f64 d1bb 3722 e03b a8e7 20bc 15c2 c8bb
000002f0: c559 443c 570a 81bc a63c a23c 4efa 43bc
00000300: f2b9 a8ba f4eb 653c 33ef 023c b2dc 363b
00000310: 0547 33ba c200 b43c 8d76 483c 52c1 dabb
00000320: 543b 97bc 93cf 7bba 6e76 383c eb8c 823c
00000330: 7aa5 12bb ed1a a1bc 66ac 293b b65a 4abc
00000340: db3f 433c 1507 4dbc db42 54bc d56a f1bb
00000350: 55a4 f7bb 0b82 8b3a aa3c e63b c79e e3bb
00000360: fe77 9abb 0ef5 b9bc fc7b e13b 5ba9 963c
00000370: 40ee 4b3b 1561 d2ba 0bca 183c 6881 8e3b
00000380: 3343 b9ba 0add 1ebc ff9a 89bb 1405 93bc
00000390: 0cbb 61bb b3e1 f3ba 5814 283b 8cc2 093b
000003a0: 3d6a e6bb 98ac e9bb b446 32bc 2c14 093c
000003b0: 2abb 5b3b 4efd 23bc f8d2 cab9 c4d3 6d3b
000003c0: c362 debc 913c 01bc d4f4 773c 484e 1cbc
000003d0: 3cfe abbc 3441 3bbc 3c51 193c b05d ac3b
000003e0: 68d3 2fbc a5d1 6cbc 8753 5a3c 42d2 983c
000003f0: c50b 423c 7538 10bb a84f 94bc e4ad 8a3b

net.1.linear.bias f4 [32]
-0.09179789 0.0700692 -0.074464746 -0.07252815 -0.10237981 -0.03296215 -0.15590467 0.06818893
0.03563675 0.08247981 0.07708751 0.09946375 0.08372424 -0.14684997 0.009531398 0.0726049
-0.077657625 0.11331202 0.003696322 -0.08901452 0.16254358 -0.014254758 0.09032517 -0.111521184
-0.09510772 0.10591417 -0.1324791 -0.12066062 0.15185735 0.15428849 0.025612248 -0.13760912
00000000: 8800 bcbd 7180 8f3d f980 98bd a489 94bd
00000010: 81ac d1bd 5203 07bd 79a5 1fbe a3a6 8b3d
00000020: d7f7 113d 2deb a83d 0ee0 9d3d a7b3 cb3d
00000030: 9d77 ab3d d75f 16be 9529 1c3c e1b1 943d
00000040: f60a 9fbd 2210 e83d fe3d 723b 3f4d b6bd
00000050: d371 263e ca8c 69bc 67fc b83d 3865 e4bd
00000060: d6c7 c2bd 87e9 d83d 9aa8 07be ea1c f7bd
00000070: 7e80 1b3e cdfd 1d3e c7d0 d13c 68e9 0cbe

net.2.linear.weight f4 [32, 32]
0.0012869688 -0.014463431 0.0055114087 -0.006523128 -0.020314591 -0.008064919 0.0011571646 -0.00032971016
0.0041996506 0.0027311775 0.017294344 0.0037729288 0.0002699761 -0.010048433 0.0006618517 0.0031945703
-0.0048299483 0.010003978 -1.0399075e-05 -0.004819933 0.0020826547 -0.008577046 -0.018888343 0.013934105
-0.0010615959 0.0074508125 0.0074659204 -0.00408689 0.0060485248 -0.019582266 -0.023915956 0.013232352
0.0034130597 0.008090304 0.0024760931 0.0038919437 0.011528928 0.0046351803 -0.0053322217 0.0014681023
-0.015228306 0.009470514 -0.012620306 -0.007721708 -0.00020714827 -0.020972325 -0.011106966 -0.016365929
-0.0038066735 0.007575087 -0.0022225736 -0.0044360114 -0.0030714823 -0.002185011 0.014116861 0.014339492
-0.0063981973 -0.007916117 -0.0065245144 0.00673815 0.007774859 0.016091408 -0.012445456 -0.0006976934
0.011774932 -0.010430779 0.0026495405 -0.012953751 0.009977315 -0.0020596893 -0.01824763 -0.0009247206
0.007703918 -0.0061984938 0.016180448 0.0018720031 -0.019928204 -6.5318986e-06 -0.00037702286 0.006957908
-0.0059892377 -0.007317143 0.01512175 0.014321486 -0.00084020273 0.010995165 -0.010338333 0.01468687
0.0013001468 -0.015297393 -0.0064736814 -0.004930183 -0.007885389 -0.005902182 0.008661857 -0.016040979
-0.0061911787 -0.011903049 0.009355654 -0.002982963 0.00614928 -0.005496823 0.00022506781 -0.016239727
-0.01092086 0.0037971484 0.018945655 0.0063886307 0.014997367 0.0011223817 0.0034323903 0.00430557
0.0064070993 0.008503366 -0.014062048 -0.008752842 -0.008935349 -0.024762811 -0.0052716634 -0.014776071
0.009825895 -0.0106670065 -0.004360274 -0.011499135 -0.00066196616 -0.0073801475 -0.0069407304 -0.0048711933
-0.0035725627 0.014262812 -0.010277753 -0.011396797 0.009583396 -0.006180375 0.011004855 0.013815238
0.014534956 -0.011877067 0.0041876067 0.005473264 0.0077026105 -0.013671804 -0.0014258963 -0.008122197
0.014461112 0.015444241 -0.009630641 0.012332005 -0.00028845092 -0.0036354074 0.011483989 -0.014666922
0.0023153736 0.002903113 -0.0001866026 0.0071404204 0.010269517 -0.016477317 0.0088373255 -0.01615801
0.0018954853 0.012662367 -0.013163461 -0.0027993044 -0.013164487 -0.0031813143 -0.010913353 0.014007326
-0.0056180554 0.007072908 -0.0056125605 0.0021915925 -0.0032669723 -0.013422471 -0.0018207665 0.011792895
-0.006813171 -0.019786566 -0.017742299 0.009314717 -0.006840731 0.0041578063 -0.0093585495 0.01481994
-0.0026237713 0.0101609845 -0.0053149234 0.0051406655 -0.0063755824 0.00067817466 0.0030471028 -0.007703044
-0.0005310228 0.010303313 -0.00946642 0.0129135335 0.013588191 0.007471824 -0.011644402 -0.006216775
0.00037372575 -0.0034033502 -0.0062561044 0.014666825 -0.0023896822 0.00932178 -0.008284728 0.019053923
0.00470093 -0.014429345 0.0120302765 -0.005487088 -0.0017236797 -0.007794726 -0.007024819 -0.01528033
0.005856284 -0.008559674 -0.0066806106 -0.0042762714 0.010327135 -0.006731824 -0.0071713952 0.017678993
-0.009228381 0.015845595 -0.0015335665 0.0089941025 0.0117352 -0.0010703804 -0.0070044054 0.011430086
-0.008786306 -0.012734065 0.012472809 0.002921303 0.016706746 -0.004601527 -0.01507298 -0.0051956074
-0.0041284775 -0.0015038748 -0.008635284 -0.0039277407 -0.0010588784 0.012827844 0.012413679 -0.0092119835
0.0038516293 -0.004982191 0.0024163846 0.0035738342 -0.0074533583 0.00444842 -0.01142127 0.013070177
00000000: 82af a83a 07f8 6cbc 0c99 b43b f7bf d5bb
00000010: c96a a6bc b922 04bc 00ac 973a f3dc acb9
00000020: 399d 893b 8efd 323b deac 8d3c 3e43 773b
00000030: 948b 8d39 2fa2 24bc 1e80 2d3a ff5b 513b
00000040: 8b44 9ebb bae7 233c b077 2eb7 87f0 9dbb
00000050: 267d 083b bd86 0cbc babb 9abc df4b 643c
00000060: 3f25 8bba f225 f43b aea4 f43b 51eb 85bb
00000070: b432 c63b fd6a a0bc 65eb c3bc 82cc 583c
00000080: a4ad 5f3b 328d 043c f345 223b fb0f 7f3b
00000090: d4e3 3c3c b6e2 973b ebb9 aebb 576d c03a
000000a0: 2580 79bc 372a 1b3c 66c5 4ebc 6206 fdbb
000000b0: f135 59b9 27ce abbc fef9 35bc d711 86bc
000000c0: 6279 79bb 6f38 f83b 99a8 11bb f65b 91bb
000000d0: ec4a 49bb 6732 0fbb 684a 673c 30f0 6a3c
000000e0: f8a7 d1bb 9ab2 01bc 98cb d5bb b3cb dc3b
000000f0: 3fc4 fe3b 21d2 833c 07e8 4bbc 69e5 36ba
00000100: a5eb 403c dce5 2abc eaa3 2d3b f83b 54bc
00000110: e477 233c dafb 06bb 0e7c 95bc f368 72ba
00000120: 2671 fc3b bc1c cbbb dc8c 843c 005e f53a
00000130: 7940 a3bc 952c dbb6 27ab c5b9 2aff e33b
00000140: 5e41 c4bb a5c4 efbb 37c1 773c aba4 6a3c
00000150: 0d41 5cba 1125 343c 1d62 29bc 33a1 703c
00000160: b069 aa3a eba1 7abc 2d21 d4bb 5f8d a1bb
00000170: b831 01bc 1767 c1bb 76ea 0d3c 5f68 83bc
00000180: 5fdf cabb 0205 43bc 7548 193c d17d 43bb
00000190: e67f c93b b21e b4bb 2e00 6c39 2d09 85bc
000001a0: 68ed 32bc 94d9 783b eb33 9b3c b857 d13b
000001b0: 84b7 753c e11c 933a f4f1 603b bd15 8d3b
000001c0: a5f2 d13b b451 0b3c 8164 66bc 1568 0fbc
000001d0: 9265 12bc 61db cabc ebbd acbb 5517 72bc
000001e0: cafc 203c abc4 2ebc a1e0 8ebb de66 3cbc
000001f0: cc87 2dba 2ad5 f1bb 116f e3bb 889e 9fbb
00000200: a821 6abb 92ae 693c 0564 28bc a2b9 3abc
00000210: ad03 1d3c be84 cabb b54d 343c 4f59 623c
00000220: 0624 6e3c 0898 42bc 3138 893b 1159 b33b
00000230: 2e66 fc3b b4ff 5fbc 24e5 baba f712 05bc
00000240: 4dee 6c3c d809 7d3c d6c9 1dbc 2e0c 4a3c
00000250: 3a3b 97b9 0440 6ebb 5727 3c3c 884d 70bc
00000260: 86bd 173b 2742 3e3b c1aa 43b9 30fa e93b
00000270: 7a41 283c 70fb 86bc 6eca 103c ce5d 84bc
00000280: ef71 f83a d175 4f3c 8fab 57bc 8974 37bb
00000290: dcaf 57bc 997d 50bb eccd 32bc fc7e 653c
000002a0: aa17 b8bb dac3 e73b 92e9 b7bb d2a0 0f3b
000002b0: b31a 56bb ece9 5bbc c9a6 eeba fd36 413c
000002c0: 0541 dfbb 7017 a2bc 4c58 91bc c19c 183c
000002d0: 3628 e0bb 353e 883b 9a54 19bc 55cf 723c
000002e0: 94f3 2bbb 427a 263c cf28 aebb 0773 a83b
000002f0: 43ea d0bb 88c7 313a e7b1 473b d169 fcbb
00000300: 5634 0bba 3acf 283c 0b19 1bbc 4993 533c
00000310: 01a1 5e3c 34d6 f43b 29c8 3ebc 17b6 cbbb
00000320: 9ff0 c339 be0a 5fbb 0200 cdbb 1f4d 703c
00000330: 379c 1cbb 61ba 183c abbc 07bc f916 9c3c
00000340: 420a 9a3b 0f69 6cbc a31a 453c 08cd b3bb
00000350: 18ed e1ba e76a ffbb 7430 e6bb 595a 7abc
00000360: 12e6 bf3b e03d 0cbc 06e9 dabb f71f 8cbb
00000370: 2533 293c a296 dcbb 06fe eabb 89d3 903c
00000380: a332 17bc 9fce 813c f401 c9ba 005c 133c
00000390: ff44 403c 024c 8cba 3685 e5bb 4145 3b3c
000003a0: 70f4 0fbc 8aa2 50bc c15a 4c3c 5573 3f3b
000003b0: 96dc 883c 68c8 96bb a9f4 76bc ea3f aabb
000003c0: 2e48 87bb aa1d c5ba 027b 0dbc 47b4 80bb
000003d0: 10ca 8aba e12b 523c be62 4b3c dced 16bc
000003e0: 9e6b 7c3b a641 a3bb 355c 1e3b fd36 6a3b
000003f0: 4d3b f4bb 0dc4 913b 4720 3bbc 4c24 563c

net.2.linear.bias f4 [32]
0.043606438 0.16219422 -0.043404732 0.14559616 0.1398077 -0.11798822 -0.086652845 0.14741506
0.068392985 0.045983523 -0.1719807 -0.083063975 0.108111806 0.055374093 0.02047698 0.0031592124
-0.0070541734 -0.16110948 -0.100211635 0.081806004 -0.100876525 0.11176528 -0.124396846 0.15980764
0.039501466 -0.051205017 -0.005573129 0.046104386 0.14772534 -0.15335192 -0.07580137 0.1751179
00000000: aa9c 323d 3e16 263e 29c9 31bd 2917 153e
00000010: c029 0f3e cfa3 f1bd 0c77 b1bd f9f3 163e
00000020: 9f11 8c3d 3859 3c3d b51b 30be 721d aabd
00000030: b969 dd3d f2cf 623d 57bf a73c ca0a 4f3b
00000040: b226 e7bb e2f9 24be c23b cdbd e889 a73d
00000050: 5a98 cebd 32e5 e43d c6c3 febd 9da4 233e
00000060: 4acc 213d 5abc 51bd cb9e b6bb f4d7 3c3d
00000070: 5045 173e 4908 1dbe c03d 9bbd 1b52 333e

net.3.linear.weight f4 [32, 32]
0.0057756323 -0.014054374 0.005614216 0.014134842 -0.0047460617 0.018567184 0.009749588 -0.013103219
0.0015050279 -0.011291722 -0.017466594 -0.011976964 -0.02028163 0.0044009965 0.019086307 0.006248419
0.008753158 0.00018746228 -0.0031849097 0.006765582 0.0017704036 0.004114673 0.007698733 -0.0045083226
0.0007135086 -0.0066209286 -0.007880239 0.0025756885 0.0109841665 0.0006753726 0.006916644 0.005371208
-0.014922355 0.00803939 -0.019786617 -0.014147725 0.0021306856 0.013725272 0.0043107457 0.008334228
-0.00402215 -0.0064914715 0.0031096074 -0.007811828 -0.021546375 -0.024077421 0.014257864 -0.014921654
0.016347717 -0.018282507 0.005144504 -0.011820081 -0.007063707 -0.01648195 -0.019964598 0.00017563177
0.0034972716 0.007126747 -0.023252377 0.020895515 -0.011573174 -0.0067330794 0.00023175484 0.00041974586
0.0061260853 0.008660013 0.00443579 0.0002062654 -0.0066916784 0.014050365 -0.0010844847 0.019718857
-0.005876586 -0.027802842 7.4965224e-06 -0.0035006583 -0.011399762 -0.019213984 -0.00023751262 -0.026827242
-0.0030892948 -0.0072034486 -0.010980364 0.011237474 2.5679434e-05 0.029008338 -0.016440703 0.018810933
-0.01452837 0.031033203 0.007878656 -0.0151047865 -0.0014607708 -0.010977866 0.0045338566 0.036496762
-0.009459161 -0.00012094281 -0.0026280242 -0.011997303 -0.0058793765 -0.017948402 -0.0013002628 -0.0031075906
-0.0018749441 -0.0077133244 -0.022093162 -0.00036926626 -0.0034286033 -0.004470684 -4.4690878e-05 -0.0008089615
-0.00554047 0.0017875563 0.010648244 -0.020530337 0.023648841 0.0118821645 0.0011100841 0.0021559817
-0.010116177 0.014268642 0.010537902 -0.019291008 0.012456974 -0.0018280505 -0.0021976093 0.013110082
0.024129983 -0.0061877794 -0.016390014 0.00059667515 -0.014288665 0.008837467 -0.026563128 -0.014846276
0.017521283 0.00033672617 0.015452833 0.0013694371 -0.0037738737 0.011237438 -0.00746102 0.010423738
0.012719168 -0.007881437 0.0022244232 -0.001246725 0.028478386 -0.0010707022 0.00909112 -0.008630628
-0.005219095 -0.014521566 0.01127368 0.022361679 -0.0024723709 0.011213859 -0.0050857887 -0.0045177457
-0.005434702 -0.008676348 -0.010412242 -0.011349089 -0.0015118502 -0.0050459052 -0.0061856345 -0.011798994
0.009325173 0.012644831 -0.00041956996 0.011296987 -0.029122049 0.013065289 0.004767052 0.008484205
-0.028669927 -0.000933696 0.010501906 0.0134146195 0.0011393516 -0.0053936834 -0.0031369342 0.016790502
0.013210916 0.0032725213 -0.009619768 0.005073287 0.01639438 -0.03203352 0.0127881635 0.00194724
-0.008064241 0.019695977 0.005738264 0.021377381 0.010568295 0.012303597 -0.0033607471 0.0036295643
-0.032223377 0.0031294685 0.012225982 0.0070286435 -0.006214169 -0.0071468176 -0.013016936 0.006247765
-0.012171739 0.01692454 0.012300534 -0.017648855 -0.0054256637 0.016959472 0.0086324755 0.012431306
-0.017777976 0.015255815 -0.011688134 -0.014211558 0.00015367877 0.006572439 0.018468063 -0.019259874
-0.01109945 -0.010472393 -0.025449233 0.0059871934 0.0049916487 0.008004985 0.0048410855 -0.018828504
0.014216471 0.0057422053 -0.002853045 -0.0034968844 0.008618634 0.011985576 0.0022721726 0.003980904
-0.021910785 0.014137221 -0.010381723 0.017396398 0.016979376 0.007117558 -0.008621245 0.003775909
0.0035702325 -0.015220645 -0.013320686 -0.0011880101 -0.009239845 -0.008827075 0.006391493 0.011270257
00000000: 8441 bd3b 5144 66bc 75f7 b73b d395 673c
00000010: da84 9bbb 351a 983c bcbc 1f3c e2ae 56bc
00000020: 5b44 c53a ea00 39bc 1a16 8fbc 073b 44bc
00000030: a925 a6bc 3c36 903b e35a 9c3c 8abf cc3b
00000040: 6869 0f3c 8691 4439 ebb9 50bb d1b1 dd3b
00000050: e30c e83a 61d4 863b a745 fc3b 8dba 93bb
00000060: c00a 3b3a 60f4 d8bb 1e1c 01bc e2cc 283b
00000070: eff6 333c 7d0b 313a 04a5 e23b f500 b03b
00000080: e57c 74bc a5b7 033c 8b17 a2bc dccb 67bc
00000090: f9a2 0b3b f7df 603c 2841 8d3b 498c 083c
000000a0: 3dcc 83bb 69b6 d4bb 8eca 4b3b 5dfa ffbb
000000b0: 0682 b0bc 033e c5bc d199 693c f479 74bc
000000c0: a6eb 853c 32c5 95bc 3a93 a83b 03a9 41bc
000000d0: ab76 e7bb 2805 87bc cc8c a3bc cb29 3839
000000e0: 7b32 653b 7d87 e93b c57b bebc 122d ab3c
000000f0: 699d 3dbc 2aa1 dcbb 3703 7339 5611 dc39
00000100: 54bd c83b bae2 0d3c 1a5a 913b f248 5839
00000110: de45 dbbb 8133 663c 4525 8eba 7189 a13c
00000120: 6090 c0bb c9c2 e3bc a38a fb36 4d6b 65bb
00000130: 11c6 3abc a566 9dbc cf0c 79b9 cec4 dbbc
00000140: c475 4abb e80a ecbb fce6 33bc 621d 383c
00000150: 2a6a d737 e5a2 ed3c a7ae 86bc 6319 9a3c
00000160: 6708 6ebc 5839 fe3c 7a15 013c 117a 77bc
00000170: 5677 bfba 82dc 33bc bf90 943b a17d 153d
00000180: 99fa 1abc ada2 fdb8 ee3a 2cbb 5690 44bc
00000190: c9a7 c0bb 8708 93bc 946d aaba b8a8 4bbb
000001a0: afc0 f5ba 0ec0 fcbb b8fc b4bc 149a c1b9
000001b0: 6bb2 60bb d17e 92bb 7772 3bb8 7d10 54ba
000001c0: d58c b5bb 704c ea3a f975 2e3c 3d2f a8bc
000001d0: 37bb c13c 69ad 423c 3e80 913a 5f4b 0d3b
000001e0: 52be 25bc 06c7 693c 2aa7 2c3c 2d08 9ebc
000001f0: 5618 4c3c 329b efba c405 10bb abcb 563c
00000200: 3eac c53c dbc2 cabb 5a44 86bc 316a 1c3a
00000210: 011b 6abc 06cb 103c eb9a d9bc cb3d 73bc
00000220: cb88 8f3c 9f8a b039 e12d 7d3c af7e b33a
00000230: 1853 77bb 3b1d 383c 927b f4bb 53c8 2a3c
00000240: 0f64 503c 2521 01bc a1c7 113b 2669 a3ba
00000250: 814b e93c ce56 8cba ecf2 143c 7a67 0dbc
00000260: f104 abbb ddeb 6dbc 3eb5 383c d72f b73c
00000270: 8007 22bb 55ba 373c b0a6 a6bb 9909 94bb
00000280: 9615 b2bb 3e27 0ebc 1c98 2abc 88f1 39bc
00000290: 4629 c6ba 1f58 a5bb ddb0 cabb 9150 41bc
000002a0: 9cc8 183c 442c 4f3c baf9 dbb9 ff16 393c
000002b0: 5d91 eebc cb0f 563c ee34 9c3b 5601 0b3c
000002c0: 32dd eabc 47c3 74ba 3010 2c3c fec8 5b3c
000002d0: 4c56 953a 7fbd b0bb 0695 4dbb 3c8c 893c
000002e0: 9972 583c cc77 563b 3b9c 1dbc d13d a63b
000002f0: 824d 863c 9535 03bd 7285 513c 883a ff3a
00000300: e11f 04bc 7559 a13c 0c08 bc3b 9e1f af3c
00000310: a426 2d3c 0795 493c fb3f 5cbb fcdd 6d3b
00000320: a9fc 03bd c517 4d3b 7c4f 483c 8950 e63b
00000330: 3aa0 cbbb da2f eabb fd44 55bc 0dba cc3b
00000340: f96b 47bc 55a5 8a3c 2e88 493c 5594 90bc
00000350: c4c9 b1bb 97ee 8a3c 3a6f 0d3c adac 4b3c
00000360: 1ea3 91bc 87f3 793c 967f 3fbc 98d7 68bc
00000370: d524 2139 9d5d d73b 564a 973c e2c6 9dbc
00000380: 78da 35bc 6694 2bbc e97a d0bc 3830 c43b
00000390: fc90 a33b 5727 033c f8a1 9e3b 3c3e 9abc
000003a0: 34ec 683c 1c29 bc3b 27fa 3abb fc2b 65bb
000003b0: 2c35 0d3c 265f 443c bbe8 143b 3e72 823b
000003c0: 3f7e b3bc cd9f 673c 1a18 2abc e482 8e3c
000003d0: 5518 8b3c 673a e93b 1f40 0dbc 3e75 773b
000003e0: 90fa 693b 0360 79bc 023f 5abc 01b7 9bba
000003f0: b862 17bc 709f 10bc bb6f d13b e2a6 383c

net.3.linear.bias f4 [32]
-0.058286365 -0.042719614 -0.04819472 -0.103818014 -0.14049423 0.15044148 -0.14965951 -0.095582135
-0.16184033 0.04199586 -0.088181406 0.13383426 0.074598335 0.022646246 0.0012049832 0.10927505
-0.17027366 -0.11976294 0.0042796293 -0.06592981 0.072439864 0.16950442 -0.0621845 -0.075109035
-0.10699999 -0.13129672 -0.09192033 0.10707011 -0.07933228 -0.006272583 0.10607395 -0.023503993
00000000: afbd 6ebd c3fa 2ebd d467 45bd 8a9e d4bd
00000010: b8dd 0fbe 550d 1a3e 5840 19be 91c0 c3bd
00000020: 79b9 25be da03 2c3d 7498 b4bd d90b 093e
00000030: 03c7 983d 9f84 b93c 87f0 9d3a 99cb df3d
00000040: 385c 2ebe 4646 f5bd 223c 8c3b 3506 87bd
00000050: 5a5b 943d 9192 2d3e 2db5 7ebd c4d2 99bd
00000060: d022 dbbd a672 06be ba40 bcbd 9347 db3d
00000070: f678 a2bd 3d8a cdbb 4d3d d93d 728b c0bc

net.4.weight f4 [4, 32]
0.04517872 -0.00462106 0.027218657 -0.037007034 -0.04906469 0.01696015 0.033232767 0.0054138727
-0.038862176 0.0003675577 -0.005416744 -0.04457588 0.0030401442 0.009441079 0.026203357 -0.07533712
-0.03823735 -0.07752762 0.030532267 -0.019941032 0.009992188 0.049969394 -0.011589492 0.032451883
-0.018125404 0.005941398 0.05556421 -0.05933898 -0.012130527 0.009187001 -0.022672314 0.037436295
-0.05826319 0.0070505966 -0.055647127 0.06820513 0.02896352 -0.039176527 0.058186673 -0.040288754
0.062034287 0.04514835 0.008728101 -0.042509258 -0.009503704 0.063855246 0.08813064 0.02054671
0.03849783 -0.016390447 0.07916242 -0.045674052 0.06378095 -0.031910896 0.02905986 -0.05484779
0.06327986 0.06328465 -0.02219718 -0.041026834 0.021625826 -0.044893444 0.05530396 -0.012582495
-0.0071673356 0.025319442 -0.00346091 -0.034889996 0.028253973 0.034928516 -0.048984196 0.040390328
-0.013877286 -0.064655565 0.038526084 0.024675444 -0.06289922 -0.025683537 -0.038052905 0.062493064
-0.038944155 0.024248697 -0.031380273 0.0859969 -0.021911208 -0.012065956 -0.011026186 -0.007119181
-0.029657451 0.0027409282 0.0055611846 0.023590231 -0.036020022 0.039966114 -0.02246917 0.04520335
0.06875368 0.076806486 0.037684303 -0.029614093 -0.06501863 0.07208786 3.4933748e-06 -0.009759891
-0.039946444 -0.049288772 0.043474723 -0.043573063 -0.019126834 -0.017418092 0.05921156 -0.033964973
-0.019664962 -0.053925525 0.10145154 -0.085222945 -0.01680688 0.03680153 0.06976982 0.06042034
-0.045486912 0.0033741766 0.08664454 -0.009872371 -0.09433369 0.041117594 0.023291301 0.06593112
00000000: 520d 393d 436c 97bb a9f9 de3c b094 17bd
00000010: 0ef8 48bd 03f0 8a3c 151f 083d db66 b13b
00000020: f22d 1fbd c2b4 c039 f17e b1bb 3395 36bd
00000030: 283d 473b c1ae 1a3c 6ca8 d63c 594a 9abd
00000040: c49e 1cbd cdc6 9ebd ce1e fa3c 605b a3bc
00000050: 46b6 233c b5ac 4c3d dae1 3dbc 44ec 043d
00000060: ba7b 94bc 0fb0 c23b 4c97 633d 6e0d 73bd
00000070: 1ebf 46bc 1385 163c 4abb b9bc cd56 193d
00000080: 62a5 6ebd b108 e73b 3eee 63bd 22af 8b3d
00000090: e744 ed3c 9177 20bd 2655 6e3d d205 25bd
000000a0: aa17 7e3d 7aed 383d 4f00 0f3c 301e 2ebd
000000b0: 6cb5 1bbc 8ac6 823d d67d b43d 9351 a83c
000000c0: e7af 1d3d 4245 86bc e81f a23d b714 3bbd
000000d0: 969f 823d 00b5 02bd f20e ee3c 14a8 60bd
000000e0: df98 813d 629b 813d dcd6 b5bc c10b 28bd
000000f0: a528 b13c 30e2 37bd 6886 623d cf26 4ebc
00000100: f8db eabb b86a cf3c 6fd0 62bb d0e8 0ebd
00000110: e074 e73c 3411 0f3d a7a3 48bd 5470 253d
00000120: 8e5d 63bc 236a 84bd 87cd 1d3d 2824 ca3c
00000130: 4ed1 80bd 4866 d2bc 5ddd 1bbd baf8 7f3d
00000140: e883 1fbd 34a5 c63c 9a88 00bd 251f b03d
00000150: 227f b3bc 4ab0 45bc 2da7 34bc 0548 e9bb
00000160: 2ff4 f2bc 25a1 333b 993a b63b 4d40 c13c
00000170: bb89 13bd 82b3 233d 4411 b8bc 2627 393d
00000180: bbce 8c3d b84c 9d3d db5a 1a3d 4199 f2bc
00000190: 7d28 85bd cda2 933d b96f 6a36 f3e7 1fbc
000001a0: e29e 23bd 06e3 49bd 8d12 323d ab79 32bd
000001b0: e1af 9cbc 63b0 8ebc d287 723d db1e 0bbd
000001c0: 6a18 a1bc 03e1 5cbd d3c5 cf3d 5e89 aebd
000001d0: 95ae 89bc 33bd 163d 7be3 8e3d 527b 773d
000001e0: 7c50 3abd 4a21 5d3b b172 b13d babf 21bc
000001f0: 0632 c1bd ec6a 283d 66cd be3c e506 873d

net.4.bias f4 [4]
0.02440177 -0.07075045 0.13350295 0.08702371
00000000: 39e6 c73c 9de5 90bd ffb4 083e 7d39 b23d
