outputs_inverse/chirp(1)/2_nodes_given/model.pt (torch, 16367 bytes, 10 tensors)

net.0.linear.weight f4 [32, 1]
00000000: b059 2e3e ed50 41bf 989e 17bb 2018 f9be
00000010: 51cb 4a3f aa9b b6be 33e5 12bf 671b 43bd
00000020: d88e 373f 8d33 0f3f 5ef3 2d3e 2064 18bf
00000030: ec3a 673f 32a1 d43e 62ce 173c dedb 1e3d
00000040: 8f6d dabe 5464 543f 91e4 0abe 9bef 15bf
00000050: c102 07bf baad a03e 0a5f 06bf e7b2 73bf
00000060: 08bb 393f 7d22 d23d 6649 3dbe 5e9a 2f3f
00000070: c4a3 58bf ca97 053f 82ec 5f3f 0451 10bf
0.170264 -0.7551411 -0.00231353 -0.48651218 0.79216486 -0.35665637 -0.5738098 -0.047633555
0.7170234 0.55938035 0.16987368 -0.5952778 0.9032428 0.41529232 0.009265514 0.0387839
-0.42661712 0.8296559 -0.13563754 -0.58568734 -0.5273858 0.31382543 -0.5248877 -0.9519486
0.7255101 0.10260484 -0.1848503 0.6859492 -0.84624887 0.52184737 0.8747026 -0.5637362

net.0.linear.bias f4 [32]
00000000: f3a3 9c3e 3a5f 0dbf 6685 af3e b4e8 ab3e
00000010: 5069 693f 8ec4 7d3e a76f 6c3f 1d06 ee3e
00000020: a774 5d3f 99f9 1dbf 68aa 8bbe 691b b7be
00000030: 85c4 8cbe 151a 34bf e55b d53e 6902 ab3e
00000040: 25d3 1bbf 9242 1bbe d6d5 e43e 6d2d 0fbf
00000050: f91e 023f 43a2 a2bd ac27 123f b0f5 373f
00000060: b470 133f 39a0 5abf 96b7 7ebf 33e8 513f
00000070: eeb2 4abd b35d 74bf aa3f 7e3e 82aa 28bf
0.30593833 -0.5522343 0.34281462 0.33575976 0.9117632 0.24782011 0.9235787 0.4648904
0.8650612 -0.6170898 -0.27278447 -0.357631 -0.27493683 -0.703523 0.41671672 0.33400276
-0.60869056 -0.15162113 0.44694394 -0.5592869 0.5082851 -0.07941105 0.57091784 0.71859264
0.57593846 -0.8540073 -0.9949888 0.8199493 -0.049487047 -0.95455474 0.24828973 -0.65885174

net.1.linear.weight f4 [32, 32]
00000000: 6725 1dbc e2de c039 8ae0 603c a9ff 66bc
00000010: 5006 11bc c422 d1bb 9a35 0bbc 5dbf 27bc
00000020: 652c 703a b97c 853b ff5e 20bc dba4 12bc
00000030: 2f87 bb39 61d3 0bbb d59d 1ebb b678 21bb
00000040: 2cfe 38bc e7f3 fa3b 820a d4bb e98f e13b
00000050: e703 383c fc9e fbba 8139 d0bb 1254 4b3c
00000060: b930 4bbc 28ed 533b 09e2 943b 11b5 42bc
00000070: 6ed1 89bb 5e04 3fbc 8db0 8bbc ee2e fb3a
00000080: 6032 53bb 3975 ec3b bfdb 7d3b f2bc 853c
00000090: f1e2 22bb 658a e63a 621a 1cbc 97e4 3cbc
000000a0: d389 ddbb e0d1 fdbb a3da 90bc eaf3 c8bb
000000b0: e603 853c 292c b6bb 4ed7 94bb 5a07 d53b
000000c0: b427 3d3b 7917 723a 6c7a 323c 4cbe 01bc
000000d0: fa3d 153b 5bea 2a3b c1eb 2e3c 937a 8b3c
000000e0: 29e2 73b9 59c3 663b 36fd d1b8 d004 e9bb
000000f0: f54a c93a d596 023c c65f e0bb 5c7d 9f3a
00000100: c32d 64bc 0dba 18bb 67e3 07bc 0fac 29bb
00000110: 1f1a 64bb 5a6f af3c a972 403c 7631 3ebc
00000120: 56f8 f5bb 1040 473c 954c 473c 8e20 0fbb
00000130: 4677 febb 1129 833c 5b50 4bbc 312d 3f3c
00000140: 1b7d 3d3c 5a94 52bc 267b 1bbc 5b3e 493a
00000150: dafa cd3b 2b0e 513c 3107 b7bb 8e07 92bc
00000160: 5d16 0abc 9857 bdb9 e243 6a3b c05d 163c
00000170: 9672 8bbb b5e6 663b 8814 7e3c 5c19 7cbb
00000180: 7ac7 bcbb 3f85 1bbc 18d4 443c 31b0 423c
00000190: 9d24 233a c418 04bc 21e9 9ebc 6d8e 723c
000001a0: 749f a6b9 2a13 64bc 6ae4 0ebb 28e3 ba3b
000001b0: 1b1c e9bb 95cb 6fbc 5f07 253b 5661 8d3b
000001c0: 2a07 09bc 0a2f a63a 0a5a 21bb 62af fbba
000001d0: 74e7 153c 8ceb d63a 15ba e93b 9f36 b9bb
000001e0: fda1 ed3b 9f9b 003c dbf3 0a3c c775 6b3b
000001f0: 1695 0e3b e06a 74bc e519 e2b9 9276 113c
00000200: e74a 5c3c 46a6 83bb 6372 fcbb 8fe3 05bc
00000210: 0788 07bc cd28 7a3b 8f4b 3e3a bb63 963c
00000220: 575f 9b3c 09a9 f03b 53b4 64bb 2d79 103b
00000230: 03ef e33b 886f 3f3c 5363 873a 7d92 0c3c
00000240: 7b99 b83b faed 4bbb 577e 04bc a12e 2c3b
00000250: f309 a13b ea41 803c 9bba 6e3c 1f5c 233b
00000260: b44f 083c 4f50 fdbb 302a 95bb 0fdf 29bc
00000270: c7f7 933b 6534 91bc ac30 0bbb 3a07 043c
00000280: 92c3 6d3c ca6e 273b dced f1ba a839 babb
00000290: 7c69 16bc 4720 533c 1638 3ebc dd83 dfba
000002a0: fe85 823c 7291 4abc a1fb d5ba 8072 093c
000002b0: ac5e f3ba 5d2a 00bc 9bc2 95ba 8ead f1bb
000002c0: 08c0 a4bb f1fd 873b f9be b8bb 20c1 c9bb
000002d0: a329 293c cedb 713c bdfc e1ba a482 7ebc
000002e0: ecc8 74bc 9c41 6a3b ff7b 42bb e8bb 113b
000002f0: f437 93bc f581 1dbb 3640 e6bb c3e0 d8bb
00000300: 7a1f c5bb facb 03bb 1e93 3c3c f7c8 e7bb
00000310: 9c7b 843b 8e8b 833a 7010 d23b 16d2 11bb
00000320: c35b 6f3c 5ce5 9e3a 5f08 453c afa9 38bc
00000330: 21da 91bc fd88 25bc 5c75 4bbc beb4 1c3c
00000340: 5410 44bc 3e8c d6bb aa64 483c 1711 ebbb
00000350: a6bb b3bb cab4 dfbb 5f23 f0b9 bd4b 6b3c
00000360: 0de5 0fbb f665 573b 501a d53b 6798 bc3b
00000370: bb3a 723c ad12 043b e35c 0abb b386 c83b
00000380: d646 dabb f41c c9bb 8b14 813a b18f 013c
00000390: c757 75bb 7e42 913b 5c60 353c 60e6 1fbb
000003a0: b907 fabb c95b 9c39 3760 0fbc f34a 24bc
000003b0: a571 913b a120 443c 20ca 1ebb ca78 e63b
000003c0: 93fe 413c 8d3d ad3b ca98 1ebc fdb7 aebb
000003d0: ba7d 51bc e80e 25bb a71d 9e3c a88f a0bb
000003e0: 76af 6fbc 505e ad3c 388f 1f3c 2b76 3d3c
000003f0: d8c8 51bc dfb7 93bc 1b38 f83a adb4 2b3c
-0.009591437 0.00036787154 0.013725409 -0.01409904 -0.008851603 -0.006382318 -0.008496666 -0.010238496
0.0009161889 0.004073706 -0.009788274 -0.008950437 0.0003576814 -0.0021335708 -0.0024202962 -0.00246386
-0.011291068 0.00765847 -0.006470979 0.0068836105 0.011231399 -0.0019197161 -0.0063545112 0.012410181
-0.012401753 0.00323374 0.004543547 -0.01188399 -0.004205874 -0.011658756 -0.01705196 0.0019163766
-0.003222607 0.0072161225 0.0038735715 0.016325448 -0.0024854506 0.0017588852 -0.0095277745 -0.011529109
-0.0067608147 -0.0077459663 -0.01768238 -0.0061325924 0.01623721 -0.0055594635 -0.004542268 0.0065011205
0.0028862776 0.0009235065 0.010893445 -0.0079189055 0.0022772537 0.0026079628 0.010676325 0.017026221
-0.00023258537 0.003521165 -0.00010013061 -0.0071111694 0.0015357422 0.0079705315 -0.0068473546 0.0012168097
-0.013926926 -0.0023304254 -0.008293963 -0.0025889908 -0.0034805608 0.021415401 0.011746087 -0.011608472
-0.0075064106 0.01216127 0.012164255 -0.0021839472 -0.0077656833 0.016010793 -0.012409295 0.011668489
0.011565472 -0.012852753 -0.00948981 0.0007676833 0.0062860074 0.012759726 -0.005585574 -0.017825868
-0.008428183 -0.00036114152 0.0035746028 0.009177625 -0.004255603 0.0035232727 0.015507825 -0.0038467264
-0.005761084 -0.009492218 0.012013458 0.011882828 0.00062234123 -0.008062545 -0.019398274 0.014804465
-0.0003178079 -0.013920585 -0.0021803626 0.0057033487 -0.007113946 -0.01463594 0.0025181395 0.004314582
-0.008363524 0.0012678814 -0.0024620318 -0.0019202048 0.009149421 0.0016397103 0.0071327784 -0.0056522633
0.0072519765 0.007849603 0.008480991 0.0035928355 0.0021756343 -0.014918059 -0.00043125372 0.008878367
0.0134455925 -0.004017624 -0.0077040656 -0.00817193 -0.008272178 0.0038171292 0.0007259184 0.018358102
0.01896636 0.0073443693 -0.003489752 0.0022044883 0.0069559827 0.011684306 0.0010329284 0.008579847
0.0056335307 -0.0031117187 -0.008086762 0.002627291 0.004914516 0.01565643 0.014570857 0.0024926735
0.008319784 -0.007730521 -0.0045521483 -0.010368123 0.0045156213 -0.017725179 -0.0021238727 0.008058364
0.01451196 0.0025548213 -0.0018457728 -0.0056831427 -0.009180423 0.0128861135 -0.011610052 -0.0017052848
0.015933033 -0.012363778 -0.0016325602 0.008389115 -0.0018567643 -0.0078226 -0.0011425795 -0.0073754257
-0.0050277747 0.004150145 -0.005638 -0.0061570555 0.010324868 0.014761878 -0.001724146 -0.015534077
-0.014940482 0.0035744673 -0.0029675958 0.0022237245 -0.017971016 -0.002403376 -0.0070266975 -0.0066185906
-0.006015715 -0.0020110593 0.011509685 -0.0070735174 0.0040430557 0.0010036097 0.006410651 -0.0022250465
0.01460928 0.0012122798 0.012025922 -0.0112709245 -0.017804207 -0.010103461 -0.012418117 0.009564577
-0.011966784 -0.00654748 0.012231031 -0.007173668 -0.005485016 -0.0068269717 -0.0004580272 0.014361319
-0.0021956593 0.003286717 0.006503381 0.0057554725 0.01478451 0.0020152733 -0.0021112494 0.006119573
-0.0066612763 -0.0061374847 0.0009848041 0.007907794 -0.0037436353 0.0044329753 0.011070337 -0.0024398789
-0.007630315 0.00029823024 -0.008750967 -0.010027635 0.0044385963 0.01197067 -0.0024229363 0.007033442
0.01184048 0.0052868784 -0.009679982 -0.0053319917 -0.012786323 -0.0025185887 0.019301249 -0.0048999377
-0.0146292355 0.021163136 0.009738736 0.011563818 -0.012804233 -0.018032013 0.0018937619 0.010480088

net.1.linear.bias f4 [32]
00000000: 73ed a6bc e551 07be 1cb6 263e 18ab 303d
00000010: fa00 2cbe 1a03 e43d e1ee bebb 8d9f e33d
00000020: 0195 643d 12ae 21be 1dfe aebc 6c5d d3bc
00000030: 9e49 92bd d689 613c cd90 2cbe b43a 143e
00000040: c38b 273e 0ea0 1ebe 59cf e93c bc72 13be
00000050: 94cd 30bd c688 2fbe 3dab e43c 80ef 2c3e
00000060: 4af2 4ebd 2567 313e 362a e1bb 2e54 5abc
00000070: c302 1d3d 0442 fbbd d274 a9bc a430 4dbc
-0.020376896 -0.13214834 0.16280407 0.043131918 -0.16797248 0.11133404 -0.0058268164 0.11114416
0.055806164 -0.15789059 -0.021361405 -0.025801383 -0.071429476 0.013765773 -0.16852112 0.14475518
0.16361909 -0.15490744 0.028541254 -0.14399236 -0.043164805 -0.17142019 0.027913684 0.16888237
-0.050524034 0.17324503 -0.006871487 -0.013325734 0.038332712 -0.12268451 -0.020685587 -0.012523804

net.2.linear.weight f4 [32, 32]
00000000: 0931 86bc 9c2e 773c 85df 863b d2ca a8bb
00000010: e648 8d3b 6e71 2abc ccd0 72bb 65c0 06bc
00000020: dc1c 46bb 961a 79bc be71 4e3c 4d3d de3a
00000030: 8a6d 433b 8c97 9fbc 2db2 01bc 073a c73b
00000040: f88c a339 4530 123c 0383 913b dcb7 cbbb
00000050: 2695 e5bb fe5f 5e3c 95ff d5bb 21e4 553c
00000060: 0046 dabb 7e19 3cbc 9423 043c 5f40 b43c
00000070: 0248 29ba ddf5 4b3c 8124 26bc 497f 31bb
00000080: beba 1ebc bdff 863b 4e46 f7bb 657d a43b
00000090: bef8 0aba 709e a93c 64e8 f8b9 6fd7 873c
000000a0: f7db 013c 04b4 55bc 77ae 3f3c effe 6bbc
000000b0: 8426 4a3c 5c22 3e3c 7f40 c9bb d5e8 29bc
000000c0: 58ee cebb 7ce8 593b c47d 15bc bab0 cb3b
000000d0: 1d48 093c 47fc b43a 0138 a8bc c52a d63a
000000e0: 6675 2abc 2a43 7aba 5cea 42bc 18e9 423c
000000f0: 1ad2 95bc 44a7 abba 18a3 fdbb 11d8 69bc
00000100: 90ba 76bc 4837 823b a94f b83a 87c1 643c
00000110: 4528 503c fe3c dabb dc7a 8fbc 7cb2 e1bb
00000120: 53e6 d0bb 2890 a9ba eb42 233c b4cd 3cbc
00000130: 89e0 98bb 7693 a9ba 559e 84bb 77f3 54bc
00000140: a53b 15bc e432 9f3c 5e2d a83c 5d3e c8bb
00000150: 54b3 f43b 3fef 193c 5da1 dab9 1cb6 74bb
00000160: 4cd1 1a3c 17e0 29bc 3af2 683c dfbe 38bb
00000170: 2950 233c 1dc9 1e3b dff3 37bb 7dc3 0c3c
00000180: ad9b 90bc 1f77 3c3c 09a7 33bc faf5 243c
00000190: c236 11bc 6a7e 58bb c699 c83b 10bd 193a
000001a0: 981a aa3b 13ba 2ebc 18f4 89bc 14ae b7bc
000001b0: af53 5bbc 9e50 01bc d68e abbc 057a 793c
000001c0: daa9 923c 6ec6 373c b1f0 2abb c510 55bb
000001d0: 3d63 f4bb 8f2b eebb 7b2a 69bb f9f4 bc3b
000001e0: 98c5 113c 0a4a 85bc ebb0 c6bb e737 62ba
000001f0: 394a 06ba d8d6 6eba 97b1 523c c9f0 633b
00000200: be80 41bb 6f8f 40bc 1c61 86bc 8955 e5ba
00000210: 39bf 7cbc a3a0 b93a 33c2 4dbb 65cb 273b
00000220: a4bd 823b 09d5 fdbb 44cf e93c ee6c adbb
00000230: 1810 a5bb bd57 41bb 1ad8 193c b359 42bc
00000240: 8e48 823c 926e fa3c d3c2 a43b f01d 8ebc
00000250: 1e69 b23a 44f0 213b 2cc7 483c 38bb 0cbc
00000260: 1f56 9dba 6d79 b7b8 3bd0 6e3c 352a 8abb
00000270: ab6e bcba 3586 e13b ed2b 64bc 21b9 7fbc
00000280: 48fa 0dbc d893 adbc 294e cbbb 54ba 4fbb
00000290: 4186 3abc bf19 ec3b e8a7 26bc 9610 a9bb
000002a0: c89f 273c 774d 91bc 5257 debb fda3 c73b
000002b0: a00d 153c 72cc 8d3c f5ea bd37 3d6b 67bb
000002c0: 57da 323c 6a4b 7f3c fcaf 42bb db2b 89bb
000002d0: e91a 7e3b a30a a7bb 068a c63b 8309 db3c
000002e0: 9827 b0bc f1ba aa3c bbba 98ba db11 42bc
000002f0: 8bf2 8c3b 583f da3b 25a5 81bc 67b7 4a3c
00000300: 0d38 0abc ac8b 8fbc f7fe 92bc 1db9 263c
00000310: 0204 863c b59c 353b 38f8 01bc 8d29 d8bc
00000320: bfc2 e03b e619 d9bb 5c4b b5ba 4ad4 4fbb
00000330: 9503 1a3c 88da 5e3b 1c14 583c 8915 8ebc
00000340: d02c b73b 5641 2b3b a5d5 5e3b b39a 563c
00000350: f703 29bc a993 82bb 01ba 65bc 9f3b cdbc
00000360: 79ad 2c3c 556d 203c c856 c83b 4d30 973c
00000370: 1959 923c cbd5 f33a 860b bd3b 32b0 7ebb
00000380: 2713 58bb 4731 b7b9 aa32 7abc e228 e8bb
00000390: 9c8e 06b6 0ffd 52bc c4a1 6ebc 2cfe 0abc
000003a0: 3931 87ba bab5 5d3c 5462 84bc 3a30 7abc
000003b0: 20a6 70bc ef11 243a 05b3 95bb 2506 903b
000003c0: 01b5 85ba 2e89 56bb 01fb ab3a d34a 0fbc
000003d0: ef13 23bc 1d77 7e3c 297b c8bb 0988 90bc
000003e0: e549 85bc 223c f3bb d5af 25bb 1088 9ebc
000003f0: 8e52 04bc 3ef1 613b afb9 48bc 73a3 743b
-0.016380804 0.015086796 0.004116001 -0.005151131 0.0043116687 -0.01040302 -0.0037050722 -0.008224581
-0.0030229604 -0.0152040925 0.01260036 0.0016955525 0.002981993 -0.019481443 -0.007916016 0.0060799154
0.00031194813 0.008922641 0.0044406666 -0.006216986 -0.0070063053 0.013572691 -0.006530712 0.013054878
-0.0066611767 -0.011480687 0.008065123 0.02200335 -0.00064575684 0.012448755 -0.010140539 -0.0027083925
-0.0096880775 0.004119842 -0.007546223 0.005019831 -0.00053013477 0.020705432 -0.0004747539 0.016582219
0.007925979 -0.013043407 0.0116993105 -0.014404043 0.012338284 0.011604872 -0.0061417217 -0.010370453
-0.006315034 0.0033250144 -0.009124223 0.006216136 0.00837901 0.0013808095 -0.020534517 0.0016339651
-0.0104039665 -0.00095467514 -0.011896696 0.011896394 -0.01828866 -0.0013096114 -0.0077403896 -0.014272706
-0.015059128 0.003973875 0.0014061827 0.013962156 0.0127049135 -0.006660103 -0.017514639 -0.006887732
-0.006375113 -0.0012936639 0.009964685 -0.011523653 -0.0046654386 -0.0012937624 -0.004047195 -0.0129975
-0.009108459 0.019433446 0.020529445 -0.00611095 0.0074676666 0.00939542 -0.00041700425 -0.003733999
0.009449314 -0.010368369 0.014217908 -0.002818994 0.009967842 0.002422876 -0.0028068942 0.00859153
-0.017652357 0.01150301 -0.010965117 0.010068411 -0.008863153 -0.0033034333 0.006121847 0.00058646593
0.0051911585 -0.010664481 -0.016840026 -0.022421874 -0.013386651 -0.007892756 -0.020942133 0.015226846
0.017903257 0.011216743 -0.0026083405 -0.0032511216 -0.007458119 -0.007268376 -0.00355783 0.0057665077
0.008897208 -0.016270656 -0.0060635707 -0.0008629546 -0.00051227544 -0.00091109937 0.0128597235 0.003478097
-0.00295262 -0.011752947 -0.016403727 -0.0017496805 -0.01542645 0.0014162253 -0.003139627 0.002560341
0.003989892 -0.007746343 0.028541215 -0.0052925264 -0.005037319 -0.002950176 0.0093899015 -0.011862206
0.015903737 0.030570302 0.0050281077 -0.01734826 0.001361165 0.002470986 0.0122545175 -0.008589558
-0.0012003816 -8.748737e-05 0.014576013 -0.0042164573 -0.0014376243 0.006882454 -0.013926488 -0.015608103
-0.008665629 -0.021188661 -0.006204386 -0.0031696754 -0.011384548 0.0072052176 -0.010171868 -0.005159448
0.010230966 -0.017737133 -0.0067853117 0.006092547 0.009097487 0.017309401 2.2639966e-05 -0.0035311722
0.010916314 0.015581945 -0.0029706946 -0.004186136 0.0038773364 -0.0050977035 0.006058934 0.026737934
-0.021503255 0.020841094 -0.001165233 -0.011845077 0.0043013743 0.006660383 -0.015825817 0.012372828
-0.008436215 -0.017522655 -0.017943842 0.01017597 0.016359333 0.0027711813 -0.007932715 -0.026387
0.006859153 -0.006625402 -0.0013831663 -0.0031712228 0.009400268 0.0034004766 0.013188388 -0.017344253
0.005590059 0.0026131473 0.0034001854 0.013098407 -0.010315887 -0.0039848876 -0.014021398 -0.025052844
0.010539406 0.009791692 0.0061138608 0.018455649 0.01786475 0.0018603144 0.005769196 -0.0038862345
-0.00329704 -0.00034941194 -0.015270868 -0.0070849517 -2.0050566e-06 -0.012877717 -0.014564935 -0.008483451
-0.0010314352 0.0135320965 -0.016160168 -0.015270287 -0.014688045 0.0006258776 -0.00456846 0.0043952637
-0.0010201038 -0.0032735574 0.001312107 -0.008745867 -0.009953483 0.0155313285 -0.0061181975 -0.017642992
-0.016270587 -0.00742294 -0.0025281806 -0.019351989 -0.008076323 0.0034476067 -0.012251302 0.0037328869

net.2.linear.bias f4 [32]
00000000: f848 11be 3dc1 81bd 854a 0abc 3432 02be
00000010: 8a4b 053d 5533 2c3e 304a 80bd 9bcb 323e
00000020: d64a 35be c336 07bd f191 863d ffc0 0f3d
00000030: 08e4 123e daeb bfbb 5bd1 793d 8ce1 213e
00000040: c919 e6bc 16f1 01bc f401 88bd 9c07 3dbc
00000050: d446 85bd f052 a43d fc51 b83b 6ad6 0d3e
00000060: e15b a1bd a73a 33be c6be 27be e2ed 68bc
00000070: 23eb aa3b b56e d4bd 1908 1c3e 79be 2bbd
-0.14187992 -0.063356854 -0.008440618 -0.12714463 0.032542743 0.16816457 -0.0626415 0.17460482
-0.17704329 -0.03301121 0.06570805 0.035096165 0.143448 -0.005856973 0.060990673 0.15808696
-0.028088467 -0.0079310145 -0.066409975 -0.011537459 -0.0650765 0.080236316 0.0056250077 0.13851324
-0.07878853 -0.17502843 -0.16381368 -0.014216872 0.0052160188 -0.10372678 0.15237464 -0.041929696

net.3.linear.weight f4 [32, 32]
00000000: 6e47 4b3c 01b3 94bb 77ec 613c d35f 7b3b
00000010: e875 80bc b6c8 d53a 50c0 5bb8 2d2e 9f3c
00000020: 75ae c4bb 344c 84bc 2492 003c 996c f73b
00000030: ff86 fcbb 4587 7eba e9ee 473a 61f1 2739
00000040: a388 48bc e527 9bbc 8560 a7bc 5f4c 583c
00000050: efcb 6bbc 7e65 6c3c b36b 863c 840c 41bc
00000060: 80f0 89bb 48f0 00bc 2547 483c 8cde a6bb
00000070: adf5 55ba b6ce 1abc 9418 2ebb f3a3 e1bb
00000080: 2386 fcbb bb5a 043c 359e 3e3b 03c2 313c
00000090: ad10 cbbb 503b d33b 5f60 9dbc ffa9 de3b
000000a0: b890 783c 5f4a ebbb 8741 f33b b65c a339
000000b0: 10f7 4639 7aa5 95bc b31e b8bb f71a 0cbc
000000c0: 9a2a 81bb 7732 073b faaf 0bbc a398 a83b
000000d0: 421a 943a 824f a7bb dbb3 71bc 65b1 9d3c
000000e0: e58f e5bb a7e1 84b9 d07a 133c 71ad 6f3c
000000f0: bbc4 243c 7c46 26bc 99b3 01bc 94bf c8bb
00000100: d950 863a 07fb b6bb 9563 a5bc 07f5 9fbc
00000110: 9977 64bc 697c 00ba 9b1c 1a3c c5ba b5bc
00000120: b69f 173b 71a7 e13c 5963 573c 26b0 ddbb
00000130: afb8 093c 362c 0fbc 492b 01bc 973a 7fba
00000140: 21d9 7c3c 60b5 b93c 7406 f7bb 93e6 f83b
00000150: 63e5 91bb fb48 713b 3856 58bc 6c94 403c
00000160: 407f 3fbc e678 d739 dbac 9a3b 9363 df38
00000170: fe83 b63c 5504 08bb 68fb 1abb 0b40 a33a
00000180: 83ba 2ebc 164e 7c3c 4428 95bc d8d1 3a3c
00000190: e411 82bc 06a3 4ebc b65e 853c 686e 0dbc
000001a0: efc2 19bc 12f7 7a3b a2a7 d73b b614 253c
000001b0: 71a1 b63c 797e 973a 9a4d 7a3a 2ecb 143c
000001c0: 9366 44bc 8de7 2fbc 31ac 013d f5eb 54ba
000001d0: 0c19 c3bb a4fb 8b3c f3be 90b9 3771 93bc
000001e0: e8c2 cfbb 96e1 453c f2b2 bd3b 9a72 b9ba
000001f0: be90 b8bb 964a 9ebc b4e1 12bc 406f 443c
00000200: 0fdd 963b 4e3e 90bb fa90 14bc e84b 4e3a
00000210: 2cdd ec3b ef2d 05bc 188f 833b 1189 933b
00000220: e3f7 603c 6a40 8db8 ff56 5dbc a227 50bc
00000230: 3467 88bb f53d a33c d669 ad3b 1311 c5bc
00000240: a54a bbbb 8867 c13b f709 afbc cfbd f239
00000250: 1f67 833c 083d 0dbc 9cb3 f5b9 2848 fbbb
00000260: bc7f 4dbc f0fb 71bc 05eb 0c3c b9be 30bc
00000270: 8294 7c3b 2ce3 943b 240e f6bb c106 b73c
00000280: 7a49 9a3c bc21 813a b5ec 89bc 2757 3dbc
00000290: 2180 3f3c 891c 223c 066b 933a c748 78bb
000002a0: 09a3 27bc 80fb 753c bbd2 56bc b20b 3abb
000002b0: 7036 863c 93d1 bd3b 809d 8f39 7725 013c
000002c0: 25fd c8ba 7ab4 47bc 3391 2c3c 0f41 91bc
000002d0: cde0 1e3c 899a 533c 3a3e a03c 3f55 f93a
000002e0: 453d 493c 6dbe 87bb 1c8d 67bb 2841 89bb
000002f0: 2011 1c3c d3d3 853b 6b41 b83c 0f8b 293b
00000300: 34f6 26bb 8d11 fb3b 889e 893c d254 60bc
00000310: c2bd 49bc 928c 9bbc 8d27 83bc d3b0 3ebc
00000320: 6986 823c e403 98bc c21b 11bc 2571 d03c
00000330: 3391 173c ea3f f2bb 5a92 03bc de7b a73b
00000340: a202 71bc 0564 cdba 7473 81ba 0861 813c
00000350: 0b8d 213c 6ba9 3ebc fa64 25bc 07e0 fbbb
00000360: 701a 763a b56a 39bb ed32 4b3c 35ed e1bb
00000370: 010f c9bc 4d0c dabc ae5f 9bbb 918a aa3c
00000380: 4d58 c039 8a9d b8bb 6165 94bc 6c05 203c
00000390: d754 d7b9 e2b3 0ebb eaf1 a8bc f563 2bbc
000003a0: 5420 293c 30b5 87bc 1d7a 323c 095e 44bc
000003b0: b06d 173c d40e ba3b b4f3 78bc ed34 c73c
000003c0: 64af 8cbc b0ec 353c 2088 45bc 96a9 4c3b
000003d0: f7dd d1bb f7f5 abbc 24ad 8f3c f71b a7b9
000003e0: a8ec a43b d538 b63b 9a8d 46bc 5eb7 cabc
000003f0: a300 48bc f318 b43c e293 81bc 6a40 2dbc
0.012407167 -0.0045379405 0.013789288 0.0038356676 -0.015681222 0.0016310427 -5.2392774e-05 0.019431198
-0.006002242 -0.016149618 0.007847343 0.0075507876 -0.0077065225 -0.0009709488 0.0007626848 0.00016016282
-0.012239608 -0.018939922 -0.020431766 0.013201802 -0.014391883 0.0144284945 0.016408777 -0.011782769
-0.004209578 -0.0078697875 0.012223993 -0.0050924476 -0.0008161914 -0.009448698 -0.0026564943 -0.0068859993
-0.00770642 0.008078272 0.0029085998 0.010849479 -0.0061970563 0.0064462796 -0.019210992 0.0067951675
0.015171222 -0.0071804966 0.007423583 0.00031158858 0.0001897479 -0.018267382 -0.005618894 -0.008551351
-0.003941846 0.0020629445 -0.008525843 0.005145149 0.0011299329 -0.0051059136 -0.014752354 0.019249627
-0.007005679 -0.00025345126 0.009001449 0.014628754 0.01005667 -0.010148641 -0.007916355 -0.0061263535
0.0010247483 -0.005584124 -0.020189086 -0.019526018 -0.01394453 -0.0004901351 0.009406234 -0.022183785
0.0023135967 0.027545663 0.013146245 -0.0067653833 0.008405848 -0.008738568 -0.007883855 -0.00097362086
0.015432627 0.022669494 -0.007538611 0.007595846 -0.004452394 0.0036817181 -0.01320415 0.0117541365
-0.011688054 0.00041098072 0.004720313 0.00010652016 0.022279736 -0.0020754535 -0.0023648385 0.0012454999
-0.010664585 0.0153994765 -0.018207677 0.01140257 -0.015877672 -0.01261211 0.016280513 -0.00863228
-0.009384855 0.0038294238 0.0065812627 0.010075739 0.022293778 0.0011558078 0.00095483067 0.009081645
-0.011987346 -0.010736358 0.031658355 -0.00081223185 -0.0059539136 0.017087765 -0.0002760809 -0.017998321
-0.0063403733 0.01207771 0.005789154 -0.0014148534 -0.005632489 -0.019322675 -0.008964945 0.011989415
0.004603989 -0.0044019585 -0.009067768 0.0007869587 0.007228514 -0.008128627 0.004014861 0.0045024236
0.013730976 -6.735402e-05 -0.013509511 -0.012704762 -0.0041626934 0.019927004 0.0052921576 -0.024055993
-0.0057156854 0.0059022345 -0.021367056 0.00046299255 0.016040383 -0.008620508 -0.0004686386 -0.007668514
-0.012542661 -0.014769539 0.008600955 -0.010787659 0.0038540666 0.0045436826 -0.00750901 0.022342088
0.018833864 0.0009851973 -0.016836504 -0.011556423 0.011688263 0.009894499 0.0011247105 -0.0037885176
-0.010231742 0.015013576 -0.0131117655 -0.0028388319 0.01638338 0.0057928055 0.00027392432 0.0078824675
-0.0015334232 -0.012189025 0.010532665 -0.017731218 0.009697151 0.012915262 0.019560922 0.0019022598
0.012282674 -0.0041425736 -0.003533191 -0.0041886754 0.009525567 0.0040840893 0.022492131 0.002587024
-0.0025476338 0.0076620043 0.016799226 -0.013692098 -0.012313308 -0.018987928 -0.01601007 -0.011638838
0.015933232 -0.018556543 -0.008856716 0.025444577 0.009250927 -0.007392873 -0.008030498 0.0051112017
-0.0147101 -0.0015670067 -0.0009876327 0.015793338 0.009860287 -0.011637072 -0.0100948755 -0.0076866182
0.0009388095 -0.0028292362 0.012402278 -0.0068947324 -0.024543287 -0.026617194 -0.0047416305 0.020818027
0.00036686883 -0.0056340145 -0.018114747 0.009766918 -0.00041071206 -0.00217747 -0.020623166 -0.010460843
0.010322649 -0.01656589 0.010893372 -0.01198531 0.00924246 0.005678037 -0.015194822 0.02431723
-0.017173477 0.011103794 -0.0120563805 0.003122901 -0.006404634 -0.020991309 0.017538615 -0.00031873558
0.0050330944 0.005560974 -0.012118721 -0.02474564 -0.012207183 0.021984553 -0.015817586 -0.01057444

net.3.linear.bias f4 [32]
00000000: 4bf9 c33c b68c d33d ab50 01be 5292 303e
00000010: c09d 843d 44ef 243e 7780 153e 8212 283e
00000020: c0f6 9c3d 2012 97bd aa3e 1d3e 1e7e cbbd
00000030: c1d8 1fbe 7806 5ebd a444 3a3d 1757 893d
00000040: 5693 1f3e 12dc c9bd 80b8 893d ad15 f63d
00000050: 8885 a43d b413 c63d 84db 103d 4b85 f53d
00000060: 30e1 2f3e 1fba 8cbd a67c 2ebe 1ff4 04be
00000070: 39ce 443d 2f52 61bd 6ade 0c3c 854e 903c
0.023922583 0.10329573 -0.12628429 0.17243317 0.06475401 0.16106898 0.14599787 0.1641331
0.07664251 -0.07376504 0.15355936 -0.09936164 -0.15610029 -0.054205388 0.045475617 0.06706064
0.15583548 -0.09856428 0.06724644 0.12015853 0.080332816 0.09671727 0.035365596 0.11988314
0.17175746 -0.06871437 -0.17039737 -0.1298375 0.04804823 -0.055010017 0.0085979495 0.017615566

net.4.weight f4 [4, 32]
00000000: c6a0 1cbc bd4f 543d c71f 7dbd 8271 a439
00000010: 5f6a dcbc e9e1 04bd 6697 6bbd b8ac 23bc
00000020: cb62 2fbb 08ae 8bbc f69a d0bc d128 cabc
00000030: aef1 42bc 7155 85bc 1f2f e63c 7493 283d
00000040: fcab 72bc 7a9a 5a3c d44a 3e3d 9377 9a3d
00000050: 2316 6ebc 0413 223c 11aa 593c 8389 49bd
00000060: bbdd 6bbd 2663 f03c 36f1 f9bc d31b 22bd
00000070: 79d4 30bb ee4d 313c f5dd 043d a506 ad3c
00000080: 924e 503c 4d09 963c 463d debc 286d a5bb
00000090: 00d7 3dbd 1231 193d de6f 6f3d a1af b1bc
000000a0: 090e 323c d780 f43c c12f efbc 0215 313d
000000b0: 51c3 c83c d998 b83b c073 45bd bff9 d8bc
000000c0: 6b36 573d 3bfb 223d 8a35 013d 7eba 5bbd
000000d0: d0a9 37bd 657a 8fbd c53a 613d 12b3 033d
000000e0: dc62 56bd cab7 573d 5cf0 32bd 229a 123d
000000f0: e3ea 9ebc 23fb f0bc c324 3cbc fef4 993d
00000100: 5aa0 963a b872 2fbd 26e3 453c 51ef e7bb
00000110: c811 9a3c 5f35 473c f967 bbbc 8aab 473c
00000120: 7b26 8a3c 2316 cbbc 65be 873c 5c69 0d3b
00000130: 334e 87bc 6cbc 2abd 0089 8e3c 5241 d83a
00000140: d3ef 11bc f679 2e3c e361 10bd 8c9e 6abd
00000150: 59ff f5b9 6459 ab3c c1b1 15bd c543 51bd
00000160: ae05 febb af89 ed3b 8b0a 5b3d 75ac 30bd
00000170: e21e 9cbc 4f59 b83c 2c4f 59bd 0b6c 01bd
00000180: bf40 33bd f55a 473d 4a3c 8cbd 7429 80bd
00000190: bd81 a83c 4b0a 1bbd f592 77bd e988 60bd
000001a0: 7e3e 1e3d 0bd6 0ebd 3688 0fbd 16ce 37bd
000001b0: 5808 3abd 165d 71bb 802a e13c 6b66 213d
000001c0: 4973 47bc 455a 31bd 797e 393d 1e21 663d
000001d0: a894 513c b0ca 01bd c6c9 8fbb 04d5 68bd
000001e0: e507 783d a00f 0d3d c5b7 07bd 6434 85bd
000001f0: a43d 33bd 43de 36bd c1f7 903d 0e92 e13b
-0.009559816 0.051833857 -0.061797883 0.00031365087 -0.02690619 -0.032442007 -0.05751743 -0.00998991
-0.0026761766 -0.017050758 -0.025464516 -0.024677666 -0.011898441 -0.016276093 0.028098641 0.041156247
-0.014811512 0.013342494 0.04645808 0.07542338 -0.014531645 0.009892229 0.013285176 -0.049203407
-0.057584506 0.029344153 -0.030510526 -0.039577316 -0.0026982112 0.010821803 0.032438237 0.021121332
0.012714045 0.018314982 -0.027128827 -0.005048413 -0.046347618 0.037400313 0.058456294 -0.021690192
0.010867604 0.029846592 -0.029197576 0.043232925 0.024507197 0.0056334552 -0.04820609 -0.026486276
0.05254213 0.039790373 0.0315452 -0.05364465 -0.04483968 -0.07005767 0.054987688 0.032153197
-0.052340373 0.05266551 -0.043686256 0.035791524 -0.019399112 -0.029416626 -0.011483374 0.07517432
0.001149188 -0.042834014 0.012078082 -0.0070780893 0.018807307 0.012158721 -0.022876726 0.012186894
0.016864052 -0.024790829 0.01657028 0.0021577692 -0.01651678 -0.0416836 0.017399311 0.0016498959
-0.008907276 0.010649195 -0.035249602 -0.05728011 -0.0004692029 0.020916648 -0.036546472 -0.05109002
-0.007752142 0.007249079 0.05347685 -0.043133218 -0.019057695 0.022503523 -0.05305402 -0.03159718
-0.04376292 0.048670728 -0.06847437 -0.062579066 0.020569677 -0.037851613 -0.060442884 -0.054818068
0.038633816 -0.034872096 -0.03504201 -0.044874273 -0.045418113 -0.0036829165 0.027486086 0.039404314
-0.012173482 -0.04329898 0.04528663 0.056183927 0.01279179 -0.03168744 -0.004388067 -0.056843773
0.060554404 0.03443873 -0.03313424 -0.06504133 -0.043759957 -0.04464556 0.07078505 0.006883866

net.4.bias f4 [4]
00000000: 0501 a83d ed32 103e 1b5e f53c 9640 c6bd
0.082033195 0.14081927 0.0299521 -0.096802875
