outputs/noisy_data/chirp/1_nodes_given/15%_noise/25%_init_error/model.pt (torch, 16367 bytes, 10 tensors)

net.0.linear.weight f4 [32, 1]
0	0x3e4e859a	0.20168152
1	0x3e9e51d3	0.30921802
2	0xbd9df06b	-0.07711872
3	0xbe2fd330	-0.17170405
4	0xbde067a2	-0.109572664
5	0x3eb1f340	0.34755898
6	0x3f5232f1	0.8210898
7	0xbeb33f7f	-0.3500938
8	0xbf60415d	-0.87599736
9	0xbd30b87e	-0.043144695
10	0x3efbb966	0.49164885
11	0x3f1bae5e	0.6081294
12	0x3f53273e	0.82481754
13	0xbda3b2e4	-0.07993105
14	0x3f45bd0a	0.77241576
15	0x3e881185	0.26575866
16	0x3e1b8bc2	0.15190032
17	0xbf653a45	-0.8954204
18	0x3f373604	0.71566796
19	0xbedf4b0f	-0.43611953
20	0x3e792c7d	0.24333377
21	0x3f150613	0.58212394
22	0xbf5cc410	-0.8623667
23	0x3f6901e2	0.910185
24	0xbf73ea03	-0.9527895
25	0x3d433320	0.04765618
26	0xbf67f10c	-0.90602183
27	0x3d8a7d73	0.06762209
28	0xbf26490c	-0.6495521
29	0xbf47579b	-0.7786805
30	0x3edbfdcc	0.4296707
31	0x3f0bf9e7	0.54678196

net.0.linear.bias f4 [32]
0	0xbe42659e	-0.18984076
1	0xbf650eb3	-0.89475554
2	0x3eb52728	0.35381436
3	0xbf147f84	-0.58007073
4	0x3e9a3a01	0.30122378
5	0x3f6175cd	0.88070375
6	0xbe8d934b	-0.27651438
7	0xbe783c3d	-0.24241729
8	0x3e3ddb3c	0.18540663
9	0x3f66cac4	0.90153146
10	0xbec7215a	-0.38892633
11	0x3eed4a14	0.4634558
12	0xbf80393d	-1.0017468
13	0x3f0a86e1	0.5411206
14	0x3f1077ab	0.564326
15	0x3efd2152	0.49439484
16	0xbd62dff1	-0.05538935
17	0xbf7d5eb1	-0.9897261
18	0xbde00a9c	-0.109395236
19	0x3e033fde	0.12817332
20	0x3e65f9d6	0.22458586
21	0x3e5aad3b	0.21355145
22	0x3f712449	0.9419599
23	0xbedb0f61	-0.4278517
24	0x3dbdfa26	0.09276228
25	0x3f5a1dda	0.852018
26	0xbc60a422	-0.013711007
27	0x3f09f0b7	0.53882927
28	0x3f7a7c34	0.9784577
29	0x3f751f4b	0.95750874
30	0xbf01fef5	-0.5077966
31	0x3f1bb1c9	0.60818154

net.1.linear.weight f4 [32, 32]
0	0x3bf0854b	0.0073401085
1	0x3bc6add6	0.0060632033
2	0x3bd5da7d	0.00652629
3	0x3c913972	0.017727587
4	0x3c5715d9	0.0131277675
5	0x3c6423cb	0.013924549
6	0x3b6b7ff8	0.003593443
7	0xbca38344	-0.019960053
8	0x3c4644d2	0.012101369
9	0x3ae50dc4	0.0017475416
10	0xbb170ee1	-0.002304964
11	0x3b66404b	0.0035133536
12	0xbc5d9fab	-0.013526837
13	0xbc258a47	-0.010103769
14	0x3aa7712a	0.0012774814
15	0x3ae895b6	0.0017744813
16	0xbc20bb3c	-0.009810265
17	0x3c5cf93e	0.013487158
18	0xba120070	-0.0005569523
19	0x3c30fc91	0.010802404
20	0xbc46535b	-0.012104834
21	0x3b6b8ff3	0.0035943955
22	0xbb206bf5	-0.002447841
23	0xba81e40c	-0.0009909882
24	0x3acd916e	0.00156836
25	0xbb612811	-0.0034356157
26	0x3c88359d	0.016627127
27	0x3c88edbd	0.016714925
28	0x3b916217	0.004436742
29	0x3c56915e	0.013096182
30	0x3bf13bc2	0.00736186
31	0x3c72a4e5	0.014809822
32	0x3c63fcf3	0.013915288
33	0xb9c5ca77	-0.00037725616
34	0x3b8bc6a9	0.0042656255
35	0x3c3ca364	0.011513565
36	0xbc9527f9	-0.018207537
37	0x3b5cd68a	0.0033697211
38	0x3c2a4d94	0.010394473
39	0xbb5e8f9c	-0.003396011
40	0xbad35ef1	-0.0016126317
41	0xb8c35df7	-9.315827e-05
42	0xba1edb42	-0.00060598936
43	0x3bbb2142	0.0057107517
44	0x3bfd8e28	0.0077378936
45	0xbb89e93e	-0.004208713
46	0x3bde751b	0.0067888624
47	0xbca3a87c	-0.0199778
48	0xbad79a8a	-0.0016449254
49	0x3c044ae7	0.008074499
50	0x3ba9d344	0.0051826555
51	0xbbb13946	-0.005408439
52	0xba6b9f9b	-0.00089883216
53	0x3c3c5ccb	0.011496733
54	0x3c187ed6	0.009307584
55	0x3c5f7407	0.013638503
56	0x3afc7268	0.001926017
57	0x3bc6268e	0.0060470765
58	0xbc322ffb	-0.010875697
59	0x3bfc8770	0.007706575
60	0x3c3f0052	0.011657791
61	0x3c283ab2	0.0102679
62	0x3bab01d2	0.005218723
63	0xbc9edde6	-0.019392919
64	0x3c22a4be	0.009926973
65	0x3c8efca9	0.017454462
66	0xbb033d3a	-0.0020025508
67	0x3c24ffcd	0.010070753
68	0x3b9bb2fd	0.0047515617
69	0x3c7861a9	0.015160003
70	0xbba8b46f	-0.0051484625
71	0xbb5f9ebc	-0.0034121713
72	0xbbbd968c	-0.005785769
73	0xbba00d08	-0.004884366
74	0x3c45a71a	0.012063766
75	0x3bd2cec0	0.006433338
76	0x3c27974d	0.010228944
77	0x3c6c5d2e	0.014426513
78	0x3c686cd9	0.014186108
79	0x3ac3e3f1	0.0014945251
80	0x3b1e2475	0.0024130617
81	0xbb8ac9b3	-0.00423547
82	0xbc84a4ad	-0.016191805
83	0xbc28aef6	-0.01029562
84	0x3b882188	0.004154388
85	0x3b55b691	0.0032610039
86	0xbc210dae	-0.009829922
87	0xbb383e39	-0.002811326
88	0xbc29b332	-0.010357665
89	0x3b5bbb9d	0.0033528574
90	0x3bede16d	0.007259539
91	0x3c43a272	0.011940585
92	0xbc156fba	-0.009120876
93	0xbc6a449c	-0.014298584
94	0x3c94636f	0.01811382
95	0x3b4423a5	0.0029928472
96	0x3bcd66a5	0.0062683397
97	0xbc75083b	-0.014955576
98	0xbc3b1284	-0.011417989
99	0xbc8aa89e	-0.016926106
100	0x3c91438a	0.0177324
101	0x3b97e46d	0.004635385
102	0x3bbdebd4	0.005795935
103	0x3b8af161	0.0042402004
104	0x3bb0399c	0.0053779613
105	0x3b4aded0	0.003095556
106	0xbb859599	-0.0040766713
107	0x3c0ea2a1	0.008705766
108	0xbb464067	-0.003025079
109	0x3c8c5e75	0.017134884
110	0x39aa87fd	0.00032526246
111	0xbb74b36a	-0.0037338384
112	0x3c8dcd54	0.017309822
113	0x3c28ed89	0.010310539
114	0x3c269746	0.010167902
115	0x3a4e48fb	0.00078691513
116	0x3b7f454d	0.0038951219
117	0xbc31c768	-0.010850765
118	0xbc914d41	-0.017737033
119	0xbb71bc76	-0.0036886013
120	0x3c30cc26	0.01079086
121	0xbc313f4d	-0.010818315
122	0x3b93d5b8	0.0045115612
123	0xbc9e1520	-0.019297183
124	0x3b486d4e	0.0030582729
125	0xb9c47d3f	-0.0003747735
126	0x3b2efade	0.0026699821
127	0x3cc77ef7	0.024352534
128	0xbc1313d2	-0.0089768935
129	0x3c9762f9	0.018479811
130	0x3b821c7c	0.0039706808
131	0x3c0d43e7	0.008622146
132	0x3b3515ae	0.002763133
133	0xbc781c74	-0.0151435025
134	0xba9eafd7	-0.0012106848
135	0x3b6e77c5	0.0036387306
136	0xbb560886	-0.003265889
137	0xbb9f51f3	-0.004862064
138	0x3c93e310	0.018052608
139	0xbae7f294	-0.0017696195
140	0xbc817e44	-0.015807278
141	0x3c87a018	0.01655583
142	0x39d154e2	0.0003992683
143	0xbb022286	-0.0019857003
144	0x3c896afe	0.01677465
145	0xbc46bec3	-0.012130442
146	0x3c13d3ac	0.0090226345
147	0xba5dd8b6	-0.00084627734
148	0xbb1638fd	-0.0022922151
149	0xbcb83570	-0.022486418
150	0xbc4544c8	-0.0120403245
151	0xbc098ed8	-0.008395873
152	0xba44272b	-0.0007482643
153	0xbc7d0179	-0.015442246
154	0x3bc3ffaf	0.0059814076
155	0xbc654322	-0.0139930565
156	0x3c8ac8c3	0.016941434
157	0x3b750951	0.0037389586
158	0x3c0dc6be	0.008653341
159	0x3c07604e	0.008262707
160	0xbb54d2d3	-0.0032474294
161	0x3c22e73f	0.009942829
162	0x3c1dce11	0.00963165
163	0x3b8b6d03	0.0042549386
164	0xbc587853	-0.013212281
165	0xbc1eddb5	-0.009696414
166	0xbaa6ccfd	-0.0012725886
167	0x3ccc35df	0.024928031
168	0x3bb86397	0.0056271064
169	0x3c2da08a	0.0105973575
170	0x3b6518ab	0.003495733
171	0xbcbcea74	-0.023061015
172	0xbbd0218f	-0.0063516567
173	0xbb22629c	-0.0024778014
174	0x3c619bf4	0.013770092
175	0xb9786feb	-0.00023692816
176	0x3c3a102d	0.011356396
177	0xbb6513c4	-0.0034954408
178	0xbc7e475b	-0.015519942
179	0xbaf79dab	-0.0018891593
180	0xbb51930d	-0.0031978518
181	0x3acd0f56	0.0015644829
182	0x3c9665e0	0.018359125
183	0xbb9dfffe	-0.0048217764
184	0x3bf887da	0.007584554
185	0x3c099b61	0.008398862
186	0xbb9a218b	-0.0047037057
187	0xbbe163cb	-0.0068783513
188	0x3bb7ed01	0.00561297
189	0x3ad16928	0.0015976774
190	0x3cbff62f	0.02343282
191	0x3bf1736e	0.0073684966
192	0xbb8bf048	-0.004270587
193	0xbc915c06	-0.017744076
194	0xbc1925aa	-0.009347359
195	0xbbc593c8	-0.00602958
196	0x3b679033	0.0035333752
197	0xbc2f9a2e	-0.010717912
198	0x3b92b093	0.0044766157
199	0x3c5fbd5b	0.013655986
200	0xbc522e65	-0.012828444
201	0x3c8e55df	0.01737493
202	0x3af5006a	0.001869214
203	0x3c8ed8b2	0.017437313
204	0x3c458dfb	0.012057777
205	0x3bf06899	0.0073366878
206	0xbc15dec8	-0.0091473535
207	0x3c9fcd42	0.019507054
208	0x3bfacb4f	0.007653631
209	0xbc0a685f	-0.008447736
210	0xbbda8c9d	-0.0066695944
211	0xbcbc44d8	-0.022982046
212	0x3bd87e57	0.0066068578
213	0x3b63e7cb	0.003477561
214	0xba45b919	-0.00075425353
215	0x3be16ccf	0.006879426
216	0xbb67046c	-0.0035250438
217	0x3c78cfa8	0.015186228
218	0x3c3a54cd	0.011372757
219	0xbbcf1c35	-0.006320501
220	0x3ba11bda	0.0049166502
221	0x3b83b285	0.004019084
222	0x3b75c4bc	0.0037501296
223	0x3a832cf5	0.0010007905
224	0x3c51ad02	0.012797596
225	0x3cb28d92	0.021796022
226	0x3c4b8c4d	0.012423587
227	0xbbb3a62e	-0.0054824566
228	0xbc478de5	-0.012179826
229	0xbc112d8c	-0.008860957
230	0xb984acf7	-0.0002530587
231	0x3c9e88c3	0.019352322
232	0xbc820ac7	-0.01587428
233	0xbc21f8ca	-0.009885976
234	0xbbbb99e1	-0.005725131
235	0xbcd822c8	-0.026383772
236	0x3bc4e007	0.0060081515
237	0xb9898fdf	-0.0002623787
238	0xb91f5fd7	-0.00015199125
239	0xbb2ffeab	-0.0026854675
240	0x3be25438	0.0069070123
241	0x3b5b5c78	0.0033471864
242	0xbc4fda91	-0.012686388
243	0x38152086	3.5554658e-05
244	0x3bdc3336	0.006719972
245	0x3c96e1f3	0.018418288
246	0xbb7a2dfa	-0.0038174377
247	0x3ad7fe51	0.001647899
248	0x3af2c742	0.0018522518
249	0xbb6c3b66	-0.0036046146
250	0xbad3d764	-0.0016162214
251	0x3bd35920	0.0064498335
252	0xbc25b668	-0.01011429
253	0x3aacfd32	0.0013198017
254	0xbc45c4ee	-0.0120708775
255	0x3c38076a	0.011232236

net.1.linear.bias f4 [32]
0	0xbe15c95f	-0.14627598
1	0x3e0a11fa	0.1348342
2	0x3ddc418a	0.10754688
3	0xbe039c62	-0.12852624
4	0x3ca4178c	0.02003076
5	0xbcd4e059	-0.025985884
6	0xbdcdef3c	-0.10055396
7	0x3d61e0ff	0.055146214
8	0xbe1330a3	-0.14374022
9	0x3daf2a28	0.085529625
10	0x3d13892a	0.03601948
11	0x3b6b8f25	0.0035943475
12	0xbe1f112e	-0.15533897
13	0x3d87e791	0.06635965
14	0xbe06bab6	-0.13157162
15	0x3d9b93de	0.07596563
16	0xbe075840	-0.13217258
17	0xbe126285	-0.14295395
18	0xbdad2a16	-0.08455293
19	0xbded1423	-0.115761064
20	0xbd826f7a	-0.06368919
21	0x3d354658	0.04425654
22	0xbdb89dea	-0.09014495
23	0x3d1fac5d	0.038982738
24	0x3ca1ae3f	0.019736407
25	0xbdad38a3	-0.08458068
26	0xbdde1ef4	-0.108457476
27	0xbe35b1a2	-0.17743543
28	0xbb63f312	-0.0034782332
29	0xbe1811cb	-0.14850537
30	0x3cca4ef7	0.024695856
31	0x3d2aef3e	0.041732065

net.2.linear.weight f4 [32, 32]
0	0xbca40e97	-0.020026488
1	0x3be68e2b	0.0070359907
2	0xbbd1a9b9	-0.0063984063
3	0xbbd3570e	-0.0064495867
4	0xbc2a7162	-0.010403009
5	0xb9a28934	-0.00031001272
6	0xbbed7d93	-0.0072476356
7	0xbc32c8b2	-0.010912107
8	0xbc9cf65c	-0.019160442
9	0xbc3ca17c	-0.01151311
10	0xbc94b644	-0.018153317
11	0x3c93dab1	0.018048616
12	0x3ab51d5f	0.0013817957
13	0xbcc5e398	-0.024156377
14	0xbca6977d	-0.020335907
15	0xbc2608ec	-0.010133963
16	0xbc2f53f5	-0.010701169
17	0xbbb8dd98	-0.0056416504
18	0xbc795270	-0.015217409
19	0xbbdd1281	-0.0067465906
20	0x3c59b833	0.013288545
21	0xbc56ae27	-0.013103045
22	0xbc4eb983	-0.012617472
23	0xbc07bb21	-0.008284361
24	0xbbb1cb3d	-0.005425839
25	0xbb79e565	-0.0038131115
26	0x3b393326	0.0028259247
27	0x3bb61332	0.0055564875
28	0xbbafbc44	-0.005363019
29	0xbca55a5c	-0.020184688
30	0x3a6b64a5	0.0008979536
31	0x398264e0	0.0002487069
32	0xbc84419f	-0.016144572
33	0x3a46fd35	0.00075908314
34	0x3bfdc90a	0.007744913
35	0x3be08fde	0.006853088
36	0x3c23e205	0.010002618
37	0x3b462f13	0.003024046
38	0x3c875c52	0.016523514
39	0xbc383236	-0.01124244
40	0xba3ac064	-0.00071240054
41	0x3baac441	0.0052113836
42	0x3bf80b8c	0.007569736
43	0xbbe77d77	-0.007064517
44	0xbc27ea0d	-0.010248673
45	0x3bcf0402	0.0063176164
46	0xba20d8ce	-0.0006135822
47	0x3b089d0f	0.0020845567
48	0xbc0cceb7	-0.0085942065
49	0x3b14937c	0.0022670915
50	0xbc385a14	-0.011251945
51	0xbc440a52	-0.011965351
52	0x3b870e65	0.004121589
53	0xbbae7f15	-0.005325208
54	0x3c8a2680	0.016864061
55	0x3abd1fb5	0.0014429005
56	0x3c0518d1	0.0081235925
57	0x3b48c722	0.003063627
58	0xba6531ba	-0.00087430666
59	0x3c609621	0.0137076685
60	0x3c9ce130	0.019150347
61	0xbc22d765	-0.009939049
62	0xbb3a2462	-0.0028403034
63	0xbc25c984	-0.010118846
64	0x3c50e115	0.012748976
65	0xbbedaf06	-0.0072535304
66	0x39e9868f	0.00044541477
67	0xbc383c7b	-0.011244888
68	0xbc17783f	-0.0092449775
69	0xbcb7ed6f	-0.022452084
70	0xbbc4fe8c	-0.0060117897
71	0xbc6281cd	-0.013824892
72	0x3ab02807	0.0013439663
73	0x3bcb85b1	0.0062110056
74	0x3accacc6	0.0015615455
75	0xbbb19a6c	-0.00542002
76	0x3bed16ba	0.0072353752
77	0xbc3a8f4e	-0.011386706
78	0x3bd91f29	0.006626029
79	0x3bfd4a26	0.0077297864
80	0x3b64b5cc	0.0034898398
81	0x3b76818a	0.0037613832
82	0xbcbda2ed	-0.023148978
83	0x3b69738a	0.0035621845
84	0xbac5ad2b	-0.0015081515
85	0x3cc36dda	0.023856092
86	0xb9f60f67	-0.00046932252
87	0xbb3271ca	-0.0027228468
88	0x3accd162	0.0015626366
89	0x3beb24f2	0.007176035
90	0xbbcbbc48	-0.0062175132
91	0xbc907525	-0.017633984
92	0xba77ec17	-0.00094574824
93	0x3c39b0ea	0.0113336835
94	0x3bd06185	0.0063592815
95	0x3b96c159	0.0046006856
96	0xbbf2eb7d	-0.0074133263
97	0x3bed63de	0.007244571
98	0x3a2ff76b	0.00067125884
99	0xbbae16a9	-0.00531276
100	0xbc855048	-0.016273633
101	0x3a751242	0.0009348729
102	0x3b87e816	0.00414754
103	0xbc1d9be1	-0.009619684
104	0xbc78dc79	-0.0151892835
105	0xbbf28e49	-0.0074022156
106	0xbb4f8ca8	-0.003166953
107	0x3b068a4b	0.0020529206
108	0xbb4945e1	-0.0030711817
109	0xbb81f696	-0.003966163
110	0x3accb798	0.001561868
111	0x3bdd51c0	0.00675413
112	0xbc0afe31	-0.0084834555
113	0xbc3a256e	-0.011361463
114	0x3c13683e	0.008997021
115	0x3b52d6f0	0.003217157
116	0xbac63c1f	-0.0015124119
117	0xbbedcfeb	-0.007257452
118	0x38341009	4.2930278e-05
119	0x3c075a6b	0.008261303
120	0xbc89595d	-0.016766245
121	0x3b492e7d	0.0030697875
122	0xbc811365	-0.015756318
123	0xbaf331a2	-0.001855422
124	0x3c4a7534	0.012357045
125	0xbc53cd7a	-0.012927407
126	0x3c105606	0.008809572
127	0xbc695d6f	-0.014243468
128	0x3c155daa	0.0091165695
129	0xbc148a48	-0.009066172
130	0xbb4804cf	-0.0030520444
131	0x3bc36b26	0.005963701
132	0xbc696de7	-0.014247394
133	0xba0d248f	-0.0005384171
134	0x3c6359b5	0.013876368
135	0xbbe61578	-0.0070216022
136	0xbc5e8b07	-0.013582951
137	0xb9dd4406	-0.00042203086
138	0x3ba4cf0c	0.0050295647
139	0xbc3b3e4c	-0.011428427
140	0x3a84468c	0.0010091825
141	0x3b968fd7	0.0045947838
142	0x3c41e4df	0.011834352
143	0xbb3b5931	-0.0028587098
144	0x3be4924b	0.0069754473
145	0x39d14d5c	0.00039921224
146	0x3c334ade	0.010943143
147	0xbc910689	-0.017703312
148	0x3b1cee9f	0.002394594
149	0xbc8bf273	-0.017083382
150	0xbb2ea501	-0.0026648643
151	0xbc55a913	-0.013040799
152	0xbc033f9a	-0.008010769
153	0xbbf45f2e	-0.0074576354
154	0x3c39fdd2	0.011352019
155	0xbb7ca706	-0.0038551702
156	0xb9fa6282	-0.0004775711
157	0xbc8de703	-0.017322069
158	0x3b9083c4	0.004410239
159	0x3c5783eb	0.01315401
160	0x3c137bae	0.0090016555
161	0xbb993ecd	-0.004676676
162	0x3bd6a0b9	0.0065499214
163	0x3ad95033	0.0016579687
164	0x3b244aa7	0.002506891
165	0xbc0134ae	-0.007886095
166	0x3bc44489	0.0059896153
167	0x3a0dfbe0	0.00054162554
168	0x3c145eff	0.009055852
169	0x3c05bed8	0.0081631765
170	0x396e14d7	0.00022705212
171	0xba22a42d	-0.00062042737
172	0x3c814e4f	0.01578441
173	0x3b3e4d71	0.0029037858
174	0x3c61dad0	0.013785079
175	0xbb9d3200	-0.00479722
176	0x3b82660f	0.0039794515
177	0x3c9b792a	0.018978674
178	0xbbd7c289	-0.0065844697
179	0xbb26192d	-0.0025344596
180	0xbc1516a7	-0.009099639
181	0x3bf4ccb1	0.00747069
182	0xbc647952	-0.013944941
183	0x3917d34e	0.000144792
184	0x3be3b3d7	0.006948929
185	0x3bbc579a	0.0057477476
186	0xbc842e22	-0.01613528
187	0x3c2550d7	0.0100900745
188	0x3c14a693	0.0090729175
189	0x3c44fe47	0.012023515
190	0xbb8c85e6	-0.004288423
191	0x3c14ed5e	0.009089796
192	0x3c17b53c	0.009259518
193	0x3c402205	0.011726861
194	0x3b157da5	0.0022810486
195	0x3b04f014	0.00202847
196	0xbc6e7688	-0.014554627
197	0x3a05a0a9	0.00050974876
198	0x3c925442	0.017862443
199	0x3c2bac20	0.0104780495
200	0xbb8ebacb	-0.0043557636
201	0x3b863d88	0.0040966906
202	0x3c07c6ff	0.00828719
203	0xbcc23354	-0.023706116
204	0x3960176e	0.00021371033
205	0x3c0d19fe	0.008612154
206	0x3bc264c4	0.0059324224
207	0xba04b655	-0.000506257
208	0x395df718	0.00021168252
209	0x3bc9b2e1	0.006155357
210	0x3be722b8	0.0070536993
211	0xbba82a89	-0.0051320237
212	0x3c1ae045	0.009452884
213	0x3bb7855e	0.0056006154
214	0xbcb3acd1	-0.021932991
215	0x3c59bc20	0.013289481
216	0x3c2bdc94	0.010489602
217	0xbc2306f1	-0.009950385
218	0x3c81abda	0.015829016
219	0x3bb3f6b3	0.0054920553
220	0x3c45e50e	0.012078537
221	0x3c085f73	0.008323538
222	0x3c4a4121	0.0123446295
223	0xbaf11ee8	-0.0018396052
224	0xbb8546f2	-0.004067295
225	0x3c00a59e	0.007851986
226	0xbbff9a6a	-0.00780039
227	0x3c9a9235	0.018868545
228	0x3c77157b	0.015080805
229	0x3b35060c	0.0027622012
230	0x3b60dfce	0.0034313085
231	0xbb6583d8	-0.0035021212
232	0xbc636ee9	-0.0138814235
233	0x3bd75884	0.006571831
234	0x3c21c490	0.009873524
235	0xbc5cb4b0	-0.013470814
236	0x3c35f0ea	0.011104802
237	0x3b3fcb66	0.0029265522
238	0x3bd1ed1f	0.006406441
239	0x3bae7209	0.0053236526
240	0x3bb85c6b	0.0056262515
241	0xbb3e9e30	-0.0029085986
242	0x3bc7e816	0.006100665
243	0xbbd5bf9f	-0.006523087
244	0xbc4a8cae	-0.012362642
245	0xbb8e0acb	-0.0043347827
246	0xbb2ac32e	-0.0026056278
247	0x3a8df044	0.0010829051
248	0x3be266b7	0.006909217
249	0xbba857f6	-0.005137439
250	0x39d034b5	0.0003971212
251	0xbc30ca10	-0.010790363
252	0x3bc1d680	0.005915463
253	0xbb65100d	-0.0034952194
254	0x3c84f893	0.01623181
255	0xbaac0f1e	-0.0013127064

net.2.linear.bias f4 [32]
0	0x3ddb7796	0.107161686
1	0xbcb61b8b	-0.02222993
2	0xbe1763f3	-0.14784221
3	0xbc704640	-0.014665186
4	0xbd53ed9c	-0.051740274
5	0x3e0cffbc	0.1376943
6	0x3d67cbd9	0.05659089
7	0x3e0e24b0	0.13881183
8	0x3d671d63	0.05642451
9	0x3cc911cb	0.024544617
10	0x3e11bcee	0.14232227
11	0xba5e2d79	-0.0008475404
12	0xbdd91e3c	-0.1060147
13	0x3c82ad9f	0.01595193
14	0x3db81fd6	0.08990447
15	0x3de78c8f	0.11306106
16	0xbd3a8174	-0.045533612
17	0x3d96138b	0.07327946
18	0xbe38bf61	-0.18041755
19	0xbdb5b104	-0.08871654
20	0xbdeb2ad5	-0.11482779
21	0xbd86a3cc	-0.065742105
22	0xbdca4a49	-0.0987745
23	0x3dd0e690	0.10200226
24	0xbd9bc615	-0.076061405
25	0xbda714b9	-0.081582494
26	0xbdbc549d	-0.09195826
27	0x3e069d33	0.13145904
28	0x3cd5024f	0.026002077
29	0xbd1bc943	-0.038033735
30	0x3ddd262c	0.10798296
31	0xbe03a069	-0.1285416

net.3.linear.weight f4 [32, 32]
0	0xbc3410a3	-0.010990295
1	0x3b8564d9	0.00407086
2	0x3b2527ac	0.0025200648
3	0x3b745a79	0.0037285371
4	0xbb5419eb	-0.003236408
5	0xbbcf2ba4	-0.006322341
6	0xbb932491	-0.004490443
7	0x3a8840e5	0.0010395317
8	0xbb8cb841	-0.0042944257
9	0x3c9a62a9	0.018845873
10	0xbc2b13c4	-0.010441724
11	0xbbdafe97	-0.0066831815
12	0xbc29c30a	-0.010361442
13	0xbc052b5b	-0.0081280125
14	0x3a296199	0.00064613816
15	0xbc4ef8db	-0.012632574
16	0xba7017db	-0.0009158828
17	0xbba1f407	-0.0049424204
18	0x3b036078	0.0020046514
19	0xbcbdd087	-0.023170723
20	0xbc22d936	-0.009939482
21	0x3bb9633a	0.0056575807
22	0x3b871a0c	0.004122978
23	0x3c4f98fa	0.01267075
24	0x3bd14d0d	0.006387359
25	0xbb7ed50a	-0.0038884305
26	0x3c143805	0.009046559
27	0x3b9c5492	0.0047708238
28	0xbbb82920	-0.005620137
29	0x3c212c69	0.009837248
30	0xba08d0ad	-0.00052190834
31	0x3c047f75	0.008087029
32	0x3b81da29	0.0039627743
33	0xb9146e7f	-0.00014155543
34	0x3c88e7f4	0.016712166
35	0xbb9076c6	-0.00440869
36	0xbb8c2a6b	-0.0042775176
37	0x3966c428	0.00022007583
38	0xba1937a2	-0.0005844777
39	0x3b5d8942	0.0033803736
40	0x3bbb5a63	0.005717562
41	0x3c993b8c	0.018705152
42	0xbc05692d	-0.008142752
43	0xbc2e47bc	-0.01063722
44	0x3a563cb5	0.0008172498
45	0xbc1acb3b	-0.009447868
46	0x3a0491fc	0.0005057154
47	0xba6c3945	-0.00090112194
48	0xbcc396bd	-0.023875589
49	0x3c5899bf	0.01322025
50	0xbc8712bf	-0.016488431
51	0xbb4ebdca	-0.0031546229
52	0xbc881bb7	-0.016614778
53	0x3b84c667	0.0040519717
54	0x3ad85c11	0.001650693
55	0xbc4d1577	-0.012517325
56	0x3c3aca1a	0.011400724
57	0xbbe05439	-0.0068459776
58	0x3c71e795	0.014764686
59	0xbba38379	-0.004990038
60	0xbc192102	-0.009346249
61	0xbbb283d2	-0.005447843
62	0xbc947a88	-0.018124834
63	0x3c5a79bf	0.013334691
64	0xbba05fc2	-0.0048942277
65	0x3ae02944	0.0017102142
66	0x3c1349f4	0.0089898
67	0x3c8c9be0	0.01716417
68	0xbc0fe37e	-0.008782266
69	0xbc94013a	-0.018066991
70	0x3c0ab96f	0.008467062
71	0xbc232205	-0.009956841
72	0x3c74b707	0.014936215
73	0x3c038ce5	0.008029197
74	0x3bd2e521	0.0064360057
75	0xbbe50fe8	-0.0069904216
76	0x3b4517e8	0.0030074064
77	0xbbea1e9c	-0.007144762
78	0x3baa7d52	0.0052029276
79	0xbc25eab0	-0.010126755
80	0xbb8981d9	-0.0041963872
81	0xbc10d0a8	-0.00883881
82	0x3ba63e5d	0.0050733523
83	0x39bedc5a	0.000364038
84	0x3c0b635b	0.008507575
85	0xbc3776fc	-0.011197802
86	0x3c950a73	0.01819346
87	0xbc395d5e	-0.011313764
88	0x3c1f51d8	0.009724103
89	0x3a8f2566	0.001092118
90	0xbbce375f	-0.006293222
91	0x3c80fdba	0.015745986
92	0x3ca92b48	0.02065052
93	0xbc5e6b9e	-0.013575463
94	0x3a975227	0.0011544869
95	0xb864dfac	-5.4567747e-05
96	0xbb2b0ac1	-0.002609894
97	0x39ab365b	0.0003265616
98	0xbc27a19a	-0.0102314
99	0x3c9b7dc6	0.018980872
100	0x3c8c254b	0.017107626
101	0xbab5fac0	-0.0013883933
102	0x3b4ee7e6	0.0031571328
103	0xbb4058a5	-0.0029349711
104	0x3c4e9368	0.012608387
105	0xbc4f6de0	-0.012660474
106	0xbbaf7e12	-0.005355605
107	0x3bd6f623	0.0065601035
108	0x3b3f2827	0.002916822
109	0xbc1cdeea	-0.009574631
110	0x3bbbd01f	0.005731597
111	0xbbf32a52	-0.0074208165
112	0x3c287c6c	0.010283571
113	0x3c7ab3bb	0.01530164
114	0x3ab87372	0.0014072491
115	0x3b54a628	0.003244767
116	0xbcf2189e	-0.029552754
117	0xbb9f37b8	-0.004858937
118	0x3b94ff41	0.00454703
119	0x3c5fbb0a	0.013655433
120	0x3c33ca84	0.010973576
121	0x3bf68b34	0.0075239185
122	0xbc4dc795	-0.012559791
123	0xbba407cc	-0.0050058123
124	0xbb8ee8ba	-0.0043612393
125	0x3bbca6ce	0.0057571894
126	0xbb438884	-0.0029836008
127	0xbc44f1c4	-0.012020532
128	0xbbbe8705	-0.0058144354
129	0xbbebcceb	-0.007196059
130	0x3bdd36e7	0.0067509296
131	0xbc0f00df	-0.008728235
132	0x3c24b980	0.010053992
133	0x3bfd6c8d	0.0077338875
134	0xbc3ba617	-0.011453173
135	0x3ca5bdd7	0.020232124
136	0xbc42d55f	-0.011891692
137	0xbae5c125	-0.0017528875
138	0xbc910b32	-0.017705534
139	0xba9da9df	-0.0012028775
140	0x3c162353	0.009163695
141	0x3c4448c4	0.011980239
142	0x3b00ca95	0.0019651998
143	0x3c6ac95c	0.014330234
144	0xbc42b0a8	-0.011882938
145	0xbc3d62d2	-0.011559205
146	0xbba91d90	-0.005160995
147	0x3bec7e84	0.0072172303
148	0xbc43bd96	-0.011947056
149	0xba8d3ce5	-0.0010775594
150	0xbc0d8841	-0.0086384425
151	0xbc5ea67b	-0.013589497
152	0xbb0d3f14	-0.002155249
153	0x3a886558	0.0010406179
154	0xbae11b18	-0.0017174212
155	0xbaae5cbf	-0.0013302787
156	0xbc4953af	-0.012288018
157	0xbc28c2f7	-0.0103003895
158	0x3b79eaf9	0.003813444
159	0xbbca3dea	-0.0061719315
160	0x3c045323	0.008076462
161	0x3bf9cbf8	0.007623192
162	0x3af80b69	0.0018924299
163	0xba9a59f0	-0.0011776071
164	0xbc1dbe0d	-0.009627831
165	0x3bfce2ef	0.0077174823
166	0xbc869819	-0.016429948
167	0x3cb924ba	0.02260052
168	0x3c3a62fa	0.011376137
169	0xbb8b0d0a	-0.0042434977
170	0xbc37cde5	-0.011218523
171	0x3b755000	0.0037431717
172	0xbb5ca189	-0.0033665618
173	0x399f8752	0.00030427665
174	0x3c0c4e10	0.008563533
175	0xbc394c0f	-0.011309638
176	0x3b46e171	0.0030346776
177	0x3b625322	0.0034534414
178	0x3be8b0c5	0.0071011507
179	0xbca44846	-0.020053994
180	0xba995755	-0.0011699001
181	0xbc2fb5f6	-0.010724535
182	0x3c283783	0.010267141
183	0xbbbef99e	-0.0058280965
184	0xba9e8bf7	-0.0012096156
185	0xbcad1c88	-0.021131769
186	0x3c8406fe	0.016116615
187	0xbc7a60f2	-0.015281903
188	0x3c3b9b50	0.011450604
189	0x3c1b1185	0.009464626
190	0xbca2b3fd	-0.019861216
191	0xb98f263a	-0.00027303566
192	0x3bf54d3a	0.0074860128
193	0x3aea2a8b	0.0017865462
194	0x3c071fd7	0.008247337
195	0x3a38f262	0.0007055161
196	0xbc471882	-0.012151839
197	0x3c355591	0.011067764
198	0x3b31ccee	0.0027130204
199	0xbbe14718	-0.00687493
200	0x3bc0e29e	0.00588639
201	0x3bb04de5	0.0053803795
202	0xbc68eba6	-0.014216339
203	0x3c33716a	0.010952333
204	0xbb07f8f0	-0.0020747744
205	0x3c4668d8	0.012109958
206	0x3d0a6fec	0.033798143
207	0x3c9cfdc1	0.019163968
208	0xbc8d52a6	-0.017251324
209	0xbbf21505	-0.0073877596
210	0x3b214adb	0.0024611268
211	0x3c4b3d3e	0.012404738
212	0xbb6d7339	-0.0036232008
213	0x3c933ed2	0.017974291
214	0x3b063077	0.0020475665
215	0x3b985127	0.004648346
216	0x3b98b717	0.004660498
217	0x3c1b1de0	0.009467572
218	0x3b984cf9	0.0046478477
219	0x3bee839c	0.0072788727
220	0x3cd57bfb	0.026060095
221	0x3c352749	0.01105673
222	0x3c053d28	0.008132257
223	0xbbb8b39a	-0.0056366445
224	0x3c049d3b	0.008094127
225	0x3c5ecc8e	0.013598574
226	0xbcce6205	-0.025193224
227	0x3c109a6a	0.008825878
228	0x3ae02c8a	0.0017103117
229	0xbc2a4fb7	-0.010394982
230	0x3b04d386	0.002026768
231	0x3b9b4899	0.004738879
232	0xba61bd67	-0.0008611292
233	0x3c0804b3	0.008301902
234	0x3b5732f8	0.0032836776
235	0x3b322edb	0.0027188573
236	0x3c35c1fb	0.011093612
237	0xbbceb0db	-0.006307704
238	0x3bf8e93a	0.007596162
239	0xba4f8526	-0.0007916264
240	0xbc0ab30f	-0.008465542
241	0xbc136f9f	-0.0089987805
242	0x3bd0e8d9	0.006375414
243	0x3c576e33	0.013148832
244	0xbc64a58a	-0.013955483
245	0xbc4e7158	-0.012600265
246	0xbb148926	-0.0022664755
247	0x3c39f264	0.011349294
248	0xbcbc7b0b	-0.02300789
249	0x3c161296	0.009159705
250	0x3c4fe34d	0.01268847
251	0xbbbfce07	-0.005853418
252	0x3ba3171a	0.004977119
253	0x3b6d0663	0.0036167137
254	0x3c1c2d1b	0.009532238
255	0x3b3effeb	0.0029144238

net.3.linear.bias f4 [32]
0	0x3d7bc54b	0.06146745
1	0x3e07b0a0	0.13250971
2	0x3e06b778	0.13155925
3	0xbd86e8d2	-0.06587376
4	0xbdddf8ae	-0.108384475
5	0xbde09ae8	-0.10967046
6	0xbe1f802a	-0.15576234
7	0x3c14adb5	0.009074618
8	0xbbc30c7f	-0.0059524174
9	0xbe1f29d3	-0.15543298
10	0xbe2c9ac8	-0.1685592
11	0x3de8f673	0.113751315
12	0xbda77d16	-0.08178155
13	0x3d0e6e4e	0.034773163
14	0x3dcb571b	0.099287234
15	0xbe21e474	-0.15809804
16	0x3deb255d	0.11481736
17	0x3e098000	0.13427734
18	0x3d8a9706	0.06767087
19	0xbded3ae7	-0.115835
20	0x3d1e6ce1	0.038678054
21	0x3e0d66c3	0.13808732
22	0x3e46db69	0.19419636
23	0x3e280f62	0.16412118
24	0x3d4e34f6	0.050343476
25	0x3bd55e4f	0.0065114866
26	0x3debb807	0.1150971
27	0x3d61e84c	0.055153176
28	0xbaeffe62	-0.0018310065
29	0xbdfbabfc	-0.12288663
30	0xbd6f96bf	-0.058493372
31	0x3d2dbc56	0.04241594

net.4.weight f4 [4, 32]
0	0x3d441250	0.047869027
1	0xbd14f0ed	-0.036362577
2	0x3c966953	0.01836077
3	0x3c8909be	0.016728278
4	0x3d2be932	0.04197044
5	0x3d2ce9ea	0.042215265
6	0xbd48876d	-0.048957277
7	0x3d20c9ce	0.039254956
8	0xbd11e808	-0.035621673
9	0x3a737d67	0.0009288401
10	0xbc9c349c	-0.019068055
11	0xbafdab96	-0.0019353505
12	0xbd5ab775	-0.053397615
13	0x3d508d0d	0.050915767
14	0x3d44bcc4	0.048031583
15	0xbbbed71d	-0.0058239833
16	0xbd25d6ec	-0.04048817
17	0xbcc45265	-0.02396507
18	0x3d118b8d	0.035533477
19	0xbc0eec3f	-0.008723318
20	0x3d1ebf80	0.038756847
21	0xbd2facd0	-0.042889416
22	0xbd144f07	-0.03620818
23	0xbd7acf31	-0.06123275
24	0x3cb7dc30	0.02244386
25	0xbcdeba9b	-0.02718859
26	0x3cce816e	0.025208201
27	0x3b337950	0.002738554
28	0xbcec2541	-0.028826358
29	0xbd86d526	-0.065836236
30	0xbd376611	-0.044775072
31	0xbd55e1eb	-0.052217405
32	0x3baedce9	0.005336393
33	0x3c18a48f	0.009316578
34	0xbd3ef1cb	-0.04661731
35	0xbc245d3b	-0.0100319935
36	0x3c0d700a	0.008632669
37	0xbc8fd172	-0.017555926
38	0x3d0150e4	0.031571284
39	0xbc63762e	-0.013883157
40	0x395d163d	0.00021084487
41	0x3ccc5665	0.02494354
42	0x3d614a0f	0.05500227
43	0xbbc3759b	-0.0059649474
44	0x3bcf8373	0.0063328086
45	0xbc823a7e	-0.015897032
46	0x3c42e9ca	0.01189656
47	0x3ccaba1a	0.024746943
48	0x3cbf04a1	0.023317637
49	0xbc67a61a	-0.014138723
50	0x3cea2099	0.028579997
51	0xbc6e4af2	-0.014544236
52	0xbb970a37	-0.004609372
53	0xbd89bdbd	-0.06725643
54	0x3cf2b97f	0.029629467
55	0x3d01346d	0.031544138
56	0xbb79f24b	-0.0038138803
57	0x3d266e47	0.040632512
58	0x3b9fbecd	0.00487504
59	0xbca63dba	-0.020293105
60	0x3d1dd4ac	0.038532898
61	0x3cc439c6	0.02395333
62	0x3ca1f833	0.01977167
63	0x3cdb13f4	0.026742913
64	0x3cbbbb82	0.02291656
65	0x3ce33678	0.027735934
66	0xbd420e3d	-0.04737686
67	0xbd6efff9	-0.058349583
68	0xbc5a6869	-0.013330557
69	0x3b87f11a	0.0041486146
70	0x3d05ed76	0.032697164
71	0xbd21e8ad	-0.039528538
72	0x3d09a549	0.033604894
73	0x3cf61475	0.030039052
74	0x3d043c11	0.032283846
75	0x3d0a5eec	0.03378193
76	0xbc8e5f97	-0.017379565
77	0xbd1e8091	-0.03869683
78	0x3c2837f5	0.010267247
79	0xbbb53508	-0.0055300035
80	0x3d2df33d	0.0424683
81	0x3d08a596	0.03336104
82	0x3d037f2a	0.032103695
83	0x3d2077a0	0.039176583
84	0xbb23f178	-0.0025015753
85	0xbc469666	-0.012120819
86	0x3cb05705	0.02152587
87	0x3cca6ad8	0.02470915
88	0x3c126afb	0.008936639
89	0x3d43e3c3	0.047824632
90	0x3d099e40	0.033598185
91	0xbd16b98d	-0.03679805
92	0x3d4b69fc	0.04966162
93	0x3c04ec53	0.008112985
94	0x3d1a1b37	0.03762361
95	0x3d47a6c5	0.04874303
96	0xbca2f8ec	-0.019894086
97	0x3d326349	0.043551717
98	0xbd1b689c	-0.03794156
99	0xbd3edaa4	-0.04659523
100	0x3da660f3	0.0812396
101	0x3d8c46f2	0.06849469
102	0xbce13df1	-0.027495356
103	0x3d1e2b12	0.038615294
104	0x3dbe98b9	0.09306473
105	0xbd1ac160	-0.037782073
106	0x3c9e3522	0.019312445
107	0x3d94c1f1	0.07263554
108	0xbc9b4c0f	-0.018957166
109	0xbd70bd1c	-0.0587741
110	0x3cd326cc	0.025775336
111	0xbd4dd7aa	-0.0502545
112	0x390b3df2	0.0001327915
113	0x3c8332a5	0.01601536
114	0xbc2ad207	-0.010426051
115	0x3d8d253a	0.06891866
116	0x3dda364f	0.1065489
117	0xbb244020	-0.0025062636
118	0xbd4cc04d	-0.04998808
119	0xbc5a20bd	-0.0133134695
120	0xbda73752	-0.081648484
121	0xbcebff9a	-0.028808404
122	0xbc83ae16	-0.016074222
123	0xbd2028ca	-0.0391014
124	0x3c3c3958	0.011488281
125	0x3c848bdc	0.016179971
126	0x3d362ada	0.04447446
127	0x3a8a4a1b	0.001055065

net.4.bias f4 [4]
0	0xbdc57f8a	-0.09643467
1	0xbdec082c	-0.11524996
2	0xbd11cf35	-0.035598
3	0x3d11ceb7	0.03559753
