outputs_ssh/noisy_data_NEW/chirp/1_nodes_given/10%_noise/-20%_init_error/model.pt (torch, 16796 bytes, 10 tensors)

net.0.linear.weight f4 [32, 1]
00000000: 831a 1d3f e008 1e3f 754a 63be 45ef b13e
00000010: 0d9b f53e 2615 41bf 5412 edbe 0816 6b3e
00000020: e56c af3e 551d 2b3f a3bd 0c3f ec7b cabe
00000030: 5ad7 35be cec8 12bf 2ab6 89be 75d5 02be
00000040: a623 54bf 6931 5e3f cf4d f7be 24af 303f
00000050: a6b7 08bf f10d d0be db9d 5f3e e483 803e
00000060: a8f8 b23e 5f4f 78bf 51ed 7dbf 478a bbbe
00000070: 9fbc e2be 846d 003f 2e8f b83e e1ba 92be
0.6136858 0.6173229 -0.22196372 0.3475286 0.47969857 -0.75422895 -0.46303046 0.22957623
0.34262767 0.6684163 0.5497686 -0.3954767 -0.17757931 -0.57337654 -0.26896793 -0.1277674
-0.82866895 0.86794144 -0.4830155 0.69017243 -0.53405225 -0.40635636 0.21837561 0.25100625
0.34955335 -0.9699611 -0.9919024 -0.36628935 -0.4428453 0.5016711 0.36046737 -0.28658202

net.0.linear.bias f4 [32]
00000000: bf8e 45bf 6195 723f 3ca6 5f3d 2c07 afbe
00000010: 9392 423d 54d5 bfbe 0671 a73e c44d 4f3f
00000020: 1342 633f 219c 3d3f a499 2cbf d87c 5e3f
00000030: f658 6bbe ae0b 1a3e 5107 4ebf 842b a8bc
00000040: ef74 d93e bbe0 72bf 6581 08bf 6af2 83be
00000050: 3c4b 2c3d 8745 403f d990 d8be 2702 26bf
00000060: f3f9 63bf 1eff 473f 80c1 45be 0fcf 9a3e
00000070: aba5 4b3f 62a0 903e 4301 003f 63b9 4c3f
-0.7717094 0.94759184 0.054601893 -0.3418516 0.047503065 -0.37467444 0.32703418 0.80978036
0.88772696 0.7406636 -0.67421937 0.86909246 -0.22983155 0.15043518 -0.80479914 -0.020528562
0.42472026 -0.9487416 -0.5332244 -0.25770885 0.042063937 0.7510609 -0.4229801 -0.64847034
-0.8905327 0.7812365 -0.19312096 0.30236098 0.79549664 0.28247362 0.50001925 0.7997038

net.1.linear.weight f4 [32, 32]
00000000: 5f83 e0bb cdef 01bc 5e63 47bc e94b 6b3b
00000010: 63ab 583b 9b2f 43bc 4381 9e3c e265 db3b
00000020: b898 053c 3a14 283c affc ea3b d1f6 a13b
00000030: 8c92 01bc 78b7 4bbc 3cdc d93b 6f98 9fbb
00000040: 3f3c 6fbc f81b a8bb 4854 c0ba 9767 1a3c
00000050: 071f 463c 5040 62bc 72ff 4fbb 4b86 1ebc
00000060: a5cd 4cbb ad38 9d3b a147 193c b9b6 cbba
00000070: 6467 d5bb f995 7cbb 0e60 b0bb 6f5f 08bc
00000080: 97b8 e9bb adae 403c af72 9d3b cb02 7dbb
00000090: acb4 dfbb 1cca 5e3c 35b0 69bc 172c 47bc
000000a0: 5283 6a3b b2ea c8bb f32e 103c ac23 863c
000000b0: d5de 98bb de7c 13ba 1fbb a1bc 3c63 ae3c
000000c0: ebe7 ed3b 6928 9b3b d028 003b 005d 79bc
000000d0: 8a42 a13c 3141 023b bcd3 7ebc e72c 863c
000000e0: c5a3 22bc 9320 f13b 8bb1 76bc 73c6 5fbc
000000f0: bcd9 d63b 0372 1b3c 5772 b93b 9a8d 693c
00000100: fe5d c8ba c7eb 503b e6e6 97ba 0847 f638
00000110: 9329 9dbb 37dd e43a fe6b 473c 1381 ef3b
00000120: 4dc3 433c 5041 083a 14d0 00bc 92c2 2e3c
00000130: 5ba6 46bc d33f dd3b 0fdb 483c 755b 933b
00000140: 39ef ea3a 0f86 7cbb 9cde 933a 7d4b 5abc
00000150: 1bae 023c b271 28bc c775 a13c d2f9 2ebc
00000160: a5d9 0dbc 6d15 b33b 33cd 3dbc 0aec 2c3c
00000170: 298f 1c3c 08c6 dc3b d94a 583c 2bf8 a73b
00000180: 583b 0bbb 0ec6 0e3c d652 d93b 8b29 543c
00000190: b603 873c 3d29 ddbb 507f 073b ba09 36bb
000001a0: 0d16 6dbb 88c2 663c 4c03 b3bb dfbb 74ba
000001b0: 7fd2 2a3c 68a8 d7bb 0075 303b c606 b639
000001c0: 164c 823c 46d7 61bb c73a df3b 5f8d 813b
000001d0: dfa5 6b39 dfb2 ed3a 2518 c23c 5050 2b3c
000001e0: a737 b33b ba08 763c 5972 aa3b 5ad7 833b
000001f0: c2a6 9b3b efbd 16bc 91bf 453c 5114 183b
00000200: 45a1 a43c 6016 133a 4d8c f9bb a6cb 9a3b
00000210: 2588 973c 8ecb 37bc a69b a63a 1d6c 99bc
00000220: c6f4 fc3b d20b 453b 7d62 c13c deb2 48bc
00000230: bc6b fdbc 15f2 12bb 33a0 733c 6341 35bc
00000240: 8f39 0ebc 6f4b cb3b 609e c63b 1522 053b
00000250: ad11 3fbc 876f 17bb 19c7 7d3c 1aca 72bc
00000260: d5b9 7dbb 4f94 23bb 4e8b 0a3c 804e a63b
00000270: 622c ea3b 3d19 263c f7f6 2f3c 1422 bebc
00000280: d6f1 04bb f7ab abb9 9569 a13a 9e48 f9bb
00000290: 9fc9 073c 99a6 89bc 5126 14bc 1d41 093c
000002a0: d703 8e3b e4c7 de3b 9e34 413c 9e15 5a3c
000002b0: f819 2e3c 2a47 06bc e552 2c3c f639 d2bb
000002c0: eee0 b5bb c859 53bc 5a99 1abb d298 ad3b
000002d0: 5f18 49bc 1c18 77bc eae5 10ba f925 cb39
000002e0: 7e0b 15bc a035 0dbc f14b 48bc 523e 30bc
000002f0: 982d 42bc 33d6 32bb 17ba 093c 908a 55bc
00000300: 183a e9bb 786a ba38 5faf d3bb 055c 8dbb
00000310: ef74 55bc 3e4d bdbb ee3a 80bb 8b78 863b
00000320: 6944 bcba 7508 0abc 36fb 1fbc 44a0 f03b
00000330: deae 68bc b870 22bc ad91 9ebc 7020 833c
00000340: 5bb1 1f3c 1e29 9a3a 54df 45bc 24dd 073b
00000350: 3a41 05bc c77d a43b b24a 6cbb 2fe7 3f3b
00000360: e9b0 dfbb 8050 453b b610 5c3b 6e8a fcbb
00000370: 1e32 d03b 5cb9 d1bb 71a6 083c e243 a73c
00000380: a7b0 b63c df3c b63c 5769 fd3b 3c4c 813c
00000390: 6b70 19bb 8d03 d4bb 22cd b6bb ddfc 8f3b
000003a0: b240 c53a 91e2 62bc 36ae e3bb 4093 643c
000003b0: d8c1 e63b 5f75 12bc fbc6 0cbc ce0a f7bb
000003c0: e071 013c ec81 113b 3300 2dbc 1bf5 52bc
000003d0: c4d9 ff3b 8f0b 543c d751 71bc e91a 85bb
000003e0: 2631 41bc 57f2 1e3c c35a 7d3b e8b8 903c
000003f0: 6508 223c 7e56 f63b e1be b43c b0bd 733c
-0.006851598 -0.007930708 -0.012169687 0.00359034 0.0033061139 -0.0119132055 0.019348746 0.006695495
0.008154087 0.010258729 0.0071712355 0.004942753 -0.007908475 -0.012433879 0.0066485684 -0.0048704664
-0.014601766 -0.0051302873 -0.0014673555 0.009424112 0.012092358 -0.013809279 -0.003173795 -0.009675573
-0.0031250503 0.004798016 0.009355457 -0.0015542126 -0.0065125693 -0.003854154 -0.0053825444 -0.008323534
-0.0071326005 0.011760396 0.004804931 -0.00386064 -0.0068269577 0.013597991 -0.014263202 -0.012156508
0.003578384 -0.0061314935 0.008800256 0.016374432 -0.0046652355 -0.00056262116 -0.019742547 0.021287553
0.007260313 0.004735042 0.0019555576 -0.015219927 0.019685049 0.0019875283 -0.015553411 0.016378833
-0.009926741 0.0073586195 -0.015056978 -0.013658154 0.0065567177 0.009487632 0.0056593823 0.014254952
-0.0015286801 0.0031878815 -0.0011589199 0.00011743425 -0.004796216 0.0017460947 0.012171743 0.007309088
0.011948419 0.00051977206 -0.00786211 0.010666506 -0.012124623 0.006751993 0.012259259 0.0044969865
0.0017924077 -0.0038532054 0.0011281553 -0.013323662 0.00797608 -0.010281013 0.01970948 -0.010679679
-0.0086578475 0.0054652006 -0.011584568 0.010554323 0.009555616 0.0067374744 0.013201439 0.0051260195
-0.0021245088 0.008714212 0.0066321893 0.012949358 0.016481262 -0.0067493008 0.002067525 -0.0027776794
-0.0036176473 0.014084466 -0.0054630395 -0.00093358563 0.010426163 -0.006581355 0.0026925206 0.00034718792
0.015905421 -0.0034460588 0.0068124267 0.0039536203 0.00022473138 0.0018134973 0.023693154 0.01045616
0.0054692808 0.015016729 0.0052016196 0.0040234746 0.0047501037 -0.009200557 0.012069599 0.002320547
0.02009643 0.0005610939 -0.007615602 0.004723984 0.018497536 -0.011217965 0.0012711182 -0.01872831
0.007719609 0.003006686 0.023606533 -0.0122496765 -0.03093516 -0.0022422124 0.014869737 -0.011062953
-0.008680715 0.0062040607 0.0060613602 0.0020314504 -0.011661929 -0.0023107247 0.015489363 -0.014818693
-0.00387155 -0.0024960225 0.008456064 0.005075276 0.007146404 0.010137853 0.010740033 -0.02320961
-0.0020285747 -0.00032743785 0.0012314791 -0.0076075336 0.008287816 -0.016803073 -0.0090423385 0.008377341
0.004333954 0.006798731 0.01179233 0.013310818 0.010626309 -0.008195678 0.0105178105 -0.006415601
-0.0055504953 -0.0128998235 -0.002358994 0.0052977586 -0.012273877 -0.015081432 -0.0005527424 0.0003874747
-0.009096978 -0.008618742 -0.012225137 -0.010757046 -0.011851691 -0.0027288317 0.008406184 -0.013033524
-0.007117521 8.8890025e-05 -0.006460115 -0.004313948 -0.013028367 -0.0057770303 -0.003913275 0.0041037253
-0.001436365 -0.008424868 -0.009764483 0.007343324 -0.014201848 -0.00991457 -0.019356573 0.016006678
0.009746875 0.0011761521 -0.012077171 0.0020731175 -0.008133227 0.0050198766 -0.0036055264 0.0029282083
-0.0068265093 0.0030107796 0.0033579296 -0.007706932 0.0063536307 -0.0064002704 0.008340464 0.020418111
0.022301031 0.022245822 0.0077335048 0.015783422 -0.0023412954 -0.00647015 -0.005578653 0.0043941573
0.0015049188 -0.013847963 -0.006948258 0.013951123 0.007042151 -0.008939116 -0.0085923625 -0.00753913
0.007900685 0.0022202684 -0.0105591295 -0.0128758205 0.007807942 0.012942209 -0.014728985 -0.004062046
-0.011791503 0.009701333 0.0038658835 0.017666295 0.009889697 0.007517635 0.022063674 0.014876768

net.1.linear.bias f4 [32]
00000000: 7de4 253c bdf0 733d 8a0d c53d 62d9 213e
00000010: b27d 1ebe 959b c5bd 9e5c 22bd 8082 21be
00000020: 2b04 6c3d 9aee 373e 2356 bb3d e18f b7bd
00000030: b497 98bd 70aa 81bd 6c20 2cbe 4836 0dbc
00000040: d0c8 df3d 1559 d33d 6862 9abc e276 223e
00000050: 9110 053e c78f 0cbe 226d 1cbd dc29 c9bc
00000060: c4a6 8f3d e56f d03d 401b f13c 7d78 983b
00000070: f862 b33c 2fdc 05be b9ba e9bd 48f1 be3d
0.010125277 0.059555758 0.09621723 0.15805581 -0.15477636 -0.096488155 -0.039639108 -0.15772438
0.057621162 0.17962113 0.09147289 -0.089629896 -0.0745081 -0.063313365 -0.16809243 -0.008618899
0.10926974 0.103197254 -0.018845752 0.15865663 0.12994601 -0.13726722 -0.038190015 -0.024556093
0.0701423 0.10177592 0.02943194 0.004653035 0.021897778 -0.13072275 -0.11412568 0.093233645

net.2.linear.weight f4 [32, 32]
00000000: 3681 51b9 1a28 e23b 643e 3cbc 1fde 8d3c
00000010: 9fff 5fbc 8b6e c33b fa0c 13ba 64fb e13a
00000020: 264d 683a 42b4 c03a 6bcd 0e3a 600c bb3c
00000030: e76d 793b 3c7e 92ba 2041 bebb 74d0 20bb
00000040: 43b0 873b 98e6 81bb 39d2 b0ba 6290 873a
00000050: ca53 bb3b 358d 09bc 0b1b 173a abe5 783c
00000060: 0b5f 87bc f0f8 90bb 5570 863b ff23 c7bc
00000070: a85d 17bc b4ee a3bc d709 32bb 7df4 1abb
00000080: 929b 1b3c 6425 18bc 15b1 15bb ee62 623c
00000090: a307 573c 6ba1 eb3b 83c4 1f3c 6859 523c
000000a0: 2f42 ac3b 6623 9ebb c2f7 9f3c 77fc 95ba
000000b0: f6fc 89bc 0e23 9b3c 5288 75ba fdd6 eaba
000000c0: 2984 23bc 857f a0bb c7a4 053b 03fd b13b
000000d0: d73d 183c e2bf ed3b 6ac7 b13b ec50 3abb
000000e0: 5fb6 12ba aee5 2abc ac97 083b 2032 d63b
000000f0: 1d1e 913c 4d2c aa3b a73c 62bc 1544 643c
00000100: baef 173c 5249 13bc 444d 423b 4667 803b
00000110: d785 bfbb 658a fb3a da19 433c 9e2f f7bb
00000120: 2c3b a0bb 8293 efb9 9d2e 55bc 9334 e138
00000130: ed7e 8b3c 26d9 3abb fbb2 493b 58c9 abbb
00000140: fcc4 a1bb 96fb 48bc ef23 84bc 3708 8b3c
00000150: 1e28 053c 8090 e4bb 198e 233c d674 183c
00000160: 3faf c5bb ca2b e3ba 9793 92bc 80db e4bb
00000170: 2851 59bc 7b36 65bc b5a8 133c ae30 4c3c
00000180: 4947 443c f9d9 c839 9de5 25bc 3a48 acbb
00000190: 1f8f 4abc bada 683b 4d35 6ebb 1fae 2cbc
000001a0: 6d84 2abb 7451 cf3b ec4f 183c 9220 7abb
000001b0: 3b37 8bbc ac22 30bc 5983 11bb 03fc 383c
000001c0: 7ebb 02bc e4ca d7bb e13a aabc 768d 83bc
000001d0: 6501 da3b 6598 783b 4009 963c aa92 c23a
000001e0: ff39 dbbb 30ef 95bc 8ccc b2bc 069e d2bb
000001f0: bed9 953c 6060 3c3c feaf 583c 5c04 223a
00000200: 674e d43b ea45 06bc 10e9 fd3b b9ba d0ba
00000210: ed1d 37bc 3aeb 423c 3a36 853c 9ec6 1cbc
00000220: c7b2 2fbc fbd9 013c c584 d9ba 511c 1bbc
00000230: dc9e 203b e6dd 67bc d388 30b8 07df aabb
00000240: 2658 35bc 778a 48bb 19e9 2a3c 8375 593c
00000250: c50c 003c 4591 94bb 5da7 433b 560f f6ba
00000260: 4f30 83b8 ab47 cf3b a5de 29ba 1ebb 04bc
00000270: 41c3 39bb 039e 8e3b 5731 6e3b fecf 453c
00000280: f27a 8d3b 4368 a93b a65d a0bc 9841 f03b
00000290: e273 c939 d128 0abc 8b02 763c a448 03bc
000002a0: 4ca8 f5bb 7bdd 9f3c fb77 5fbc 336a 17bc
000002b0: eb3e 7ebc a86f cc3b be5f 84bc 5c3a cdba
000002c0: 32e1 0d3b 8f81 c43a 7e7d 7e3c 51de 203c
000002d0: 92e3 3dbb 3ab5 0d3b 9467 883c 8031 a63c
000002e0: 3b37 d2bb f4ca 443b fe22 bdbc fa5e a73a
000002f0: 56c1 dabb fbfb 483b f035 a8bc d2a3 80bc
00000300: 6696 29bc 1046 8f3c 5343 883c 8d6e 813b
00000310: a0bb 58bc 8119 55bb d8da 9abb 4105 08bc
00000320: 28dc c53b d5a6 74bc e102 58bc 5235 c2bc
00000330: 489c f93b ddc6 dbb8 32be 5d3b 133d 9abb
00000340: 57a1 23bc a5b2 0b3c c22d 6b3c ed50 413c
00000350: d231 0ebc 6687 eaba d52a 5dbc 5039 78ba
00000360: 7320 153b 940e cebc b248 3a3a 7a4a 2f3b
00000370: 1f20 833b 84f5 593b 80df 6ebc 256a b9bb
00000380: 9b7c 253c 0fe4 abbb 8a92 02bc 3a52 873b
00000390: 2594 d53b 7589 893c 08e4 88bc e751 0b3c
000003a0: 67bd 0e3c 782b a53b b9ed 72bc c835 66bb
000003b0: 5ae4 bb3b 0f03 bd3b f9f7 353b 25da ec3b
000003c0: f331 8ebb fcf4 003b 0121 7cbb 817a 2ebc
000003d0: 458b 743b 47bc 11bc 6ac5 53bc 2f11 7abc
000003e0: f4fe c1bb 2fc6 5ebc 6066 8b3c 0e0b 6039
000003f0: c86d aa3b 0519 633b 15a9 223c 7f9a 453c
-0.00019979928 0.006901753 -0.011489484 0.01731783 -0.013671785 0.0059641055 -0.00056095386 0.0017241058
0.00088615937 0.0014702159 0.000544748 0.02283305 0.0038059892 -0.0011176537 -0.0058061033 -0.002453831
0.004140885 -0.0039642565 -0.0013490386 0.0010342712 0.0057167755 -0.008395483 0.00057642226 0.015191476
-0.016524812 -0.004424207 0.0041027465 -0.024309156 -0.009238638 -0.020011283 -0.002716651 -0.0023644262
0.00949754 -0.009286258 -0.0022841145 0.013817532 0.013124379 0.0071908734 0.009751442 0.012838699
0.005256913 -0.004825997 0.01952732 -0.0011443038 -0.016844254 0.018937614 -0.00093663216 -0.0017916855
-0.00998024 -0.004898014 0.0020392404 0.0054317727 0.0092920875 0.00725554 0.0054253833 -0.002842958
-0.00055966334 -0.0104307365 0.0020842357 0.006536737 0.017714554 0.0051932693 -0.013808406 0.013932248
0.009273464 -0.008989649 0.0029648105 0.003918561 -0.0058448124 0.0019191025 0.011908019 -0.007543518
-0.0048898663 -0.00045695534 -0.013011602 0.00010738629 0.017028296 -0.0028510778 0.0030776847 -0.005242508
-0.0049368124 -0.012267014 -0.016130416 0.01697169 0.00812724 -0.0069752336 0.009982609 0.0093052
-0.006032854 -0.0017331776 -0.017892642 -0.0069841743 -0.013263978 -0.01399004 0.009012391 0.012462778
0.011979886 0.00038309375 -0.010125545 -0.0052576335 -0.012363224 0.0035530762 -0.0036347688 -0.010539561
-0.0026018873 0.0063268486 0.009296399 -0.0038166386 -0.01699411 -0.010750454 -0.0022203533 0.011290553
-0.007979272 -0.0065854657 -0.020780029 -0.016058665 0.0066529983 0.003793263 0.018314958 0.0014844735
-0.0066902633 -0.01830253 -0.021826051 -0.0064275293 0.018292304 0.011497587 0.013225554 0.0006180459
0.006479073 -0.00819538 0.0077487305 -0.0015924788 -0.011176568 0.011896903 0.016261209 -0.009568838
-0.010723776 0.007925506 -0.0016595355 -0.0094672 0.002450875 -0.014152026 -4.2089097e-05 -0.005214575
-0.0110683795 -0.003060011 0.010431551 0.013272646 0.0078155445 -0.004533919 0.0029854395 -0.0018772881
-6.255565e-05 0.006325682 -0.0006480015 -0.008101253 -0.002834514 0.0043523326 0.0036345327 0.012073515
0.0043176347 0.0051698997 -0.019575905 0.007332038 0.00038424047 -0.008432583 0.015015255 -0.008012924
-0.007496869 0.01951479 -0.013639445 -0.009241628 -0.0155179305 0.0062388964 -0.016158935 -0.0015657651
0.002164912 0.0014992225 0.015532849 0.009818629 -0.0028974754 0.0021622912 0.016650952 0.020287275
-0.0064152754 0.0030028196 -0.023087975 0.0012769394 -0.0066758795 0.003066777 -0.020533532 -0.015703116
-0.010350799 0.017489463 0.016633665 0.0039499463 -0.013228327 -0.0032516422 -0.0047257952 -0.008302034
0.0060382076 -0.014932354 -0.01318428 -0.023707066 0.007617507 -0.00010479775 0.003383529 -0.0047069876
-0.009987197 0.008526479 0.014354171 0.011799079 -0.00867887 -0.0017893135 -0.0134989815 -0.00094689894
0.0022754937 -0.025153436 0.00071061694 0.0026747272 0.004001632 0.003325791 -0.014579654 -0.0056584054
0.010100509 -0.0052456926 -0.007969508 0.004129675 0.0065179043 0.016789177 -0.016710296 0.008503414
0.008712149 0.0050405823 -0.014827185 -0.003512727 0.0057340087 0.005768187 0.0027766211 0.0072281533
-0.0043394505 0.0019677272 -0.003847182 -0.010649324 0.0037314456 -0.0088949865 -0.012925485 -0.015262886
-0.0059202854 -0.013597055 0.01701659 0.00021366423 0.005201075 0.0034652364 0.009928008 0.0120607605

net.2.linear.bias f4 [32]
00000000: 5a51 9ebd 8615 e9bd 0ff0 d23d bd34 3b3e
00000010: d366 1b3e 67c1 18bc 4360 133e 308f 12bd
00000020: dd28 cabd e1b1 1dbd 9955 a5bc 82db 2f3d
00000030: a8cc e93d 9f9c b33d 2d11 9e3d 626f 073e
00000040: c1d5 32be 3a8d 00be c449 3dbc f7cc 9c3d
00000050: cbb0 263e 8f86 013c 71bc 533d 91f9 fabd
00000060: 8ea5 5bbd 74b2 32bd 9a1e 2cbe d6f9 ffbd
00000070: 5734 ba3b dfe8 35be afe8 2e3e f3f3 f7bc
-0.0773036 -0.113810584 0.10299694 0.18281837 0.15175943 -0.009323454 0.1439219 -0.035781085
-0.09871075 -0.038499717 -0.020182418 0.04293395 0.11415988 0.087701075 0.0771812 0.13226083
-0.17464353 -0.12553874 -0.011553232 0.076562814 0.16278379 0.007905616 0.051693384 -0.12254632
-0.053624682 -0.043627217 -0.16808549 -0.12498824 0.005682509 -0.17764615 0.17080949 -0.030267691

net.3.linear.weight f4 [32, 32]
00000000: 1253 f73b 43b5 ea3b 46aa ad3b 5146 a8ba
00000010: 0633 3ebc 19c3 afbc 3c9a c2ba c4f4 7cbc
00000020: 3e10 dbba 1323 8bbb 295c 6d3b b5e4 a83b
00000030: f69a b43c b2b1 ecbb 2f13 cd3b 24f6 96bb
00000040: 2bae 1a3b 6bb3 a93c 801b b73a 112b 963c
00000050: 095f fb3b a810 26bc 50a0 f9bb 119d 2e3b
00000060: 7bff 7a3c 3036 92bc 2111 d33a ca4c b83c
00000070: 780b 493c a4f3 82bb f2ac ed3b d951 f4bb
00000080: 334a 8d39 c6a4 9abc 1144 9f3b 54bd a7bc
00000090: 6afe de3b 12dc 943b 3a44 85bc 3cf2 2e3c
000000a0: c666 d2bb c110 30bc 3e46 6cbc 06fd 87bc
000000b0: b1de c23c aca2 333c a392 353b 7cb3 033c
000000c0: 8b71 203c 1d59 a23c cb50 863b f8f4 3c3c
000000d0: 1a7d 7abc ec53 913c d962 4b3c 9f88 f7bb
000000e0: 1603 e8bb 9d8d 943c cba5 283b 4a23 adbb
000000f0: fd3a 30bc b1a2 d6bb aafd 32bc c780 4d3c
00000100: 7582 213c f857 043c 779d e238 be17 183c
00000110: 233c 5c3a b75e 193b 6c99 5b3c 8574 953a
00000120: adf8 f9bb f87f a9bb 00af 7a3c 293a 883c
00000130: 9fa8 b83b b355 0fbc 5e55 563b 12e0 053c
00000140: a546 08bc aa90 88bc 321a d4bb 23df 54bc
00000150: e858 3c3b 333f 3dbc ad54 b1bb 85cc 73bc
00000160: 3861 f53b f4ff 383b 61fc a3bc 9876 513a
00000170: 6522 043c b623 543b 4a79 f438 fc15 bc3c
00000180: fba3 9fbb ddeb 93bc cb0d cebb afb7 393b
00000190: 7802 8f3c fada 1c3c d3fa d33b 91b1 31bc
000001a0: b26f 103c 17c3 8a3c f750 a93b 6af3 a1bb
000001b0: eaa2 f4b9 9eaa 5d3a 78e1 623b e800 923b
000001c0: c4ed efbb 1ec4 873c 6890 963b 94b0 b33b
000001d0: c0d7 673c 3707 d7bc 75e5 1bbc 3465 aebb
000001e0: a5ce 483c 0f2a f73a 0a07 af3b 0f9d 8e3c
000001f0: be33 fa3c 5ac5 f93b 1fe0 e9bb 1de8 ed3b
00000200: 4e45 64bb c5a1 963c 5ba8 08bc 7bcc 11bb
00000210: c409 71bc 01f9 8ebc 5982 0d3c 9e4b 023c
00000220: 8c75 35bc a5c2 79bc 449f f3ba 34d6 543c
00000230: 5b35 843c 8885 ec3b c8ba 28bc 2569 ad3b
00000240: d91c cab9 a694 7e3b 029e beba 7776 12bb
00000250: af35 7fbc 1c13 7a3c 6f5a 1c3c 3305 88bc
00000260: 6c57 f7ba 8720 8cba 7e61 573c ef78 2f3b
00000270: 627e 1abc b7ac 123b 45ef 2cbb a56f 553b
00000280: c92c 443c 954f 353c a604 5f3b 597f 7e39
00000290: ba59 febb b5b4 893b a8f9 d63b c097 21bc
000002a0: 5116 c9bb 254f 44bb 6643 98b9 0b29 c03b
000002b0: 7ccd 4bbc b898 ba3b 2314 19bc 5e57 093c
000002c0: 1ebc 223c ff40 b1bc fa48 0a3c 1bca 323c
000002d0: a41d 3f3c 0fa9 113c 6561 9dbc 1709 10bc
000002e0: b192 1ebb 4f60 a6bc 1913 2dbc be74 adbb
000002f0: bfd9 51bb 403d 70bc 44da ed3b 41bf 5d3c
00000300: d17a a2bc 6251 f23b 56b6 463b 8af8 9e3c
00000310: 9a0f a5bc 454d 273c 0a7b b0bb 4fdd d03c
00000320: 5fc3 2fbc 028c 633c c33d 5dbc 6266 72bb
00000330: 1d8f 783a 8b8a afbb 683c babb 1f9a a83b
00000340: c26d 75bb 77ea 253c be0e 813c 7740 35bc
00000350: b0d7 2f3c 17a3 37b9 151a 353c dcad 43bc
00000360: c1cb d139 a8b8 8ebc a19f 0c3c 6529 17bc
00000370: 700d f0bb 59e1 12bb 0022 923b 3830 d4bb
00000380: 4ca1 5dbb 4efe 93ba 8c01 8c3c 9979 86ba
00000390: 41b6 1abc 0a2c 003c faca 86bb 00be 45bb
000003a0: 6711 05bd da29 29bc 784b 6cbb cf9c 22bc
000003b0: 2d81 c0bc d0ca 06bc f583 773c 69ad 8fbb
000003c0: 83b4 d83c cb30 06bc 43bb 013c 2c6d 983a
000003d0: 770e 0ebc f4fc 703c 2027 21bb 7559 04bc
000003e0: 54a7 4f3b 69bc 99bc c4f0 a6ba 185b 763b
000003f0: 3e41 88bc eb61 8938 bb93 88bc ba70 fcbb
0.0075477445 0.0071627214 0.005299839 -0.0012838339 -0.011608845 -0.021455334 -0.0014846991 -0.015439216
-0.0016713215 -0.0042461245 0.0036218262 0.005154217 0.022046547 -0.0072233314 0.0062583904 -0.004606979
0.0023602347 0.020715436 0.0013969988 0.018331083 0.007671241 -0.010135807 -0.0076179877 0.0026643912
0.0153197 -0.017848104 0.0016103127 0.022497553 0.012270801 -0.0039963294 0.0072532827 -0.007456046
0.00026948898 -0.018877398 0.004860409 -0.02047602 0.006805231 0.004542836 -0.016267885 0.01067787
-0.006420943 -0.010746182 -0.014421044 -0.016600143 0.023787828 0.010964077 0.002770581 0.008038398
0.009792696 0.019817883 0.0040989867 0.0115330145 -0.015288616 0.017740212 0.012413704 -0.0075541283
-0.007080446 0.018133933 0.0025733586 -0.005283748 -0.010756251 -0.006550156 -0.010924736 0.01254291
0.009857764 0.008077614 0.0001080585 0.009283004 0.0008401295 0.0023402402 0.013403278 0.0011402523
-0.0076285214 -0.0051727258 0.015300512 0.016629295 0.0056353356 -0.00874846 0.0032704691 0.008171098
-0.008317624 -0.016670544 -0.0064728493 -0.012992653 0.0028739516 -0.011550712 -0.0054117055 -0.014880304
0.007488396 0.0028228732 -0.020017805 0.0007990389 0.008064841 0.0032369918 0.000116574185 0.022959702
-0.004871843 -0.018056804 -0.0062882653 0.0028338244 0.017457232 0.009573692 0.0064691096 -0.010845558
0.008815693 0.01693873 0.0051671225 -0.0049423473 -0.00046660687 0.0008455905 0.0034619253 0.0044556744
-0.007322045 0.016573008 0.0045948513 0.0054836962 0.01415056 -0.026248557 -0.009515156 -0.005322123
0.012256299 0.0018857139 0.0053414153 0.017408876 0.03054225 0.007622403 -0.007137313 0.007260336
-0.0034831348 0.018387685 -0.00834092 -0.0022247124 -0.014711801 -0.017452719 0.008637034 0.007952599
-0.011075389 -0.015244161 -0.0018586894 0.012990523 0.016138723 0.0072180666 -0.010298438 0.005292075
-0.00038549936 0.0038845926 -0.001454294 -0.0022348443 -0.015576764 0.015263345 0.009543045 -0.016604042
-0.0018870658 -0.0010690846 0.013145803 0.0026774963 -0.009429546 0.0022380778 -0.0026387733 0.0032567766
0.011973568 0.011066337 0.003402987 0.00024270768 -0.007762161 0.00420245 0.006560523 -0.00986284
-0.0061366935 -0.00299544 -0.00029041915 0.0058642677 -0.012439128 0.005694475 -0.00934318 0.008382646
0.009932546 -0.021637438 0.0084402505 0.0109124435 0.011664782 0.008890404 -0.01921148 -0.00879123
-0.0024196322 -0.020309595 -0.010563635 -0.005293458 -0.0032020656 -0.014663041 0.0072586853 0.013534368
-0.019833954 0.0073949555 0.0030321083 0.019405622 -0.020149041 0.010211294 -0.005385761 0.025496153
-0.010727732 0.013888361 -0.013503495 -0.0036987294 0.0009481775 -0.005357092 -0.0056834705 0.005145326
-0.0037449454 0.010126702 0.0157541 -0.011062733 0.010732576 -0.00017512996 0.011053582 -0.011943307
0.00040015395 -0.017422035 0.00858298 -0.009226178 -0.0073258206 -0.002241215 0.0044596195 -0.0064754747
-0.0033818064 -0.0011290999 0.017090581 -0.0010259628 -0.009442867 0.007823 -0.004113552 -0.0030173063
-0.0324873 -0.01032492 -0.0036055725 -0.009925081 -0.023499096 -0.008227065 0.015107145 -0.004384686
0.026453262 -0.008190344 0.007918182 0.0011629215 -0.008670441 0.014708746 -0.002458997 -0.008077969
0.0031685429 -0.018766599 -0.0012736549 0.0037590917 -0.016632672 6.550908e-05 -0.016672006 -0.0077038677

net.3.linear.bias f4 [32]
00000000: 2fdc 06bd 9427 0b3e d42a 9ebd 6020 e3bc
00000010: d801 e33c 5ecb 993d 5632 183e 42ea f23d
00000020: 0d11 8dbd abc8 8f3d a67d 82bd 57f1 073d
00000030: 9299 c0bc a97c 053d c890 67bd 5b40 0ebe
00000040: 22bc 6e3c 9a32 183d cd99 f8bc 043a fbbd
00000050: 9f4d 0cbe 9659 dfbb ee0f 563d a958 67ba
00000060: 2adf 6bbd 82b5 dd3d 354b 103e 90cd ff3d
00000070: 66a8 31be 419c 293d 811c e53d 1dff 2ebe
-0.032924827 0.13589317 -0.077230126 -0.027725399 0.02771084 0.07509492 0.14862952 0.118610874
-0.06888018 0.07020696 -0.06371622 0.033189144 -0.023510728 0.03258959 -0.05653456 -0.13891737
0.014571222 0.037157632 -0.030346775 -0.12266925 -0.13701485 -0.0068160994 0.052261285 -0.0008825162
-0.057585873 0.108256355 0.14091189 0.1249038 -0.17349395 0.04140878 0.11187077 -0.17089505

net.4.weight f4 [4, 32]
00000000: 22e5 39bd 2aac 3abc 1c05 84bc fcab dbbc
00000010: 8df7 723d 5103 19bd 787d 8e3c f38a 60bd
00000020: 9aeb 483c e1c6 6f3d 3bf8 3fbd dc57 613d
00000030: 04da d73b 52bc a13d ad71 1b3d 2f78 2c3c
00000040: fcdc 6bbd bdaf 9e3d f636 76bd 03c5 10bd
00000050: fad7 aebc ca04 34bd fbfa 843d d92d 763c
00000060: 3a63 fbbc 52b8 d73d 740d 19bd d0f8 1cbd
00000070: 3520 d13a d2cb 543d b279 e53b 14c1 c1bb
00000080: f3f6 66bd 2b69 d3bc 71ae 1c3e 471d 9fbd
00000090: 9bfe ec3b 859a bb3d aa38 b83b dd8e aebd
000000a0: 1ab2 e8bd 3534 c1bb 1142 16bd 297a 16bd
000000b0: 681e e4bd b050 12bc 3b1a 51bc 17bf 993d
000000c0: b206 6e3d 5989 07bd 1b54 89bc bd51 b93d
000000d0: 94b5 343d bc85 843d 1489 84bd fb56 eb3d
000000e0: eb0e 6bbd 5a69 abbd b4e9 3e3d f1fd c5bd
000000f0: e959 6c3d d432 5bbc 671b ac3c 8a2e 833c
00000100: dca0 143d 5c9d 723d d9d4 7dbd 5839 453d
00000110: c847 a6bd 3e15 6cbd da0b 52bd 25cf 20bd
00000120: f080 9a3d b93f f3bc 090d 3a3d cf8f 0dbd
00000130: 055a 203d 9a1e 5ebb b94a ae3c d3e0 22bd
00000140: 9cfc 74bd cd87 363b c11f b03b 3821 0ebd
00000150: 3135 ba3b ca8c 36bd 4dc7 89bc 6ab9 07bd
00000160: f4a4 293d c96a 7abc 575d 00bc c6f2 623d
00000170: 488f 90bc 1df5 48bd 20a7 1b3c 0e4e 1ebd
00000180: 8927 31bd ed91 0b3d c769 0ebd de5f 24ba
00000190: 04a7 e73c 82f2 033b 7d94 583d 6a96 c2bd
000001a0: cf09 023d a960 913d b94b 8ebd 81c1 533d
000001b0: a655 9a3d adcb 893d 635c 0e3e 808d 02bd
000001c0: 990c 8fbd 39ce df3d f09d b9bb 44e8 93bd
000001d0: e835 00be 390e afbd 30b1 8fb9 acd3 b93d
000001e0: dd7d 00bd a5b9 873d 9b4c 9fbd ce44 0cbd
000001f0: 6c39 d13d 4675 613d 522e c43d 80e0 a1bd
-0.045384534 -0.011393586 -0.016115718 -0.026815407 0.059318114 -0.03735668 0.017393813 -0.054820012
0.012263203 0.058539275 -0.04686759 0.05501543 0.006587269 0.078972474 0.037950207 0.010526701
-0.057583794 0.07748363 -0.06011101 -0.035344135 -0.02134322 -0.04394988 0.06493183 0.015025579
-0.030686963 0.10533203 -0.037366346 -0.038323224 0.0015955033 0.05195219 0.0070030326 -0.0059129093
-0.056387853 -0.025806984 0.15300919 -0.07769256 0.0072325 0.09160332 0.0056219893 -0.08523343
-0.11362095 -0.005896116 -0.0366841 -0.036737595 -0.11138612 -0.00893037 -0.0127626015 0.075071506
0.058111854 -0.03308997 -0.016763737 0.090487935 0.04411848 0.0647082 -0.06471458 0.114911996
-0.057387274 -0.083697036 0.046609595 -0.09667576 0.057702933 -0.013378818 0.02100916 0.016013402
0.03628622 0.0592321 -0.061970565 0.04815039 -0.0811916 -0.057637446 -0.051280834 -0.03926005
0.07544124 -0.029693471 0.045422588 -0.034560975 0.03914835 -0.0033892752 0.021275865 -0.03976519
-0.05981122 0.002785194 0.005374879 -0.03469965 0.0056826104 -0.04456786 -0.016818667 -0.03313581
0.041417077 -0.015284249 -0.007834754 0.055407308 -0.017646447 -0.049061883 0.009500295 -0.038648658
-0.043250594 0.034074713 -0.034768846 -0.0006270389 0.028277881 0.002013356 0.052875984 -0.095013455
0.031747635 0.070985146 -0.06948037 0.05169821 0.075358674 0.06728301 0.1390243 -0.031873226
-0.06984825 0.10928006 -0.0056645796 -0.072220355 -0.12520564 -0.08547635 -0.000274071 0.09073576
-0.031370033 0.06627206 -0.07778283 -0.034245305 0.102160305 0.05504348 0.095791474 -0.07904148

net.4.bias f4 [4]
00000000: 2d81 b8bd 17ce 63bd 69a2 b83d 6782 1dbd
-0.09009013 -0.055616464 0.09015352 -0.03845444
