outputs_inverse/chirp(1)/1_nodes_given/model.pt (torch, 16367 bytes, 10 tensors)

net.0.linear.weight f4 [32, 1]
000000 d0 92 60 3f 9e 34 d6 bd 9a 52 0f bf 15 b5 3b 3f
       0.8772402 -0.10459255 -0.55985415 0.73323184
000010 52 5c 7b 3f 5e c7 dc 3c d8 80 35 3e 50 d3 8e 3e
       0.98187745 0.026950534 0.17724931 0.27895594
000020 eb 02 80 bf 21 e0 69 bf b5 8a ed be 1e f6 2e 3f
       -1.000089 -0.9135762 -0.46394888 0.68344295
000030 e8 fd 14 bf 6a a6 6b 3f a3 8d da 3e a7 4d f2 3e
       -0.5819993 0.920508 0.42686185 0.4732487
000040 11 6d 58 bf 66 a0 19 3e cf b1 04 bf 51 76 4d 3d
       -0.8454142 0.15002593 -0.51833814 0.050161663
000050 a6 d8 60 3f 30 b2 1c bf 39 5b 10 bf 78 87 6b 3e
       0.8783058 -0.6120939 -0.56389195 0.23000896
000060 0e 93 4f 3f 4b fd dd be 05 1d fb be 46 fd 53 3e
       0.8108376 -0.4335731 -0.49045578 0.20702085
000070 23 06 63 3e 3a 66 05 bf 10 a8 75 3e 37 5a 4d 3f
       0.2217031 -0.5210911 0.23989892 0.8021578

net.0.linear.bias f4 [32]
000000 44 9e 06 bf 97 3a a9 be 94 fe 7d 3f b1 6f 59 bf
       -0.52585244 -0.33052513 0.9921658 -0.8493605
000010 fa 06 7a 3f 2b 3e 54 3d ff 3a 56 3f 23 39 af 3d
       0.97666895 0.0518171 0.8368377 0.0855582
000020 c0 ce 42 3f 4c cc 28 bf 0a fb ee bd 54 e1 57 bf
       0.76096725 -0.6593673 -0.11668976 -0.843282
000030 94 56 10 bf 03 87 fa bc ed 99 59 bc ef f9 37 3f
       -0.5638211 -0.030581957 -0.013281328 0.71865743
000040 54 ae 85 3e c4 b4 04 3f 7f a5 b5 3d b0 3e b1 bd
       0.26109564 0.51838326 0.088694565 -0.08654535
000050 ba ed 40 3f fa cb 7c 3e 46 ff 3b be 50 63 58 bf
       0.7536274 0.24687186 -0.18359098 -0.8452654
000060 06 71 ea 3d 4d cc 8d 3e d0 e9 b9 3e 98 ac 5f be
       0.11447339 0.27694932 0.36311197 -0.21843183
000070 76 1c 10 3d fa 5b de bd a2 d9 14 bd 2b fa 0f be
       0.035183392 -0.10857387 -0.036340363 -0.14060275

net.1.linear.weight f4 [32, 32]
000000 3a 51 fe ba e1 49 23 bc b6 e8 9a bb 2b 0e c2 bb
       -0.001940287 -0.009966345 -0.0047274483 -0.005922099
000010 f6 8b 56 bb 72 71 9a bb 26 09 1d bc 70 6d 33 3b
       -0.0032737232 -0.0047132308 -0.009584701 0.0027378462
000020 9c b2 26 39 24 0d 31 3c 6d 7a 83 3c e2 20 e1 3b
       0.00015897531 0.010806356 0.016049588 0.006870375
000030 8e e7 49 3c d5 18 7b 3c dd d0 89 3c 31 c2 1d 3c
       0.012323273 0.015325745 0.016823227 0.009628818
000040 60 d9 d7 3b 64 b9 2b bc cf 23 80 ba e1 d9 63 3c
       0.0065871924 -0.010481212 -0.0009776297 0.013906927
000050 dc 9e 2c bb d1 7e ab 3c cb c1 b6 bb 54 7f 8c bb
       -0.0026339805 0.020934494 -0.005577301 -0.0042876396
000060 26 aa 46 bc 05 e4 2e bc 89 12 02 bc 05 ca 38 3b
       -0.0121255275 -0.010674481 -0.007938989 0.0028196585
000070 ea 95 4d 3c 34 1c 7a bc d6 04 3b 3b ba a6 2a bc
       0.012547949 -0.015265513 0.0028536818 -0.010415727
000080 6c 0c 5f bc 92 4d af bc 6e d5 6e b9 89 57 6e bc
       -0.013613801 -0.021399293 -0.00022776957 -0.014547237
000090 ac 93 eb 3b 5f 22 29 3c 53 2e 44 bc 2d d0 05 3c
       0.0071892347 0.010323136 -0.011973935 0.008167309
0000a0 7e 85 2b 3b 21 e8 f4 ba 21 62 18 bb 51 eb 21 bb
       0.0026172097 -0.0018684902 -0.0023251849 -0.002470691
0000b0 27 f9 8e 3c 9b 59 8b bb a1 ac 66 3b 50 d1 09 bc
       0.01745279 -0.004252625 0.003519811 -0.00841172
0000c0 88 41 2b bc e7 f4 ca bb 17 bb 9e 3a cc 1e b8 bb
       -0.010452636 -0.0061937454 0.00121102 -0.0056189056
0000d0 ff 0f 86 bc ff f0 1b 3b 98 45 32 3c 28 5d d7 3b
       -0.01636505 0.0023794768 0.01088085 0.0065723844
0000e0 ab a3 97 3b e9 01 83 3b fe 95 b8 ba eb 08 db bc
       0.004627665 0.0039980304 -0.0014082787 -0.02673765
0000f0 d7 62 f6 3b 70 f0 87 3b 9a f4 b8 bb a9 19 d0 3b
       0.007519107 0.0041485354 -0.005644393 0.006350715
000100 c6 94 37 bc 17 c7 06 3c 07 50 bb 3a 84 a7 48 bc
       -0.011204904 0.008226178 0.0014290818 -0.01224697
000110 13 47 69 bb 04 6a 2b ba e2 5f 05 3c 88 60 30 3b
       -0.0035595342 -0.000653893 0.008140536 0.0026913006
000120 bd 5b a9 bc 35 a4 91 bb 00 77 90 bb 9b 79 1d bc
       -0.020673627 -0.004444624 -0.004408717 -0.0096115125
000130 f6 73 89 3a 9f 8d 9a 3b d4 d2 47 3a d3 5a c1 3b
       0.001048683 0.0047165896 0.00076226634 0.0059007197
000140 89 ea 4b bc 7f a2 0e 39 f5 42 5b 3c 43 3b 84 bc
       -0.012446054 0.0001360271 0.013382663 -0.01614154
000150 37 3d fb b9 0c 4b a8 3c 85 b7 64 bc 44 5f 6d bc
       -0.0004792006 0.020543598 -0.01395977 -0.014488045
000160 75 69 71 bb 35 e0 88 3c 03 96 f5 3a 95 21 41 3b
       -0.003683654 0.016708473 0.0018736724 0.002946948
000170 ad b2 9b 3b 43 3d 1d ba 7b 50 37 bc a0 76 9f 3b
       0.0047515244 -0.00059982034 -0.011188622 0.004866436
000180 87 74 a1 bb c7 3f a2 3b d3 35 e0 b9 22 60 65 3b
       -0.004927221 0.0049514505 -0.00042764712 0.0034999927
000190 f2 1e 44 3b e9 a1 d2 3b 08 35 2e bc 8d c9 1c 3b
       0.0029925671 0.0064279926 -0.010632761 0.0023923845
0001a0 a6 a0 58 3c 32 26 77 bc 8d 26 e2 b9 93 ff 38 3b
       0.013221895 -0.01508479 -0.00043134802 0.0028228506
0001b0 56 2e cc 3b 40 d8 3d bc c9 9b 46 3c 3c da 64 3c
       0.0062311096 -0.011587203 0.012122103 0.013968047
0001c0 a1 e2 44 3c 92 05 a5 3a 20 58 6f 3b dc 45 e8 bb
       0.012016923 0.0012590161 0.0036521032 -0.007088406
0001d0 a3 7b f1 bb 1f 30 38 bc f7 9c e2 3b ca e1 41 bc
       -0.007369475 -0.011241942 0.0069156843 -0.011833617
0001e0 0e 29 64 3b 06 ba 34 bc 98 a2 2f 3c 40 37 e8 3b
       0.003481451 -0.01103068 0.010719918 0.0070866644
0001f0 9b fe 97 3b 6f 24 41 3c 0f de b0 3a 5a 80 6e bc
       0.0046385056 0.011788472 0.0013493913 -0.014556969
000200 a3 c9 17 3b 5c 90 5a bc 60 2e 3f bc 9f 2c ba bb
       0.0023160956 -0.013340082 -0.0116687715 -0.005681589
000210 8e 73 7f 3c 97 9c 75 3b 64 ec 8f bb 8d 16 b0 bc
       0.015591515 0.0037477368 -0.0043921936 -0.021495128
000220 4e 6c 43 3a 29 7f 2a bc e8 2c 00 bc 9e 7c 06 bc
       0.00074547983 -0.010406294 -0.0078232065 -0.008208422
000230 a7 ab 28 3c 37 be ed 3b e1 92 a2 bb f2 36 2d bb
       0.010294831 0.0072553414 -0.004961357 -0.0026430455
000240 4a 1b e5 3b 7a 40 68 bc 28 48 01 bb b1 b2 98 3b
       0.0069917785 -0.014175529 -0.0019726846 0.0046599736
000250 a1 52 35 bb 00 81 5a 3c 5c f8 5d 3b 52 69 44 3c
       -0.002766766 0.01333642 0.0033869958 0.011988001
000260 a1 8e 51 3c 39 b9 85 3c 6f ec 6c ba c8 f6 ff bb
       0.012790353 0.016323673 -0.0009037917 -0.007811401
000270 1a 45 61 bb 50 6c 8e bb 51 a8 f6 ba 32 d9 87 3a
       -0.0034373463 -0.004346408 -0.0018818473 0.0010364412
000280 a3 f3 09 3b e5 a4 0b 3a ee 89 39 bc 94 4b 4f bc
       0.002104976 0.00053270004 -0.011324389 -0.012652297
000290 17 ac 1e 3c 9b e5 19 3c a4 b0 57 bc 0c b4 66 bc
       0.009684584 0.009393121 -0.013164673 -0.014081012
0002a0 ad 99 3c bc aa 85 2d 3c 04 2c 82 ba 69 38 d5 3b
       -0.011511249 0.01059095 -0.000993133 0.0065069688
0002b0 63 c8 c7 3b ef 33 ba 3b a1 66 a4 bb 68 08 c2 ba
       0.006096886 0.0056824605 -0.005017117 -0.0014803531
0002c0 53 0d aa 3b 6e 76 af 3b 1a 46 d4 3a 8a 5e 0b bc
       0.0051895767 0.005354694 0.0016195208 -0.008506427
0002d0 fb 22 45 3b 6f 3b e3 3b 7b 08 51 3c 65 9b 0a 3c
       0.0030080664 0.0069345753 0.01275837 0.0084599005
0002e0 aa 58 a5 3a 19 4d ef bb a6 24 b6 3b be 9f 28 3c
       0.0012614925 -0.007302892 0.005558568 0.010291992
0002f0 cb 54 71 bc 94 20 0e 3c f3 c3 e9 ba 22 9a 4f bb
       -0.014729689 0.008674759 -0.0017834887 -0.0031677564
000300 1a 6d ea b9 0a c0 d0 bb f2 ac c0 3a 67 df 0e bc
       -0.00044713245 -0.006370549 0.0014699979 -0.008720255
000310 e0 a8 e5 3b 39 d9 db bb c8 6c 6e 3c f7 98 75 bc
       0.007008657 -0.0067092446 0.014552303 -0.014990083
000320 a1 c8 86 3b a1 ea 27 bc 22 f9 2e 3c 4b 94 33 bc
       0.0041132723 -0.010248811 0.010679515 -0.010960649
000330 ad 3a 3d 3b c5 60 54 3c 99 c5 30 3c f1 42 d1 3b
       0.0028874085 0.012962525 0.010789298 0.006386154
000340 db ce a3 38 5f f5 ff bb 48 99 84 bc 13 73 90 bb
       7.8109755e-05 -0.007811233 -0.016186371 -0.004408249
000350 84 3b 11 bb d1 2f 14 3c ae c8 1e 3c 92 b3 d1 3b
       -0.0022160718 0.009044603 0.0096914 0.0063995803
000360 82 1e 30 bc 72 fd 55 3c f8 5a 8d 3c 6a d2 df 3b
       -0.010749461 0.013060914 0.017255291 0.006830503
000370 c6 86 2a bb cc c2 26 3c b4 ad b7 bb 01 ed 59 3b
       -0.0026020273 0.010178279 -0.005605424 0.0033252838
000380 ce 3c 72 b8 42 1f 6f bb 6e 9a b8 bb 6f e3 08 3c
       -5.7753925e-05 -0.0036487137 -0.005633644 0.008355006
000390 f9 05 26 bb f4 3a 1f 3b 21 fe d0 3b 52 69 82 bc
       -0.002533315 0.0024296613 0.006377951 -0.015919361
0003a0 23 8d a2 bb 48 9f 9a 3c 4b 07 37 3a 17 10 de bb
       -0.0049606725 0.01887478 0.0006981983 -0.0067768204
0003b0 f7 db fe bb b3 24 17 3c de a6 83 bc 14 5e 96 3b
       -0.0077776867 0.009225058 -0.01607078 0.0045888517
0003c0 09 17 de 3b 85 ec 91 3b 35 35 b7 3b a0 01 d2 3b
       0.0067776483 0.004453244 0.0055910596 0.006408885
0003d0 7a 4b c8 bb 7c 37 e9 3b 1d 4a e2 bb 06 2c 1c bc
       -0.006112513 0.00711721 -0.0069058076 -0.00953198
0003e0 e3 8e d1 3a 06 cf 98 bb 66 62 51 3b 2b b8 30 bb
       0.0015988018 -0.004663351 0.003194952 -0.0026965241
0003f0 72 4b 22 3c 72 1d 64 3c e4 85 95 bc 2e 8b 1d bb
       0.009905683 0.013923036 -0.01825232 -0.0024039256

net.1.linear.bias f4 [32]
000000 51 f5 0c 3e 8d 03 e5 bd 49 89 2e 3e 22 02 cc 3d
       0.13765456 -0.11182318 0.17044558 0.09961344
000010 0c 7c b1 bd 9e ff cc 3d bd e2 8d bc b2 1d 47 bc
       -0.08666238 0.100096926 -0.017320031 -0.012153076
000020 72 32 0f 3e bd f7 14 3e c0 db 2c be a6 08 20 be
       0.13984087 0.1454763 -0.16880703 -0.15628299
000030 2e 83 29 bd fe 7e 19 3e f1 85 a4 bd 31 67 8a bd
       -0.04138487 0.1498985 -0.0803336 -0.067579634
000040 73 9e 19 be 69 9c 09 3d cc 22 be 3c fa 2c de bd
       -0.1500185 0.03359643 0.023209952 -0.10848422
000050 bc 7b f0 39 77 8c 73 3d ef ce f1 bd b3 f3 26 be
       0.00045868556 0.05946013 -0.118070476 -0.16303901
000060 c3 78 06 bb ff cf ac 3d f1 a3 32 be 2c 46 9e bd
       -0.0020518757 0.084381096 -0.17445351 -0.07728228
000070 f0 29 a6 3c de 48 3e bd 5e 5f 33 3e e5 2c 2d be
       0.02028367 -0.04645621 0.17516848 -0.16911657

net.2.linear.weight f4 [32, 32]
000000 66 d6 b4 3b 49 7b 05 3c 7b 94 53 3c 33 aa 7e bc
       0.0055187223 0.008147069 0.0129138185 -0.015543508
000010 ed 0e 72 3c 19 19 10 bc f3 95 a1 bb 18 f1 65 bc
       0.014774066 -0.008795046 -0.0049312054 -0.014034532
000020 80 c4 20 3c 7b d4 d5 bb 4a 03 19 bc 12 89 15 3c
       0.009812474 -0.006525574 -0.009339163 0.009126918
000030 fc 63 10 bc c6 13 57 3c 1a 04 30 bc bb ff 92 3c
       -0.008812901 0.013127273 -0.010743165 0.017944207
000040 2d 9f 1b 3c 21 c1 d6 bb 9c e6 a7 3b 93 98 1b 3c
       0.0094984 -0.0065537845 0.0051239263 0.009496826
000050 14 10 da 3b ca 41 27 bc f4 de 7a 3c fe c8 15 bc
       0.0066547487 -0.010208556 0.015311945 -0.009142159
000060 6b 5e a5 3b 72 37 85 3b b5 b2 18 3c aa 11 53 bc
       0.005046656 0.0040654475 0.009319951 -0.012882629
000070 dc 4a 84 3a 68 bb 31 3c 2d 2c 4f ba d4 f4 44 bc
       0.0010093111 0.010847904 -0.0007903006 -0.012021262
000080 6d 6b 51 3b 93 e0 3e 3c 31 a8 83 3c 87 ae a2 bc
       0.00319549 0.011650222 0.01607141 -0.019858612
000090 a1 62 08 bc cb fa 9d ba 8e c6 f4 bb 70 68 17 3b
       -0.008324296 -0.0012052892 -0.0074699586 0.002310302
0000a0 f5 c6 43 bb 96 50 b8 bc 9b 91 14 3b a2 6d ff 39
       -0.0029873226 -0.022499364 0.0022669795 0.00048719073
0000b0 4f 70 14 bc 86 4c a3 ba 53 6b 7c bc d3 33 0a 3b
       -0.00905998 -0.0012458719 -0.015406447 0.0021088019
0000c0 f5 32 36 3c 03 24 6d 39 b6 a9 9d 3c 12 44 37 bc
       0.011120548 0.00022615497 0.019245964 -0.011185663
0000d0 c7 f2 95 3c ec 22 91 ba 92 68 5b bc 9e 79 6b bc
       0.018304242 -0.001107303 -0.013391631 -0.0143722575
0000e0 64 5c 08 bb d3 ea ca 3b 67 8b 25 bc 8f f9 16 bc
       -0.0020807022 0.006192544 -0.010104037 -0.009214773
0000f0 5d da b2 bc 43 b9 03 bc 2d ab 85 bb e1 d9 44 3c
       -0.02183264 -0.008039775 -0.0040792436 0.012014837
000100 93 e3 69 bb d8 18 16 bc aa 2b 7d 3b 39 4f 9a bc
       -0.0035688623 -0.009161197 0.0038630762 -0.018836604
000110 f6 39 8f bb c8 f5 24 3c 8d 0e 69 bb 62 dc f0 bb
       -0.004370923 0.010068364 -0.0035561651 -0.0073504904
000120 dc 6b 8c b9 2d 5e 11 bc bb 61 94 3c d5 a7 e1 39
       -0.00026783242 -0.008872551 0.018113008 0.0004304039
000130 f2 81 4e bb 0c b8 0a bc fb 76 d8 bb bf a1 da bb
       -0.003151056 -0.008466732 -0.0066059805 -0.0066721137
000140 b3 0f 84 bc fe 33 64 3b 38 b8 5b 3a 78 2e 59 bc
       -0.016120767 0.0034821029 0.0008381638 -0.013255708
000150 bb 2a f4 bb e1 4b 7d 3c b5 7d e1 39 e9 6c 53 3b
       -0.007451383 0.0154599855 0.00043009003 0.003226096
000160 9f 4f fd bb 58 51 99 39 a4 96 71 bb 13 df 0d 3b
       -0.007730439 0.0002924304 -0.003686347 0.0021647855
000170 6e 0a 94 3b 75 8e 32 bc 66 bc 39 bc 73 ed af bb
       0.004517845 -0.010898222 -0.011336422 -0.0053688823
000180 7d fb 06 bc 40 e1 d4 3b b7 c0 27 3c fd ca 31 bc
       -0.00823867 0.0064965785 0.010238818 -0.010851619
000190 68 1f eb 3b f7 cf 53 3c 3a e8 0f bc 8d 43 dd bb
       0.007175375 0.012928001 -0.0087833945 -0.0067524374
0001a0 9d dd 22 3c df 5a 1d 3c f0 cc b9 bb 73 01 d7 ba
       0.009940532 0.009604185 -0.0056701824 -0.001640363
0001b0 0d 70 ef 3a 30 61 34 38 cd 45 0d bc d9 c0 04 bb
       0.0018267647 4.3005857e-05 -0.008622599 -0.0020256548
0001c0 b7 d0 1b 3c a9 87 08 bc 6d 04 53 37 2d da ac bb
       0.009510211 -0.008333125 1.25776105e-05 -0.005275032
0001d0 12 77 19 3c 24 6c c7 bc 41 eb 2f b9 19 e6 b1 bb
       0.0093667675 -0.024343558 -0.0001677694 -0.005429041
0001e0 b3 48 22 3c 6b 34 6e bc d1 4f 0a 3b c5 6f 91 bc
       0.009905028 -0.014538865 0.0021104703 -0.017753491
0001f0 ba 5a c0 3b 47 ee eb bb da 0a 22 3c 9e 2e a4 3b
       0.0058701904 -0.0072000357 0.0098902825 0.00501044
000200 d7 45 b3 bb d9 3b 88 bc f9 ce 40 bc 61 c3 70 bc
       -0.005470972 -0.0166301 -0.011768096 -0.014695019
000210 3b 3d f5 3b 9e 3b 9e bc 70 d1 49 3a 41 7d 71 bb
       0.007484106 -0.019315537 0.000769875 -0.0036848339
000220 3c 85 93 3c 0d 8b 25 bc 2d 8d 93 bb 68 41 42 bc
       0.018007867 -0.010103953 -0.0045029134 -0.011856414
000230 ff fa 0c bb a9 81 8b 3b c4 0c 98 bc 13 07 a7 3b
       -0.002151191 0.0042574 -0.018560775 0.005097279
000240 f8 8d 29 bc b3 93 96 3c 94 fc 48 bc 0c e5 5e 3b
       -0.010348789 0.018380975 -0.012267251 0.0034011034
000250 17 cf 92 3c 32 cc 01 3b b9 0e 15 bc 4f cd c8 bb
       0.017921014 0.0019805548 -0.009097748 -0.0061279903
000260 45 50 9c 3c ce ad 80 bc 0f ce 83 3b 93 cb 1c bc
       0.019081244 -0.015707877 0.004022367 -0.00957002
000270 c2 53 e1 3b 24 ed 29 bb cf 20 23 bc 69 df 82 bb
       0.00687644 -0.00259287 -0.009956553 -0.0039939177
000280 77 87 41 3c 26 f2 ad 3c 87 eb 7b 39 2c e1 8c bc
       0.0118120825 0.02123363 0.00024024966 -0.017197214
000290 c0 63 38 3c 13 c9 08 3c 91 f1 81 bc 6a c5 c7 3c
       0.011254251 0.008348721 -0.015862258 0.024386127
0002a0 c0 88 70 bb be 44 e2 bb 80 33 ad bc cd b8 54 3c
       -0.0036702603 -0.0069051674 -0.021142721 0.012983513
0002b0 a8 a9 73 3c ae 99 01 3c 8b 40 38 bc 11 7f 56 bc
       0.014871992 0.007910175 -0.011245857 -0.013091818
0002c0 83 0d 1c bc 4f c7 28 bc b8 a6 a1 bc 0f 67 0a 3b
       -0.009524706 -0.010301425 -0.019732818 0.0021118557
0002d0 d3 8b 80 3b 19 bb 49 3c 7b b7 08 3c 78 b3 10 bb
       0.0039229183 0.012312674 0.008344526 -0.0022079628
0002e0 88 82 e6 ba 00 b5 40 bb c4 d0 a4 bb 8a 85 14 bc
       -0.0017586509 -0.002940476 -0.0050297696 -0.009065041
0002f0 c6 57 b4 bb e8 b4 f8 b8 29 af b9 bc 72 b1 55 bc
       -0.0055036275 -0.00011859258 -0.02266653 -0.013042795
000300 5f 93 bc ba 25 a7 87 3c 39 68 25 3c 5c ac 5b bc
       -0.0014387182 0.016559193 0.010095649 -0.013407793
000310 5d e8 ed 3b 21 85 69 bc 21 7b 3c 3c 02 7a 61 3c
       0.007260366 -0.014252932 0.011503966 0.013761999
000320 3c 4a 34 bc d8 71 07 3c cb 3d aa 3c 28 f7 e1 3b
       -0.011004027 0.008266889 0.020781418 0.0068959184
000330 2b d3 00 3c 05 18 8c bc 1a 4a f6 3b 51 14 8e 3c
       0.007862846 -0.017101297 0.007516158 0.017343672
000340 b8 f7 35 bc f4 bd 05 bc a1 fe 91 3c 23 af e0 3b
       -0.011106424 -0.008162964 0.017821612 0.0068568154
000350 08 2d 1a b9 bd d9 f5 ba 3a d9 bd 3c ea 32 60 bc
       -0.0001470336 -0.0018756908 0.02317487 -0.013684014
000360 76 3d fc 3b a6 77 35 ba be c5 2a 3c f0 54 80 3b
       0.0076977564 -0.0006922431 0.010423122 0.0039163753
000370 27 75 1a bc ab 7d ba ba 2a 1a 45 3b e5 00 4c bc
       -0.009427345 -0.0014228126 0.003007541 -0.012451385
000380 12 ae 06 3c 59 06 41 3c 6d 29 58 3a a8 a2 17 3a
       0.0082202125 0.011781299 0.0008245919 0.00057844305
000390 1e e6 5c bb 66 91 85 3c a9 80 09 3c 35 96 97 bc
       -0.0033706496 0.016304683 0.008392491 -0.018504241
0003a0 67 c4 c0 bb c6 1e 30 3c 26 4e 4d 3b bf ef 39 3c
       -0.005882788 0.010749524 0.0031327098 0.011348664
0003b0 fe b9 e2 3b 36 2c e0 3a f4 09 91 3b 38 71 98 3c
       0.0069191447 0.001710302 0.0044262353 0.018608674
0003c0 85 cd aa ba 0e 31 b8 3b 9e 89 fa 3b a7 81 80 3c
       -0.001303122 0.005621082 0.0076458 0.015686823
0003d0 09 89 cf 3b 11 6d d7 bb 9c 9b 72 3a 8e f6 5d bc
       0.0063334745 -0.006574281 0.0009254755 -0.013547553
0003e0 dd cd 61 3c be 1e 39 3b 2c a2 f3 3b 02 7b 46 bb
       0.013781992 0.0028247084 0.007435104 -0.003028572
0003f0 61 90 ca bb 43 15 1b 3a 63 9e 15 ba bf e7 bf bb
       -0.006181762 0.0005915949 -0.00057075004 -0.0058564837

net.2.linear.bias f4 [32]
000000 09 4a ad bd ee e2 89 3d 05 8c 13 3e b5 0c ec bd
       -0.08461387 0.067327365 0.14408882 -0.11525861
000010 94 cd b0 bd ef 1e e4 3d 57 03 93 bd b3 37 70 3c
       -0.08632961 0.111387126 -0.071783714 0.014661717
000020 ed a6 d4 3d ab 84 33 bd ef 48 85 3d a1 b3 b0 3d
       0.10383401 -0.043827694 0.065080516 0.086280115
000030 f2 21 01 be f9 3f e0 3d ba 1f e2 bc 27 bc 19 3e
       -0.12610605 0.10949702 -0.027603019 0.1501318
000040 0b e5 1d be 2f 1d 8f 3d af 78 f6 bc 3f f1 e6 ba
       -0.15419404 0.06987988 -0.030086843 -0.0017619504
000050 bd 79 12 3e 81 35 0a 3e ec 9d 0e 3e 42 0a c3 3d
       0.14304252 0.13496973 0.1392743 0.09523441
000060 2d b3 c1 bd 24 ce 13 be 49 25 9d 3d ef ec 0d 3e
       -0.09458003 -0.14434105 0.07673127 0.13859914
000070 54 54 22 3e 1a f3 a7 bd 29 1e 10 be 0d f9 f7 bd
       0.15852481 -0.08200665 -0.14074005 -0.121080495

net.3.linear.weight f4 [32, 32]
000000 dd 2c 98 3c 9b ae aa bb 97 1f a8 bb 95 f0 73 bc
       0.01857608 -0.005208803 -0.005130719 -0.014888902
000010 a3 11 c4 ba 02 37 c1 bb de 8e 7e bb 83 5e f7 3a
       -0.001495887 -0.00589645 -0.003884248 0.0018872771
000020 96 12 47 bc e2 70 63 3b 12 69 df 3b 16 35 d4 bb
       -0.012150427 0.0034704735 0.0068179453 -0.006476055
000030 95 ee 03 3c 26 ac 8b 3a fe cb 62 ba 2c 6a 91 3b
       0.008052488 0.0010656163 -0.0008651613 0.0044377055
000040 b3 19 0a bc 03 e3 d5 39 e9 90 5b 3b 14 9f 0c bb
       -0.008428979 0.00040795663 0.0033503121 -0.0021457123
000050 d3 4f 87 3c c1 d4 ed bb da 42 0d 3c 79 f4 8a bc
       0.016517555 -0.0072580283 0.008621896 -0.016962277
000060 cc 4a 90 bb 0e 4d 0b ba a2 e1 11 bc 15 d7 c4 ba
       -0.0044034477 -0.0005313911 -0.008903893 -0.0015017713
000070 7c 5f d4 3b 7a 6f 53 3b de e6 57 bc 6f cc f5 3b
       0.006481109 0.003226249 -0.013177602 0.007501177
000080 35 2b c8 bc 36 83 11 3b 14 3f db 3c f2 91 48 3c
       -0.024434665 0.0022203452 0.026763476 0.012241827
000090 40 88 48 3b 27 30 78 bb 3d 8b aa bc ed b4 0f bb
       0.003059879 -0.0037870498 -0.020818347 -0.0021927909
0000a0 88 0d d3 3c 65 16 86 3c 67 28 81 bb 03 a9 04 bc
       0.025763288 0.0163681 -0.003941584 -0.008096936
0000b0 42 8c 90 bc 21 68 ce bb 97 ed b3 3c fe 5e 2d 3b
       -0.017645005 -0.006299034 0.021963878 0.0026454325
0000c0 ea 6c e1 bb 35 55 a0 3b 3d 01 2c 3c 2f 02 89 bc
       -0.0068794386 0.00489297 0.010498342 -0.016724674
0000d0 eb ea c7 bb 69 bd a1 3c 3e a9 3c bc 4f f4 15 3b
       -0.0061010025 0.019743638 -0.01151496 0.0022881215
0000e0 1a ce 3d 3c 76 12 04 3d 90 91 89 3c af 5a 2d bc
       0.011584783 0.03224417 0.016793042 -0.010580703
0000f0 e1 3a 32 ba 15 ab 29 bc 35 bc 84 3c 6f 46 59 3c
       -0.0006798935 -0.010355731 0.016203025 0.013261422
000100 8d 7c 83 3c 05 dc df 3c 21 ec 97 3b 66 e5 1d bc
       0.016050601 0.027326593 0.004636303 -0.009637212
000110 54 d2 cc 3b 92 9b 9b 3b c2 52 8b 39 69 54 d0 ba
       0.006250659 0.00474877 0.00026573805 -0.0015894297
000120 12 c3 0c 3d 82 a1 e6 bc 3c 0a ab bb 33 4e 26 bc
       0.03436572 -0.028153185 -0.005219726 -0.01015048
000130 59 ea 18 3c a6 0d f6 3b fe 09 8e 3c 4b 0e 11 3c
       0.009333217 0.0075089512 0.017338749 0.008853505
000140 eb 36 fb bb 9d e3 c8 3c 10 a5 d6 bc d5 8f 45 3c
       -0.007666459 0.024522597 -0.026201755 0.012058218
000150 92 06 32 3c b7 a6 fa 3b 77 33 b7 3c 72 51 14 3c
       0.010865824 0.0076492685 0.022363408 0.009052621
000160 57 ae 84 ba 44 6a 47 3c c5 22 a7 3c 06 c7 97 3c
       -0.0010122758 0.012171332 0.020402322 0.018527519
000170 eb 1f 06 bc 0d a0 01 3c 4e 2a 03 3d 60 d4 b5 3c
       -0.008186321 0.007911694 0.032022767 0.022195995
000180 e0 98 3e bc dd 5f ee 3b d5 dd 3e bc ac 6d 3d bc
       -0.011633128 0.0072746114 -0.011649569 -0.011561792
000190 d6 29 8d bc 57 b8 e5 3b be a7 41 ba cd 41 44 3a
       -0.017231863 0.0070105004 -0.0007387361 0.0007486612
0001a0 b5 55 64 3a 03 96 72 bc 2b 67 f6 bb a2 be 10 bb
       0.0008710281 -0.014806273 -0.007519623 -0.0022086282
0001b0 d6 5d b7 3b 92 49 03 bb d0 7e 46 3b c4 2d 2d bc
       0.005595903 -0.0020032865 0.0030287988 -0.010569993
0001c0 1c 9d c5 3a ad 95 a4 3c d6 0a 68 3b bf 88 c3 bb
       0.001507673 0.020090902 0.003540685 -0.005967229
0001d0 3b cb ac bc 40 76 50 bc d7 74 7e 3b dd 08 4f 38
       -0.021093002 -0.0127235055 0.0038826966 4.93609e-05
0001e0 f6 4e 25 3c fb 36 77 3c bb 7e 1b bc 49 29 ca 3b
       0.010089627 0.015088792 -0.009490664 0.0061694724
0001f0 2e 2c 3d 3c c5 28 92 bb 7a 1b 23 3c 70 66 12 bc
       0.011546178 -0.0044604265 0.009955281 -0.008935556
000200 fb e3 8a 3b 73 b5 6a 3c 06 ec 33 3c eb e8 78 3b
       0.004238603 0.014325487 0.010981565 0.0037980627
000210 9f df 09 bc 06 2a 54 3c 4c 51 86 ba 90 d8 29 3c
       -0.008415132 0.012949472 -0.0010247617 0.010366574
000220 23 1a 69 3c ef 42 c3 ba fb 01 34 3c 0f e3 39 3a
       0.014227423 -0.0014897267 0.0109868 0.00070910243
000230 00 8b 53 3c c9 8d 5d 3c 61 da 1d bc 44 87 54 bb
       0.012911558 0.013522574 -0.009634585 -0.0032429257
000240 b9 78 e2 bb e0 6a 1b 3c fc 49 24 bb 92 4b bb bc
       -0.006911364 0.00948593 -0.0025068512 -0.022863183
000250 37 e8 19 bc f2 3c 26 bc 6b 9a 8c bc d9 26 d6 3b
       -0.009393743 -0.010146366 -0.017163476 0.0065353927
000260 94 62 4d b9 b8 af ab bc 2e 21 1e bc d6 ce d4 bb
       -0.00019587047 -0.020957813 -0.009651465 -0.0064943833
000270 2b 88 39 bc f5 7b 1c 3c 48 d6 79 3c 50 8f 13 3c
       -0.011323969 0.009551038 0.015248843 0.009006336
000280 8b 8b 89 bb 19 a2 b9 bb 7b a0 14 bc 23 35 62 3c
       -0.004197543 -0.0056650755 -0.009071465 0.013806614
000290 2e 5d 82 bc 5f bd da ba 90 4e 66 3c cc af 91 bb
       -0.015913572 -0.0016688517 0.014056817 -0.0044460054
0002a0 d7 2a 71 3b c6 ad e1 3c 27 1c d7 3c 4e 36 19 3c
       0.0036799216 0.027548682 0.026258541 0.009351326
0002b0 7f 21 40 bc 64 ce 65 bb d1 09 75 bb 80 28 4c 39
       -0.011726736 -0.0035065645 -0.0037389884 0.00019470043
0002c0 43 2c 09 ba 00 3e 09 bb a6 86 f0 bc b3 70 2b 3b
       -0.0005232731 -0.0020941496 -0.02936108 0.0026159703
0002d0 0a 4b 89 3c 28 45 e4 bc 82 97 8e 3b b9 17 c3 3c
       0.016759414 -0.027865008 0.004351557 0.023815023
0002e0 ce 79 1e 3d 49 28 e1 3c d0 fb 2e 3c e9 b6 d6 39
       0.03869038 0.02748503 0.010680154 0.0004095354
0002f0 a9 12 c0 bb 19 ec 89 bc 69 e2 1a bc 13 a8 05 3c
       -0.0058615995 -0.016836213 -0.009453394 0.008157748
000300 09 b8 6e bc 0f a7 f2 bb 2a de 11 3c d9 e0 21 bc
       -0.014570245 -0.007405169 0.008903066 -0.009880268
000310 ce ed 12 3c 20 d1 43 bc 69 47 11 3c c8 6d c4 b7
       0.00896783 -0.011951715 0.008867123 -2.3416142e-05
000320 ad 87 31 bc 02 a9 98 3b b0 29 4f bb c4 6b ae bc
       -0.01083557 0.004658819 -0.003161054 -0.021291621
000330 27 c3 14 bc 21 4b a7 bc e0 bc d1 3b 34 9d a8 bb
       -0.009079731 -0.020421566 0.0064006895 -0.005145693
000340 6f 20 c5 bb 14 e6 24 3b 96 b0 a8 3a 81 b3 18 3c
       -0.0060158293 0.0025161551 0.001287001 0.009320141
000350 a5 20 91 bb 9e 3a c7 3b 22 e6 0a bc 26 49 6b 3b
       -0.0044289404 0.0060799858 -0.0084777195 0.0035901754
000360 a2 50 9f 3c 48 c8 00 3c 94 64 44 bc 91 fe 98 bc
       0.019447628 0.007860251 -0.01198687 -0.018676074
000370 da 83 aa 3c 8b b6 28 3c ca c8 4f 3b cc f4 62 bb
       0.020814825 0.010297428 0.0031705373 -0.0034630774
000380 6c 53 7e 3b 66 6c 50 bc 69 c9 12 3c 0a bd be 3c
       0.0038807048 -0.012721157 0.008959153 0.0232835
000390 b9 46 4a bc d4 2c 83 3c 6f 74 1a bc 1b bc c1 3b
       -0.012345963 0.016012587 -0.009427174 0.0059123165
0003a0 9f e7 86 3c 66 96 24 3b 04 96 82 3a 1e 85 ed bb
       0.016467867 0.0025114059 0.0009962921 -0.007248535
0003b0 42 c8 58 bc aa 9b 39 bb 97 41 61 3c 07 8f aa bb
       -0.013231339 -0.0028321543 0.013748548 -0.0052050385
0003c0 78 c2 84 3c 91 40 94 3c 30 7b 8d bc 15 77 aa 3c
       0.016206011 0.018097194 -0.017270654 0.020808736
0003d0 61 56 8e 3b 80 2e 95 3b 17 36 9f 3a 80 e2 07 3b
       0.0043437933 0.0045526624 0.0012146857 0.002073437
0003e0 f9 cd 20 3b 05 30 dd 3a 49 b2 f7 bb a9 21 b5 3b
       0.0024536832 0.0016875273 -0.007559095 0.0055276942
0003f0 1c aa 31 bb 6c 50 47 3c fb 43 5f bc 0f ad 2c 3a
       -0.002710945 0.01216517 -0.013627048 0.0006587067

net.3.linear.bias f4 [32]
000000 11 23 89 bd 57 14 b2 3d 50 e2 d1 bc d9 f8 15 be
       -0.066961415 0.08695286 -0.02562061 -0.14645709
000010 ed 4a 7f 3d bf 79 20 3d 9c 28 62 bd 87 e6 97 bd
       0.062327314 0.039178606 -0.05521451 -0.074170165
000020 b2 f3 c5 3c 5c 4c 87 bc a5 17 00 be 3b c5 2e be
       0.024164055 -0.016515903 -0.1250902 -0.17067425
000030 3c 3c 8a 3d 8e d5 12 bd 56 50 0a be e4 f8 76 3d
       0.0674977 -0.035848193 -0.13507208 0.060295954
000040 85 bc f5 bd 3e c7 c3 bd fb 24 98 bb 54 2a 2b be
       -0.11998848 -0.09559487 -0.0046430803 -0.16715366
000050 1d 95 21 3d be 37 4b 3b 1d 91 f4 3d ff 87 25 3e
       0.039448846 0.0031008567 0.11941741 0.1616516
000060 e8 00 30 be 37 da 1b be f8 77 19 3d 22 41 bf bd
       -0.17187846 -0.15219961 0.037467927 -0.09338595
000070 86 8b 77 3d 86 48 15 be 76 a9 62 3c c1 e5 f4 3d
       0.060435794 -0.14578447 0.013834348 0.119578846

net.4.weight f4 [4, 32]
000000 46 4e a5 bc 18 8e 22 3d 9b ef d9 bc 47 72 50 3d
       -0.020178925 0.039686292 -0.02660351 0.050890233
000010 a1 5a 95 3d 54 74 33 3b 3b b5 75 bd 34 cb 98 3d
       0.07292677 0.002738257 -0.059987288 0.07460633
000020 89 f2 fc bc 13 bb c4 bc a7 c5 1d bc e3 d4 86 3d
       -0.030877369 -0.024014985 -0.0096296435 0.06583574
000030 2f 24 df bb 68 d8 49 3d 71 9b b4 bc 6b ab 5a bc
       -0.0068097333 0.049278647 -0.022046776 -0.013346533
000040 1d 5d f4 3c 0f db fd bc 31 1d 4c 3d b2 0a 27 3d
       0.029829556 -0.030988244 0.049832527 0.040781684
000050 6a 1e 26 3d 8b e4 4b 3c 92 35 27 3d 8f 2a 52 bc
       0.04055635 0.012444626 0.040822573 -0.01282753
000060 ff 8b 3d bd b2 56 4f 3d 98 3a 36 3d e4 cd 76 bd
       -0.04627609 0.05061979 0.044489473 -0.060254946
000070 8a fa 12 3d d0 1d 8c bc 3d db 47 3d 58 8a 6b bd
       0.035883464 -0.01710406 0.048793066 -0.05750498
000080 a5 43 21 3d 07 86 28 bc 7f 41 14 3d 56 79 b4 bc
       0.03937115 -0.010285861 0.036195274 -0.022030514
000090 48 f6 ab bd de a6 3e 3d 74 be 00 3e 07 92 b5 bc
       -0.08396584 0.046545856 0.12572652 -0.022164358
0000a0 d1 ed 2f bd 0a 08 99 bc 11 2f 00 3c 9a 16 18 3d
       -0.04295141 -0.018680591 0.0078237215 0.03713093
0000b0 ef c9 83 bd 06 b0 50 bc ba b1 2e 3d 64 22 8d 3d
       -0.06435 -0.01273728 0.042649962 0.06891325
0000c0 a1 76 94 bd 57 f6 4b 3d b3 85 79 bd 62 b5 a8 3c
       -0.07249189 0.049795475 -0.06091852 0.020594303
0000d0 5b 6f e2 bb 43 1c 51 bc cf d1 14 bd 93 d7 10 bc
       -0.0069102473 -0.012763086 -0.0363329 -0.008840459
0000e0 2a 86 6a 3d 13 a7 63 bd 30 c5 aa 3c 6a e1 17 3d
       0.057256855 -0.055579256 0.02084598 0.037080206
0000f0 c9 78 ec bc 55 c9 f5 3c 2c ed 7c 3c 7c 40 b7 3c
       -0.028866189 0.03000323 0.015437406 0.022369616
000100 5e 7b a7 3d 7a 9a 13 bd d1 6e 29 3b fa 04 2d bd
       0.08177827 -0.036035992 0.0025853405 -0.042241074
000110 c1 70 4a bd 6d 93 1a bd 9c c7 2b bb 20 13 97 bd
       -0.049423937 -0.037738252 -0.0026211506 -0.07376695
000120 da a6 50 3d f5 20 d7 bc f4 f5 06 3d d0 67 d3 bd
       0.050940372 -0.026260832 0.032949403 -0.10322535
000130 45 22 31 3d 01 69 66 bd 6c 38 a9 3a 0b 79 db bc
       0.043245573 -0.056252483 0.0012910492 -0.026791116
000140 52 74 03 bc 6f ea 2c 3d 3a 47 fa bb 0f a2 83 bd
       -0.008023338 0.04221576 -0.0076378854 -0.064273946
000150 5d 9f 68 bd 02 95 d2 3a aa 42 18 bd c8 65 41 3d
       -0.056792606 0.0016066136 -0.03717295 0.047216207
000160 34 a1 fd 3c bd 45 9a bc 6d bd 47 bd f4 fb 6b 3d
       0.030960657 -0.018832082 -0.048764635 0.057613328
000170 87 d9 ef bc 44 d4 38 3d f1 4f 8e bd 88 1a 12 3d
       -0.02927853 0.045124307 -0.06948841 0.035669833
000180 81 3c 0c 3d df 4b 22 3d f0 8f 1b bd 2a f2 f7 bc
       0.03423739 0.039623138 -0.037979066 -0.03026684
000190 b8 67 df bb b7 93 38 3d 60 87 24 3d 7d 70 24 bd
       -0.006817784 0.045062747 0.040168166 -0.04014634
0001a0 bc f1 e9 3c 11 52 e6 bc 51 0c 6f 3d 46 48 a1 bc
       0.02855765 -0.028115304 0.058361355 -0.019687783
0001b0 bb d5 32 3d d7 ac 15 bd 6a 5b 40 3d e9 b3 2c 3d
       0.04366086 -0.036541786 0.04696218 0.042163763
0001c0 eb 48 c0 bc 69 5d e9 bc ee 17 9a 3c b5 96 a1 bc
       -0.02347227 -0.028486924 0.018810239 -0.019725183
0001d0 9e 0e 35 bd 33 93 14 3d 16 de 4a bd c9 ec 28 3d
       -0.044203393 0.036273193 -0.049528204 0.04124144
0001e0 dd d1 39 3d c7 a8 04 3c 21 78 fd bc 00 dc 63 3d
       0.045366157 0.00809688 -0.030941071 0.05562973
0001f0 79 f2 02 bd 11 72 37 3d b4 10 2e bd 22 86 f5 3c
       -0.03196952 0.044786517 -0.042496398 0.029971186

net.4.bias f4 [4]
000000 fc b1 b5 bd e1 f5 1a 3d 79 e8 69 3d 12 28 37 bd
       -0.088718385 0.037832145 0.05710647 -0.04471595
