outputs_inverse/sine/3_nodes_given/model.pt (torch, 16367 bytes, 10 tensors)

net.0.linear.weight f4 [32, 1]
-0.39766374 0.040532187 -0.23050873 -0.10883557 -0.9701255 0.46549433 0.8721138 0.6072745
-0.7076902 -0.8012409 0.41653138 0.021067657 0.41402286 -0.97789145 -0.054285686 0.7064173
0.46202037 0.038081665 0.1951148 -0.0903952 -0.5518253 -0.37826848 -0.61235607 0.8306106
0.5502884 0.3546864 -0.7677295 0.76629966 0.3147214 0.69228256 -0.39274207 0.21890247
00000000: 959a cbbe 1405 263d 7b0a 6cbe 2fe5 debd
00000010: 255a 78bf 4655 ee3e da42 5f3f 5776 1b3f
00000020: 2f2b 35bf 201e 4dbf 9a43 d53e 1496 ac3c
00000030: cefa d33e 1857 7abf ab5a 5ebd c4d7 343f
00000040: ef8d ec3e 85fb 1b3d 2dcc 473e 1e21 b9bd
00000050: 6c44 0dbf 68ac c1be 5ec3 1cbf e5a2 543f
00000060: b3df 0c3f 7599 b53e ec89 44bf 372c 443f
00000070: 2a23 a13e 6e39 313f 7d15 c9be f827 603e

net.0.linear.bias f4 [32]
0.43468827 0.4117896 0.8332204 -0.13006805 -0.8460417 -0.29614288 -0.7091356 0.06541349
-0.1888917 -0.5345926 -0.08761951 0.94343436 -0.07798092 0.03608582 -0.15074511 0.15687633
0.8905191 0.61093295 0.35091335 0.22339037 0.23203959 0.39074144 -0.12788194 -0.925882
-0.6155036 0.85999554 0.058802046 -0.8189309 0.1678565 0.8303662 -0.94620293 -0.6695984
00000000: 768f de3e 16d6 d23e ef4d 553f 8f30 05be
00000010: 3096 58bf 0aa0 97be e989 35bf 82f7 853d
00000020: d36c 41be 10db 08bf dc71 b3bd ea84 713f
00000030: 76b4 9fbd bace 133d ed5c 1abe 30a4 203e
00000040: 0ff9 633f 1a66 1c3f eaaa b33e 72c0 643e
00000050: c99b 6d3e 430f c83e 7cf3 02be 9a06 6dbf
00000060: a591 1dbf ab28 5c3f 6ada 703d 75a5 51bf
00000070: 93e2 2b3e e192 543f 5b3a 72bf cd6a 2bbf

net.1.linear.weight f4 [32, 32]
0.012180965 -0.0052618473 0.0043308493 0.0040017837 -0.005678049 -0.010370039 0.009287585 -0.010530331
0.010488702 0.003228822 -0.0019752388 0.004365308 0.010120695 -0.002414032 0.016059767 -0.001377794
0.008448639 0.0060621295 -0.0062452583 -0.0052736313 -0.0027324043 0.008181973 -0.0025584814 0.004279983
0.0021928537 -0.0023339908 -0.006296231 0.012422608 -0.004396094 0.0024426924 -0.0065102647 -0.0027522047
-0.014974785 0.007155618 -0.006379722 0.013454448 -0.0015220251 -0.01128975 -0.0059860935 0.006562324
0.0061432086 0.004248022 0.0028580776 -0.0019813438 -0.012156834 0.0038794896 -0.015608236 0.0023947558
0.002036014 0.017249951 -0.0037854826 0.004443359 0.009357749 0.009009157 -0.0042219837 -0.0009653425
0.00096032576 -0.014135719 -0.0037226465 -0.007957885 -0.017322203 -0.0050637014 -0.0054439493 -0.012311932
-0.01200038 0.006881915 0.008616739 -0.025535706 0.0073208497 0.0065902895 -0.012007536 0.007726369
0.0046668435 0.0021544166 0.0064003766 0.0036515826 -0.0074423435 -0.003673789 0.015673064 0.005019572
-0.0010765936 -0.01664856 -0.0035710193 -0.008845108 0.0011471665 0.0036932947 -0.00015834939 0.0011334491
-0.007654954 -0.009596204 -0.008491618 0.0030349873 -0.008527446 -0.016094383 0.010948525 -0.012169981
-0.004929097 -0.0068371566 -0.008696952 0.013472794 -0.011445962 0.008441794 0.0016031048 -0.00017940393
0.0058436194 -0.00558564 0.013386902 0.0097525725 0.0026647756 0.0026915807 -0.006461363 0.006224345
0.004239041 0.0057463096 -0.0100207655 0.008018578 -0.013197841 -0.00608093 -0.006117135 0.0020203136
-0.0135697005 0.0060912226 0.0049066553 -0.009617535 0.00870261 0.008952079 -0.012924064 0.0095526045
-0.0088147735 0.006570841 0.0067235148 0.0053463653 0.003708092 0.005691516 -0.010164704 -0.0042223535
-0.00016193387 -0.011106998 0.0075032827 -0.0023871455 -0.009312516 -0.0031301957 -0.01614497 0.0031951529
-0.0027295025 0.01787448 0.0117092235 0.0024974134 -0.0062327753 0.008646168 0.013260778 0.0018454189
0.0060696853 0.0026045 0.0045089843 0.0047249626 -0.018595135 -0.0077015106 -0.012142037 0.002863438
-0.008036036 -0.008547446 0.0006520046 -0.008640948 0.0012338327 -0.0063920435 -0.0024017263 0.008856439
0.0076855943 0.011155733 0.010293502 -0.01368515 -0.007077683 -0.014186013 0.013276058 0.0054019964
-0.0051107924 0.0055911485 -0.0057494314 0.012141673 0.0024419378 -0.006399223 0.009959507 -0.0017435332
0.0031705513 0.004683901 0.013039274 -0.0082678925 -0.015550405 -0.00401598 -0.006786543 -0.0046183118
0.010852929 0.0057934946 0.0051092156 0.0058232574 -0.009697792 0.012859308 -8.7593515e-05 0.01853735
0.011623885 0.0040244455 0.017810544 0.0028231014 -0.0038438286 0.003449189 0.010088133 0.0058729216
-0.012340147 -0.004731451 -0.00036603 -0.0071647516 -0.016952999 -0.010516734 0.00024963368 -0.008450685
0.01139928 0.0041809147 -0.0034388707 -0.0025004505 0.0043349434 0.0014280251 -0.0003097118 0.0032327168
0.015251494 -0.00706287 0.010636642 -0.018765315 -0.0015190002 0.0031586124 0.015788067 0.0051673707
0.0030383568 -0.0046574385 -0.007552257 0.0048211734 0.009255881 -0.0038429294 0.010943344 0.009908775
0.012550376 -0.008177203 -0.0078124297 0.012908226 0.0040737633 0.010755629 0.0070787305 -0.011503349
0.007425904 0.0017935348 0.0020315556 0.010977223 -0.012078569 -0.0050184736 0.005050915 0.011483306
00000000: ac92 473c 936b acbb cce9 8d3b 6521 833b
00000010: ed0e babb 19e7 29bc f42a 183c 6987 2cbc
00000020: ced8 2b3c a59a 533b 0273 01bb dc0a 8f3b
00000030: 46d1 253c bc34 1ebb c68f 833c 1897 b4ba
00000040: 296c 0a3c d4a4 c63b 06a5 ccbb 6dce acbb
00000050: 2312 33bb af0d 063c 32ac 27bb 1a3f 8c3b
00000060: fbb5 0f3b def5 18bb 9d50 cebb 3288 4b3c
00000070: 1c0d 90bb 9415 203b 0f54 d5bb 555e 34bb
00000080: cd58 75bc ad79 ea3b fd0c d1bb 0c70 5c3c
00000090: b07e c7ba a5f8 38bc fe26 c4bb c308 d73b
000000a0: f84c c93b fe32 8b3b 964e 3b3b 6fd9 01bb
000000b0: 752d 47bc 093f 7e3b b0b9 7fbc 56f1 1c3b
000000c0: a66e 053b c54f 8d3c dc15 78bb 9999 913b
000000d0: 3e51 193c 259b 133c 9158 8abb 0a0f 7dba
000000e0: 5fbe 7b3a 8199 67bc a5f7 73bb ca61 02bc
000000f0: 4be7 8dbc 68ed a5bb 2863 b2bb fcb7 49bc
00000100: 3e9d 44bc b081 e13b 392d 0d3c 4230 d1bc
00000110: bde3 ef3b 5bf3 d73b 42bb 44bc 7b2d fd3b
00000120: 52ec 983b 1d31 0d3b 40ba d13b 644f 6f3b
00000130: e7de f3bb f4c3 70bb cc64 803c 397b a43b
00000140: 7d1c 8dba 9062 88bc c307 6abb 12eb 10bc
00000150: 855c 963a 340b 723b 970a 26b9 3e90 943a
00000160: 69d6 fabb 6639 1dbc 6d20 0bbc a3e6 463b
00000170: b3b6 0bbc 5ed8 83bc 7161 333c 9a64 47bc
00000180: 4384 a1bb 3a0a e0bb a97d 0ebc febc 5c3c
00000190: d887 3bbc 734f 0a3c 451f d23a 601e 3cb9
000001a0: d57b bf3b bf07 b7bb bd54 5b3c 41c9 1f3c
000001b0: 84a3 2e3b 3b65 303b d7b9 d3bb 97f5 cb3b
000001c0: a7e7 8a3b 8a4b bc3b 232e 24bc 5b60 033c
000001d0: c23b 58bc 8a42 c7bb 3f72 c8bb 3d67 043b
000001e0: 7353 5ebc e198 c73b 02c8 a03b de92 1dbc
000001f0: 6495 0e3c beab 123c 74bf 53bc 8782 1c3c
00000200: d76b 10bc 3650 d73b ee50 dc3b 9030 af3b
00000210: 7603 733b e67f ba3b dc89 26bc ab5b 8abb
00000220: cbcc 29b9 20fa 35bc 19de f53b a871 1cbb
00000230: 8693 18bc f823 4dbb 7542 84bc c565 513b
00000240: 74e1 32bb 806d 923c 0bd8 3f3c a5ab 233b
00000250: 4f3c ccbb a8a8 0d3c bc43 593c fce1 f13a
00000260: 36e4 c63b 42b0 2a3b 1ac0 933b dcd3 9a3b
00000270: d354 98bc f45c fcbb 65ef 46bc 85a8 3b3b
00000280: 94a9 03bc 960a 0cbc 4aeb 2a3a c392 0dbc
00000290: 8eb8 a13a 5974 d1bb 4866 1dbb 991a 113c
000002a0: 70d7 fb3b 89c6 363c 14a6 283c ae37 60bc
000002b0: e9eb e7bb 736c 68bc d383 593c 3b03 b13b
000002c0: 6f78 a7bb f435 b73b ba65 bcbb deed 463c
000002d0: eb08 203b 93b0 d1bb 332d 233c 4487 e4ba
000002e0: 06c9 4f3b 697b 993b aea2 553c 0e76 07bc
000002f0: 20c7 7ebc 7b98 83bb a661 debb 3555 97bb
00000300: 7cd0 313c 5bd7 bd3b 356b a73b 06d1 be3b
00000310: 7de3 1ebc d9af 523c 69b2 b7b8 a4db 973c
00000320: 1b72 3e3c 7fdf 833b 6be7 913c c803 393b
00000330: bee8 7bbb ca0b 623b b248 253c a371 c03b
00000340: 542e 4abc 4a0a 9bbb b7e7 bfb9 4bc6 eabb
00000350: 04e1 8abc 614e 2cbc 44e1 8239 be74 0abc
00000360: 0cc4 3a3c 0e00 893b ad5e 61bb 99de 23bb
00000370: 240c 8e3b 922c bb3a d060 a2b9 fddb 533b
00000380: 67e1 793c a66f e7bb 4f45 2e3c b8b9 99bc
00000390: 3019 c7ba b900 4f3b fa55 813c 0c53 a93b
000003a0: 2b1f 473b 6d9d 98bb ec78 f7bb effa 9d3b
000003b0: fba5 173c a8d9 7bbb b64b 333c 6a58 223c
000003c0: 18a0 4d3c adf9 05bc 69ff ffbb 067d 533c
000003d0: 347d 853b 6138 303c b2f4 e73b 8b78 3cbc
000003e0: ff54 f33b 0b15 eb3a d923 053b cfd9 333c
000003f0: 31e5 45bc 0272 a4bb 2582 a53b 7a24 3c3c

net.1.linear.bias f4 [32]
0.086277485 0.15067232 0.02032598 -0.017004909 0.025082309 -0.0318854 0.13642895 -0.04516476
-0.10798757 0.0006845533 -0.064085364 0.15258479 0.16934533 -0.16792937 0.08981155 -0.11325102
0.06533986 -0.1524806 0.15786864 -0.15076713 -0.13727236 0.1122291 0.008100349 -0.04135755
0.11861114 -0.077363975 -0.08295732 -0.035513885 0.12326789 -0.14322649 -0.06343746 -0.09453214
00000000: 40b2 b03d d849 1a3e ab82 a63c e14d 8bbc
00000010: 6a79 cd3c 449a 02bd 08b4 0b3e affe 38bd
00000020: 9628 ddbd 9873 333a 303f 83bd 303f 1c3e
00000030: dd68 2d3e adf5 2bbe 1eef b73d 27f0 e7bd
00000040: e8d0 853d e023 1cbe 51a8 213e b362 1abe
00000050: 2091 0cbe 5fd8 e53d 54b7 043c 8966 29bd
00000060: 66ea f23d 0171 9ebd 87e5 a9bd 0277 11bd
00000070: e073 fc3d f7a9 12be 80eb 81bd 119a c1bd

net.2.linear.weight f4 [32, 32]
0.01166298 0.013444229 -0.008952732 0.009110904 -0.007797651 0.0021728522 0.017948043 -0.0005765976
0.0007882671 -0.0077196583 -0.0028643066 0.007268432 -0.012074738 -0.012723941 0.008156534 0.014989121
0.0067291427 -0.012348332 -0.008382423 6.4749336e-05 0.0055252775 0.011350399 0.0036787444 0.0048216847
-0.00966012 0.009946171 -0.003517619 -0.005329828 0.010218529 -0.0133976955 0.0060213725 -0.006716782
-0.011573574 -0.0010002438 -0.0012925713 0.012802249 -0.0065841055 -0.00055328215 -0.010252044 -0.0070258696
-0.01662115 0.010052753 0.0067166863 0.015365084 -0.008413079 0.0012082874 -0.0085119605 0.009495441
-0.00962832 -0.008258977 -0.011627637 0.0070744073 0.010293728 -0.012711327 0.0064102914 0.01617087
0.006552469 -0.012710469 -0.0073287874 0.00079418643 0.0028347566 0.0152487755 -0.003367912 0.0029469759
-0.00454975 0.004552499 -0.0053781774 0.0044940747 -0.006614389 -0.0037310568 -0.0019205 0.0096995
-0.0081448015 0.003802284 0.005571595 0.014798571 -0.003118429 0.0018495757 -0.014067982 0.015748713
-0.014542885 -0.0027600166 0.0015965945 -0.008239883 0.010173198 -0.012377818 0.01403659 0.009086051
0.0001967904 -0.0024185032 0.0012628922 -0.011958448 -0.012082026 -0.013485338 0.0114938505 0.009169874
0.0014413332 -0.0077477875 -0.0036619513 0.0044916593 -0.013883457 0.004357736 0.0012907223 -0.01051788
0.010782629 -0.0043721204 -0.002969885 -0.0098182475 0.0030836181 -0.0031136167 -0.00406225 -0.0010124358
0.009909391 -0.00297676 0.0031662274 -0.017149422 -0.002648027 -0.0057007885 0.0040291883 -0.006496597
0.014364919 0.0010365068 -0.01225727 -0.004599223 0.010511447 -0.004067986 -0.007060147 -0.0017916585
0.008401686 -0.0046447166 -0.0042289384 0.00781583 -0.00031551963 -0.010119889 0.008770767 -0.0044685565
-0.0054308 -0.0040220246 -0.007857332 0.00039619117 0.011720161 -0.0050395 0.0006114434 0.0138858585
-0.011905006 -0.0056489957 -0.009205172 0.0014118393 0.0036672899 0.0020092637 0.009339138 -0.0061391867
-0.010386447 0.0027217383 -0.009770521 -0.005685946 0.008101731 -0.006744072 -0.0085334005 -0.0022379372
-0.0038972734 0.006732424 -0.011616107 0.015624003 0.011462621 -0.0061742766 0.0038060676 -0.0026262186
-0.020949991 -0.008073085 -0.0020887933 -0.0032391585 -0.014696696 -0.003752593 -0.009783506 0.019227762
-0.0077843224 -0.007939157 0.00902733 0.013441619 0.0070255594 0.007755814 -0.004455151 0.007892026
0.013784482 -0.014948103 0.0017638465 -0.003244682 0.0070118485 0.00856336 0.002852516 0.0013579305
0.009054542 0.008670379 -0.010336472 -0.007344544 -0.0030119626 -0.012333099 0.009618421 0.009489168
-0.0063646836 0.0052225892 -0.011250579 -0.006015949 -0.0026672087 0.0062395725 0.008375715 -0.008998426
0.007652801 -0.016022788 -0.005964638 0.0010164815 0.0026741487 0.0020733476 -0.007992157 -0.014119588
0.0082647195 0.0057229497 0.008376055 -0.0058717877 -0.008825623 0.0077514993 -0.0105219 -0.023349544
-0.0009353649 -0.0023431543 -0.0107187135 -0.005074156 -0.006912497 0.0028595356 0.0042658937 -0.006655244
-0.003098066 0.0025434885 0.008502333 0.009393942 -0.015153254 -0.005254483 -0.003417564 -0.008246133
0.0053705457 0.00945405 -0.0004479191 -0.005036923 -0.0012985165 -0.0015794518 0.007727054 -0.0028703292
0.011470634 -0.014142597 0.006855528 -0.008198553 0.022603218 -0.0069183614 0.0051609743 0.0034327435
00000000: 1516 3f3c 2f45 5c3c 7bae 12bc e745 153c
00000010: 7083 ffbb 6966 0e3b c607 933c cf26 17ba
00000020: b6a3 4e3a 30f5 fcbb 17b7 3bbb 072c ee3b
00000030: 1fd5 45bc 1478 50bc fca2 053c ee94 753c
00000040: 2480 dc3b a950 4abc 6e56 09bc 09ca 8738
00000050: 630d b53b 06f7 393c 1717 713b 39ff 9d3b
00000060: 7b45 1ebc 44f5 223c db87 66bb d6a5 aebb
00000070: 9e6b 273c 0282 5bbc ef4e c53b 7418 dcbb
00000080: 169f 3dbc 9d1a 83ba 7f6b a9ba 86c0 513c
00000090: 7bbf d7bb 230a 11ba 30f8 27bc 4439 e6bb
000000a0: 1429 88bc 4db4 243c a617 dc3b d5bd 7b3c
000000b0: 03d7 09bc 665f 9e3a c075 0bbc c492 1b3c
000000c0: 1ac0 1dbc a950 07bc d881 3ebc 6ed0 e73b
000000d0: 06a7 283c 2b43 50bc 6c0d d23b c678 843c
000000e0: 18b6 d63b 923f 50bc 5326 f0bb f330 503a
000000f0: 53c7 393b 00d6 793c 30b8 5cbb 0d22 413b
00000100: 1216 95bb 212d 953b 6c3b b0bb 0843 933b
00000110: 84bd d8bb bf84 74bb 49b9 fbba a7ea 1e3c
00000120: c671 05bc bd2f 793b ed91 b63b b575 723c
00000130: 8f5e 4cbb 766d f23a 657d 66bc 7203 813c
00000140: 4845 6ebc 65e1 34bb d244 d13a 9300 07bc
00000150: 7cad 263c 55cc 4abc baf9 653c a9dd 143c
00000160: 8559 4e39 c07f 1ebb a187 a53a 5eed 43bc
00000170: b1f3 45bc 9bf1 5cbc b450 3c3c 3d3d 163c
00000180: 1eeb bc3a 27e1 fdbb 59fd 6fbb c52e 933b
00000190: 7077 63bc 57cb 8e3b 742d a93a 3053 2cbc
000001a0: a0a9 303c 0144 8fbb 67a2 42bb b7dc 20bc
000001b0: 8716 4a3b d20d 4cbb 9f1c 85bb b5b3 84ba
000001c0: 005b 223c bf15 43bb 7b80 4f3b f27c 8cbc
000001d0: 858a 2dbb aecd babb 4807 843b 68e1 d4bb
000001e0: d65a 6b3c 66db 873a b7d2 48bc 14b5 96bb
000001f0: 3438 2c3c bd4c 85bb ce58 e7bb 15d6 eaba
00000200: 3aa7 093c b532 98bb e892 8abb f80d 003c
00000210: 546c a5b9 e4cd 25bc 43b3 0f3c f86c 92bb
00000220: daf4 b1bb 30cb 83bb 0abc 00bc e1b7 cf39
00000230: eb05 403c 6422 a5bb 4649 203a 8381 633c
00000240: 370d 43bc 361b b9bb 4ad1 16bc 770d b93a
00000250: ea56 703b daad 033b 2f03 193c 3b2b c9bb
00000260: eb2b 2abc 315f 323b 8914 20bc 2c51 babb
00000270: 1fbd 043c 60fd dcbb adcf 0bbc 5baa 12bb
00000280: 6669 7fbb aa9b dc3b 7c51 3ebc d1fb 7f3c
00000290: b8cd 3b3c 9651 cabb 386f 793b a31c 2cbb
000002a0: 519f abbc f944 04bc 23e4 08bb 1048 54bb
000002b0: 69ca 70bc 10ee 75bb 004b 20bc 8a83 9d3c
000002c0: a113 ffbb 3d13 02bc 5ee7 133c 3d3a 5c3c
000002d0: aa36 e63b 7c24 fe3b 84fc 91bb 8e4d 013c
000002e0: 4fd8 613c e3e8 74bc de30 e73a bba4 54bb
000002f0: a6c3 e53b 564d 0c3c 47f1 3a3b 96fc b13a
00000300: 8059 143c 350e 0e3c 4e5a 29bc 80aa f0bb
00000310: 5964 45bb c410 4abc 9596 1d3c 7578 1b3c
00000320: d68e d0bb 4122 ab3b 5954 38bc 7021 c5bb
00000330: 56cc 2ebb 5475 cc3b 4c3a 093c 226e 13bc
00000340: 59c4 fa3b 3942 83bc 0373 c3bb 763b 853a
00000350: c540 2f3b 00e1 073b 89f1 02bc d855 67bc
00000360: bf68 073c 9587 bb3b b93b 093c 2068 c0bb
00000370: 5999 10bc 4a00 fe3b 0c64 2cbc 8b47 bfbc
00000380: 4733 75ba 9b8f 19bb 8b9d 2fbc 1b45 a6bb
00000390: 3a82 e2bb 0c67 3b3b e9c8 8b3b 3c14 dabb
000003a0: ec08 4bbb a8b0 263b 5f4d 0b3c 0ce9 193c
000003b0: 5b45 78bc cc2d acbb 36f9 5fbb ca1a 07bc
000003c0: 67fb af3b 29e5 1a3c afd6 eab9 c60c a5bb
000003d0: fc32 aaba 9c05 cfba 3a33 fd3b 221c 3cbb
000003e0: 53ef 3b3c 5ab6 67bc 56a4 e03b 3953 06bc
000003f0: 622a b93c 6cb3 e2bb 641d a93b e1f7 603b

net.2.linear.bias f4 [32]
-0.12448235 0.056135774 -0.1531659 0.1633311 -0.078960985 0.16311002 -0.10747943 -0.15149271
0.006059498 -0.1482053 0.023691533 -0.15913738 -0.04332749 0.04696672 -0.09885911 -0.074869744
0.13064776 -0.018996399 0.018454466 -0.14523028 -0.16817527 -0.13401198 -0.039416574 0.12952536
0.06705339 -0.0494385 -0.00852378 0.105952784 0.12041955 -0.12646025 -0.11588338 -0.11612667
00000000: 9af0 febd a0ee 653d 86d7 1cbe 4540 273e
00000010: 4cb6 a1bd 5006 273e 2d1e dcbd e820 1bbe
00000020: c18e c63b 21c3 17be bf14 c23c e9f4 22be
00000030: 2b78 31bd 2d60 403d a576 cabd 4f55 99bd
00000040: 87c8 053e 569e 9bbc d22d 973c 3fb7 14be
00000050: 2336 2cbe 703a 09be 4673 21bd 4ca2 043e
00000060: 4a53 893d 0680 4abd 53a7 0bbc c6fd d83d
00000070: 869e f63d cc7e 01be 4454 edbd d2d3 edbd

net.3.linear.weight f4 [32, 32]
-0.0010112164 0.006031673 -0.007399401 0.0026441016 0.00013948795 -0.012186874 -0.005203604 0.0019309787
0.0026589732 -0.01162136 0.016637005 0.016406992 -0.0072566196 -0.0006302729 -0.015704498 -0.008891655
-0.0003133855 -0.0039704614 -0.001870663 -0.011039903 0.0133005725 -0.005434844 -0.00036041345 -0.013143773
-0.00040998924 0.009840882 0.0005354507 0.012351942 -0.0050162515 0.004442068 -0.0030995407 -0.0016457093
-0.00832401 0.00310546 -0.007954251 -0.011489449 -0.0077700606 -0.004786175 0.00805256 0.007990602
0.0032899068 -0.0042521763 -0.0015913685 -0.0009252007 0.013478398 0.0036888304 -0.008152197 -0.0037599138
0.008180646 0.0038537744 -0.013899418 -0.008104529 0.0075353747 -0.006141614 0.0008762122 0.012481032
-0.018011307 0.0046108994 -0.002408646 -0.013405792 0.005243665 -0.0029349986 0.0004198232 -0.008301349
0.002260534 0.0067751156 -0.013355873 0.014972488 -0.0058388384 0.012459387 -0.00920362 -0.0071984897
-0.00017864187 0.013272229 0.022673791 0.0045728483 0.00020470306 0.011764629 -0.013040168 0.011689623
0.014840267 -0.003970049 0.0010962867 0.010969718 0.008967833 -0.014137287 -0.011093565 -0.0016758529
-0.013559718 0.016254973 -0.00715079 0.012151101 0.0015386564 -0.014609632 -0.006694615 0.032483514
-0.0102182925 -0.008587458 0.002250942 -0.009453309 -0.004544307 0.0056899115 -0.009867398 -0.0015058343
0.004606971 0.017361464 -0.013860085 -0.004995693 0.008074633 0.016230796 -0.0009636979 0.0019526817
0.009907602 -0.0022650664 0.010950214 0.01976499 0.0057751774 -0.010769374 0.017201958 0.011889971
0.010467549 -0.0042996886 -0.007300749 -0.0054301615 0.004641108 0.012312723 -0.0060659056 -0.00013347299
-0.007686783 -4.8746268e-05 -0.0038145096 0.0004271161 -0.013529183 -0.0036673096 -0.010677279 -0.008866782
-0.006098139 -0.0038458793 -0.004637827 -0.0024892127 0.009451224 0.009448844 -0.0038881162 0.007170749
0.010889416 0.0022373043 -0.016885234 -0.012473052 -0.01096112 -0.0042714863 -0.015396885 0.015473387
-0.01023332 0.0011478903 -0.0052989246 -0.011904387 -0.004594517 0.006954513 -0.0004793169 -0.01350838
0.01445066 -0.0051546027 0.010909831 -0.0064277663 -0.00038286333 0.0134523995 0.018753728 0.0062060016
0.0061351764 0.014164641 -0.0008972646 -0.0018396504 -0.005801494 -0.007933119 0.0048150774 -0.016486825
-0.0147671215 0.0008717522 0.0005720106 -0.014694686 0.0015000866 0.012840257 0.0009510841 -0.0076626465
-0.004003983 0.0036492576 -0.0014864481 -0.01037707 -0.0056517175 -0.004736237 0.012185625 -0.0087440135
0.0077266856 0.0012454119 0.006430872 0.003409573 -0.00074817444 0.0052941726 0.01846132 -0.007018274
0.009301276 0.019986833 -0.008467298 -0.0015382626 -0.0014933636 0.0072301533 0.011700126 -0.0018065704
-0.013892145 -0.0031988418 0.0065623745 0.001797402 0.013241884 0.014935382 0.015860874 -0.015650626
-0.0024981427 -0.0091895955 -0.009239243 0.0020831656 -0.0072500687 0.018590413 0.012732831 0.003372447
-0.0016059628 -0.0063097808 -0.004056728 -0.009368864 -0.011032247 0.008654801 -0.009478711 0.015635496
0.011072045 -0.00029895763 -0.0057591083 -0.0012333625 0.0040697493 -0.0046964847 0.005207197 -0.009148914
-0.011199908 0.015747886 -0.011340494 0.008629601 -0.02536401 -0.005655601 -0.003976054 0.007179238
0.016939197 0.016294401 0.01653851 -0.0049722744 0.009997172 -0.010148269 0.018570134 -0.017931558
00000000: cb8a 84ba 57a5 c53b ad76 f2bb aa48 2d3b
00000010: 8343 1239 74ab 47bc ff82 aabb e518 fd3a
00000020: 2b42 2e3b 8467 3ebc 544a 883c f567 863c
00000030: f0c8 edbb e638 25ba b8a6 80bc 4eae 11bc
00000040: e44d a4b9 a51a 82bb 0931 f5ba b6e0 34bc
00000050: a5ea 593c c716 b2bb e0f5 bcb9 fb58 57bc
00000060: d3f3 d6b9 a73b 213c 7d5d 0c3a cd5f 4a3c
00000070: 5e5f a4bb c48e 913b aa21 4bbb d7b4 d7ba
00000080: 6e61 08bc f984 4b3b 8c52 02bc 3e3e 3cbc
00000090: fe9b febb 59d5 9cbb e2ee 033c 04eb 023c
000000a0: 7a9b 573b d755 8bbb 7795 d0ba 2b89 72ba
000000b0: 80d4 5c3c 4ec0 713b cb90 05bc e368 76bb
000000c0: 1e08 063c 9b8f 7c3b 62ba 63bc dcc8 04bc
000000d0: 4eeb f63b 983f c9bb 9bb1 653a 3e7d 4c3c
000000e0: 738c 93bc 0717 973b 60da 1dbb f8a3 5bbc
000000f0: 0dd3 ab3b 1b59 40bb b71b dc39 6202 08bc
00000100: 7825 143b ca01 de3b 97d2 5abc 2b4f 753c
00000110: ba53 bfbb 7522 4c3c c8ca 16bc 4fe1 ebbb
00000120: d051 3bb9 c373 593c 63be b93c d5d7 953b
00000130: 8fa5 5639 6ec0 403c 6ea6 55bc d585 3f3c
00000140: 9724 733c 2f17 82bb 47b1 8f3a 55ba 333c
00000150: d1ed 123c 14a0 67bc c9c1 35bc 4ba8 dbba
00000160: 9429 5ebc 2629 853c 2d51 eabb 6915 473c
00000170: beac c93a 3d5d 6fbc 805e dbbb 6f0d 053d
00000180: a06a 27bc 69b2 0cbc 8a84 133b 0de2 1abc
00000190: 69e8 94bb 7072 ba3b deaa 21bc 6a5f c5ba
000001a0: 13f6 963b a139 8e3c 6915 63bc e9b2 a3bb
000001b0: 774b 043c 72f6 843c aca0 7cba 20f1 ff3a
000001c0: 7f53 223c 8271 14bb 8768 333c 30ea a13c
000001d0: b33d bd3b 0772 30bc 1feb 8c3c 27ce 423c
000001e0: 1580 2b3c 67e4 8cbb 1f3b efbb 7fef b1bb
000001f0: 7014 983b 4ebb 493c 81c4 c6bb e2f4 0bb9
00000200: 69e1 fbbb e874 4cb8 dafc 79bb 8dee df39
00000210: 82a9 5dbc 3f57 70bb c1ef 2ebc fb45 11bc
00000220: e6d2 c7bb 260b 7cbb eaf8 97bb 0f22 23bb
00000230: 4ed9 1a3c 53cf 1a3c c4cf 7ebb 9af8 ea3b
00000240: 8569 323c bd9f 123b e752 8abc c65b 4cbc
00000250: 4596 33bc d3f7 8bbb 3743 7cbc 1784 7d3c
00000260: a8a9 27bc cf74 963a 9aa2 adbb 9e0a 43bc
00000270: 9a8d 96bb afe2 e33b d34c fbb9 4152 5dbc
00000280: 76c2 6c3c f1e7 a8bb 26bf 323c 03a0 d2bb
00000290: 0cbb c8b9 7467 5c3c 6ba1 993c b75b cb3b
000002a0: 9709 c93b cf12 683c 6836 6bba 6d20 f1ba
000002b0: 751a bebb eaf9 01bc ccc7 9d3b 610f 87bc
000002c0: ccf1 71bc 4d86 643a fbf2 153a fbc1 70bc
000002d0: 8e9e c43a f15f 523c 2c52 793a f016 fbbb
000002e0: d833 83bb 6228 6f3b ecd4 c2ba 9604 2abc
000002f0: 0b32 b9bb 7032 9bbb 37a6 473c 0d43 0fbc
00000300: 2330 fd3b 173d a33a 10ba d23b 2573 5f3b
00000310: 2321 44ba bd7a ad3b 323c 973c 8df9 e5bb
00000320: 6164 183c 6dbb a33c 6cba 0abc 879f c9ba
00000330: f8bc c3ba ecea ec3b e3b1 3f3c 72ca ecba
00000340: e19b 63bc a9a3 51bb 3009 d73b ce96 eb3a
00000350: 7df4 583c 88b3 743c aaee 813c be35 80bc
00000360: e1b7 23bb f58f 16bc 3260 17bc b885 083b
00000370: fc91 edbb ec4a 983c 5d9d 503c 4604 5d3b
00000380: 2b7f d2ba 47c2 cebb 4dee 84bb dd7f 19bc
00000390: 99c0 34bc decc 0d3c 984c 1bbc 0316 803c
000003a0: 8667 353c 6abd 9cb9 e7b6 bcbb c7a8 a1ba
000003b0: 885b 853b f8e4 99bb 22a1 aa3b 54e5 15bc
000003c0: d27f 37bc b601 813c 7bcd 39bc 2c63 0d3c
000003d0: 2fc8 cfbc 9f52 b9bb 8f49 82bb d03f eb3b
000003e0: 12c4 8a3c d67b 853c c57b 873c 76ee a2bb
000003f0: 2ecb 233c ed44 26bc 6520 983c 34e5 92bc

net.3.linear.bias f4 [32]
0.059616514 0.0034574769 -0.11623553 0.058691952 -0.0431674 0.09982714 0.045610867 0.07982331
-0.06210994 -0.011596982 -0.09531229 0.03725225 -0.017993025 -0.15517414 0.08717657 0.07693398
0.1018115 0.07834016 0.016761465 0.12416808 -0.15539533 0.05205618 0.14295655 -0.035201114
0.13358386 0.07565221 0.14577627 0.15284018 0.08288126 0.01924652 -0.14341466 -0.060355727
00000000: 7230 743d d696 623b e50c eebd f966 703d
00000010: 4dd0 30bd 2c72 cc3d 76d2 3a3d 677a a33d
00000020: fe66 7ebd 4501 3ebc 1733 c3bd d195 183d
00000030: 1c66 93bc f8e5 1ebe a189 b23d 908f 9d3d
00000040: 8c82 d03d ce70 a03d 574f 893c d64b fe3d
00000050: f41f 1fbe dc38 553d 3463 123e 0b2f 10bd
00000060: 35ca 083e 8cef 9a3d 6046 153e 2382 1c3e
00000070: a6bd a93d e1aa 9d3c 4bdb 12be 9137 77bd

net.4.weight f4 [4, 32]
0.035955973 -0.024234748 0.03338558 0.0068710865 0.022322763 -0.024375433 -0.022305245 0.035739258
0.017148336 0.0011499013 0.027021335 0.03453315 0.008421996 -0.022693848 0.030051423 -0.010735763
0.03213231 -0.02365693 0.054531135 0.029138628 0.032837857 0.03197531 -0.025709316 0.01109034
0.014549262 -0.033666406 0.019983245 -0.019002741 0.015890095 0.014481754 0.035088383 -0.021750847
-0.0068049734 -0.016056804 0.021151368 0.0019750767 0.014781282 -0.015036423 -0.030412247 0.01082966
0.018925872 -0.0144802 0.014200272 0.026344482 0.0083976565 -0.010915366 0.024979286 -0.022951918
0.0075744493 -0.028952826 0.024883488 0.0083000045 0.023666311 0.011660803 -0.026965443 0.015009713
0.011883582 -0.011844414 0.004815393 -0.008703288 0.018142976 0.032043155 0.012907977 -0.011958302
-0.00042231823 -0.022152783 0.04438188 0.028380208 0.030371536 -0.04336443 -0.02288311 0.032309704
0.035855547 -0.027249841 0.035884585 0.052797414 0.036952835 -0.032086637 0.036887255 -0.03399808
0.047355298 -0.0230216 0.061999757 0.020363366 0.036057066 0.025869103 -0.033064287 0.03990038
0.043501817 -0.044363882 0.028320804 -0.032951385 0.027471377 0.041722637 0.033842366 -0.037996233
0.06958767 0.052869517 -0.038594164 -0.055231173 -0.05124588 0.048003778 0.04493443 -0.04595826
-0.049926072 0.055674456 -0.055908434 -0.05618543 -0.049530663 0.04637126 -0.04275129 0.054761898
-0.048662633 0.05154293 -0.03512683 -0.04990364 -0.05301773 -0.050510243 0.045831274 -0.050370336
-0.053425044 0.046871107 -0.047732864 0.050251503 -0.05206328 -0.053062763 -0.041670084 0.053493332
00000000: 9246 133d f387 c6bc 51bf 083d da26 e13b
00000010: 3ade b63c fdae c7bc 7db9 b6bc 5463 123d
00000020: ab7a 8c3c 49b8 963a d95b dd3c a272 0d3d
00000030: 69fc 093c 73e8 b9bc 672e f63c 0ee5 2fbc
00000040: 2b9d 033d 2ecc c1bc 0a5c 5f3d 22b4 ee3c
00000050: fd80 063d 8bf8 023d 589c d2bc 42b4 353c
00000060: 0760 6e3c c9e5 09bd e7b3 a33c a3ab 9bbc
00000070: f22b 823c e144 6d3c d6b8 0f3d d52e b2bc
00000080: 41fc debb 8f89 83bc a245 ad3c 4a70 013b
00000090: 312d 723c 545b 76bc 1b23 f9bc e36e 313c
000000a0: 6e0a 9b3c 5c3e 6dbc 42a8 683c 62d0 d73c
000000b0: 5396 093c 5dd6 32bc 5ca1 cc3c a905 bcbc
000000c0: 1633 f83b 7a2e edbc 75d8 cb3c befc 073c
000000d0: dadf c13c f40c 3f3c a2e6 dcbc 4deb 753c
000000e0: 5bb3 423c 130f 42bc 72ca 9d3b 3c98 0ebc
000000f0: 94a0 943c af3f 033d fb7b 533c c1ec 43bc
00000100: 986a ddb9 c179 b5bc c6c9 353d 9c7d e83c
00000110: bacd f83c e79e 31bd 5c75 bbbc 2e57 043d
00000120: 44dd 123d 0f3b dfbc b7fb 123d 1a42 583d
00000130: db5b 173d 476d 03bd 1717 173d 9241 0bbd
00000140: a1f7 413d cb97 bcbc 75f3 7d3d 13d1 a63c
00000150: 93b0 133d 71eb d33c 6b6e 07bd 956e 233d
00000160: f62e 323d e7b6 35bd 0801 e83c 08f8 06bd
00000170: a70b e13c 5be5 2a3d 4b9e 0a3d f0a1 1bbd
00000180: fb83 8e3d b58d 583d ea14 1ebd 153a 62bd
00000190: 33e7 51bd 9c9f 443d 2a0d 383d ba3e 3cbd
000001a0: 487f 4cbd e60a 643d 3e00 65bd b222 66bd
000001b0: aae0 4abd caef 3d3d fa1b 2fbd 034e 603d
000001c0: 7852 47bd ae1e 533d 27e1 0fbd c267 4cbd
000001d0: 1f29 59bd d4e3 4ebd 93b9 3b3d 2051 4ebd
000001e0: 38d4 5abd ebfb 3f3d 8983 43bd 85d4 4d3d
000001f0: 4e40 55bd 5758 59bd 40ae 2abd d31b 5b3d

net.4.bias f4 [4]
-0.039310735 -0.0038178815 -0.027384391 0.009305192
00000000: 4b04 21bd 6c35 7abb 3b55 e0bc ce74 183c
