outputs_ssh/noisy_data_NEW/chirp/1_nodes_given/20%_noise/-30%_init_error/model.pt (torch, 16796 bytes, 10 tensors)

net.0.linear.weight f4 [32, 1]
0	0xbf346cf5	-0.70478755
1	0xbf5c4860	-0.86047935
2	0x3f04a5c2	0.51815426
3	0x3f2b0cf5	0.66816646
4	0x3e30b710	0.17257333
5	0x3e88d2cf	0.26723334
6	0x3e681a24	0.22666222
7	0x3f0779f2	0.5292045
8	0xbf446e5d	-0.767309
9	0x3f1498d2	0.58045685
10	0xbf67fcf4	-0.9062035
11	0x3f6e45d0	0.93075275
12	0xbf37512f	-0.7160825
13	0xbf72c967	-0.94838566
14	0xbf24cba9	-0.6437326
15	0xbea55cbd	-0.32297316
16	0x3f1a5634	0.60287786
17	0x3dc61b20	0.096731424
18	0x3f269582	0.6507188
19	0xbf5d0493	-0.86335105
20	0x3e21ee68	0.15813601
21	0x3ecdc5f8	0.401901
22	0x3f40f0e8	0.75367594
23	0xbf25410f	-0.64552397
24	0xbf176a7a	-0.59146845
25	0xbf3f4e38	-0.7472873
26	0x3f22dee6	0.63621366
27	0x3ef39075	0.4757115
28	0x3d4b3844	0.049614206
29	0xbee8d8b9	-0.45477846
30	0xbb9b5f61	-0.0047415947
31	0x3ce0e02e	0.027450647

net.0.linear.bias f4 [32]
0	0x3e964f63	0.29357442
1	0xbc8a04b8	-0.016847953
2	0xbf232398	-0.63726187
3	0xbda5aaaf	-0.08089196
4	0x3f5050fb	0.81373566
5	0xbe983cc7	-0.2973387
6	0x3f153ee3	0.5829908
7	0x3eabb075	0.33533064
8	0xbec87a2f	-0.3915572
9	0xbb068b9d	-0.0020529993
10	0x3e821370	0.25405455
11	0x3f23e4c2	0.6402093
12	0x3e92f10c	0.2869953
13	0x3f243e1f	0.6415729
14	0xbe327aa2	-0.17429593
15	0x3da4b292	0.08041872
16	0xbf545caa	-0.82953894
17	0x3f4e6dc7	0.80636257
18	0x3f0c2c44	0.54755044
19	0x3f02976c	0.510123
20	0x3ee41982	0.4455071
21	0xbedc496a	-0.4302476
22	0x3f4f2ca3	0.80927485
23	0xbe89726a	-0.26845104
24	0xbd485c03	-0.048915874
25	0xbea83342	-0.32851607
26	0x3f3824a8	0.71930933
27	0x3f5aba9b	0.8544099
28	0xbf3b1186	-0.73073614
29	0xbdc28529	-0.094980545
30	0xbea27c36	-0.3173539
31	0x3f379f2a	0.7172724

net.1.linear.weight f4 [32, 32]
0	0x3c5799e1	0.013159246
1	0xbbc9e32b	-0.0061611137
2	0xba3cf2fa	-0.0007207837
3	0xbb18c42c	-0.0023310287
4	0x3c82c240	0.015961766
5	0xbd1a6ffb	-0.03770445
6	0xbcadf700	-0.021235943
7	0xbcd721e6	-0.026261281
8	0x3ccfb5f8	0.025355324
9	0x3c332bb4	0.010935713
10	0x3c0aff6f	0.008483752
11	0x3b024018	0.0019874629
12	0xbc7c3332	-0.015393065
13	0x3cdbd8b3	0.026836729
14	0xbbf04682	-0.007332624
15	0x3bcd3d08	0.006263379
16	0x3c04ce95	0.008105894
17	0xbcb45707	-0.022014154
18	0xbb31bd1c	-0.0027120775
19	0x3c0fec18	0.0087843165
20	0xbc536e09	-0.012904652
21	0x3c66123f	0.014042436
22	0x3b1bf9ee	0.0023800093
23	0xbc48bf2a	-0.012252608
24	0xbca433d7	-0.02004425
25	0x3c525306	0.012837177
26	0xbba23355	-0.004949967
27	0x3cc5413a	0.024078954
28	0x3b202cbb	0.0024440724
29	0xbaad8412	-0.0013238213
30	0x3c882711	0.01662019
31	0x3d09ac63	0.033611666
32	0xbc22f38f	-0.009945764
33	0x3bbaecc5	0.0057044947
34	0xbb114af5	-0.0022169922
35	0xbc3dc21d	-0.011581925
36	0x3d27695b	0.04087196
37	0x3c6141e8	0.013748623
38	0x3d311836	0.04323598
39	0x3d4102b1	0.047121707
40	0xbc8ab9ec	-0.016934358
41	0xbbfa8449	-0.007645164
42	0xbcb4f11c	-0.022087626
43	0x3c7828cd	0.015146446
44	0x39920e18	0.0002785779
45	0x3c443ef2	0.011977898
46	0x3cd08684	0.025454767
47	0xbc686303	-0.0141837625
48	0x3c4fce3e	0.012683449
49	0x3d4a913e	0.04945492
50	0x3c6eab2b	0.014567177
51	0xbaf86c54	-0.0018953183
52	0xbc2dd87e	-0.010610698
53	0xbca373fc	-0.019952767
54	0x3c02fd8f	0.007995023
55	0x3cbb7f62	0.02288789
56	0x3d0ca467	0.034336474
57	0xbccd7aa5	-0.025082896
58	0xbce8256a	-0.028338153
59	0xbd2c346c	-0.04204218
60	0xbd06e410	-0.03293234
61	0xbcd37132	-0.025810812
62	0x3c3929cf	0.011301472
63	0xbd411fb4	-0.047149375
64	0xbacf8b97	-0.0015834448
65	0x3c51ae0f	0.012797846
66	0x3bf74738	0.0075463317
67	0xbc0e01df	-0.008667438
68	0xbbd13b8c	-0.0063852724
69	0xbd74bb92	-0.059749193
70	0xbb716c1e	-0.0036838125
71	0x3c1be5a5	0.009515201
72	0x3c139dbf	0.009009778
73	0xbbf97a40	-0.0076134503
74	0xba22bfa8	-0.00062083686
75	0x3c5d99bd	0.013525424
76	0xbc7ea54c	-0.0155423395
77	0x3c556d89	0.0130266035
78	0x3c9bcc21	0.019018235
79	0xbc878f38	-0.016547784
80	0xbc446b0c	-0.011988413
81	0xbc096690	-0.008386269
82	0x3c825ef5	0.01591442
83	0x3c004d47	0.007830924
84	0x3b9f98de	0.004870518
85	0x3cf62fd6	0.030052107
86	0x3c91ae3c	0.017783277
87	0x3c03d553	0.008046466
88	0x3c19def2	0.009391533
89	0xbc2c8345	-0.010529344
90	0xbca8a41e	-0.02058607
91	0xbbee664f	-0.0072753797
92	0xbcbd64ae	-0.023119297
93	0xbbedfb0a	-0.007262592
94	0x3c26275f	0.010141223
95	0xbce34c79	-0.027746426
96	0xbc37f57c	-0.011227962
97	0xb8a9a378	-8.0889964e-05
98	0x3bcbf08a	0.006223743
99	0xbbec1584	-0.0072047133
100	0xbc5974df	-0.013272493
101	0x3d1effaa	0.03881804
102	0xbcc1ea38	-0.023671255
103	0xbbe600f0	-0.0070191547
104	0xbbe45d58	-0.0069691353
105	0x3c3b43c9	0.011429735
106	0x3bb746c4	0.0055931527
107	0xbb949b67	-0.004535127
108	0x3bac5a35	0.005259777
109	0x3bcce020	0.0062523037
110	0x3b5af7de	0.00334119
111	0x3cd9ed22	0.026602332
112	0xbb8651ad	-0.004099092
113	0xbac12302	-0.0014735165
114	0x3c08e878	0.008356206
115	0x3b4d5729	0.003133247
116	0xbc03978d	-0.008031738
117	0xba45b98b	-0.00075426017
118	0x3b86bbbe	0.004111736
119	0x3b44397e	0.0029941495
120	0xbba1849e	-0.0049291393
121	0xbbbe23c8	-0.0058026053
122	0xba964542	-0.0011464732
123	0xbb8fff81	-0.004394472
124	0x3cbf7d3c	0.023375146
125	0xbc110b97	-0.008852861
126	0x3d396035	0.045257766
127	0xbcbb9a9e	-0.022900876
128	0xbc09d25e	-0.008411972
129	0x3b8d3367	0.004309106
130	0xbc90d09b	-0.017677596
131	0xbac96863	-0.0015366193
132	0x3d57721e	0.052599065
133	0xbc828d70	-0.015936583
134	0x3ccf1c8f	0.025282172
135	0x3d019b08	0.03164199
136	0xbba12732	-0.0049180025
137	0xbce04ac1	-0.027379395
138	0xbb48b62d	-0.0030626163
139	0x3b23ffd3	0.002502431
140	0xbbc4eb09	-0.0060094637
141	0xba7316e4	-0.00092731253
142	0x3c61b973	0.013777125
143	0x3bfa94bb	0.0076471246
144	0x3bde00c5	0.006774994
145	0x3d88e947	0.06685119
146	0x3ba2ff64	0.0049742926
147	0xbc2101a0	-0.009827048
148	0xbd30fa40	-0.043207407
149	0xbd07eaaa	-0.033182777
150	0x3c1493f8	0.009068482
151	0x3a919e06	0.0011109717
152	0x3cc3b685	0.023890743
153	0xbc1065e6	-0.008813357
154	0xbc070342	-0.008240523
155	0xbbff4aa5	-0.0077908807
156	0x3ca33b79	0.01992582
157	0xbbec6cee	-0.007215134
158	0x3bcdac8d	0.006276673
159	0xbd041074	-0.032242253
160	0xbbcf08f7	-0.0063182074
161	0xbbd29c90	-0.006427355
162	0xbc226271	-0.009911166
163	0xbc265c40	-0.01015383
164	0x3d021189	0.031755004
165	0xbcb8f436	-0.022577386
166	0x3d2eb73d	0.04265522
167	0x3cd6227b	0.026139488
168	0xbcce03b7	-0.025148256
169	0x3bf2e8c4	0.0074130017
170	0xbcc47be6	-0.02398486
171	0x3d1d241d	0.03836452
172	0xbbc68a70	-0.0060589835
173	0x3c8dbea6	0.017302822
174	0x3c02964c	0.007970404
175	0xbb5fc129	-0.0034142232
176	0x3b761313	0.003754799
177	0xba5cbaaf	-0.0008420152
178	0x3c620f15	0.013797541
179	0x3c009f91	0.007850544
180	0xbc08825f	-0.008331864
181	0x3cd260cf	0.025680928
182	0x3cb6a0cf	0.022293476
183	0x3c9ade87	0.018904937
184	0xbb14652a	-0.0022643306
185	0xbcc7323d	-0.024315948
186	0xbc5a12bd	-0.013310132
187	0xbc8c039b	-0.017091563
188	0x3c562604	0.013070587
189	0xbc04c62c	-0.0081038885
190	0xbd6f497d	-0.058419693
191	0x3d131f8e	0.035918765
192	0xbb11015c	-0.0022126054
193	0xbae472cd	-0.0017429233
194	0x3bebb73a	0.007193473
195	0xbba74b75	-0.0051054307
196	0x3d57ae21	0.052656297
197	0xbbccb91d	-0.006247653
198	0x3cd99265	0.026559064
199	0x3c38e6f7	0.011285535
200	0xbc9c7a29	-0.01910122
201	0xbc224d6f	-0.009906157
202	0xbca2c00f	-0.019866971
203	0x3d1eb3ac	0.038745567
204	0xbc62d829	-0.013845482
205	0x3c31862a	0.01083521
206	0xbc808a61	-0.015690984
207	0xbc125b7e	-0.008932946
208	0xbc95012a	-0.018189032
209	0x3d2ea070	0.042633474
210	0xbc1550dd	-0.009113518
211	0x3c7814d2	0.015141683
212	0xbc91f704	-0.017817982
213	0x3c305360	0.010762066
214	0x3b762c06	0.003756286
215	0x3be415c6	0.0069606034
216	0x3b8cb920	0.0042945296
217	0xbbb6e401	-0.0055813794
218	0xbbc6477e	-0.006051003
219	0xbca1badf	-0.019742427
220	0xbc76aec3	-0.015056315
221	0x3c8374d1	0.016046913
222	0xbc9c124f	-0.019051699
223	0x3cce46c5	0.02518023
224	0xbc09b1d1	-0.008404211
225	0xbb6cd18f	-0.003613565
226	0x3c23483b	0.009965952
227	0xbc45fe6b	-0.012084584
228	0x3ce44c32	0.027868364
229	0xbca2fffc	-0.019897453
230	0xbccde977	-0.025135739
231	0x3bd23cf4	0.0064159576
232	0x3cc9e588	0.024645582
233	0x3be8e956	0.007107894
234	0x3c068869	0.008211234
235	0xbbad5731	-0.005289935
236	0x3a8d049e	0.0010758822
237	0x3c3f8083	0.011688354
238	0xbc41d00c	-0.011829387
239	0x3d36ff47	0.044677045
240	0xbc5b8f26	-0.0134008285
241	0xbd263e5a	-0.040586807
242	0x3a947818	0.0011327295
243	0x3b36487f	0.0027814207
244	0xbcf32d4b	-0.029684683
245	0xbc5b5373	-0.013386595
246	0xbb5bc744	-0.003353552
247	0xbc8a548a	-0.016886014
248	0xbc3a01f9	-0.011353009
249	0x3c07b1bf	0.008282124
250	0xbc0623eb	-0.008187274
251	0x3c1b505f	0.009479611
252	0xbcf70b5c	-0.030156784
253	0x3cc34952	0.023838673
254	0x3d743b76	0.05962702
255	0xba89a870	-0.0010502469

net.1.linear.bias f4 [32]
0	0xbe15f2b2	-0.14643362
1	0xbd64a34a	-0.055819787
2	0x3cc74b1a	0.024327803
3	0xbd6f8f41	-0.058486227
4	0xbdc1126c	-0.09427342
5	0x3df4cfa3	0.11953666
6	0x3d91b607	0.07114797
7	0xbde997cd	-0.11405907
8	0xbda21321	-0.07913805
9	0x3df49b65	0.11943702
10	0x3dd19950	0.1023432
11	0xbe2e80e2	-0.17041352
12	0x3c91eb6d	0.017812455
13	0x3dcda51b	0.10041257
14	0xbdca578f	-0.09879982
15	0x3dd47ea7	0.103757195
16	0xbdde1a6a	-0.10844882
17	0x3c0a32af	0.0084349355
18	0xbe294c1d	-0.16532941
19	0x3d13203c	0.035919413
20	0xbe47e784	-0.1952191
21	0xbe17e9e9	-0.14835323
22	0x3d8f2a91	0.06990541
23	0x3da7cdee	0.08193575
24	0x3e507680	0.20357704
25	0xbc2358a4	-0.009969864
26	0xbe25a6ef	-0.16176961
27	0x3e0ace56	0.13555273
28	0xbcd55d15	-0.026045362
29	0x3d3a5eab	0.04550044
30	0x3e1f52f9	0.15558995
31	0x3dc02035	0.09381143

net.2.linear.weight f4 [32, 32]
0	0x3be8a003	0.007099153
1	0x3b947af3	0.0045312583
2	0x3af84623	0.0018941801
3	0xbcc63201	-0.024193766
4	0x3cc94654	0.024569668
5	0xbc0031c2	-0.007824363
6	0x3c9b0ab4	0.018926002
7	0xbc4eac01	-0.012614251
8	0x3cd03337	0.025415046
9	0x3b49e84d	0.0030808628
10	0x3b8829b9	0.0041553644
11	0xbce390c4	-0.02777899
12	0x3c8dae4a	0.017295022
13	0x3c6be44f	0.014397695
14	0xbb84a572	-0.004048043
15	0xbb9c1c23	-0.0047640963
16	0x3c252638	0.010079913
17	0xbb26dc6d	-0.0025460974
18	0xbc4b97f1	-0.012426362
19	0x39c831c4	0.0003818405
20	0xbbc1df88	-0.0059165396
21	0xbca863b6	-0.020555358
22	0xbc4200e2	-0.011841031
23	0xbb4209ac	-0.0029607816
24	0xbbea5771	-0.007151537
25	0xbb9253cf	-0.004465557
26	0x3b7a317f	0.0038176475
27	0x3b41873a	0.0029530064
28	0x3bc8af61	0.0061244224
29	0xbb775bc5	-0.0037743908
30	0x3c0bc4ff	0.008530854
31	0xbbef91a3	-0.0073110624
32	0xbb8e7963	-0.0043479665
33	0x3b877b71	0.0041345884
34	0x3bdfc35a	0.0068287076
35	0xbd116abf	-0.03550219
36	0xbbb950c2	-0.005655379
37	0xba7a4f2c	-0.00095485407
38	0xbbcc40ba	-0.006233302
39	0x3c244dc0	0.010028303
40	0xbbcf9ed6	-0.0063360734
41	0xbbe44944	-0.0069667418
42	0x3c9cb9be	0.019131538
43	0x3c88bf7b	0.016692868
44	0x3bc551bb	0.006021706
45	0xbc492a3d	-0.012278137
46	0xbc712c99	-0.014720106
47	0x3b4a215f	0.0030842645
48	0x3be2f534	0.006926203
49	0x3baa5fe3	0.005199419
50	0xbc53c1bc	-0.012924608
51	0xbc36005a	-0.011108482
52	0x3bec6b84	0.0072149653
53	0x3c74d4ef	0.014943345
54	0xbc0cacef	-0.008586152
55	0xbc3b7069	-0.011440375
56	0xbc51e030	-0.012809798
57	0xbc3e5ea0	-0.01161924
58	0xbc56ef75	-0.013118614
59	0xbb9249a4	-0.004464345
60	0x3beb156e	0.0071741855
61	0xbcea598f	-0.028607158
62	0xbcbe9bc5	-0.023267636
63	0xbcbcd210	-0.023049384
64	0x3bb1da08	0.0054276027
65	0x3c1d764a	0.009610722
66	0x3cc79f5f	0.024367986
67	0xbc980860	-0.018558681
68	0x3c2ae56a	0.010430673
69	0xbc21619c	-0.009849932
70	0x3c8aa249	0.016923087
71	0xbba30b11	-0.0049756845
72	0xbc9c6a63	-0.019093698
73	0x3b656437	0.003500236
74	0x3992fe0e	0.00028036576
75	0xbc38784e	-0.011259152
76	0xbc04550f	-0.00807692
77	0x3cc1cfe8	0.023658708
78	0xbbb0aea7	-0.005391914
79	0x3c1c6c62	0.009547325
80	0x3a5d5d01	0.00084443396
81	0xba8006bb	-0.0009767631
82	0x3bb850d2	0.005624869
83	0xbb4c4a83	-0.0031172342
84	0x3c172b3a	0.009226615
85	0x3cfc2c89	0.030782955
86	0x3c440663	0.011964413
87	0x3bcb3d28	0.0062023588
88	0x3b9249cd	0.004464364
89	0xbba43807	-0.005011562
90	0xbc3737f0	-0.01118277
91	0xbbc18513	-0.0059057563
92	0xb9e6f49a	-0.0004405126
93	0xb9e2256d	-0.00043133963
94	0x3c93ff29	0.018066006
95	0xbc93df8f	-0.018050937
96	0x3bca5cbe	0.0061756065
97	0xbb638303	-0.003471554
98	0x3b351b6a	0.0027634748
99	0x3b63acfa	0.0034740553
100	0x3cef56ff	0.029216288
101	0x3c038813	0.008028048
102	0x3c9a89a3	0.018864458
103	0x3c906eb2	0.017630909
104	0x3bbd3924	0.005774634
105	0xbb9700e1	-0.004608259
106	0xbc5d7a29	-0.013517895
107	0xb88331e5	-6.25586e-05
108	0x3bfcc415	0.0077138045
109	0xbbf9f42f	-0.007627986
110	0x3bfaeab0	0.0076573715
111	0xbbfb1683	-0.0076625957
112	0x3af7b6f6	0.0018899131
113	0x3b5f1975	0.0034042273
114	0xba922828	-0.0011150884
115	0x3bf4fc4c	0.007476365
116	0x3c6ee31d	0.014580515
117	0x3b13ad92	0.0022533876
118	0x3c6396e9	0.01389096
119	0xbc86971c	-0.016429476
120	0xbb7a38b3	-0.0038180768
121	0x3ba2adea	0.00496458
122	0xbca2faf7	-0.01989506
123	0xbb41d168	-0.0029574279
124	0x3c270f4b	0.010196517
125	0xbc2e887a	-0.010652656
126	0x3ba794f5	0.0051141926
127	0xbc10d4a8	-0.008839764
128	0x3c99aa1f	0.018757878
129	0x3b12b4af	0.0022385528
130	0x3c83da80	0.0160954
131	0xbd108945	-0.03528716
132	0x3cd947f1	0.026523562
133	0xbb856f77	-0.0040721255
134	0x3b4c057d	0.00311312
135	0xbd13705e	-0.035995834
136	0x3c4ef09c	0.012630608
137	0xbc51a315	-0.012795229
138	0xbc4cf928	-0.012510575
139	0x3b1aab9b	0.002360082
140	0xbb504d18	-0.0031784233
141	0xbc867acd	-0.016415978
142	0xbc7cb098	-0.015422963
143	0x3ad2fbc9	0.0016096766
144	0xbc6f42bc	-0.014603313
145	0x3c07b6fa	0.008283371
146	0xbb1a4f55	-0.002354582
147	0x3c486351	0.01223071
148	0xbbb89b7e	-0.0056337705
149	0x3b817268	0.003950406
150	0xbb8cbbd1	-0.0042948504
151	0xbc8a78f6	-0.016903382
152	0xbce9015f	-0.028443037
153	0x3c19f829	0.009397545
154	0xbb90c7a0	-0.0044183284
155	0xbcba517e	-0.022743937
156	0x3cb9ca78	0.022679552
157	0xbbd3ab94	-0.0064596627
158	0xbbd0c8c5	-0.00637159
159	0xbba31d3c	-0.0049778502
160	0x397f462c	0.00024344836
161	0x3b93c27f	0.0045092697
162	0xbc149042	-0.009067597
163	0x3b1847fe	0.002323627
164	0xbc4a9aca	-0.012366006
165	0xbad5e885	-0.0016319907
166	0xb9940559	-0.00028232744
167	0xbc618555	-0.013764699
168	0xbc5de0a1	-0.013542325
169	0x3b86abf1	0.0041098525
170	0x3be986bf	0.0071266587
171	0xbc269ebd	-0.010169682
172	0xbc695376	-0.01424109
173	0x3d15c503	0.03656484
174	0x3c987413	0.018610036
175	0x3c651552	0.013982134
176	0xbc54d910	-0.012991205
177	0x37c93035	2.3983515e-05
178	0x3ce9b884	0.028530367
179	0x3ba4a868	0.0050249584
180	0xbc99457c	-0.01870989
181	0xbbed55a6	-0.007242876
182	0xbc6c40e9	-0.014419773
183	0x3ca7984c	0.020458363
184	0x3c77d4f9	0.01512646
185	0x3c2f2bcf	0.010691597
186	0x3a5d5e70	0.0008444553
187	0x3c7c392e	0.015394492
188	0xbbaf7fe7	-0.0053558233
189	0xbcaca3bb	-0.021074167
190	0xba97d3c8	-0.0011583501
191	0x3c44c273	0.012009251
192	0x3c49a34b	0.0123069985
193	0x3c640e90	0.013919488
194	0x3c988ab0	0.018620819
195	0xbc080e0e	-0.008304132
196	0x3c3b901b	0.011447932
197	0x3bb5b4f7	0.0055452543
198	0x3b1423a8	0.002260426
199	0x3cc9d85b	0.0246393
200	0xbba62663	-0.005070494
201	0x3aee1c2a	0.0018166353
202	0xbb6fe32e	-0.0036603916
203	0x3cc8230c	0.024430774
204	0x3bce98e3	0.0063048466
205	0xbca52b74	-0.020162322
206	0x3c300cfd	0.010745284
207	0xbc81a379	-0.01582502
208	0x3c00de94	0.007865567
209	0xbbddd9b5	-0.0067703375
210	0x3ce5db66	0.028058719
211	0xbc615670	-0.013753518
212	0x3c192cd1	0.009349064
213	0xbb46cc4b	-0.003033417
214	0x3ca00c45	0.0195371
215	0xbbaf9097	-0.0053578126
216	0xbc07835a	-0.008271063
217	0x3c99a4fb	0.018755427
218	0x3adec7c7	0.0016996794
219	0x3c02f7f4	0.007993687
220	0xbca4bf45	-0.020110736
221	0xbbec5b59	-0.007213038
222	0x3c4edc8e	0.0126258265
223	0x3ca26010	0.019821197
224	0x3b5bca7b	0.0033537436
225	0xba9219c3	-0.0011146594
226	0xbcbdd471	-0.023172589
227	0x3c0f2b3b	0.008738334
228	0xbc68e568	-0.014214851
229	0x3b91f0d7	0.004453759
230	0xbceb499c	-0.028721623
231	0x3a035300	0.00050096214
232	0x3bc14335	0.0058979043
233	0x3b94c312	0.0045398558
234	0xbc74f3ae	-0.014950676
235	0xbc9f1b0e	-0.01942208
236	0x3bddcf00	0.006769061
237	0xbb23ff8f	-0.002502415
238	0x3b50bbf2	0.0031850305
239	0xbb200606	-0.0024417653
240	0xbc62eff7	-0.013851157
241	0xbb5c9cf9	-0.00336629
242	0xbc93a9ce	-0.018025305
243	0x3c811bd1	0.015760334
244	0x3bfd0b44	0.00772229
245	0xbc17be92	-0.009261744
246	0xbbfd9c46	-0.0077395765
247	0x3bfdbc93	0.007743427
248	0x3be528fe	0.006993412
249	0x3ab126d8	0.0013515605
250	0x3b24d3d3	0.002515067
251	0x3d79eaf5	0.061015088
252	0xba2ac3ec	-0.000651418
253	0x3cbb40de	0.02285808
254	0x3bc6ba2a	0.006064673
255	0x3ce81f9c	0.028335385

net.2.linear.bias f4 [32]
0	0x3cd1ec57	0.025625391
1	0xbe03c137	-0.12866674
2	0x3d7dff38	0.062010974
3	0x3e1781ae	0.14795563
4	0x3d000a68	0.031259924
5	0x3caf7c18	0.021421477
6	0x3cb731f4	0.022362687
7	0x3d811ff1	0.063049205
8	0x3c8e27db	0.017352989
9	0xbcd8a590	-0.026446134
10	0xbdfd25f4	-0.123607546
11	0xbd936cb2	-0.07198466
12	0xbe523c2e	-0.20530769
13	0x3caf9469	0.021433072
14	0x3e1030b5	0.1408108
15	0xbe41af73	-0.18914585
16	0xbe432e8d	-0.19060726
17	0x3bc4696f	0.005994014
18	0xbcdc491b	-0.026890328
19	0x3e230cae	0.15922806
20	0x3d6951bc	0.056962714
21	0xbd80ec56	-0.062950775
22	0x3d659120	0.056046605
23	0x3d12f1ae	0.035875015
24	0xbdbb7ef3	-0.09155073
25	0x3d668019	0.056274507
26	0x3dda6a16	0.106647655
27	0xbdbb005d	-0.09130929
28	0xbdd0eaaf	-0.10201012
29	0x3e1c52e9	0.15266003
30	0xbd8fa297	-0.070134334
31	0x3be6788a	0.0070334123

net.3.linear.weight f4 [32, 32]
0	0xbc6acee0	-0.014331549
1	0xbc9e067e	-0.019290205
2	0x3c002675	0.007821669
3	0x3b703717	0.003665393
4	0x3c267155	0.010158856
5	0x3c38ba0e	0.011274828
6	0xbb28f0a8	-0.0025778208
7	0x3b15cf6f	0.0022859236
8	0xbb5e3290	-0.003390465
9	0x3a096f19	0.000524269
10	0x38ad4853	8.262754e-05
11	0x3b9e11a1	0.004823879
12	0x3b43da1e	0.0029884647
13	0x3cbc672f	0.02299842
14	0x3d138a1b	0.03602038
15	0x3ad5718a	0.0016284448
16	0x3c96c782	0.01840568
17	0xbc63bc6b	-0.013899903
18	0x3bbee9f2	0.0058262283
19	0xbac7e3ab	-0.0015250345
20	0xbbb6909f	-0.0055714394
21	0x3c8c7c9e	0.017149266
22	0x3c648ed2	0.013950067
23	0xbc1a0b8e	-0.009402169
24	0xbc4ad08e	-0.012378825
25	0x3b2a528d	0.0025989146
26	0x3c1a7bfb	0.009428973
27	0xbcec9cbf	-0.028883336
28	0x3aeb9235	0.001797265
29	0xb9a51190	-0.00031484338
30	0x3ccf7de9	0.025328593
31	0xbc9275b1	-0.017878385
32	0x3bfcdb32	0.00771656
33	0x3b69aa30	0.0035654418
34	0x3c965ef1	0.018355818
35	0x3b778e43	0.0037774004
36	0xbbdd8c5d	-0.0067611174
37	0xbb11684b	-0.0022187408
38	0x3b340843	0.0027470745
39	0xbbf07431	-0.00733807
40	0xbb823b7b	-0.003974376
41	0xbc247f90	-0.010040179
42	0xbc2e2c5c	-0.010630693
43	0xbc7fe1e1	-0.015617819
44	0x3b41ad0c	0.0029552607
45	0x3b61ede4	0.003447407
46	0xb9745406	-0.00023300954
47	0xbbcbf76c	-0.0062245633
48	0xbb97d4fb	-0.0046335435
49	0xbb6d2dfc	-0.003619074
50	0x3c7ce4dd	0.015435425
51	0xbc5e860d	-0.013581765
52	0x38ca823e	9.65637e-05
53	0x3be52368	0.006992746
54	0x3c19fac3	0.009398165
55	0xbb3e511a	-0.002904004
56	0xbbba2658	-0.0056808405
57	0xbc290ab2	-0.010317491
58	0x3cfc34f5	0.03078697
59	0x3adf497c	0.001703545
60	0x38a220ac	7.7308476e-05
61	0x3bdd67f2	0.006756776
62	0xbc595f3d	-0.0132673355
63	0xbc7a2c31	-0.015269325
64	0xbc0e4373	-0.008683073
65	0xbbb0bd0d	-0.0053936304
66	0xba9d7754	-0.0012013712
67	0xbb356971	-0.0027681256
68	0xbb8cf5b5	-0.0043017515
69	0xbb67ed48	-0.0035389233
70	0xbae76c38	-0.0017656153
71	0x3bcd6373	0.006267959
72	0x3b2d1abf	0.0026413647
73	0xbc99db50	-0.018781334
74	0xbae007be	-0.0017092151
75	0x3ab46fc0	0.0013766214
76	0xbbb0f183	-0.005399884
77	0x3bfa4f66	0.0076388596
78	0x3b2dca80	0.0026518404
79	0xbbe146dd	-0.0068749026
80	0xbc7c31f7	-0.015392772
81	0xbc25fbd0	-0.010130838
82	0x3b6dbb17	0.0036274844
83	0xbc50870f	-0.012727513
84	0x3bca5b6a	0.006175448
85	0x3b3c615c	0.0028744554
86	0xbbe5a355	-0.007007996
87	0x39e1fdfa	0.00043104572
88	0x3c0d7e31	0.008636043
89	0xbb70050c	-0.0036624102
90	0xbc8ab655	-0.016932646
91	0x3a87f259	0.0010371908
92	0x3b33f1e1	0.0027457403
93	0x3b443bdb	0.0029942903
94	0xbb97de14	-0.004634628
95	0xbbbc9798	-0.005755376
96	0xbbd39f4c	-0.0064581987
97	0x3b14f4a4	0.0022728825
98	0x39ac5b44	0.00032874395
99	0x3c28e5ec	0.010308724
100	0xbbfcfd51	-0.0077206274
101	0xbc1beadb	-0.009516443
102	0x3bc17947	0.00590435
103	0xbb817330	-0.003950499
104	0x3c2bfda7	0.010497487
105	0xbb7c15c8	-0.003846513
106	0x3be00066	0.006835985
107	0x3a28f844	0.0006445686
108	0x3a30fbb9	0.0006751377
109	0xbbea9359	-0.0071586785
110	0xbb84a6b7	-0.0040481943
111	0xbb69e650	-0.0035690255
112	0xbc4d3440	-0.012524664
113	0xbbd4473f	-0.0064782198
114	0x3bc29ffa	0.005939481
115	0x3a4595b0	0.0007537259
116	0xbb480180	-0.0030518472
117	0xbbee92f8	-0.0072807036
118	0x3b384b0c	0.0028120903
119	0x3b38bd70	0.0028189085
120	0x3c07b747	0.008283443
121	0xbaa87e28	-0.001285498
122	0x3c4b48fd	0.0124075385
123	0x3b9551a9	0.004556854
124	0xbb04d7f8	-0.002027033
125	0x3b52efc6	0.0032186373
126	0x3bcb5083	0.006204666
127	0x3b62d397	0.003461098
128	0xbc9d33b7	-0.019189699
129	0xbcda46e7	-0.026645137
130	0x3c74df2a	0.014945785
131	0xbd34eb7c	-0.044169888
132	0x3ccfb8f3	0.025356745
133	0x3ce09c01	0.027418138
134	0x3d1cc9d9	0.038278434
135	0x3c7ce2ae	0.015434904
136	0xbccbe771	-0.024890633
137	0xbc7f7af5	-0.01559328
138	0x3a4b22fb	0.0007749048
139	0x3bf5a6fe	0.0074967137
140	0xbd24d6ec	-0.040244028
141	0x3c286e6c	0.010280233
142	0x3baf8811	0.0053567966
143	0x3be2f724	0.006926434
144	0x3c904d84	0.017615087
145	0xba9aa43d	-0.0011798214
146	0xbc65f634	-0.01403575
147	0xbc097f78	-0.008392207
148	0xbb69cf36	-0.0035676486
149	0x3c1f4383	0.009720686
150	0xbc6d09d5	-0.014467676
151	0x3c4d38fb	0.012525792
152	0x3c82e109	0.015976446
153	0x3caaa7f1	0.020832034
154	0x3d40c667	0.04706421
155	0xbc877b8a	-0.0165384
156	0x3d29e9d6	0.04148277
157	0x3782698e	1.554636e-05
158	0x3d5bb097	0.053635206
159	0x3d00ecc9	0.031475816
160	0x3bbb81e3	0.005722271
161	0x3a19b340	0.0005863197
162	0xbbfa9517	-0.0076471674
163	0xbb1e6721	-0.0024170356
164	0xbb8af969	-0.004241158
165	0xbb9220c9	-0.0044594747
166	0xbc1412b7	-0.009037665
167	0x3acf8c25	0.0015834613
168	0x3abb2454	0.0014277794
169	0xbc273a40	-0.010206759
170	0xbb28f7e2	-0.0025782515
171	0xbb21ce70	-0.0024689697
172	0xbc466f63	-0.012111518
173	0xbbd5c7b3	-0.00652405
174	0x3b3d021c	0.0028840369
175	0x3b93c483	0.00450951
176	0x3b9bfd61	0.0047604297
177	0xbbbc0a9b	-0.005738569
178	0xbc2c8598	-0.010529898
179	0xbc5051d6	-0.012714824
180	0xbb0e4838	-0.0021710526
181	0x3c133c4a	0.008986542
182	0xbb37d5e1	-0.0028051066
183	0xbc06bc3f	-0.008223592
184	0x3b9edd99	0.004848194
185	0xbacc2a7c	-0.0015576626
186	0xbc32aa79	-0.010904902
187	0xbb518320	-0.0031969026
188	0xba41a443	-0.00073868426
189	0xbbe2e97c	-0.006924806
190	0xbb25efc9	-0.0025319925
191	0xbbe94007	-0.0071182284
192	0x3bef8a89	0.007310216
193	0xbc2a3ec5	-0.010390942
194	0xbc0bef98	-0.00854101
195	0x3ca27159	0.019829439
196	0x3b5a0d7b	0.0033272195
197	0xba3ba3cd	-0.0007157892
198	0x3a19996d	0.0005859349
199	0xb8090c20	-3.2674638e-05
200	0xbba44532	-0.0050131315
201	0x3bd65609	0.006541018
202	0xbc167c76	-0.009184947
203	0x3bd2c9ae	0.0064327335
204	0x3a415cdb	0.0007376202
205	0x3beb5c7a	0.007182655
206	0xbc7bac85	-0.015360956
207	0x3c943f46	0.018096577
208	0x3c5bea4d	0.013422561
209	0x3c5ecd4d	0.013598752
210	0x3bfe847a	0.0077672573
211	0xbba4e726	-0.005032438
212	0xbbacb386	-0.0052704243
213	0xbb345f59	-0.0027522652
214	0xba92ad43	-0.0011190552
215	0xbb296a29	-0.002585063
216	0xbbde2b57	-0.006780069
217	0x3bcc351b	0.0062319166
218	0xbc7c221f	-0.0153889945
219	0x3b147618	0.0022653397
220	0x3b6ab39e	0.0035812627
221	0x3c30fed4	0.010802943
222	0xbc016577	-0.007897726
223	0x3b2995a6	0.002587655
224	0xbb804a6d	-0.0039151222
225	0x3b8f99e8	0.0043823607
226	0x3b32aabc	0.002726241
227	0x3c5fc299	0.013657236
228	0x3c7ff656	0.015622696
229	0x3c0a05d3	0.00842424
230	0xbc1b9604	-0.009496216
231	0xbb878aa7	-0.0041364017
232	0xbc518bd6	-0.012789687
233	0xba3e1d6c	-0.0007252309
234	0xbca830a7	-0.020531012
235	0xbb4ef795	-0.0031580676
236	0xbc1b774a	-0.00948889
237	0x3c2f398c	0.010694873
238	0x3bea890c	0.0071574505
239	0xba807e86	-0.0009803332
240	0x3a51d8a2	0.0008004998
241	0xbbcd5961	-0.0062667583
242	0xbc96c3bf	-0.018403886
243	0x3b4fb5a4	0.003169396
244	0xbb22c335	-0.002483559
245	0xbc375cff	-0.011191606
246	0xbbc49818	-0.0059995763
247	0x3b3d7318	0.0028907713
248	0x3b7faac6	0.00390117
249	0x3b0493fc	0.0020229807
250	0x3c197d23	0.009368214
251	0xbc453603	-0.012036803
252	0x3b8a2a44	0.0042164642
253	0xbc424b47	-0.011858768
254	0x3abd13f2	0.00144255
255	0x3b8f40dd	0.004371746

net.3.linear.bias f4 [32]
0	0xbd2c3d9a	-0.042050935
1	0xbe5eea9e	-0.21769187
2	0x3e3d42a0	0.18482447
3	0xbc75d5a3	-0.015004548
4	0x3d1e5478	0.038654774
5	0xbddc0b11	-0.10744298
6	0x3d4f9b5a	0.050685264
7	0xbe48442b	-0.19557254
8	0xbd20bc51	-0.039242093
9	0xbe21f0dc	-0.15814537
10	0xbcd2ec05	-0.025747309
11	0x3e084933	0.13309173
12	0x3e23666e	0.15957043
13	0xbdb37020	-0.087616205
14	0x3e218499	0.15773238
15	0xbdd0c02a	-0.101929024
16	0x3e22931b	0.15876429
17	0x3ddaefa2	0.106902376
18	0x3dcae05f	0.09906077
19	0xbc85be68	-0.016326144
20	0x3b35df4f	0.002775151
21	0x3e27a13d	0.16370101
22	0xbd39fbe1	-0.045406226
23	0x3d29f42c	0.041492626
24	0x3e58f621	0.2118764
25	0xbdbc5ebc	-0.09197757
26	0x3cda3c53	0.026640093
27	0xbdb246bc	-0.08704898
28	0xbe532762	-0.20620492
29	0x3ddf38ce	0.108995065
30	0x3d8c0541	0.068369396
31	0x3db0cda8	0.08632976

net.4.weight f4 [4, 32]
0	0x3cb33da3	0.021879977
1	0xbcbf9c00	-0.023389816
2	0x3cef9cea	0.029249627
3	0xbc284a04	-0.010271553
4	0x3a45f0c3	0.000755083
5	0x3bd4a0f8	0.0064889155
6	0x3d990e47	0.07473426
7	0xbb694160	-0.0035591945
8	0x3c493944	0.01228172
9	0x3b3dbf71	0.002895322
10	0x3d716d7b	0.0589423
11	0xbd294563	-0.041325938
12	0xbc90a240	-0.017655492
13	0xbc2885a9	-0.010285773
14	0xbb66a532	-0.003519368
15	0xbcfe26fb	-0.031024447
16	0xbc397ccb	-0.011321257
17	0x3e0a42b6	0.1350201
18	0xbd4d0c28	-0.05006042
19	0xbcc7b5ec	-0.02437874
20	0x3e191ba4	0.1495195
21	0xbd68c8c5	-0.056832094
22	0x3b4e0fb6	0.003144247
23	0xbd8d486e	-0.068985805
24	0x3d0e9654	0.034811333
25	0xbdefce11	-0.11709226
26	0xbd5f38ea	-0.054497637
27	0xbc55416c	-0.013016086
28	0xbd27316e	-0.040818624
29	0xbd202091	-0.039093558
30	0x3d1443cb	0.036197465
31	0x3d8d1d27	0.06890326
32	0xbce60f2e	-0.02808341
33	0x3d1b2092	0.03787286
34	0x3b8778c3	0.004134269
35	0x3c6327c1	0.013864459
36	0x3a000ab4	0.00048844074
37	0x3d23d7cb	0.040000718
38	0xbd562417	-0.05228051
39	0x3ceab50f	0.028650789
40	0xbcb61d2c	-0.022230707
41	0xbd112ec5	-0.035444994
42	0xbd52ae3a	-0.051435687
43	0x3cbbcbc6	0.022924315
44	0xbaf250cb	-0.0018487213
45	0xbca01327	-0.019540383
46	0xbc3435b8	-0.010999136
47	0x3d891584	0.06693557
48	0xbbee5322	-0.007273094
49	0xbcca09f8	-0.024662957
50	0xbbcbb6eb	-0.006216874
51	0xbd5181e1	-0.051149253
52	0xbdb79c19	-0.0896532
53	0x3d5ae4ab	0.05344073
54	0x3c94c6a6	0.01816113
55	0xbb99bbd1	-0.004691579
56	0x3bbc702e	0.0057506775
57	0x3d886dbf	0.066615574
58	0x3d18365d	0.03716122
59	0x3ad98396	0.0016595002
60	0x3d851477	0.06498044
61	0x3ca3a9e2	0.019978467
62	0xbc489e79	-0.012244814
63	0xbc8d68c2	-0.017261866
64	0xbce76fd5	-0.028251568
65	0x3d0d4a5a	0.034494735
66	0xbc5382d5	-0.012909611
67	0xbd8d17a1	-0.068892725
68	0xba511454	-0.00079757464
69	0xbc41edc2	-0.011836471
70	0xbd1f57f4	-0.038902238
71	0x3c4df5c9	0.012570807
72	0xbc08205c	-0.008308496
73	0xbc9d9657	-0.019236727
74	0xbca24cd9	-0.019812034
75	0x3dcc66d8	0.099805534
76	0x3d5ab91e	0.053399198
77	0x3d0f0754	0.034919098
78	0x3c027cc8	0.0079643205
79	0x3d5fc232	0.05462856
80	0x3d8bd508	0.06827742
81	0xbd6f1ecf	-0.05837899
82	0x3d366f7a	0.044539906
83	0xbce8e1b9	-0.028427945
84	0xbcc32fae	-0.023826446
85	0x3d4098b0	0.047020614
86	0xbce00b57	-0.027349157
87	0x3d17fd64	0.037106887
88	0x3ce5b7fc	0.028041832
89	0x3d64098c	0.055673167
90	0x3db4862f	0.08814656
91	0x3d121eb4	0.035673812
92	0x3c85745d	0.016290838
93	0x3d3864ba	0.045017935
94	0xbb9bbfff	-0.0047531123
95	0xbda84c2f	-0.08217656
96	0xbbc1e6da	-0.005917412
97	0x3c6f4f09	0.014606246
98	0x3e0162a8	0.1263529
99	0xbe0dddb1	-0.138541
100	0xbbba2921	-0.0056811725
101	0xbe1e449d	-0.15455861
102	0xbbcff52b	-0.006346365
103	0x3d7b94ee	0.061421327
104	0x3d0cd03a	0.034378268
105	0xbd065a24	-0.03280081
106	0xbd1a23a6	-0.037631653
107	0x3d5f6140	0.054536104
108	0x3d9bc50b	0.07605942
109	0x3c6cf65c	0.0144630335
110	0x3cdd99a7	0.027050806
111	0xbc03fd57	-0.008056006
112	0xbcd753bb	-0.026285043
113	0xbc6b33f7	-0.014355651
114	0x3d46eea6	0.048567437
115	0xbdba1e60	-0.09087825
116	0x3d61a510	0.055089056
117	0x3b966152	0.004589238
118	0x3c2472eb	0.010037164
119	0xbc8bd757	-0.017070455
120	0x3d3aa1dd	0.04556452
121	0xbd2ba623	-0.041906487
122	0x3d868b8b	0.065695845
123	0x3d9e9064	0.07742384
124	0xbe29d6fe	-0.1658592
125	0xbc8fbaed	-0.017545188
126	0xbd60d105	-0.054886837
127	0x3c34f324	0.011044297

net.4.bias f4 [4]
0	0xbca57c18	-0.020200774
1	0x3c9b3ef3	0.018950915
2	0x3d0c903d	0.034317244
3	0x3c42e51c	0.011895444
