FE-PINN1/1_nodes_given/5%_noise/-25%_init_error/model.pt (torch, 16796 bytes, 10 tensors)

net.0.linear.weight f4 [32, 1]
000000 30 2a 8b bd f7 ef 40 3d 88 94 06 bf 07 17 45 3f
       -0.06795156 0.04710385 -0.5257039 0.7698826
000010 f3 da 32 3f bb bb a5 be 17 11 25 3f b5 72 02 bf
       0.6986534 -0.3236979 0.644792 -0.5095628
000020 57 28 04 3f d3 76 05 3f 0f 5c 74 3e 90 88 d6 3e
       0.51624054 0.52134436 0.23863243 0.41901064
000030 b1 28 ff be 9d bc 63 be 29 16 af 3d a0 b6 43 3f
       -0.49835733 -0.22239919 0.085491486 0.7645054
000040 56 fa 98 3e 8f 6a 71 bf 31 a1 56 bf af 2d 70 bf
       0.2987849 -0.9430322 -0.8383971 -0.9381971
000050 bf 50 40 be 8d e7 3c 3f a7 63 bc 3d 78 89 31 be
       -0.18780802 0.7379082 0.09198695 -0.17337596
000060 df 69 6e 3f 24 da 9d 3d 1a d4 a1 3e 2d 8d 69 bf
       0.93130296 0.07707623 0.31607133 -0.9123104
000070 08 ec b8 be 00 58 34 3f f6 5c 4b bf fd 85 5c 3f
       -0.36117578 0.7044678 -0.7943872 0.8614195

net.0.linear.bias f4 [32]
000000 2b 62 a7 3e 94 0b ae 3d ab 31 2c bf 26 d9 07 3f
       0.32692084 0.08498302 -0.6726329 0.5306572
000010 d5 a8 31 3f bf d1 5f bf 26 85 6b be 95 e9 3c 3f
       0.6939824 -0.8742942 -0.23000011 0.7379392
000020 f1 53 06 3d 6a 61 59 3f f8 a2 b8 3c 85 ac 31 3f
       0.032794897 0.8491427 0.022538647 0.6940387
000030 7d 0b 86 3e bc d0 4a bf fe c7 57 bf 68 42 22 bf
       0.2618064 -0.79224753 -0.8428954 -0.6338258
000040 e3 6b dd 3e 70 cd 06 3f eb ff 7b bd d8 0d 62 3f
       0.43246374 0.5265722 -0.06152336 0.88302374
000050 b1 b3 38 bf 9a 59 79 bf a4 75 44 3f 82 dc 58 3f
       -0.7214919 -0.97402346 0.76742005 0.8471147
000060 b9 9d 33 bf 1b 64 4d bf c5 61 97 3e 9f 2c 35 bb
       -0.7016254 -0.80230874 0.2956678 -0.0027645004
000070 da a7 53 3e 4f c5 36 bf 61 26 06 3f a2 48 aa be
       0.20669499 -0.7139482 0.5240231 -0.3325854

net.1.linear.weight f4 [32, 32]
000000 a8 a5 7c ba 29 00 e6 3a 40 53 6d 3c e8 2c a3 3c
       -0.0009637722 0.0017547655 0.01448518 0.019918874
000010 5d f8 44 3b 79 bd e9 bb 26 9c 57 3b 5b fb e3 3a
       0.0030055263 -0.0071331826 0.0032899468 0.0017393635
000020 16 6b 20 bc c0 44 90 bc c8 85 16 3c 5d 6f 3a 3b
       -0.009791156 -0.017610908 0.009187169 0.0028447725
000030 98 ab b4 bb 30 d9 b0 bb 11 0f 6a 3c d5 8f 94 3a
       -0.0055136196 -0.0053969845 0.014285819 0.0011334369
000040 b6 2b 8a bc eb 73 c8 3c c6 8b bf 3a f2 dc 0b 3c
       -0.016866546 0.024469336 0.0014613799 0.008536564
000050 ad e7 84 3c b2 e5 2d 3c 93 63 61 3c 28 56 e1 bb
       0.016223753 0.010613846 0.0137566505 -0.0068767257
000060 e2 59 c8 3b 02 bc 3b bc 5d b7 14 3c c6 7d cc 3b
       0.0061142305 -0.011458399 0.00907692 0.0062405793
000070 bd fc 37 3c f0 3f 3b 3c 5e da 3f bc 3c 68 03 bc
       0.011229691 0.011428818 -0.011709778 -0.008020457
000080 e7 00 16 bc 0d c9 e2 3b 38 c9 b5 bb 23 53 af 3a
       -0.009155489 0.00692094 -0.005547669 0.0013376217
000090 fe 6e 49 3c c4 d3 ba bb 19 e2 d9 39 f3 93 24 bc
       0.012294529 -0.005701514 0.0004155792 -0.0100450395
0000a0 93 5f 37 3b eb 28 8a 3a f8 9c 69 3b 9c 42 c3 ba
       0.002798055 0.0010540759 0.003564654 -0.001489717
0000b0 31 77 85 3c 67 0d a2 bb 0f 15 cf 3b 41 28 28 3c
       0.016292186 -0.0049454453 0.006319649 0.0102635035
0000c0 5b 58 65 3b 97 10 2d 3b 68 b6 0e bc cc dc 86 bc
       0.003499529 0.0026407593 -0.008710481 -0.016462706
0000d0 45 bc 78 3b 56 af d8 3a 3f a9 01 3c 71 33 07 bc
       0.0037954014 0.0016531746 0.007913887 -0.008252011
0000e0 ce a2 4b bb 62 68 64 bc 1a 3a 37 3c 39 c6 12 bc
       -0.003107238 -0.013940902 0.011183286 -0.008958393
0000f0 1f 88 83 bc c5 8f 49 3c 92 e5 18 3c 9f c2 32 3c
       -0.016056119 0.012302344 0.009332078 0.010910659
000100 c4 2b 51 bc 45 0d d4 3b bc 77 06 bb 76 ad 44 bb
       -0.012766782 0.0064713084 -0.0020518145 -0.0030010617
000110 7e 10 2e bb 56 b2 a1 bb 51 6b f5 3c f7 76 1b 3b
       -0.0026560123 -0.0049345894 0.029958399 0.0023722032
000120 2a 9e 1e 3c 88 95 33 3a 5e 0d 07 3c 8d ea a9 bb
       0.009681264 0.000685059 0.008242933 -0.0051854313
000130 f6 1e 9d 3c ac bc 93 3c dd 2c 68 bc cf a4 f4 bb
       0.019179802 0.018034302 -0.0141708525 -0.007465936
000140 14 66 ce 3a 20 9a 71 3b f2 1d 58 3c 1a 3f a8 bb
       0.0015746974 0.0036865547 0.013190733 -0.0051344754
000150 fb 84 f7 bb d9 56 95 3c 00 90 43 bc a4 30 7e 3c
       -0.0075536943 0.018229889 -0.011936188 0.0155145265
000160 66 ed 47 bc d9 12 94 3b b0 92 d2 bb 9c 36 53 3c
       -0.012202596 0.0045188484 -0.006426178 0.012891438
000170 5c 6f 57 ba 8a 85 71 3c 5b ff 4c 3b ca 2d 41 bb
       -0.0008218193 0.014741311 0.0031280133 -0.0029476755
000180 9d a2 63 bc b4 8f 8b 3b e1 e9 ee 3b e1 76 6e bc
       -0.0138937505 0.004259074 0.007291064 -0.01455471
000190 72 77 4d 3c 14 6e ee 3a 24 23 ca 3b 9c 2f a7 bb
       0.012540685 0.0018190765 0.00616874 -0.005102111
0001a0 d6 4a 5a bc b4 fd 4f bc ed 32 18 3c a1 80 d8 bb
       -0.013323506 -0.012694765 0.009289485 -0.0066071306
0001b0 b6 dc 01 bc ba 73 53 ba 5c ee 30 bb 06 e0 2d 3c
       -0.007926157 -0.0008066256 -0.0026997542 0.010612493
0001c0 32 47 15 bc 49 f1 6f bb d5 68 06 3b 46 40 16 3c
       -0.009111213 -0.0036612323 0.0020509262 0.009170597
0001d0 70 71 e5 3b 87 8f 86 39 7a b2 2d 3c c5 34 26 3b
       0.007002048 0.00025665408 0.010601634 0.0025361043
0001e0 13 41 43 bb 8a 13 70 3c 72 ed d5 3b 37 89 1a 3c
       -0.0029793426 0.014653096 0.00652855 0.009432129
0001f0 26 57 ca 3b 05 39 fb 3b fd 20 04 3c 50 f1 5f bb
       0.0061749397 0.0076667094 0.008064506 -0.0034170933
000200 48 cf 48 3a 65 38 9c bb 42 df 65 bc e0 1a 0e 3a
       0.0007660282 -0.004767465 -0.01403028 0.0005420875
000210 b8 8d 0f bc 72 ca b3 bb de bd aa 3b 40 c1 37 bc
       -0.008761816 -0.00548678 0.005210622 -0.011215508
000220 68 27 00 3c 14 73 58 bc 91 5c 1e bc 8c 8b fa bb
       0.007821895 -0.0132110305 -0.009665624 -0.00764603
000230 dc 4c b0 bb b4 34 07 bc aa fe 07 3c 50 2e b7 ba
       -0.005380256 -0.0082523115 0.008300463 -0.0013975594
000240 ba 94 3b 3c a1 7f 0e bc da d5 25 bc 80 2e 4b 3c
       0.011449033 -0.008697421 -0.010121787 0.012401223
000250 e6 be ab 3b 81 75 40 3c c1 fe d1 3b f5 ea b1 bc
       0.0052412627 0.011746765 0.006408543 -0.021718482
000260 a0 5e 47 bc bd 52 1f 3c df 79 0f bc c9 90 cf bb
       -0.012168556 0.009724316 -0.008757084 -0.0063343984
000270 71 a4 38 3c 73 24 46 3c 10 72 20 bc a1 47 e6 bc
       0.011269675 0.012093651 -0.00979282 -0.028110327
000280 b1 9d de 3b d8 ad 59 3c a6 5a c8 37 c5 7b e8 3b
       0.0067937006 0.0132860765 2.388407e-05 0.0070948326
000290 2c 0c ef bc ed 84 5c 3c 5f 46 eb 3b f0 e5 71 3c
       -0.029180609 0.013459426 0.0071800197 0.014764294
0002a0 72 9f 75 3b c0 fe 13 bb 7b 93 ca bb 59 fe 19 ba
       0.003747907 -0.0022582263 -0.006182132 -0.00058743876
0002b0 23 04 4a bc 9e b6 9c 3a b4 b9 55 bc ce f3 8d bc
       -0.012330088 0.001195628 -0.013044763 -0.01732817
0002c0 b0 d8 ba bb 5c 28 6d ba b3 fc cd 3b 4d 88 5c bc
       -0.0057021007 -0.00090468465 0.0062862276 -0.013460231
0002d0 dc f4 04 bc 44 fa 53 bc d2 22 7d 3c c3 56 19 bc
       -0.00811502 -0.012938086 0.015450196 -0.0093590645
0002e0 90 61 66 bc ce 35 2d bc 41 9b 1a 3b 2b 82 5f bb
       -0.014061347 -0.01057191 0.0023591074 -0.0034104686
0002f0 9d 25 41 3b 5b 40 3a bb ae 6d 26 3c 19 b1 7b 3b
       0.0029471882 -0.0028419707 0.010157986 0.003840512
000300 50 e4 4b bc c6 73 f8 39 d1 dc 3a 3c c5 75 7b 3b
       -0.012444571 0.00047388504 0.011405186 0.0038369757
000310 17 b4 60 ba 83 ff a3 bc 2b e7 81 bc 90 30 c5 3a
       -0.00085717574 -0.020019298 -0.0158573 0.001504438
000320 18 96 9d ba 2a 4b 7a 3a 3d 7d 00 3c e6 2b 9b bc
       -0.0012022881 0.00095479435 0.007842359 -0.01894183
000330 9b 5c 06 3c 4a 21 f2 3b 0a 94 8c bc 58 9e 3b bc
       0.00820079 0.0073892223 -0.017160434 -0.011451326
000340 15 c5 a0 ba 3a 2c 68 bb 74 6a fe 3b 37 08 b2 3c
       -0.0012265766 -0.0035426752 0.007764155 0.021732433
000350 66 5f 45 bc 5c 74 0b 3c c1 95 13 bb 6a 6a b1 3c
       -0.012046671 0.008511629 -0.002251968 0.021657187
000360 f8 cc d6 3b 49 5f 6a 3b 4a 63 3e 3c 15 15 10 bc
       0.006555196 0.003576236 0.011620352 -0.008794089
000370 6a 55 8c 39 44 88 6f bc e6 64 de bb 58 cf f0 bb
       0.0002676652 -0.014619891 -0.0067869304 -0.007348936
000380 21 88 8b 3a 7d 59 85 bc c8 f3 40 bc f5 5c de bb
       0.0010645428 -0.016278023 -0.011776872 -0.0067859837
000390 2b ef 60 3c 7a 7b e3 38 b9 c8 68 3a 44 9f 03 bc
       0.013728897 0.00010847203 0.00088800077 -0.008033577
0003a0 4e 6f 90 3a 1b 8d ba bc 92 d5 72 bc bc 6b 6a 3b
       0.00110195 -0.022772362 -0.014821427 0.003576978
0003b0 42 ae ce bb 06 a0 ac bb ea 3c 2b bc aa 2a 17 3c
       -0.0063073942 -0.0052680997 -0.010451535 0.0092264805
0003c0 62 5e ae bb d8 e0 6a bc a2 a4 8c bb 9f 53 2b bc
       -0.00532131 -0.0143358335 -0.0042920867 -0.010456949
0003d0 7f 3c 47 bc e9 d7 13 bb d2 24 f4 bb 57 e1 6d 3c
       -0.0121604195 -0.0022559112 -0.0074506784 0.014519057
0003e0 c0 a4 a5 bb 9e ca 3c ba 84 e2 cb 3c 91 af 46 3a
       -0.00505504 -0.0007201823 0.024888285 0.0007579262
0003f0 3e 11 55 bb c0 bc 58 bc 42 ad a8 bc fa 02 2a bc
       -0.0032511498 -0.013228595 -0.020590428 -0.010376686

net.1.linear.bias f4 [32]
000000 3a 9e eb bc ec 2b 04 be f7 6a 0a 3e 4f d1 a9 bd
       -0.028761972 -0.1290738 0.13517366 -0.082918756
000010 bd e9 2e 3e d1 28 b7 3d 0a b4 20 bd ad 81 a0 3d
       0.17081352 0.08943332 -0.0392342 0.07837234
000020 4c d0 31 3e c7 6c 00 3e 45 30 e6 bc 7d 54 ec 3d
       0.17364615 0.12541495 -0.028099189 0.11539552
000030 c8 04 b3 3d 83 e9 2e be c3 d7 03 3e b6 60 0b be
       0.08741146 -0.17081265 0.12875275 -0.13611111
000040 ff 24 c4 bd da 74 62 3d 2a 88 d8 3d 7b 2c f9 bd
       -0.09577369 0.05528722 0.10572846 -0.12166687
000050 20 a7 93 3d 2f 00 bc bd 87 68 21 be ab 62 2c be
       0.07209611 -0.091797225 -0.1576253 -0.16834514
000060 1e 33 00 be a1 cb b2 3b a1 f3 b4 bc 7a 95 ab bd
       -0.125195 0.0054564034 -0.022088828 -0.0837812
000070 5b b6 ca 3d a9 aa d9 bd aa fe 38 3d a1 b8 c4 3d
       0.09898063 -0.10628254 0.04516474 0.09605528

net.2.linear.weight f4 [32, 32]
000000 cc de 48 3c 55 88 51 3c 59 88 5f 3c 74 27 33 bb
       0.01226015 0.012788852 0.013643348 -0.0027336748
000010 37 5f 55 38 67 df 71 bc 2b 88 28 ba 94 b4 33 3c
       5.0871833e-05 -0.014762736 -0.0006428982 0.010968346
000020 3f dc 3b bc 02 6a ff 39 fc 2f d4 3b 6f 90 25 bb
       -0.011466085 0.00048716372 0.0064754467 -0.002526309
000030 8d 0f 90 bb ec 7d fb bb 6b c8 20 3b c5 78 a6 bb
       -0.004396385 -0.007674923 0.002453352 -0.005080315
000040 0c 01 21 3c d8 4f ad 3b 5c fd 06 bc c8 b6 7d 3c
       0.00982691 0.005289059 -0.0082391165 0.015485473
000050 df 60 1d bc 33 a5 c6 3b d4 4a db 3b e3 58 95 3b
       -0.009605615 0.0060621738 0.00669227 0.0045577153
000060 56 f2 ef bb 6f 00 43 3c 30 f7 b1 3b 98 38 6e 3c
       -0.00732259 0.011901959 0.0054310784 0.01453986
000070 e2 ce 9d 3a f2 0c 62 3c 6b 48 fe 3b 07 8b 2e 3b
       0.0012039805 0.013797032 0.0077600977 0.002663316
000080 81 8b 2d 3b f4 5b 52 bc 89 f0 fb 3a 16 4c 60 3c
       0.0026480856 -0.012839306 0.0019221465 0.013690015
000090 4e 3e 71 ba e4 19 06 ba b4 1e fc bb 5d 85 79 3a
       -0.00092027045 -0.00051155523 -0.00769409 0.0009518469
0000a0 4c 13 96 bc 4b 84 15 ba a8 99 e4 bb af dc e0 bb
       -0.018319748 -0.0005703612 -0.006976325 -0.006862245
0000b0 12 b0 45 bc 05 b4 8a 3b 44 0f 46 bc fd 5b 11 3c
       -0.012065904 0.004232886 -0.012088601 0.008872029
0000c0 12 5b 01 3b 68 25 48 bc 4c 09 4b 3c 74 a9 0e 3b
       0.001973812 -0.01221595 0.012392353 0.0021768482
0000d0 76 84 27 bc e5 86 ea bb 6d a5 07 3c 6d 22 73 b9
       -0.010224452 -0.007157194 0.008279187 -0.0002318711
0000e0 27 2d b7 3b b4 04 b2 ba 74 87 e4 ba 26 8c dc bb
       0.0055900994 -0.0013581724 -0.0017435388 -0.006730574
0000f0 a1 92 f5 39 bb 19 2c ba 43 37 3b 3c 9f c0 9a bb
       0.0004683929 -0.00065651134 0.01142675 -0.0047226693
000100 65 fc 3c bc 22 38 96 3b d6 d2 db 3b 93 67 2b bc
       -0.011534785 0.0045843283 0.006708483 -0.010461706
000110 11 c3 65 3b af f9 1f 3c 0c 4f ca 3b 7e 19 9d bb
       0.0035058896 0.009764119 0.006173974 -0.0047942987
000120 9f 66 7d bb 40 aa 06 3c 65 5b 43 3c 43 29 f6 bb
       -0.0038665903 0.008219302 0.011923646 -0.007512243
000130 be e5 ff bb fe 80 49 bb 5a fd 2c 3c 7d 0e 89 3c
       -0.00780937 -0.0030747051 0.010558451 0.016730541
000140 8a 0e 52 3c 92 6c 00 3c ea 60 76 3c b4 8e ef 3a
       0.012820849 0.007838385 0.015037755 0.0018276782
000150 d1 ac d9 3b 78 41 96 bc 25 1c df 3a 23 3b 85 bb
       0.006642916 -0.018341765 0.0017021938 -0.0040658875
000160 fd 02 a5 3b 20 41 7c 3c 88 cd bb 3b ff 73 9c bb
       0.0050357566 0.015396386 0.0057312883 -0.00477457
000170 10 85 3e bb 04 55 cc 3b ba d8 0f bc 32 23 73 bc
       -0.002907101 0.0062357206 -0.008779699 -0.014839934
000180 a9 6c cd 3b 47 e9 46 bc 27 f7 2e bc 3e c6 b1 3b
       0.006269057 -0.012140579 -0.010679043 0.0054252436
000190 94 a4 72 ba 45 29 9f 3b a4 c6 88 3a 73 67 c0 bc
       -0.00092560914 0.0048572146 0.0010435176 -0.023486828
0001a0 73 d2 23 3c 07 50 d2 3c 98 c8 aa 3b 45 ca 7a 3a
       0.0099989055 0.025672926 0.005211901 0.00095668837
0001b0 53 f3 63 bb bb df 20 3c 1a 17 ca bb 58 34 a0 bb
       -0.0034782484 0.0098189665 -0.0061673047 -0.0048890524
0001c0 02 c1 32 ba a6 79 c7 bb 81 80 29 3c aa 93 fe ba
       -0.00068189215 -0.0060874997 0.010345579 -0.001942267
0001d0 4c 7c a3 bb 58 9d 7e bc 92 ec a9 ba 66 b3 87 bc
       -0.0049891826 -0.015540443 -0.001296418 -0.016565036
0001e0 e6 fb 27 ba 45 2f 1d ba fd bc 95 3b 89 57 0a bc
       -0.000640808 -0.00059961184 0.0045696483 -0.008443722
0001f0 fd 2e f3 38 9b 52 38 bb a3 f4 a9 3b f1 02 1b bc
       0.00011595895 -0.0028125409 0.0051866337 -0.0094611505
000200 c0 7f 68 bc eb 94 40 3b e7 af 82 bb 2d b2 70 3c
       -0.014190614 0.0029385637 -0.0039882543 0.014690918
000210 dd ad 22 ba de 49 0c 3a 86 44 d9 bb 6d cc 63 3b
       -0.0006205717 0.0005351583 -0.006630483 0.0034759298
000220 89 7f 84 bc 2a 5a ce bb e5 77 69 ba 90 e6 ba bb
       -0.016174095 -0.0062973695 -0.00089061103 -0.0057037547
000230 48 4e ed bb 20 f8 6e 3c 1c 0a 37 bc fa a7 92 bc
       -0.007241998 0.014585525 -0.011171844 -0.017902363
000240 5e 01 57 b9 c8 4b ad 3b 1c 6b c7 3a 65 74 36 bb
       -0.00020504507 0.005288575 0.0015214416 -0.0027840373
000250 62 4a a3 3b 7e 8f 1b 3c 33 df a1 bb 82 ac 51 3c
       0.0049832324 0.00949466 -0.0049399375 0.012797477
000260 5c e6 0e bc 6e ed 2b bc 04 35 50 bb 20 e6 8b bb
       -0.008721914 -0.010493619 -0.003176988 -0.0042693764
000270 e0 7c 46 3b 6c 79 15 bc 82 2e 1e 3b ea da 90 bc
       0.0030286834 -0.0091231875 0.0024136608 -0.017682511
000280 6f a8 d6 3b f5 ea 2d 3c dc 13 b2 3a aa e1 21 bb
       0.0065508406 0.0106151 0.0013586241 -0.0024701157
000290 79 4d 9b 39 3c f5 82 3c df 20 7b bc ee 58 ab bb
       0.00029621625 0.015986077 -0.015327661 -0.005229107
0002a0 3a 4e 5d bc 37 12 76 bb 3a 12 20 bc 17 83 6e bc
       -0.01350742 -0.0037547478 -0.009769971 -0.014557621
0002b0 33 87 cf b9 e5 1c c7 3b 0e 2d d0 3a 77 79 96 bb
       -0.00039582848 0.0060764425 0.0015882568 -0.0045921165
0002c0 1a 39 3e bc d4 41 25 3b 53 8b f9 bb ee 7b 2b bb
       -0.011610294 0.0025216239 -0.0076154857 -0.0026166397
0002d0 11 a3 58 bb be 81 4c bb d9 2a af ba db 13 d8 bb
       -0.003305618 -0.0031205262 -0.001336421 -0.006594164
0002e0 cf 48 a8 b8 fd 45 0f 3c 8b 5e 95 3b b6 18 7a 3b
       -8.024426e-05 0.008744714 0.0045583895 0.0038161702
0002f0 e3 3c 95 bc c5 89 85 3b f7 e3 25 3b 15 74 97 3c
       -0.01821751 0.0040752613 0.002531288 0.01848797
000300 86 e8 6e bb fc 0b 17 3c 1e 41 1e 3b 40 a3 4b 3c
       -0.0036454513 0.009219166 0.00241477 0.012429059
000310 c5 21 f8 bb 01 39 db bb f4 d2 74 bc 9f 24 07 38
       -0.007572385 -0.006690145 -0.014942873 3.2220614e-05
000320 7a f6 e9 3b 5a 6a 8a bc 02 f9 ef 3a a9 cb 7a 3b
       0.007139978 -0.016896416 0.0018308463 0.0038268364
000330 a3 52 c1 bb b7 90 c7 3b d5 9e 45 ba b4 e0 b7 bb
       -0.0058997436 0.0060902494 -0.00075386214 -0.0056115035
000340 bc cc 29 3b 74 99 9d 3c 85 2f dd bb 37 80 4a 3c
       0.0025909385 0.019238211 -0.0067500495 0.01235967
000350 fc 64 f2 ba ab 4f 3b ba 08 3b 4b 3b af 80 8a 3c
       -0.001849323 -0.00071453553 0.0031010527 0.016907064
000360 91 8a 81 3c e6 3b bb bb be ef f1 bb ee 83 2e bb
       0.015813144 -0.0057139276 -0.007383316 -0.002662893
000370 86 f3 b2 ba 25 d8 a0 bb d6 aa f6 bb f3 ea 45 3b
       -0.0013652898 -0.004908579 -0.0075276894 0.0030199855
000380 20 af d0 bb f6 2b 70 bc f5 b3 a8 3c 4f 3e b6 ba
       -0.006368533 -0.014658919 0.020593623 -0.0013904067
000390 64 63 48 39 6c 38 b7 ba 79 f6 83 bb 13 d4 0b bc
       0.00019110512 -0.0013978607 -0.0040271846 -0.008534449
0003a0 c8 42 a9 bb fe 08 19 bb 8c 81 1c 3c fa c5 45 3c
       -0.0051654316 -0.0023351307 0.009552371 0.012071127
0003b0 d8 66 16 3c e4 25 7c 3b 7d e6 93 3b d3 b7 b3 bb
       0.009179793 0.0038474733 0.0045135603 -0.00548456
0003c0 9a b7 69 3a 13 60 e2 3b 50 88 cd 3b 2a 51 cf 3b
       0.00089156034 0.0069084256 0.006272353 0.006326814
0003d0 da 3e c9 3b 89 fa 88 bb 4d ee 8f 3a c0 78 04 3c
       0.0061415257 -0.0041802567 0.0010981053 0.00808543
0003e0 cd 58 a8 bb 3c 5f d7 bc d6 7c a9 bb be 04 ca 3a
       -0.005137539 -0.026290528 -0.0051723523 0.001541279
0003f0 0e 14 01 bb b5 c9 56 39 17 ca 84 ba 81 6a d0 3b
       -0.0019695791 0.00020483772 -0.0010131028 0.0063603525

net.2.linear.bias f4 [32]
000000 56 c8 17 be b9 5c 67 bc 6b 59 60 3d e4 2b 80 bd
       -0.14822516 -0.014121228 0.054772776 -0.062583715
000010 de 2a 52 3d 74 47 15 3e 34 14 47 3d 72 0b 80 bd
       0.051310413 0.14578038 0.04860325 -0.06252183
000020 00 8f ee 3c 3c ef 11 3e c3 1f 3a bd e5 94 cd bd
       0.029120922 0.14251417 -0.045440447 -0.10038165
000030 4e 2c fb 3a 7b 8a 71 bd d0 a6 b0 3d be 0e a0 3c
       0.0019162984 -0.058969956 0.08625567 0.01953828
000040 9d 6e 73 3d 36 4d a0 3c 0e 68 28 bd a9 95 f4 bb
       0.05943166 0.019568067 -0.04111486 -0.00746413
000050 1c 07 53 bd db ca e7 3d 5a 52 0c b8 0a 8c b6 3d
       -0.051520452 0.113179885 -3.3455297e-05 0.08913429
000060 e7 db 1e 3e b2 0f 31 3e f2 b1 19 be e2 ab 0e 3e
       0.15513574 0.17291144 -0.15009287 0.13932756
000070 76 b4 26 be 96 be 26 3e 7b b8 67 3d c1 75 01 be
       -0.16279778 0.1628364 0.05657242 -0.12642576

net.3.linear.weight f4 [32, 32]
000000 db 3f 6f 3c eb 2b ab bc 14 94 54 3c 73 38 bc bb
       0.014602627 -0.020894965 0.012974758 -0.005744034
000010 2c e0 14 3c 41 89 ab bc 86 0a ab 3b 57 af 20 bb
       0.00908665 -0.020939471 0.0052197604 -0.0024518573
000020 ed de 52 3c 3b af ad bb dd 44 2c bc 37 fc 56 bc
       0.012870532 -0.00530043 -0.010514465 -0.013121656
000030 83 ca 8e bb 89 80 14 bb 77 f7 84 bb 7b 26 b7 bb
       -0.0043576374 -0.002265962 -0.0040578204 -0.005589304
000040 f2 82 5d bb 3b 48 69 bc 4a 41 31 bc f1 9f 7e 3c
       -0.0033799973 -0.0142384125 -0.010818789 0.015541063
000050 30 b8 10 bc e5 82 01 3c 9c 8d bf 3c 02 31 94 3c
       -0.008832976 0.007904743 0.023382954 0.018089775
000060 d2 f0 74 bc 2e 43 39 3c c3 74 de 3b 4f 1c 22 bc
       -0.014949994 0.011307521 0.0067888214 -0.009894445
000070 8e 3d 82 3c a2 63 4e bc f8 e4 a7 3a a9 c3 15 3c
       0.015898492 -0.0125969965 0.0012809327 0.009140887
000080 ed f4 d7 3b b7 a2 7e 3b 29 9a f5 3c a2 6e 7e bc
       0.0065904767 0.003885431 0.029980736 -0.015529307
000090 3d 47 43 3c 00 05 98 bc be 6b b6 3c a8 c4 c3 bc
       0.01191884 -0.018557072 0.022268172 -0.023897484
0000a0 12 cc 34 3c 9b 26 dc ba 70 22 6b bc 75 64 3c bc
       0.011034982 -0.0016796173 -0.014351472 -0.01149856
0000b0 b2 8f aa bb ce 86 e3 bb 7b 94 28 bc c7 6d 32 3b
       -0.005205118 -0.00694356 -0.010289307 0.0027226077
0000c0 b5 0b 3a 3c e4 f8 83 3c 8b 72 e9 bb 2a da 80 bc
       0.01135533 0.016109891 -0.0071242503 -0.015729029
0000d0 6d 30 cd bc fa 18 aa 3b 75 d7 ed 3c a1 62 95 3c
       -0.025047505 0.0051909657 0.029033402 0.018235506
0000e0 e0 3a 6e bc 8a 48 53 bb 8d 8d 85 3b e6 45 69 bc
       -0.014540404 -0.0032239282 0.004075712 -0.0142378565
0000f0 1a 79 03 3c 9b f4 f8 3b cd 95 0d 3c 52 1b b9 3c
       0.008024478 0.0075975186 0.008641672 0.022596035
000100 bc a5 92 bb b9 61 3a bc df b6 36 3b c9 14 24 3c
       -0.0044753235 -0.011375838 0.0027879996 0.010014721
000110 99 9e d7 bb 45 39 c5 3b 10 e0 71 ba e0 d9 db 3b
       -0.0065801856 0.00601879 -0.00092268083 0.0067093223
000120 4e 64 05 bc fc 42 c2 3b ff 74 9a 3b fb 96 0d 3a
       -0.00814159 0.0059283953 0.004713654 0.0005401221
000130 6d 26 87 3c ce 3f e4 3b 67 a6 02 bc 67 7c 6e 3c
       0.016497815 0.006965614 -0.007974244 0.014556027
000140 45 83 2e bc 60 da da ba f7 cc d8 ba c2 28 2d 3c
       -0.010651414 -0.0016697161 -0.0016540576 0.010568799
000150 47 25 1e 3c fe 32 2b 3c c6 b3 75 3c 50 1f 52 3b
       0.009652442 0.010449169 0.014996475 0.003206212
000160 c3 c5 18 3c b7 b6 9f bc 09 1c 66 bc 38 6b cf bb
       0.009324494 -0.019496305 -0.01404477 -0.00632992
000170 93 dd 41 bc 67 6e d1 bb c9 e1 f1 bb d5 17 2d bc
       -0.011832613 -0.006391335 -0.007381652 -0.010564764
000180 fe d0 e1 3a 98 78 60 3c 9b 9b 54 bb 19 c0 bd bc
       0.0017228422 0.013700627 -0.003244138 -0.023162888
000190 47 c5 5f bb 29 bd 91 bc 60 20 04 3c 68 1a bb bb
       -0.0034144686 -0.017790394 0.008064359 -0.005709935
0001a0 d7 e7 b9 3b 9e 25 20 bc 50 c8 9d bb 13 30 44 3c
       0.0056733894 -0.009774594 -0.004815139 0.011974352
0001b0 7a 32 ac bb e5 f5 27 3b 3a 26 22 bc e1 98 d8 3a
       -0.0052550407 0.0025628742 -0.009896809 0.0016525054
0001c0 7e 3d df 3c 56 19 24 bb db 7c f7 bb bb 8a cc bb
       0.027251001 -0.0025039515 -0.0075527257 -0.006242124
0001d0 4f ca 9d bb d2 3d b9 3b 40 1e 8e 3c d7 fe de 3b
       -0.004815377 0.0056531215 0.017348409 0.0068052816
0001e0 09 46 8f 3b a1 df 3b 3a f2 9f 13 3c 68 92 c6 bb
       0.0043723625 0.0007166807 0.009010302 -0.0060599335
0001f0 02 9e 8e bc 30 30 87 bc 02 80 08 3b 53 f9 80 3b
       -0.017409328 -0.01650247 0.0020828252 0.0039359718
000200 50 bc 84 3c 32 e6 4c 3c f6 b9 0c 3c 00 dc d7 3a
       0.016203076 0.012506055 0.008589258 0.0016468763
000210 50 49 62 bc 48 e3 09 3c 26 01 5a 3a 5f c7 42 bc
       -0.013811424 0.0084160045 0.0008316211 -0.011888354
000220 a6 12 39 bb a6 95 ee bb 4f eb c9 bc bc 83 12 bc
       -0.0028239875 -0.007281023 -0.024648337 -0.008942541
000230 c8 e0 6a bb c3 37 c3 ba 22 16 5d 3c f6 65 d2 ba
       -0.0035839546 -0.0014893938 0.013494046 -0.0016052115
000240 23 92 b6 bc 4e 35 5b 3b a3 38 67 ba f8 ee 80 bc
       -0.02228648 0.003344852 -0.000882039 -0.01573895
000250 e0 96 1d bc 3d a6 2e bc 54 dc 95 bb b1 59 a3 b8
       -0.009618491 -0.0106597515 -0.0045733843 -7.789152e-05
000260 23 51 8f ba 2d bf da bb b4 9e a6 3b 6f 1e bf bb
       -0.0010934215 -0.006675622 0.005084837 -0.0058324854
000270 b9 94 57 bc 0d 81 3c 3c d3 b9 05 3c 36 6f 9e ba
       -0.013158017 0.0115053775 0.00816198 -0.0012087587
000280 e1 9a fd 3b a7 74 87 3b 72 d5 fc bb 0b aa d4 ba
       0.0077394103 0.004133779 -0.0077158744 -0.0016224993
000290 3e b1 fa bb 90 a7 08 3c bd b8 73 bc 39 02 92 3c
       -0.0076505234 0.008340731 -0.014875588 0.017823325
0002a0 11 f5 0c bc 2f a7 83 3a 58 a0 8f 3c 10 f7 d9 3b
       -0.00860335 0.0010044331 0.017532513 0.0066517666
0002b0 3a 12 82 3b 91 98 12 bc 56 07 ec bc 2e 66 07 bd
       0.003969458 -0.0089475075 -0.028812092 -0.03305643
0002c0 0e 11 83 bc 71 1b bb 3c bb f9 5e 3c 86 17 3c 3c
       -0.015999343 0.022840234 0.013609345 0.011480218
0002d0 8b 93 6c 3c a4 b0 35 3c 8a 43 e6 bb d7 06 7a bb
       0.014439474 0.011089478 -0.0070270943 -0.003815105
0002e0 c5 79 88 3c ad 39 5a 3b 78 51 c6 bc 2c bf 20 39
       0.016659627 0.0033298538 -0.02420877 0.00015330006
0002f0 ed 1f ac bc c4 6d db 3a c6 cd 11 bb 2d bc 88 ba
       -0.021011317 0.0016741087 -0.0022247895 -0.0010432057
000300 18 42 63 bc 98 de 67 bb 83 06 a6 3b e6 34 b8 3c
       -0.013870738 -0.003538048 0.005066694 0.022486161
000310 bd 3a 95 3b b6 ce d2 3c 34 3e 12 bc cf 92 60 3b
       0.0045541213 0.025733333 -0.008925963 0.0034267192
000320 03 13 8e 39 74 64 cb 3c 39 68 18 3c 5e e0 61 3c
       0.00027098515 0.024828173 0.009302192 0.013786403
000330 90 e8 23 3b 06 d3 ec ba 86 c0 f0 bc c7 6b a0 bc
       0.0025010444 -0.0018068261 -0.029388677 -0.019582642
000340 fa 70 04 3c 70 c7 68 bb 78 76 86 bb 37 27 ce bb
       0.008083576 -0.0035519265 -0.004103478 -0.006291296
000350 94 5f c8 3c 94 3a b3 ba a1 1f 4c 3c 99 46 6d bb
       0.024459638 -0.0013674074 0.012458713 -0.003620541
000360 9b 91 13 bc 0d 85 60 3b e4 28 6f 3c ff 76 7e 3b
       -0.009006883 0.0034258992 0.014597151 0.0038828251
000370 e9 d4 73 bc 32 b8 18 3c 40 53 ea bb e6 4d 0e 3c
       -0.014882305 0.009321259 -0.0071510375 0.008685565
000380 55 28 c2 3b 75 d6 ff 3a c2 4d 7d 3c c8 23 70 3c
       0.005925218 0.0019518869 0.015460433 0.014656968
000390 92 2d 0e 3c ce b8 8f b8 4c 2f 86 3a cd 70 37 bb
       0.008677857 -6.853194e-05 0.0010237484 -0.0027990818
0003a0 55 15 45 bb 31 aa 24 bc 89 b6 dc bc 7f c6 e0 bb
       -0.003007253 -0.010050342 -0.026942508 -0.0068596
0003b0 d6 f9 42 bb 10 f1 62 bb 04 9b 36 bc e1 d0 b9 bc
       -0.0029750965 -0.0034628548 -0.011145357 -0.022682609
0003c0 f0 d0 38 bc 27 63 d2 bb 25 ce 84 3c 0a 31 6d bc
       -0.011280283 -0.0064205113 0.016211579 -0.014477024
0003d0 e2 89 c0 3c 10 67 40 bc 5d e5 0d bc a8 14 0e bc
       0.023503248 -0.011743322 -0.0086606415 -0.008671917
0003e0 0b 09 0f bc fb f5 39 bb 2a 2e 68 bc 00 cf 81 bb
       -0.008730183 -0.0028375376 -0.014171163 -0.003961444
0003f0 fe 3a fe 3b 06 11 21 bc ea e9 6b 3b d6 52 3c 3c
       0.0077584973 -0.009830719 0.0035997578 0.011494359

net.3.linear.bias f4 [32]
000000 c4 f5 a0 bd 84 44 11 bd a8 ec c7 bd 35 9f a5 bd
       -0.07859376 -0.035465732 -0.097619355 -0.08087007
000010 75 5f 54 bd 72 7d d8 bd 6d 40 d1 bd c1 4d 08 be
       -0.051848847 -0.10570802 -0.10217366 -0.13310911
000020 81 31 97 3d 88 1a 3e 3d fd 05 81 bb 48 9e 18 3e
       0.07382489 0.04641202 -0.0039374814 0.1490413
000030 67 c7 31 be de c4 36 3e 95 0d 50 bd 26 68 28 3e
       -0.17361222 0.17848536 -0.050794203 0.1644598
000040 66 7c d3 bd 8f 7f c4 3d 3b ab 11 3e ce 48 2a 3d
       -0.103264615 0.09594642 0.14225475 0.04157334
000050 da ff 21 be d4 e9 77 bd 55 29 00 3e 34 58 27 bd
       -0.15820256 -0.06052573 0.12515767 -0.0408556
000060 35 42 25 bc 21 d7 2d 3d 43 1d 34 be 94 9a 78 3d
       -0.010086586 0.04244149 -0.17589287 0.060694292
000070 23 2d 14 bd 7e 36 f5 bd c2 8d 37 be d2 a9 12 3e
       -0.03617586 -0.11973284 -0.1792517 0.14322594

net.4.weight f4 [4, 32]
000000 2c 95 90 bd 87 e5 f0 3b e9 9e ea bc 01 df d4 bd
       -0.07059702 0.0073515805 -0.028640227 -0.10394097
000010 24 8a 45 3d c9 e1 8a 3d cd b8 45 bc 76 74 31 3d
       0.048227444 0.06781346 -0.012067986 0.043323956
000020 49 b4 b0 3c 46 31 87 3d 31 c2 e8 bd 12 0b 28 bd
       0.021570342 0.06601195 -0.11365164 -0.041026182
000030 d0 8c c2 bb 9c af e2 3d 9a ab c0 3c 2a 13 9a 3d
       -0.0059371963 0.11068651 0.023519326 0.075231865
000040 e7 a4 6f bd ad ed e4 3a 12 e0 f2 3b 38 38 83 3b
       -0.058506873 0.0017465852 0.007411965 0.0040045045
000050 54 8d dc 3c 44 1e 99 3d 7a 16 26 bd e6 56 9d bc
       0.02692286 0.07476476 -0.04054878 -0.019206475
000060 1b 45 6f bd 46 60 61 3b 38 3c 91 3c 8b 72 23 3d
       -0.058415513 0.0034389659 0.01772891 0.03990416
000070 38 a0 70 bb ca 98 be 3c 49 4e 9c bd 45 66 f3 bc
       -0.0036716592 0.023266215 -0.07632119 -0.029711852
000080 66 24 c2 3d 4b 4a b0 bc 77 51 f3 bc d9 07 9c 3d
       0.09479599 -0.0215198 -0.029701931 0.07618684
000090 77 a3 46 3d e5 74 45 bd 02 a7 25 bd 97 f7 b4 bd
       0.048495736 -0.048207182 -0.040442474 -0.088362865
0000a0 69 b4 ce 3d 29 7e 90 bd f8 ec 5c bd 5d 8b 8c 3d
       0.10093004 -0.07055313 -0.05393693 0.06862519
0000b0 21 f4 a0 bd cc 97 53 bc e0 13 68 3d 9f 01 37 bd
       -0.07859064 -0.012914609 0.05665958 -0.04467928
0000c0 5b 4e 89 bd 7d bc bd 3d f1 8a 67 3d c9 c5 b4 3c
       -0.06704398 0.09264467 0.05652899 0.022066968
0000d0 51 50 90 bc 6e 82 83 bd 96 05 46 be b2 a3 94 3d
       -0.017616423 -0.06421362 -0.19338068 0.07257785
0000e0 5c d6 ce 3b a6 29 c5 bd 64 28 96 bb e1 76 cf bd
       0.0063121747 -0.096270844 -0.0045824517 -0.10130096
0000f0 05 04 64 3d 21 35 01 3d b2 bc 1a 3d 60 aa da bd
       0.055667896 0.03154481 0.03777761 -0.10677028
000100 51 08 e4 bb 04 73 0e 3d d2 90 8c 3d 02 4d f5 bc
       -0.006958999 0.034777656 0.0686356 -0.029943947
000110 26 1b 66 3b 2e ed da 3c 0c 10 59 3c 23 58 14 3d
       0.0035111397 0.026724424 0.013248455 0.036216866
000120 b1 d3 18 bd c3 64 bf bc 24 12 63 3d fc 7e 4b bd
       -0.03731126 -0.023363477 0.055437222 -0.04968165
000130 56 4c 63 3d 1a a0 ac bd 88 fb 8e bd ff 6d 01 bd
       0.05549272 -0.084289744 -0.069815695 -0.03159904
000140 74 a8 90 3d 1a 66 94 bd dc 0e 36 bc bd e7 1c 3d
       0.0706338 -0.07246037 -0.011111941 0.03830694
000150 6e 5f 2c 3d a1 f6 9d bc b1 ba 43 3d 07 1c 6a bd
       0.042083196 -0.01928264 0.047785465 -0.057155635
000160 ad 70 03 bd 22 11 14 3d 30 de ea 3c 47 73 9a 3c
       -0.032089878 0.03614915 0.0286704 0.018853797
000170 f4 bb 8f bd 7a 76 c2 3c 3c 0c fe 3c 5b 3c 40 3d
       -0.07018271 0.023738135 0.031011693 0.04693256
000180 e4 fc 9c bd 97 bd a7 3d 4f ad 1e 3d 41 82 23 be
       -0.076654226 0.08190458 0.0387395 -0.15967657
000190 f1 49 64 bd 69 8c c3 3d 28 12 b3 bd 75 34 fb 3c
       -0.05573458 0.095482655 -0.087436974 0.030664662
0001a0 82 64 90 3d 9f 61 41 3d 5f 6e 09 be 44 10 9e bd
       0.0705042 0.04721224 -0.1342101 -0.07717946
0001b0 c6 1c 54 bd 27 28 f9 3d c2 93 bd bc d1 1c 6a 3d
       -0.051785253 0.121658616 -0.023141745 0.057156388
0001c0 b9 24 50 bd d7 7a c5 3c e1 f3 89 bd 70 90 53 bd
       -0.05081627 0.024106426 -0.06735969 -0.05165142
0001d0 df f5 e4 3d 71 02 6d 3d 9f fd 84 bd c2 3a 51 bd
       0.11179709 0.057863656 -0.06493687 -0.051081426
0001e0 39 2e 17 be 76 b8 7c 3c d6 0a a6 3d 00 51 2a 3c
       -0.14763726 0.015424838 0.081075355 0.0103952885
0001f0 b7 d0 bc bb 93 64 e4 3d 22 90 17 bd d3 d9 2d bd
       -0.0057621854 0.111519955 -0.03700269 -0.04244406

net.4.bias f4 [4]
000000 62 81 e9 3b 93 d3 d5 3d f0 e2 92 bd 68 b7 14 be
       0.0071260193 0.10440745 -0.07172191 -0.14523089
