outputs_ssh/noisy_data_NEW/chirp/1_nodes_given/10%_noise/-25%_init_error/model.pt (torch, 16796 bytes, 10 tensors)

net.0.linear.weight f4 [32, 1]
0	0x3ed17d5d	0.40915957
1	0xbee46b0f	-0.4461293
2	0xbe7b4ce3	-0.24541049
3	0x3ec88129	0.3916104
4	0x3eb9a789	0.36260632
5	0x3f585f9d	0.84520894
6	0x3eb5da09	0.3551791
7	0x3ea39b27	0.3195431
8	0xbf5c7678	-0.8611827
9	0x3eba08e5	0.3633491
10	0xbf5f7711	-0.87291056
11	0x3e9375c3	0.28800783
12	0xbe8bdf1c	-0.27318656
13	0xbd50941a	-0.05092249
14	0x3f4649cd	0.7745636
15	0x3f0c53e1	0.5481549
16	0x3e9624e3	0.29325017
17	0xbd92eb6a	-0.07173808
18	0x3e64c99d	0.22342534
19	0xbf42bbb6	-0.76067674
20	0x3f679630	0.9046354
21	0x3dcc48df	0.099748366
22	0xbf3d6cd9	-0.73994213
23	0x3f14a7f6	0.5806879
24	0xbbad5edd	-0.0052908496
25	0xbe601519	-0.21883048
26	0xbf0a8811	-0.5411387
27	0x3f20888a	0.6270834
28	0x3f730ada	0.94938433
29	0x3f5aec4e	0.8551682
30	0xbf1bb1b4	-0.6081803
31	0xbdb2899b	-0.087176524

net.0.linear.bias f4 [32]
0	0x3ee903cd	0.45510712
1	0xbe34d8d6	-0.17660841
2	0x3e91d8d1	0.2848573
3	0xbf121730	-0.5706663
4	0xbee449d3	-0.44587573
5	0x3e47e017	0.19519077
6	0x3e6cb7c8	0.23116982
7	0xbf4df6b0	-0.8045454
8	0x3e4cc313	0.1999629
9	0xbe3d8b9f	-0.18510292
10	0xbeef69c0	-0.46760368
11	0x3f25a682	0.64707196
12	0x3f761d1b	0.9613816
13	0x3dde465b	0.10853263
14	0xbdd6759f	-0.10471653
15	0xbe3cc006	-0.18432626
16	0xbf83ad88	-1.0287333
17	0xbf2aeaca	-0.6676451
18	0xbf533f06	-0.8251804
19	0xbf5c0ff6	-0.85961854
20	0xbedbcf80	-0.42931747
21	0x3e8676b8	0.2626245
22	0x3ee717cc	0.45135343
23	0xbf671ace	-0.90275276
24	0x3f4bad1b	0.79561013
25	0xbf4b1b46	-0.7933849
26	0xbf26f03f	-0.65210336
27	0x3f87de86	1.0614784
28	0xbf2533c3	-0.6453211
29	0xbe328a76	-0.17435631
30	0xbf483c1e	-0.7821673
31	0xbe7242f2	-0.2365835

net.1.linear.weight f4 [32, 32]
0	0x3d38505f	0.044998523
1	0xbbf26d16	-0.007398258
2	0x3db7d60d	0.08976374
3	0x3c934bae	0.017980423
4	0x3cc7f0be	0.024406787
5	0x3bf9ba4d	0.0076210857
6	0x3c96c957	0.018406553
7	0xbc66661d	-0.014062432
8	0xbce706e3	-0.028201526
9	0xbb01bc58	-0.00197961
10	0xbd17fe55	-0.037107784
11	0x3db50893	0.08839526
12	0xbd070f4e	-0.03297358
13	0xbcec9bdb	-0.028882911
14	0x3c4a69b2	0.012354301
15	0x3c6b1324	0.014347825
16	0x3cff4ded	0.031165088
17	0xbdfa9f2a	-0.122373894
18	0x3df4997e	0.11943339
19	0xbcc43158	-0.02394931
20	0xbc1943ed	-0.009354574
21	0x3d92baab	0.0716451
22	0xbcac6ec9	-0.02104892
23	0x3c9a58e0	0.018841207
24	0xbdf8369a	-0.121197894
25	0x3dba92ac	0.09110007
26	0x3d0f18f1	0.034935895
27	0x3cffd358	0.031228706
28	0x3bb76ba9	0.005597551
29	0xbd649ede	-0.05581557
30	0xbc61ad5f	-0.013774245
31	0xbe0dc5e3	-0.13845019
32	0x3b8171cd	0.0039503337
33	0xbca328ea	-0.01991697
34	0xbd496cd8	-0.049176067
35	0xbce3ce8c	-0.02780845
36	0xbb505fce	-0.0031795385
37	0x3c1ce5be	0.009576259
38	0x3b68fe2e	0.0035551894
39	0x3d01596e	0.031579427
40	0x3c5f9c8b	0.013648163
41	0x3cb4a705	0.022052297
42	0x3c496eac	0.012294453
43	0xbc9ca37a	-0.01912092
44	0x3c2b3c81	0.010451437
45	0x3d0ffd9c	0.03515397
46	0xbc87a7b5	-0.016559461
47	0xba260ebb	-0.00063345925
48	0xbc4ce662	-0.012506099
49	0x3d455ece	0.048186116
50	0xbbccf222	-0.0062544504
51	0x3cd91fad	0.026504362
52	0xba458f6f	-0.0007536327
53	0xbc10caf8	-0.008837454
54	0x3b854db4	0.004068101
55	0x3cd5a2a8	0.026078537
56	0x38ac4fbf	8.216453e-05
57	0x3bb99c34	0.005664373
58	0xbb9d75e8	-0.0048053153
59	0xbbc504f5	-0.006012554
60	0x3acec865	0.0015776275
61	0x3bf17183	0.007368268
62	0xbcfdbb95	-0.030973235
63	0x3c9278e4	0.01787991
64	0x3dac921e	0.08426307
65	0xbd2ab934	-0.04168053
66	0x3d8e7de0	0.069576025
67	0xbae5a15a	-0.00175194
68	0xbce6c06c	-0.028167926
69	0x3c0fc014	0.008773822
70	0xbd0c9a8d	-0.03432708
71	0x3d68aef9	0.056807492
72	0xbccf543e	-0.025308724
73	0x3d7b598c	0.061364695
74	0xbc3858a2	-0.0112516
75	0x3dcdb22f	0.100437514
76	0x3c21fdba	0.009887153
77	0x3cf72005	0.030166635
78	0xbc927b92	-0.017881189
79	0x3b4ed6a6	0.0031561046
80	0x3dab05e7	0.08350735
81	0xbd56949e	-0.052387826
82	0x3de95e85	0.11394981
83	0xbbb84656	-0.005623619
84	0x3c1ceba5	0.009577666
85	0x3dc02ae7	0.09383183
86	0xbb8e04d9	-0.004334074
87	0x3b0dd474	0.0021641525
88	0xbda3086e	-0.07960592
89	0x3dc90d23	0.09816959
90	0xbb6e647d	-0.0036375814
91	0x3bcabf6c	0.00618737
92	0xba50004c	-0.00079346146
93	0xbcbae3f0	-0.022813767
94	0x3b737a70	0.0037151836
95	0xbda178ba	-0.07884355
96	0x3d2591c2	0.04042221
97	0x3c66db2e	0.014090342
98	0xbd2fb917	-0.042901125
99	0xbd91b242	-0.07114078
100	0xbce32a79	-0.027730213
101	0xbcef3fb9	-0.02920519
102	0xbd70382c	-0.05864732
103	0x3cb9d1d5	0.022683064
104	0xbcb42924	-0.021992274
105	0x3c3c918b	0.0115093095
106	0x3c7e7290	0.0155302435
107	0xbb6fffc6	-0.0036620959
108	0x3d5e3ae5	0.054255385
109	0x3d430941	0.047616247
110	0x3ce37e3f	0.02777016
111	0xbd4a2d61	-0.049359683
112	0x3c905be0	0.017621934
113	0xbb0a7cc0	-0.0021131486
114	0xbcb3a87e	-0.02193093
115	0x3add0a9a	0.0016864121
116	0xbc073f0a	-0.008254776
117	0xbdd10890	-0.10206711
118	0x3bb1acf0	0.005422227
119	0x3d5ee4eb	0.054417532
120	0xbd1f2b88	-0.038859874
121	0x3c8f8477	0.017519219
122	0x3d0228f2	0.03177733
123	0xbcfe0977	-0.031010373
124	0x3ba42da3	0.005010323
125	0xbc8504a0	-0.016237557
126	0x3c833d48	0.016020432
127	0x3cd13284	0.025536783
128	0x3d5885d6	0.05286201
129	0xbcb77cd2	-0.022398386
130	0xbba0ff08	-0.0049132146
131	0xbc6ef024	-0.014583621
132	0x3bb721ec	0.0055887606
133	0x3caf1cb8	0.021375999
134	0x3b6c8c18	0.0036094245
135	0x3d706108	0.058686286
136	0x3c3e9b1c	0.011633661
137	0x3d7cdc3a	0.061733462
138	0x3b8b5160	0.004251644
139	0x3cb8bc7b	0.022550812
140	0x3d0e3041	0.034713987
141	0x3d321c41	0.043483976
142	0x3c05d93a	0.008169467
143	0x3c89ae88	0.016806856
144	0x3d1ca111	0.038239542
145	0xba927e4e	-0.0011176558
146	0x3c7551d1	0.01497312
147	0xbcb44d33	-0.022009468
148	0xbb89e757	-0.004208486
149	0x3d15070b	0.03638367
150	0x3c2abeec	0.010421496
151	0xbc6f9fae	-0.014625473
152	0xbd266801	-0.04062653
153	0x3c4228e3	0.0118505685
154	0xbc9f4359	-0.019441294
155	0x3d3030f8	0.04301545
156	0xbbcb8c03	-0.006211759
157	0xb860aa46	-5.356434e-05
158	0x3af8b210	0.0018973965
159	0xb9b4323b	-0.000343697
160	0x3cccbb8c	0.024991773
161	0xbb6c7432	-0.003608
162	0x3d105a36	0.03524228
163	0xbd1f37ff	-0.03887176
164	0xbc9d7dfe	-0.019225117
165	0xbc5225a8	-0.012826361
166	0xbd73caa2	-0.059519418
167	0x3d108e6c	0.035292074
168	0xbc834ae1	-0.016026916
169	0x3b6b5bdd	0.003591291
170	0xbcb8776e	-0.022517886
171	0x3d5791a5	0.05262913
172	0x3c10567f	0.008809685
173	0x3d3c4486	0.045963787
174	0xbc8f47dc	-0.01749032
175	0xbcee6429	-0.029100494
176	0x3cf9773b	0.030452361
177	0xbd952dd2	-0.0728413
178	0x3d7f825f	0.06238019
179	0xbc5b745b	-0.0133944405
180	0x3b46987b	0.0030303288
181	0x3d0b8095	0.034058172
182	0xbb8b0fdb	-0.0042438335
183	0x3cbb705e	0.02288073
184	0xbd92b45e	-0.071633086
185	0x3d87fe7b	0.06640335
186	0x3c71c418	0.014756225
187	0x3bbbc523	0.0057302876
188	0x3b29a16c	0.0025883568
189	0xbd2030f1	-0.039109174
190	0x3c68c14a	0.01420624
191	0xbd39f275	-0.04539724
192	0x3d8d1c2d	0.0689014
193	0xbcba6f60	-0.022758186
194	0xbd494c9e	-0.049145333
195	0xbd0cad02	-0.03434468
196	0xbd6eaaf5	-0.058268506
197	0x3d0ba407	0.034091976
198	0xbcbb04d1	-0.022829445
199	0x3dd2a744	0.1028581
200	0xbbd30bd7	-0.0064406204
201	0x3dc7b18f	0.097506635
202	0xbd8e7642	-0.0695615
203	0x3d7b8438	0.06140539
204	0x3cfa5aa1	0.030560793
205	0x3d938164	0.07202414
206	0xbc92e384	-0.017930754
207	0x3cd6b05b	0.02620714
208	0x3da5489f	0.08070492
209	0xbd228190	-0.03967434
210	0x3d7022da	0.058626987
211	0xbd6c18a8	-0.0576407
212	0xbd113821	-0.03545392
213	0xbd86562d	-0.065594055
214	0xbd3c771b	-0.046012025
215	0xbcdb0e09	-0.02674009
216	0xbd9ad736	-0.075605795
217	0x3d976248	0.073917925
218	0xbd315170	-0.043290555
219	0xbda685d5	-0.08130995
220	0xbc2c10e9	-0.010502079
221	0x3cd31e21	0.025771203
222	0x3d8c87ca	0.06861837
223	0xbd25c958	-0.04047522
224	0xbcc30fc1	-0.023811223
225	0x3caa032d	0.020753467
226	0x3cfe2314	0.031022586
227	0xbcbf0aa5	-0.023320505
228	0x3d53e749	0.051734243
229	0xbbd9d4a6	-0.006647664
230	0xbbf496b3	-0.007464254
231	0x3b5bf785	0.0033564281
232	0xbc4a0ee7	-0.012332655
233	0xbd2826d8	-0.04105267
234	0x3ac6a2d5	0.0015154729
235	0xbb4ef6a4	-0.0031580115
236	0x3c172acd	0.009226513
237	0xbc5344d8	-0.012894832
238	0x3c5a70d1	0.013332562
239	0xbc12bc7d	-0.008956072
240	0xbca9b775	-0.020717362
241	0x3c64ee33	0.013972807
242	0x3c894723	0.016757553
243	0x3bb2c645	0.0054557645
244	0x3aadecb6	0.0013269398
245	0x3c94ab79	0.01814817
246	0x3caf6cd4	0.021414198
247	0xbc89e485	-0.0168326
248	0x3cdf9d8b	0.027296802
249	0xbc8149b3	-0.015782213
250	0x3c400bef	0.011721595
251	0x3d008c66	0.031383894
252	0xbbdef195	-0.006803701
253	0xbc50ee67	-0.012752152
254	0xbcdfa52c	-0.02730044
255	0x39505582	0.0001986828

net.1.linear.bias f4 [32]
0	0x3cdb96ac	0.026805244
1	0x3d38827a	0.045046307
2	0x3e52fea0	0.20604944
3	0xbcf147b4	-0.029453136
4	0xbd072617	-0.03299531
5	0xbe087be5	-0.13328512
6	0xbdd29c88	-0.10283762
7	0xbdfc62cc	-0.123235315
8	0x3dd8c606	0.10584645
9	0xbce18058	-0.02752702
10	0xbd8001fa	-0.06250377
11	0x3d7845bc	0.06061338
12	0xbdc620c0	-0.09674215
13	0xbdab201f	-0.08355736
14	0x3c62ea7c	0.013849851
15	0xbc978e62	-0.01850051
16	0xbd777256	-0.060411774
17	0xbe3d7794	-0.18502647
18	0xbe11fd9c	-0.142569
19	0x3dc1b78f	0.09458839
20	0x3e488a7c	0.19584078
21	0xbdc2cc0c	-0.09511575
22	0x3d3f2da4	0.046674386
23	0x3c32de5d	0.010917273
24	0xbde4a136	-0.11163561
25	0x3cfb3b62	0.030667964
26	0x3d00c049	0.031433377
27	0x3e53c03f	0.20678805
28	0xbdbc09b5	-0.09181539
29	0x3da20c7f	0.0791254
30	0x3ddf37bb	0.108993016
31	0x3d0bdce0	0.03414619

net.2.linear.weight f4 [32, 32]
0	0x3b3d3544	0.002887086
1	0x3ca7a925	0.020466397
2	0xbb419fb7	-0.002954466
3	0x39ff8df3	0.0004874315
4	0xbc0ed624	-0.008718047
5	0xbbaaae0a	-0.0052087354
6	0xbaa3f270	-0.0012508165
7	0xbc1dbb58	-0.009627186
8	0xbd18e52b	-0.037327927
9	0x3c7665c1	0.015038908
10	0x3b3cd341	0.002881244
11	0xbc2234db	-0.009900297
12	0xbc0b818d	-0.008514774
13	0xb9e40a62	-0.00043495285
14	0xbcc6e1c8	-0.024277583
15	0xbb2ab332	-0.002604675
16	0xbcc8f6c7	-0.024531735
17	0x3c048898	0.008089207
18	0xbb89f405	-0.0042099976
19	0xbc4b8e84	-0.012424115
20	0x3d0775ed	0.033071447
21	0x3b0c9983	0.0021453805
22	0xbcf704dc	-0.030153684
23	0xbb42aaea	-0.0029703924
24	0xbc540a84	-0.01294196
25	0x3bb063f1	0.0053830077
26	0x392a9f1d	0.00016271738
27	0x3b181ab1	0.0023209269
28	0x3b8e8c98	0.004350256
29	0xbb39427c	-0.0028268388
30	0x3b6471ae	0.0034857797
31	0xbaab12f5	-0.0013051914
32	0xbbaca502	-0.005268694
33	0xbbda6bf3	-0.0066657006
34	0x3ab191a0	0.0013547428
35	0x3b922eb8	0.0044611357
36	0x3ca8d5b4	0.020609714
37	0xbae00533	-0.0017091393
38	0x3a840734	0.0010072947
39	0xbbc12dc6	-0.005895349
40	0xbc63a563	-0.013894412
41	0x3b1b6d5e	0.002371631
42	0x3ac58a90	0.0015071202
43	0xba9c1321	-0.0011907556
44	0xbc1c9b21	-0.00955847
45	0xbb749936	-0.0037322766
46	0x3d079f62	0.033110984
47	0x3ba30fd5	0.0049762526
48	0xbc15132c	-0.009098809
49	0xbb4b91ef	-0.0031062325
50	0xbc91f531	-0.017817112
51	0xbccf5bba	-0.025312293
52	0x3bf6b5f6	0.0075290157
53	0xb8ae1451	-8.300751e-05
54	0xbc8efe13	-0.017455136
55	0xbc1a1f02	-0.009406807
56	0xbae06601	-0.0017120243
57	0x3c2bc719	0.01048448
58	0xbbb594fe	-0.005541443
59	0x3b00b873	0.001964119
60	0x3a3c810f	0.0007190862
61	0xbc5f665d	-0.013635245
62	0x3c8b63f1	0.01701543
63	0x3b146a43	0.0022646345
64	0x3b7c7157	0.0038519704
65	0x3a382abd	0.00070254115
66	0xb9be8c6b	-0.00036344244
67	0xbb13c9a8	-0.0022550616
68	0xbba8816e	-0.0051423823
69	0xbbcea792	-0.006306597
70	0xb9568752	-0.00020459041
71	0xbb983a45	-0.004645618
72	0xbc6249ff	-0.013811587
73	0x3caedb02	0.021344665
74	0x397b2764	0.000239519
75	0x3b527a9d	0.003211654
76	0x3b04126e	0.0020152587
77	0xbafcd08e	-0.0019288228
78	0xbc817ec8	-0.015807524
79	0x3c41ef94	0.011836905
80	0x3c9867f8	0.018604264
81	0x3b052144	0.0020314017
82	0xbc1a68ac	-0.00942437
83	0x3c4eb567	0.012616492
84	0x3c1e8652	0.009675579
85	0xb9863f26	-0.0002560552
86	0xbc39c9eb	-0.011339645
87	0x3c1b8dea	0.009494284
88	0xbc2f9375	-0.010716309
89	0xbbf7a7ad	-0.0075578303
90	0x3b95587c	0.0045576673
91	0x3b0bfd5f	0.0021360738
92	0x3adb8208	0.0016747126
93	0x3b49e521	0.0030806737
94	0xbc7e3308	-0.0155150965
95	0x399f7c81	0.00030419606
96	0xbb025ee6	-0.001989299
97	0xbcf36c7a	-0.029714812
98	0xbb0c5525	-0.0021413055
99	0xbc348f61	-0.011020512
100	0xbc8a2076	-0.016861182
101	0xbc8a5af1	-0.016889067
102	0xba084230	-0.0005197851
103	0xbd18641e	-0.037204854
104	0xbbf52b05	-0.007481935
105	0xbc1a71ef	-0.009426578
106	0xbb64fccf	-0.0034940725
107	0x3b247b18	0.0025097784
108	0xbc2e664a	-0.010644505
109	0x3b6333cd	0.0034668327
110	0xbcf0a193	-0.02937392
111	0xbca41e2a	-0.020033915
112	0xbb61536d	-0.0034382
113	0x3c0809a5	0.008303081
114	0x3c98c12d	0.0186468
115	0xbc96295b	-0.018330267
116	0x3c06a7dc	0.008218732
117	0x3afa148d	0.0019079611
118	0xbbb26551	-0.0054442068
119	0xbacebefd	-0.0015773472
120	0xbbe82487	-0.0070844325
121	0x3aff05a1	0.0019456634
122	0xbc2e5065	-0.010639285
123	0x3ad27826	0.0016057536
124	0x3aab2031	0.0013055858
125	0xb9a34f5b	-0.00031148907
126	0xbc552ffe	-0.0130119305
127	0x39b7d9c3	0.00035066725
128	0xbc09d254	-0.008411963
129	0x3c2b0877	0.01043903
130	0x3ab76b17	0.0013993707
131	0xbbaf5b9e	-0.005351498
132	0xbaae0f42	-0.0013279694
133	0x3bfb3763	0.0076665147
134	0xbba2d8da	-0.0049696984
135	0xbc43c698	-0.011949204
136	0x3b8252da	0.003977162
137	0x3c53eee9	0.012935379
138	0xbba0c0b8	-0.0049057864
139	0xbb4edc9e	-0.0031564604
140	0x3bf0a54c	0.0073439237
141	0x3c0e217d	0.008674976
142	0xb9d5b9d7	-0.00040764987
143	0xbc1346b1	-0.008989022
144	0x3c61aaf8	0.013773672
145	0xb9639217	-0.0002170283
146	0xbbec6a0e	-0.007214791
147	0x3d1e9bce	0.038722806
148	0xbb3a9d06	-0.002847494
149	0x3a9157c8	0.0011088783
150	0x3d105b53	0.035243344
151	0x3c46dcf2	0.012137638
152	0x3c28c53f	0.010300933
153	0xbbcd840c	-0.0062718447
154	0x3ca3699d	0.019947821
155	0xbab228c6	-0.0013592474
156	0x392430e3	0.0001565847
157	0xbc688706	-0.014192348
158	0xbc6d71aa	-0.014492432
159	0x3a87b6e0	0.0010354184
160	0x3a6d7931	0.00090588914
161	0x3c6d96b5	0.014501263
162	0xbb962baa	-0.004582842
163	0xbb1a21aa	-0.00235186
164	0xbbfaef91	-0.007657953
165	0x3bcfdbc6	0.0063433377
166	0x3b77fe28	0.0037840698
167	0xba8a54be	-0.001055382
168	0x3ad0bfc0	0.0015926287
169	0xbc6dac19	-0.014506363
170	0x38210505	3.8390066e-05
171	0xbb88db65	-0.0041765445
172	0xbc609ab2	-0.013708757
173	0x3b4ef2d2	0.0031577838
174	0x3b686266	0.003545904
175	0xbc28236b	-0.010262351
176	0xbb9f90ca	-0.004869555
177	0x3c6e6e5d	0.01455268
178	0x3c747524	0.014920507
179	0xbd7641e2	-0.060121424
180	0xbb53d5f9	-0.0032323583
181	0x39904272	0.00027515326
182	0xbcd3d28e	-0.025857236
183	0x3ca143f3	0.019685721
184	0x3d0f17a8	0.03493467
185	0x3c2f03ca	0.010682056
186	0x39fc218a	0.00048090174
187	0x3b33008b	0.0027313556
188	0x3c2e9506	0.010655647
189	0xbcc8ccb0	-0.024511665
190	0xbba172a2	-0.0049269954
191	0xbb7d9e5e	-0.003869913
192	0xba8d0776	-0.001075967
193	0xbbe223f5	-0.006901259
194	0x3c0006c7	0.007814116
195	0xbb9ba6cb	-0.004750108
196	0xbbb6b13e	-0.005575328
197	0xbb1f4081	-0.0024299922
198	0xba8e4e9f	-0.0010857171
199	0x3c66732c	0.014065545
200	0x3bf0d57a	0.007349667
201	0xbd28ffcb	-0.04125957
202	0x3aa3ea55	0.001250575
203	0x3aef8b10	0.0018275697
204	0xba6a4af3	-0.000893756
205	0x3afc1004	0.0019230847
206	0xbce9cf3b	-0.028541198
207	0xbc1727ec	-0.009225827
208	0x3c2649dc	0.010149445
209	0x3bedff25	0.0072630816
210	0xbb2f1aab	-0.0026718776
211	0xbb337b4b	-0.002738672
212	0xbcee8fb4	-0.029121257
213	0x3b1c1d4f	0.002382118
214	0x3bd5ba37	0.0065224427
215	0x3cd8e3e4	0.026475854
216	0x3b0a7896	0.0021129004
217	0x3b219608	0.0024656076
218	0x3cf07550	0.029352814
219	0x3b203797	0.0024447197
220	0x3b8821e2	0.00415443
221	0x3c0a356c	0.008435588
222	0xbd7c69cb	-0.06162433
223	0xb9c35e66	-0.0003726363
224	0xbbdebd4b	-0.006797468
225	0xbbcba1a1	-0.006214336
226	0xb9c88c7f	-0.0003825165
227	0x3c360dd8	0.011111699
228	0x3abada89	0.0014255802
229	0x3c78aac3	0.0151774315
230	0xbb025eae	-0.001989286
231	0x3cf23eb8	0.029570922
232	0x3bb528fa	0.0055285664
233	0x3c9b3c49	0.018949645
234	0x39956783	0.00028496617
235	0x3b15373b	0.0022768516
236	0xbb1f734a	-0.0024330192
237	0xbb57f629	-0.003295312
238	0x3ce4d123	0.027931755
239	0x3c8636c3	0.016383534
240	0xbc340c9f	-0.010989337
241	0x3be05dd7	0.006847124
242	0x3c524b01	0.012835265
243	0xbccc8355	-0.024964968
244	0x3c578e95	0.013156553
245	0x3a8b61d0	0.0010634009
246	0xbb6bc281	-0.0035974088
247	0x3cc2d98b	0.023785373
248	0x3b6ad65b	0.0035833332
249	0xba95f654	-0.0011441209
250	0x3b491d0d	0.0030687482
251	0x3a9a8659	0.0011789306
252	0x3b83db6e	0.004023961
253	0xbc532e4e	-0.012889458
254	0x3ba6180f	0.005068786
255	0x3aded490	0.0017000604

net.2.linear.bias f4 [32]
0	0xbd6aa63c	-0.05728744
1	0x3ddb636f	0.10712325
2	0x3b2b15ae	0.0026105451
3	0xbd4daf06	-0.050215743
4	0xbc9c7cab	-0.019102415
5	0xbe598fee	-0.21246311
6	0xbd8921f2	-0.06695928
7	0xbe582e16	-0.2111133
8	0xbda19cea	-0.07891257
9	0xbe6ee244	-0.23328501
10	0xbe208385	-0.1567517
11	0xbe082ec9	-0.13299097
12	0x3e26d0ee	0.16290638
13	0x3d8598cb	0.065232836
14	0x3e1f2684	0.15542036
15	0xbcaf5a7b	-0.02140545
16	0xbe09bcdb	-0.13450949
17	0xbe4171f9	-0.18891133
18	0xbdf8e36f	-0.121527545
19	0xbe5f9a03	-0.21836095
20	0x3e0719e1	0.13193466
21	0x3db95061	0.09048534
22	0x3e37ae5f	0.17937611
23	0x3e23fdce	0.16014788
24	0x3c914e6d	0.017737592
25	0x3cd1a89b	0.025593093
26	0x3c2ca1c9	0.010536619
27	0xbcbddf03	-0.02317763
28	0xbd1d8c0d	-0.03846364
29	0xbc5a444b	-0.013321946
30	0xbe0f56fb	-0.13998024
31	0x3de97979	0.11400122

net.3.linear.weight f4 [32, 32]
0	0x3c732639	0.014840656
1	0xb9edbf0d	-0.00045346507
2	0xbc2002b3	-0.009766269
3	0x3b00c461	0.00196483
4	0xb9b3e719	-0.00034313722
5	0x393cdc6a	0.00018011188
6	0xbad50c56	-0.0016254287
7	0xbb1ff0d3	-0.0024405017
8	0x3a545b1a	0.00081007334
9	0x3b9f762b	0.0048663816
10	0x3af29749	0.0018508221
11	0xbbf52e11	-0.007482298
12	0x39db68c9	0.00041849006
13	0x3bd7d702	0.00658691
14	0xbbba48a2	-0.005684928
15	0xbc24496b	-0.01002727
16	0xbb427c72	-0.0029676226
17	0xbb1bccd0	-0.00237732
18	0xb9a18daf	-0.00030813875
19	0x3a98a29a	0.0011645139
20	0x3c9dced2	0.019263659
21	0xbc31f3fa	-0.010861391
22	0xbbbbd4fb	-0.0057321764
23	0xbb35288e	-0.002764258
24	0x3baca948	0.0052692033
25	0xbbdbac72	-0.0067039067
26	0x3a054224	0.0005083403
27	0xb94733bf	-0.00018997396
28	0xbb92c508	-0.0044790544
29	0x3c16ffb9	0.0092162425
30	0x3bc2968e	0.0059383577
31	0x3b6a8c49	0.0035789183
32	0xbbf4e51c	-0.007473601
33	0xbb8775dd	-0.0041339234
34	0x3a57154d	0.0008204773
35	0xbbaa8bbe	-0.005204647
36	0x3b2a6a70	0.0026003383
37	0x39ce33c0	0.0003932994
38	0x3a71afee	0.0009219636
39	0x3b93e1b2	0.004512989
40	0x3b57ac18	0.0032908972
41	0x3bbdfdda	0.0057980837
42	0xba7072c1	-0.0009172373
43	0xbb146eb6	-0.0022648997
44	0x3b140de1	0.002259128
45	0xbb06b440	-0.0020554215
46	0xbbc0d7fd	-0.005885123
47	0xbb1529b0	-0.0022760443
48	0xba339f2c	-0.00068520266
49	0xbb4038f4	-0.0029330822
50	0xba031bbf	-0.0005001388
51	0xb96b0d23	-0.0002241624
52	0x3c73728a	0.014858851
53	0xbb365f96	-0.002782797
54	0x3c23c6c5	0.009996121
55	0x3b99c969	0.0046931994
56	0xb9a9f43a	-0.00032416155
57	0xbb565c88	-0.0032708962
58	0xba870e89	-0.0010304014
59	0xbb047ccd	-0.0020215989
60	0xbca35b93	-0.019941127
61	0x3bca5138	0.006174233
62	0x3c23486f	0.009966
63	0x3b16a187	0.0022984461
64	0xbbaa3d3b	-0.0051952875
65	0xbb881e56	-0.004154007
66	0x3af34a38	0.0018561548
67	0xbb192bf0	-0.0023372136
68	0xbb891ef6	-0.004184599
69	0xbac408b5	-0.0014956208
70	0xbabd7ca7	-0.0014456705
71	0xbbcc7385	-0.006239357
72	0xbc5c49ca	-0.013445327
73	0x3c6352f2	0.013874756
74	0xba7d4824	-0.0009661934
75	0x3c097fe5	0.008392309
76	0x39df9924	0.00042647973
77	0x3b04a701	0.0020241144
78	0xbb91feb9	-0.004455414
79	0x3bf8eb23	0.00759639
80	0xbb65ace2	-0.0035045673
81	0xb99399e5	-0.00028152685
82	0x3baf46f6	0.0053490354
83	0x3b973ae9	0.004615177
84	0x3c299c7a	0.010352248
85	0x3c69bfe7	0.0142669445
86	0xbc37e7ae	-0.01122467
87	0xbad2e851	-0.0016090964
88	0xbc817dfd	-0.015807146
89	0xbbd1d6e9	-0.006403793
90	0xbb9bb32c	-0.0047515836
91	0x3c4f9757	0.01267036
92	0x3a913224	0.0011077565
93	0xba1ecac1	-0.00060574344
94	0x3c4fc9a7	0.012682355
95	0xbafb0082	-0.0019149932
96	0xba0a63ad	-0.0005279135
97	0xbb382a5c	-0.002810142
98	0x3b2946fe	0.0025829668
99	0x3b388018	0.0028152522
100	0x3b609f0c	0.0034274487
101	0xbb136307	-0.0022489445
102	0xbb226fd1	-0.0024785886
103	0x3bd7825a	0.0065768184
104	0xba88fb75	-0.0010450917
105	0xbc06a7da	-0.00821873
106	0x3c10c252	0.008835392
107	0x3a97964f	0.0011565181
108	0xba6aebe5	-0.00089615426
109	0x3a87a813	0.0010349773
110	0x3a88c220	0.001043383
111	0x3bc205c6	0.0059210984
112	0x39d1d1d2	0.00040019915
113	0x3c210932	0.0098288525
114	0xbb848625	-0.0040443116
115	0x3ac92bae	0.00153481
116	0x3c425c11	0.011862771
117	0xbbd06233	-0.0063593625
118	0x3b0cf915	0.002151077
119	0x38e103d5	0.0001072955
120	0x3c8e7476	0.017389517
121	0x3bc18ba6	0.00590654
122	0x3b4b37fe	0.0031008716
123	0x3c301224	0.010746513
124	0x3ba9611c	0.005169047
125	0xbb0c91c1	-0.002144918
126	0x3c0de400	0.0086603165
127	0x3a58d4e3	0.00082714687
128	0xbad947a8	-0.0016577141
129	0xbaae16c9	-0.0013281937
130	0x3c637b60	0.013884395
131	0x3b5335b1	0.0032228047
132	0xbaa0339f	-0.0012222416
133	0xbb6d7290	-0.0036231615
134	0x3b840e13	0.004029998
135	0xbbce6eb6	-0.006299819
136	0xbb2861e2	-0.0025693108
137	0xb8f5fafa	-0.000117292584
138	0xbb4840ed	-0.0030556277
139	0x3b3c443f	0.0028727201
140	0x3b76a726	0.003763625
141	0xbbee2b62	-0.007268355
142	0xbc00f8b8	-0.007871799
143	0x3a9d16b2	0.0011984913
144	0x3c2bbd6a	0.010482172
145	0x3c14bcdf	0.0090782335
146	0xbba1bf02	-0.0049361
147	0x39c61839	0.0003778355
148	0x3b4d7242	0.003134862
149	0xbbb75fdb	-0.0055961437
150	0xbb9a121c	-0.004701866
151	0x3b6966a4	0.0035614157
152	0x3b9d2491	0.004795619
153	0xbadbd5cf	-0.0016772094
154	0x3baf0eee	0.005342356
155	0xbc3325a8	-0.010934271
156	0x3a367900	0.00069607794
157	0x3bf1cd1b	0.007379187
158	0xbbfe6523	-0.0077635213
159	0x3abee770	0.0014564823
160	0x3bfc0583	0.0076910867
161	0xbb6643f3	-0.0035135716
162	0x3c81cd5e	0.015844997
163	0xbb95b82f	-0.0045690755
164	0x3b1214bf	0.0022290198
165	0x3a1904e5	0.0005837216
166	0xbbc1a368	-0.005909372
167	0x3bcab0c6	0.006185624
168	0xbbdc2691	-0.0067184647
169	0x3c5f39bb	0.013624604
170	0x3bab7656	0.0052326126
171	0xbc726ca9	-0.014796414
172	0x3b7a1af5	0.003816304
173	0x3b61fd92	0.0034483415
174	0xbb483465	-0.0030548808
175	0xbb1ce182	-0.0023938124
176	0x3c1e49fe	0.009661196
177	0xbc2c95fb	-0.010533805
178	0x3c31c6fc	0.010850664
179	0x3c11d95e	0.008901922
180	0x3c6d29c7	0.0144752925
181	0x3c4ab09d	0.012371209
182	0xbb7b205b	-0.0038318846
183	0xbc38546b	-0.011250596
184	0xbc2dafee	-0.010601027
185	0xbc394e3d	-0.011310157
186	0xbb80ed39	-0.003934529
187	0xbbe6a299	-0.007038426
188	0xbc919ae8	-0.01777406
189	0x3ac36fe9	0.0014910671
190	0x3c59ef10	0.013301626
191	0x3b1f4531	0.0024302716
192	0xbbafb841	-0.005362541
193	0xbb011fa5	-0.00197027
194	0x3b2f94d9	0.00267916
195	0x3a645df0	0.00087115075
196	0xbb720a5b	-0.0036932442
197	0x3b8c385b	0.004279179
198	0x3ba50323	0.0050357743
199	0x3b6905ea	0.0035556504
200	0x3b72b84a	0.0037036114
201	0x3c5d0d48	0.013491936
202	0xbbb53e76	-0.0055311276
203	0xbaf713a8	-0.0018850463
204	0x3b83e4b1	0.004025065
205	0x3a4473a0	0.0007494036
206	0xbb8cebe7	-0.0043005827
207	0x3b88bfb6	0.0041732443
208	0x3b7d02ea	0.0038606473
209	0xbafe3400	-0.0019394159
210	0x3ac4b503	0.0015007559
211	0xbb074d93	-0.0020645603
212	0xbbe2c00b	-0.006919866
213	0xbbc314da	-0.0059534134
214	0x3c2554a8	0.010090984
215	0xb9c6edd9	-0.00037942713
216	0xbb612995	-0.003435706
217	0xbb4a026b	-0.0030824195
218	0x3b089f87	0.0020847039
219	0xba949cc8	-0.0011338228
220	0x3c46953c	0.012120541
221	0x3c6c1969	0.014410355
222	0xbadde35b	-0.0016928719
223	0x3b72809f	0.0037002934
224	0x3adc080b	0.0016787065
225	0x3ae2126f	0.0017247925
226	0x3afcfd4b	0.0019301561
227	0xbb0e9d9f	-0.002176143
228	0x3bd3b33c	0.0064605754
229	0xbaf27564	-0.001849812
230	0xbb9cec24	-0.0047888923
231	0xbb75450e	-0.0037425193
232	0x3b5f5978	0.0034080427
233	0x3c33074b	0.010927032
234	0xbb4ac987	-0.0030942874
235	0x3b17aab6	0.0023142523
236	0x3963f51a	0.00021739714
237	0xbaa55363	-0.0012613352
238	0xba7cde77	-0.0009646187
239	0xbb0c2571	-0.0021384622
240	0x3ad7d430	0.0016466435
241	0x3b745568	0.0037282351
242	0xbaa3ddca	-0.0012502011
243	0xbb0d0fab	-0.0021524231
244	0xbc4836ab	-0.012220065
245	0x3c0abdec	0.0084681325
246	0x3aa25c47	0.001238712
247	0x3a703db6	0.0009164469
248	0xbab4bd8a	-0.0013789397
249	0x38e35c34	0.00010841378
250	0x3b30def0	0.002698835
251	0x3aec310b	0.0018019987
252	0x3b9f6887	0.0048647556
253	0xbbe61f6c	-0.0070227887
254	0x3c052101	0.0081255445
255	0x3c08e249	0.008354732

net.3.linear.bias f4 [32]
0	0x3c5d3b6e	0.013502939
1	0xbdf58a03	-0.11989214
2	0x3d515d2c	0.051114246
3	0x3de036eb	0.10947975
4	0xbe6cdd08	-0.23131192
5	0x3d893529	0.066995926
6	0xbc7ab29c	-0.015301373
7	0x3ba75dd3	0.0051076203
8	0x3e03ff69	0.128904
9	0xbc2f9562	-0.010716768
10	0xbd82b1c3	-0.063815616
11	0x3c961e3e	0.018324967
12	0x3dcf6bed	0.10128007
13	0x3e30e76a	0.17275777
14	0x3ae48b88	0.0017436603
15	0x3df201dc	0.11816761
16	0x3d7f1f0d	0.06228547
17	0xbcfb552b	-0.03068026
18	0xbdaf73df	-0.085670225
19	0xbde504b8	-0.11182541
20	0x3db291e1	0.087192304
21	0xbdfa705c	-0.12228462
22	0x3da53833	0.0806736
23	0x3e0aaafb	0.13541786
24	0xbd7abd3b	-0.06121562
25	0x3ca9f240	0.020745397
26	0x3d48e5a4	0.049047127
27	0xbd135ac9	-0.03597525
28	0xbdfc9ee3	-0.12334993
29	0x3deda9ab	0.11604627
30	0xbdbcf52c	-0.0922645
31	0xbc86e533	-0.016466713

net.4.weight f4 [4, 32]
0	0x3d876812	0.06611647
1	0x3b948f73	0.004533702
2	0xbd138243	-0.0360129
3	0x3d4d9dce	0.050199322
4	0xbd6af040	-0.057358027
5	0x3d242b62	0.040080436
6	0xbd1fe406	-0.03903582
7	0xbca15ab8	-0.019696578
8	0xbc962fb2	-0.01833329
9	0xbdc2c3bb	-0.09509989
10	0x3c65a6a5	0.014016782
11	0xbd67e7f7	-0.056617703
12	0xbd74ea72	-0.059793897
13	0x3d6b0f73	0.05738778
14	0x3cff51dd	0.031166965
15	0x3d527a73	0.051386308
16	0xbc65e6d9	-0.014032089
17	0x3cfbf2ed	0.030755484
18	0xbcda74f3	-0.026667094
19	0x3cfea5a2	0.03108484
20	0x3c88fc2f	0.016721813
21	0x3d7be73f	0.06149983
22	0xba0936cb	-0.00052343
23	0xbd9aa59c	-0.07551119
24	0x3b70e1a7	0.0036755593
25	0xbd035b37	-0.03206941
26	0xbd20dbc3	-0.03927208
27	0x392d2384	0.00016511796
28	0x3cbb2103	0.02284289
29	0x3e023a2e	0.12717506
30	0xbd7aece1	-0.06126106
31	0x3c197a5e	0.0093675535
32	0xbc0873e9	-0.008328416
33	0xbc0d62d9	-0.008629524
34	0x3d601c7c	0.054714665
35	0x3d0761d4	0.03305228
36	0x3d4915f8	0.049093217
37	0xbd0172a4	-0.03160347
38	0x3b8218e8	0.003970254
39	0x3ccc2a94	0.024922647
40	0x3b0da4c8	0.002161311
41	0x3d4380c4	0.047730222
42	0x3bed7007	0.0072460207
43	0x3d479ced	0.04873364
44	0x3d148f33	0.036269378
45	0xbcebbac0	-0.028775573
46	0x3cd87e8f	0.026427535
47	0xbcc489c2	-0.02399147
48	0x3cd1ff75	0.025634507
49	0xbb098e46	-0.0020989343
50	0x3c7a93c9	0.015294024
51	0x3c97ae83	0.01851583
52	0x3b8d7d1c	0.0043178927
53	0xbd3f513a	-0.046708323
54	0x39cf20bf	0.00039506514
55	0x3d194663	0.03742064
56	0x3b0444ca	0.0020182603
57	0x3cf43151	0.029808672
58	0x3c3df84d	0.011594844
59	0xb8e81221	-0.00011065999
60	0x3be88ee3	0.0070971115
61	0xbd24d5ff	-0.040243145
62	0x3d99bb10	0.075063825
63	0xbba4821b	-0.0050203926
64	0xbce94391	-0.028474601
65	0xbd5810ef	-0.052750524
66	0x3d6b1417	0.057392206
67	0x3c8c793d	0.017147655
68	0x3c7e1aea	0.0155093465
69	0xbc0a809e	-0.008453516
70	0xbb045129	-0.0020189977
71	0x3cdd9ee8	0.027053311
72	0x3cb1d3a5	0.021707365
73	0x3da584ee	0.08081995
74	0x3cd89a9e	0.026440915
75	0x3d57939c	0.052631006
76	0x3d06b2f5	0.03288551
77	0xbc51a45c	-0.012795534
78	0x3d05a2af	0.03262585
79	0xbd46cfd0	-0.04853803
80	0xbcedef63	-0.029044813
81	0x3c02f42f	0.007992788
82	0x3d2e7ad6	0.042597614
83	0x3d0c8faa	0.034316696
84	0xbd773df4	-0.060361817
85	0xbd2aa56e	-0.041661672
86	0x3a0cab0d	0.0005366065
87	0x3d2006c6	0.03906896
88	0xbd03da3f	-0.032190558
89	0x3ca60310	0.020265132
90	0x3d3eef7e	0.046615116
91	0xb93bd5ae	-0.00017913312
92	0xbd94d7bd	-0.07267711
93	0xbd8d249f	-0.068917505
94	0x3d9f7aef	0.077871196
95	0xbdad90f6	-0.08474915
96	0x3d4fc211	0.050722186
97	0xbde030d5	-0.10946814
98	0xbcc4dc66	-0.024030875
99	0xbdbb8efa	-0.0915813
100	0x3c266e79	0.010158175
101	0xbc023f3a	-0.007949645
102	0xbe075638	-0.13216484
103	0xbe2d4ff7	-0.16925035
104	0x3d2cb9e8	0.04216948
105	0xba8e81e1	-0.0010872447
106	0x3db98344	0.0905824
107	0xbbf884a2	-0.0075841704
108	0xbc0af491	-0.008481161
109	0xbc2b018a	-0.010437379
110	0x3d8998a0	0.06718564
111	0xbd42fa38	-0.04760191
112	0xbcf97174	-0.030449606
113	0x3c85d54f	0.016337065
114	0xbd2b61e0	-0.041841388
115	0x3dd7443e	0.10511063
116	0xbdbe7ce6	-0.09301166
117	0xba6229cb	-0.00086274435
118	0x3a91c9cb	0.0011122761
119	0x3b160c53	0.002289553
120	0xbc55c992	-0.013048546
121	0x3b95f7e1	0.0045766686
122	0x3cf91a80	0.030408144
123	0xb94d0ea6	-0.0001955578
124	0xbc36709b	-0.011135246
125	0x3d27bbf5	0.040950734
126	0xbc3ee8ed	-0.0116522135
127	0xbe04ede9	-0.1298138

net.4.bias f4 [4]
0	0x3c9f1bd3	0.019422447
1	0xbbd83254	-0.0065977965
2	0x3cce8193	0.02520827
3	0xbd3bf91d	-0.04589187
