outputs/noisy_data/chirp/1_nodes_given/15%_noise/20%_init_error/model.pt (torch, 16367 bytes, 10 tensors)

net.0.linear.weight f4 [32, 1]
00000000: cd31 493f 2fd4 d53d 406b 51bf 6b22 0c3e
00000010: f4c6 49bf 3656 0d3f 7a2f 36bf f968 2f3c
00000020: 0ac9 b1be 2d51 5f3f 0caf 00bf 966d fabe
00000030: 603f ebbe 1a60 a03e 9a6e 793f bfb4 d13e
00000040: 4005 cf3e 7ce2 13bf 9a77 cf3e 829f d5be
00000050: 8990 5a3f a15f a7be 09f6 5abd b5c1 c6be
00000060: e18d 7abc 7bcb 6b3f 4802 fc3a 260e 56bf
00000070: a96e f13e 48ce 92be 5d9a 23bf a04f 9f39
0.78591615 0.104408614 -0.81804276 0.13685004 -0.78819203 0.5520967 -0.71166193 0.01070618
-0.34723693 0.8723324 -0.502671 -0.48911732 -0.4594679 0.3132332 0.9743439 0.4095821
0.40433693 -0.5776746 0.40520936 -0.41723257 0.85376793 -0.32690147 -0.053457294 -0.38819662
-0.015292616 0.9210736 0.0019226754 -0.8361534 0.4715474 -0.28673005 -0.63907415 0.00030386169

net.0.linear.bias f4 [32]
00000000: acaf 393f 3733 70bf 8f46 13be e71e 113f
00000010: 7f6c 4c3f a985 aa3e 2525 39be 7306 3ebf
00000020: f04b 40bd d73d f13c 5069 31bd cb66 72be
00000030: 963b ecbe ec96 473f 0fce 41bf 531c 373f
00000040: a95b 383f 2e8b 123f c4f2 49bf 619d c03e
00000050: ca10 603f 49b0 2b3f b304 c63e 029e 5dbf
00000060: a22d 5b3f ecdc d7be 694f 72bf 2405 f3be
00000070: e086 663f be22 19bf b17f 203f 9e10 4dbf
0.7253368 -0.9382815 -0.14382385 0.5668778 0.7985305 0.333051 -0.18080576 -0.7422859
-0.04694742 0.029448433 -0.043313324 -0.23672025 -0.4613921 0.77964664 -0.75705045 0.71527594
0.7201486 0.5724362 -0.78886056 0.3762007 0.8752562 0.67065865 0.3867546 -0.86569226
0.85616505 -0.42160738 -0.9465242 -0.4746486 0.9004955 -0.5981864 0.6269484 -0.8010348

net.1.linear.weight f4 [32, 32]
00000000: 2472 5abb 39e4 a9bb 5125 2839 a5d7 44bc
00000010: 229a 9e3c 5fd8 17bc b53e ea3b 47a4 fa3b
00000020: e866 593b f2b7 96bc 88b2 4f3b a01b d43b
00000030: 526b 993c 52a0 47bb cee3 0bbc 026e 303c
00000040: a50c 633a 57c5 5cbb 9c4e 373c a478 063c
00000050: b521 073c 8673 04bc e128 24bc b5f2 3e3c
00000060: ec48 b3bb 233a 123c e7f1 e6bb 1b0d 1c3c
00000070: e174 e53b dd98 9cbc a966 92b9 7b46 83bc
00000080: 02d4 933a bf4f 9b3c ad30 013c 9f73 4abb
00000090: 874f b53c 0093 3ebb 07e0 d5bb 95dc 6fb9
000000a0: d92d 933c 031d fe3b 89d2 a23b f9b3 b43b
000000b0: ba0d d93c 14a4 b5bb 6057 c0ba c9b0 66bb
000000c0: eb65 aabb 0a7e 193c 7889 e7bb 904a 23bb
000000d0: d5d3 253c 74b2 6dbb aeab 8d3c dfb2 a4bb
000000e0: 6a02 e0bc d9e5 e4bb c7cf 7fba fbad fbbb
000000f0: 9315 a7bc 5dc2 cc3c 4195 133c 9460 da3a
00000100: baba a3bb 633d 3aba 6053 2ebc 9068 fabb
00000110: c548 0f3c 11b9 18bb 72d1 0fbc 9be8 ef3c
00000120: ad5e 07bc 0307 4b3c f6b6 5abb 16e6 40bc
00000130: 5df3 87ba b7bc b5bb 4af7 f73a a645 c9bb
00000140: b6ef 1cbc 7edb ec3b 6183 b73c cabf 52bc
00000150: 8f63 403b 7c86 713b 75cd 44bc 2dcb d53b
00000160: 70e0 ba3c 529c 8c3c 7712 84bb 72bc 2bbc
00000170: e375 03bb 08e6 edbb e5a8 ab3c 5e33 2ebb
00000180: 1044 25bb 77f5 d7bc cf50 1b3c 5fff 893c
00000190: 8f63 10bc 98b8 393b 9e8f adbc c4f6 323c
000001a0: ee13 aaba 71fb efbb 5b40 14bb 2fff 013c
000001b0: 104c 5f3c 64ca ad3b 48a6 f13b 66bd 9c3b
000001c0: 0ebf 323a 4948 7bba f389 133c f5c5 a0bb
000001d0: 42d1 35bc 4313 333c 84a8 9fbb a18b aabb
000001e0: a3d0 cb3c e9ab 223c 54c8 7cbc f18e 573a
000001f0: dd2e a2bc b91d 2dbc 35d3 81bb 7e7c c6bc
00000200: 15cb 6637 ed63 37bc ce44 dcbb bbd9 a8bc
00000210: 00de 9d3c 0690 a13b 8b35 a9ba 5de6 c63b
00000220: f757 37bb 2667 a63c 721e 30bc ab84 88bc
00000230: 6f12 03ba b28d 9639 bf3f 17bc f065 67ba
00000240: c051 ddba f74c f63b 3b0b a6bb dcfa 0f3c
00000250: 5108 923b 0afb 2f3a cb2c bebb cb75 bc3b
00000260: 9515 463c 1d60 ed3b 04a8 62bb 15e5 243c
00000270: 43b6 823b 156d ce3b 2ebe 073c 74e2 f73b
00000280: 572d 33bc dbef db39 40a0 02bc 997f b8bb
00000290: dcf9 c03b 121a 973a d634 1b3c 5c56 f63a
000002a0: b49e f4ba baeb 13bc 528a da3b 5ed6 58bb
000002b0: aab1 fe3b 6e00 30bc 8aae 64bc 8337 32b9
000002c0: 8ca3 0dbb 97bf 633c f7a7 38bc 546d e7bb
000002d0: 32a1 31bb 3d01 853b 92e3 76ba d55e 4d3c
000002e0: 35e9 093c f40e d43a 424d 26bb 23e8 723c
000002f0: c6e0 10bc cf0e a93b 8456 2c3c 100a 8fbb
00000300: c845 b8bb fa04 8ebb 6c3e 823b 88bc 82bb
00000310: 9a1a efbb e2f5 4a3b f08e 513b 5ce5 993c
00000320: feb4 3d3b eb61 793c 00b2 a5bc 46c0 bcbc
00000330: 0948 043a fae6 6e3c 0a05 ac3a ba4d e3ba
00000340: 746e 4d3c 49b3 823c d3eb 0e3b f684 c23b
00000350: 2dd2 aa3a 8b9f ffbb 0842 a5bc 866c e4bb
00000360: 92dc 363b c271 263a 342b 6b39 51dc 253b
00000370: 733a 6f3c 73e7 ed3a 4465 f63b 3a75 cfbc
00000380: e18b ee3b 9bf3 50b7 a594 323c 0139 40bb
00000390: 4ef2 2abc 93b9 6b3b 1ac1 60bb 2ffc dabb
000003a0: aa54 433c 2650 85ba d90f aebc fc99 853b
000003b0: 3c2e a13c daac 69bb 6ed3 beba f163 59bb
000003c0: 7fcd 583c 031b 223b 7bb1 853b b415 99bb
000003d0: 8304 2cbc 5914 56bb 3331 413c 955b 81b9
000003e0: 9942 54bc e1bb c23a 632f 7f3a 727c 5ebb
000003f0: 17ee 30bb 910e b53b 7ae5 b4bb 59aa 46bc
-0.0033332193 -0.005184677 0.0001603563 -0.012014304 0.019360606 -0.0092678955 0.0071485885 0.007648978
0.003317291 -0.018398259 0.0031692106 0.0064730197 0.018727932 -0.0030460549 -0.0085382 0.010768415
0.0008661247 -0.003368696 0.0111881755 0.008207474 0.0082477825 -0.008084184 -0.010019512 0.011654546
-0.0054713394 0.008924994 -0.00704788 0.009524609 0.0070024584 -0.01911586 -0.00027923778 -0.016024819
0.0011278393 0.018958924 0.00788514 -0.003089167 0.022132648 -0.0029079318 -0.0065269503 -0.0002287499
0.017966198 0.0077549233 0.0049689454 0.0055146185 0.026495803 -0.0055432413 -0.0014674477 -0.0035200587
-0.005200138 0.009368429 -0.007065948 -0.002491627 0.0101213055 -0.0036269696 0.017293777 -0.005026206
-0.027344901 -0.006985408 -0.0009758439 -0.007680652 -0.02039603 0.024995023 0.009007753 0.0016660863
-0.004996625 -0.0007104484 -0.010639995 -0.0076418594 0.008745377 -0.0023303668 -0.008777963 0.02928572
-0.008262319 0.012391808 -0.0033373213 -0.011773607 -0.001037221 -0.005546178 0.0018918302 -0.006142336
-0.009578636 0.007228314 0.022401514 -0.012863109 0.0029356217 0.003685384 -0.012011875 0.0065244646
0.022812098 0.017164383 -0.0040305215 -0.010481941 -0.002005928 -0.007260088 0.020954559 -0.002658091
-0.002521757 -0.026362164 0.0094797155 0.016845403 -0.008812799 0.0028338786 -0.021186646 0.010923091
-0.001297591 -0.0073236753 -0.0022621367 0.007934376 0.013628975 0.005303668 0.0073745586 0.0047833202
0.00068186305 -0.00095856615 0.009005058 -0.004906411 -0.011097254 0.010929885 -0.0048723835 -0.0052046333
0.02487976 0.009928682 -0.015428621 0.0008222899 -0.019797737 -0.010566168 -0.0039619454 -0.024229284
1.3756352e-05 -0.011193258 -0.0067220693 -0.020611634 0.019270897 0.004930499 -0.0012909634 0.006069942
-0.0027976015 0.020312857 -0.010749446 -0.016664824 -0.0005 0.000287158 -0.009231507 -0.00088271406
-0.0016885325 0.007516499 -0.0050672567 0.008787837 0.004456558 0.0006713128 -0.0058036796 0.0057513467
0.0120901065 0.0072441236 -0.0034585008 0.010064383 0.0039890124 0.0062996247 0.008285088 0.007564837
-0.010936103 0.0004194964 -0.007972777 -0.005630445 0.0058891606 0.0011528155 0.009473046 0.0018794048
-0.001866302 -0.00902837 0.006669321 -0.0033086757 0.007772644 -0.01074229 -0.013957629 -0.00016996083
-0.0021612374 0.013900659 -0.011270515 -0.0070625935 -0.0027104137 0.0040589855 -0.0009418066 0.012534817
0.008417417 0.0016178773 -0.002537564 0.0148258535 -0.008842653 0.005159236 0.010518674 -0.004365213
-0.005623553 -0.0043340893 0.0039747264 -0.00398976 -0.0072968723 0.0030969311 0.0031976067 0.018786125
0.002894699 0.015221099 -0.020226479 -0.023040902 0.00050461345 0.014581436 0.001312406 -0.001734189
0.012538541 0.01595463 0.0021808043 0.0059362603 0.0013032608 -0.0078010014 -0.020173088 -0.006970945
0.0027902466 0.00063493487 0.00022427441 0.002530832 0.014601338 0.0018150642 0.007519396 -0.025324453
0.0072798585 -1.2454485e-05 0.010899697 -0.0029330852 -0.0104337465 0.0035968765 -0.0034294785 -0.0066828947
0.011922041 -0.0010170981 -0.021247791 0.0040771943 0.019675367 -0.0035656006 -0.001455886 -0.0033171142
0.013232588 0.0024735339 0.004079995 -0.0046717767 -0.010499123 -0.0032665937 0.011791515 -0.0002467303
-0.012955331 0.0014857018 0.0009734539 -0.0033948687 -0.0026997381 0.005525418 -0.00552052 -0.012125575

net.1.linear.bias f4 [32]
00000000: 2ca9 36be f493 253e c902 54bd e834 fd3d
00000010: dabc 8a3b cd11 dc3d 2820 3dbe 91fa 3bbc
00000020: 363a f9bd 867c 1b3e e574 4abb 4fd6 3ebd
00000030: 6f56 efbd 0dce 0ebe 08c6 22be 9394 033d
00000040: 21c8 d1bd 616e cbbd e091 ebbd 5de9 f5bd
00000050: 2f31 cbbd 9248 cabd db62 ddbd f18e 09bd
00000060: ad67 e13d 8a2f f8bd 74f3 083e 1b69 0a3e
00000070: af69 bebd c306 0cbd 1c0e 2fbd 2fc2 5cbd
-0.17837971 0.16169721 -0.05176047 0.12363607 0.0042339386 0.10745583 -0.18469298 -0.011473314
-0.12169306 0.1518422 -0.0030892428 -0.0465911 -0.11686408 -0.1394579 -0.15895855 0.032124113
-0.1024325 -0.099331625 -0.11502433 -0.12007401 -0.099214904 -0.09877123 -0.10809871 -0.033583585
0.11006103 -0.12118442 0.1337412 0.13516657 -0.09297501 -0.034186136 -0.042738065 -0.053896125

net.2.linear.weight f4 [32, 32]
00000000: 5f00 f6bb ea22 553c aafe 61ba 69ca 973c
00000010: 193b 02bc 509e 1db7 9c3f 74bc 3fdc bc3c
00000020: c800 34bb 0e46 61bc ae9f b33b b834 a53b
00000030: aa94 753c 7cc4 023b 17bf 2ebc cd8d ba3b
00000040: 7bd8 0a3c 5c0e 4a3c 543e 893c 0ab1 0ebc
00000050: e3ae 163c c4a0 81bc 43ad 84bb 65a9 133c
00000060: 6938 f33b b393 0c3a 439f 3abc 91cc d93b
00000070: 2146 4d3a c7ce 04ba 2683 833b 1ee4 f83b
00000080: e4ee 4f3c 22fd 1239 ce28 26ba 6074 40bc
00000090: b45e 4c3c a67e e83b a6f0 f6bb 8b5b b33b
000000a0: 0128 753b bdcc b13b 8832 80bb 6e2c 32b9
000000b0: a4cf 523b a382 18bb b3b4 c5bb 4d95 37bc
000000c0: 4b5a f03b 1037 043c 37f1 9dbc b200 2eba
000000d0: 2658 a9bb 1bf2 40bc 3c13 92bb dee2 b73b
000000e0: 2ccf 67bc d848 8cbc 93cb 18ba 909a 1a3c
000000f0: 726e d43b ba62 b5b9 cee2 d4bb 1d87 933b
00000100: 8d64 023c b42d 993b f0bc 57bb 772e 723c
00000110: 19a1 223c dc34 e9bb 0837 73ba 261c 41ba
00000120: 0853 5dbc a1a1 8e3c 1c13 02bc 3d09 cebb
00000130: 36ce a13a 48af b7bb 4541 f73b c584 593c
00000140: 2a36 82b9 7a6b b8bb 5acb 88bc 0ada a53c
00000150: d9d3 b53b a3be c139 364c 313c 0bb6 223b
00000160: 0e6c 92bb f1c6 6b3b 054e fc3b 7abf 183c
00000170: e3c0 683b 3ce3 74bc f9a9 81bc 08ef 0b3c
00000180: 23a8 48bc 5f14 bd3b 077a a93b c7d4 cb3b
00000190: 2bad e63a e296 ccbb 6b8b 0c3c 34bb c5bb
000001a0: d61a 433c 12b7 52ba 0380 f539 3f47 74bb
000001b0: 665f b3bb 37e0 723c 18d0 23bb 1a4c 65bc
000001c0: c27b f43b 1559 06bc 1ce6 cfbb e206 ce3b
000001d0: 8563 83bc e9cc 833c ec9f f83a 056f 28bc
000001e0: e85d 9dbb 4a80 2dbc ccee 943b 1f68 173c
000001f0: 6c94 c23c 6e2f a5ba 2ca1 32bc ecef c6bb
00000200: 0be8 c63b 92ea 1fbc 6f3a 21bb b508 aebb
00000210: 0686 0cbc 4310 00bc 8d91 b4bc 5817 133c
00000220: 14ba 7d3c 0630 4fbc 58a3 cbba 93f2 2fbb
00000230: 5beb 8f3b fded 943b 3851 b1ba 6874 a83c
00000240: 49fe 57bc 2dbd 463c f095 923b 6775 2b3c
00000250: bf26 923b 6b41 163c 8755 94ba 2f49 a1bc
00000260: c1b1 dcbb ea30 1a3b 2e7b 8e3a 0ee7 933b
00000270: 7dfa d1ba bf8e 15bb 01fb 5f3b 1b66 a4bc
00000280: 2e6e 013c 9d1a edba b5a6 a4bc 3db7 25bc
00000290: 5c40 2cbb 6111 a43b e9d7 243a 1315 3a3c
000002a0: 2847 103c 7a0f 0ebc 392f 29bc 907d 9bbc
000002b0: 3f58 2c3b 540d 90ba ee54 933a 6dab 69ba
000002c0: 3a8c 21bc 58ff 493c b657 79bb 0352 be3b
000002d0: de00 88bc b349 2fbb f7c5 c1bb 5acc 2ebc
000002e0: 48ce 293c 40c8 643c a877 ec3b 593d 84bc
000002f0: b842 c9bb 0e6f 2dbc 3eb1 a3ba 8a98 7f3a
00000300: 939a 24bc 89f2 3b3c 9a3f 913b dc95 dfba
00000310: 03b9 02bc 2e69 84ba 3971 19bc 6f18 7e3c
00000320: 989e ec3a 1ff6 b03c 24f1 fdb9 d6f4 553c
00000330: 8af6 2abc ed58 2abc df50 61bb cc2a e2bc
00000340: a31c 68bc adb4 63bb 04f1 643b d204 cfb9
00000350: 0c95 8cbc 851c 2bbc abe6 4abb 0e18 673c
00000360: 9fd4 84bb 9274 a53c d23f 24bb c05c 1c3b
00000370: 5a80 4cbc 4953 973c e217 9dbb ccac a33c
00000380: 9d94 29bb a1fd 86ba 9a9d fabb 59d0 253c
00000390: d119 b63b d8b0 85bc 9482 0b3c 4388 843c
000003a0: 5175 583b 0066 f3bb c023 ec3b c89c 22bb
000003b0: c2de 983a ae12 243b 4e59 0e3c 4b9f 113c
000003c0: b2c1 1dbc 56e9 30bc 816a f83a f843 373a
000003d0: 7064 abb9 0209 8dbc 3415 bdbc 1126 97bb
000003e0: ccf5 edb9 51f4 4bbb bba1 1bbb b81a ea3b
000003f0: 9da2 fcba 097d a83b 5fb2 833b f57b 7e3a
-0.0075073685 0.013008812 -0.0008621017 0.018529134 -0.00794866 -9.394789e-06 -0.014907744 0.02305424
-0.0027466286 -0.0137496125 0.005481682 0.005041685 0.014989058 0.001995354 -0.010665677 0.0056931735
0.0084744645 0.012332525 0.016753353 -0.008709202 0.00919697 -0.01582373 -0.0040489747 0.009012555
0.007422496 0.0005362585 -0.01139051 0.0066467007 0.00078305794 -0.00050662126 0.004013437 0.007595553
0.012691233 0.00014017944 -0.0006338478 -0.011746496 0.012473751 0.007095176 -0.0075360117 0.0054735593
0.0037407877 0.005426018 -0.003912274 -0.00016991954 0.003216722 -0.0023271225 -0.006033504 -0.01120503
0.0073349825 0.008069769 -0.01928006 -0.0006637677 -0.005167979 -0.011776472 -0.0044578593 0.0056117615
-0.014148515 -0.017124578 -0.0005828675 0.009436265 0.0064828927 -0.00034596567 -0.006496764 0.0045021907
0.0079585435 0.0046746377 -0.0032919012 0.014781586 0.009926104 -0.007116897 -0.00092779147 -0.000736656
-0.013508566 0.017411055 -0.007939126 -0.0062877224 0.0012344781 -0.005605612 0.0075456225 0.013276284
-0.00024835888 -0.0056280466 -0.016698528 0.02024557 0.005548936 0.00036953864 0.010821393 0.0024827744
-0.0044684475 0.0035976733 0.0076997303 0.009322995 0.003551536 -0.014946755 -0.01582812 0.008540876
-0.012247118 0.0057702507 0.0051720175 0.0062204334 0.0017599215 -0.0062435726 0.008578162 -0.0060342792
0.011908254 -0.0008038144 0.00046825418 -0.0037273911 -0.005474019 0.014823965 -0.002499586 -0.013995195
0.007461042 -0.00819995 -0.00634457 0.0062874416 -0.016038666 0.01608892 0.0018968559 -0.010280375
-0.0048024543 -0.0105896685 0.0045450684 0.009241133 0.023752414 -0.0012602636 -0.010902684 -0.0060710814
0.006070142 -0.009760516 -0.002460148 -0.0053110966 -0.008576876 -0.007816377 -0.02204206 0.008977734
0.015486259 -0.012645727 -0.0015536351 -0.0026847466 0.00439207 0.004544972 -0.0013528233 0.02056332
-0.013183185 0.012130064 0.0044734403 0.010465003 0.0044601853 0.00917087 -0.0011316993 -0.019688217
-0.006735057 0.002352769 0.0010870451 0.004513628 -0.0016020086 -0.002282068 0.003417671 -0.020068219
0.007899804 -0.0018089596 -0.020099023 -0.010114488 -0.0026283478 0.0050069545 0.00062882766 0.011357564
0.0088060275 -0.008670682 -0.0103262 -0.018980771 0.0026297716 -0.00109903 0.0011240521 -0.0008913789
-0.009860093 0.012328945 -0.0038046665 0.0058081164 -0.016601976 -0.002674681 -0.005913492 -0.010668838
0.010364123 0.013963759 0.0072164126 -0.016142534 -0.0061419867 -0.0105855595 -0.0012488735 0.0009750208
-0.010046619 0.011471399 0.0044326307 -0.0017058211 -0.007978681 -0.0010102147 -0.009365373 0.015508755
0.0018052636 0.021601735 -0.00048435584 0.013058862 -0.010434756 -0.010397178 -0.0034380478 -0.027608298
-0.014166984 -0.0034745142 0.0034933696 -0.00039485708 -0.017160915 -0.010443811 -0.0030960243 0.014104856
-0.0040536667 0.020197187 -0.0025062454 0.0023858994 -0.012481773 0.01847233 -0.004794107 0.019979857
-0.0025875934 -0.0010298976 -0.007648182 0.010120475 0.005557277 -0.016319677 0.008515019 0.016178256
0.003302891 -0.007427931 0.00720641 -0.0024812687 0.0011663067 0.0025035548 0.008688284 0.008888076
-0.0096287 -0.010797819 0.0018952639 0.0006991024 -0.00032690493 -0.01721621 -0.0230814 -0.004612692
-0.00045387296 -0.0031120966 -0.0023747522 0.0071442984 -0.0019274537 0.0051418585 0.004019066 0.0009707802

net.2.linear.bias f4 [32]
00000000: 29d4 b63b 2a88 26bd af66 153e 3667 05be
00000010: 6da4 ebbd 0b7e a43d 3631 b8bd c5aa 1a3e
00000020: b132 34bd 37b3 bfbd 3add 09be 94bf 533d
00000030: b112 7e3d b23b 1e3e 805d 0fbe 0a5d bc3d
00000040: f608 233e 49fd 233e 75c2 3c3e 0f10 77bd
00000050: f2ec 7c3d a69c 67bd 4049 1cbc fd8b 33be
00000060: e597 b63c a2aa 06be bcef 1b3e 3340 f53d
00000070: 4120 12be a573 b43d 4038 8cbd 36a9 8bbd
0.0055794907 -0.0406572 0.14589952 -0.13027653 -0.11505971 0.08031853 -0.08993761 0.15104206
-0.043993656 -0.093603544 -0.13463297 0.051696375 0.062029544 0.1545246 -0.14000511 0.09197433
0.15921387 0.1601459 0.18433554 -0.06031805 0.061749406 -0.056545876 -0.009538949 -0.1753387
0.022289226 -0.13151029 0.1522817 0.11975136 -0.14270116 0.0881112 -0.06846666 -0.06819384

net.3.linear.weight f4 [32, 32]
00000000: 078f 9d3c aae5 26ba 979b f6ba 28a6 973b
00000010: 5884 76bb 3ece 933b c28a 053c 4238 023c
00000020: 7207 873a f2f8 2ebc 406d 183c c02a cdb9
00000030: e54b 9ebb 00eb 82bc 57f2 e43a 33f7 debb
00000040: 0697 a63b bf34 cdba 41d0 193b 70b2 9bbb
00000050: 3258 0cbc d04a c1bc 7ec7 18bc 21ad 4f3b
00000060: fe10 4abc 4185 6abc 5586 9cbb f165 88bb
00000070: 1d48 7ab6 e771 0a3a d208 7dbb 53af 513b
00000080: 9b11 c03b 2e12 50bc 5edc 06bc 779f c239
00000090: bf31 54ba 2286 703b 3526 c9bb 031f c23b
000000a0: cc97 2dbc ca87 bd3b 6775 dfbb 7cca e3bc
000000b0: 2e04 55bc 58d6 b9ba e74e 9dbc 2c33 423c
000000c0: 81b2 bb3a c5b6 873b 4119 f23a 9aea 4cbc
000000d0: 7da4 313c 9ada b93b d4fb 943a 02d4 4fbc
000000e0: 6838 fc3b 9c06 8abb 5f71 033c 7b6f c63c
000000f0: a81c 81bb 8c58 a1bc 324f 0bbb 1a67 513c
00000100: 833a 75bc a1b0 5c3c 0b8e 583c 06f6 ae39
00000110: 8968 a0bb 06e7 f53b a8f7 18bc 4bff 943c
00000120: 38c0 ee3a 01c7 023c d3df 5abc 36c6 24bc
00000130: 6d67 2f3a 0917 f5ba 54a2 f23b d305 19ba
00000140: ca30 e53c e4fd 4e3c 6b33 4fbb d48b 163a
00000150: ab2c b2bc fe06 9cba aded 0ebc f6f7 0d3b
00000160: 3b77 063c da30 f138 7273 763c fd4c 843c
00000170: 18d1 9ebc fc9e 1cbc 4deb 403c f225 25bb
00000180: bf18 063c 1878 b13c 14ed 8c3b 5a37 04bc
00000190: 933b 093c c1da d9bb 840c 4ebc 7b9f 3bbc
000001a0: a144 2d3c b437 94bc b457 b2bb a00d 14bc
000001b0: 8e01 bc3b ea4a 1dbc 5116 bb3c 9436 eb3b
000001c0: a654 563c 0856 5b3a 860e bb3c c358 85bb
000001d0: ee6b 4a3c c122 613c a657 8e3b b7fc 8bbb
000001e0: 422e 253c e218 dcbb 73bc 0cbc a759 383c
000001f0: 4629 ffba 6511 2e3c 393f e9bb b350 66bc
00000200: 3810 08bb f9c5 983c c853 c53a ab7e 0abc
00000210: e2db 90ba 1b54 ffbb c3b2 ee3b c67a ae3c
00000220: a073 913b 16e8 6c3b 29b4 ca3b 10ac 7cbb
00000230: 9b86 e83a b6b0 82ba f67d f63b 2f85 75bc
00000240: 3a42 44bc f4c2 eb3b 93f8 5c3c b485 b7b9
00000250: 2927 fa3b 6d22 873c a6bb f73b d2e3 133c
00000260: 7fcd 1fbc c436 f73b 5241 1ebc a844 c9bb
00000270: 865c b33b 0ace 45bc 9ab8 87bc 8564 c2bb
00000280: 21af 22bc 5b3d fe3c 6e67 a33c 4d1f d53a
00000290: df61 3d3b 4533 3d3b b046 f0bb 47ed 613c
000002a0: 420d 66bc 5bef a1bb 553c c2bc a4be b2bb
000002b0: 8e2c b1bc 47ef 3a3c 8046 bdba 40b0 88bb
000002c0: baac 9c3c 3239 feb9 4bb8 f63b 93e2 06bc
000002d0: 29f9 d5bb d66c f03b 32c8 9ebb dbf0 02bc
000002e0: 5ccc 42bc 2211 aebc 0b02 2c3c 95b4 36bc
000002f0: 0d5d 50bb 44c8 3c3c d119 8abb c7ac 2b3b
00000300: 8336 6cbb d4b4 13bc 3514 56ba e490 29bc
00000310: eec5 cbbb cf8a 36bb c2ba 08bb a3fa 7dbc
00000320: 03ce 713a 5098 e03b 1a3f 283c c935 813b
00000330: b717 5a3b 3f79 4f3c 585d 26bc a02d 2cbc
00000340: 212e f63b 0a43 943c 2e2e 4ebc 5034 e1bb
00000350: 7d12 a1ba 32d7 84bc bc00 2f3c ef3e 623c
00000360: 07c5 b73c 5f96 5d3c be6e 10bc bdd2 abbc
00000370: a2be 9a3b 416c 0bbc e0dc 293c b652 1abc
00000380: 17a3 c1bc 8d83 65bb e63f 9739 6bdf 713c
00000390: 87c4 a2ba 1d78 b1bb 81bb a63c 8c6d 2fbc
000003a0: 8215 96b7 b2f9 02bc fdcb dd3b 77a4 a43b
000003b0: 4d8d d8bb fa1a beba 55d5 d2bb 7d33 3abc
000003c0: 2114 82bb a000 8b3c d495 f9bb 1b9f b6bb
000003d0: fa88 88bb 9332 023b 3c22 5b3c 0970 92bc
000003e0: a21d 273c 8ca3 b2bc 7b07 0eba 2fdf c03b
000003f0: 6723 b93b 9878 e03b 3c66 c83a 7b56 0d3c
0.01923324 -0.000636662 -0.001881468 0.0046279617 -0.0037615504 0.00451067 0.008150758 0.007947983
0.0010301901 -0.01067947 0.009303391 -0.00039132498 -0.0048308247 -0.015981197 0.0017467242 -0.006804371
0.0050839214 -0.0015655978 0.0023470076 -0.004751496 -0.008565949 -0.023595244 -0.009324906 0.0031688886
-0.012333153 -0.014313997 -0.004776756 -0.004162543 -3.7294878e-06 0.0005281255 -0.0038609994 0.003199537
0.0058614737 -0.012699647 -0.008231251 0.00037121374 -0.0008094571 0.0036701043 -0.006138588 0.005924107
-0.010595273 0.0057840096 -0.0068194154 -0.027806513 -0.013001485 -0.0014178259 -0.019202663 0.011853021
0.0014320166 0.004141661 0.0018470661 -0.012507105 0.01084244 0.0056718113 0.0011366555 -0.012684824
0.007697154 -0.0042122137 0.008022635 0.02422308 -0.0039401837 -0.019695543 -0.002125692 0.012780929
-0.014967564 0.013469846 0.013217459 0.00033371168 -0.004895274 0.007504347 -0.00933639 0.01818814
0.0018215245 0.007982017 -0.013359028 -0.010057023 0.0006691132 -0.0018698882 0.007404605 -0.00058373547
0.027977366 0.012633774 -0.003161634 0.0005742882 -0.021749815 -0.0011903939 -0.0087236585 0.0021662689
0.008207138 0.00011500875 0.015042173 0.016149992 -0.019386813 -0.009559389 0.01177485 -0.002519962
0.008184611 0.02166371 0.004300723 -0.0080698375 0.00837602 -0.006648392 -0.012576226 -0.011451597
0.010575444 -0.018092968 -0.005442584 -0.009036452 0.00573749 -0.00960038 0.02283779 0.007178137
0.013081705 0.00083670067 0.022834074 -0.004069419 0.012354834 0.013741196 0.0043439446 -0.0042720693
0.0100818295 -0.0067168334 -0.008589852 0.011251844 -0.0019467256 0.010624264 -0.0071181324 -0.014057326
-0.002076162 0.018649088 0.0015054876 -0.008453052 -0.0011051858 -0.0077920086 0.0072844937 0.021298777
0.0044388324 0.0036149076 0.0061860275 -0.0038554706 0.0017740311 -0.0009970877 0.00752234 -0.014985367
-0.01197868 0.007194871 0.013486999 -0.00035004097 0.007634063 0.016495908 0.0075602112 0.009026485
-0.009753584 0.0075443704 -0.009659128 -0.0061422177 0.005473676 -0.012073049 -0.016567517 -0.005932393
-0.009929449 0.031035116 0.01994678 0.0016259939 0.0028897447 0.002886967 -0.0073326454 0.0137894815
-0.014041247 -0.0049418635 -0.02371041 -0.005454855 -0.02162769 0.011409587 -0.0014440566 -0.0041714013
0.019125331 -0.0004848927 0.0075292937 -0.00823273 -0.0065299463 0.007337193 -0.0048456425 -0.007991995
-0.011889543 -0.021248404 0.010498534 -0.011151453 -0.0031793744 0.011522356 -0.0042145033 0.0026195513
-0.0036043234 -0.009015281 -0.0008166463 -0.010349486 -0.0062186634 -0.0027853732 -0.002086327 -0.015501651
0.00092241185 0.0068540946 0.010268951 0.0039431793 0.0033278295 0.012663185 -0.010154091 -0.010508925
0.007512823 0.018098373 -0.012584252 -0.006872691 -0.0012288835 -0.016215894 0.010681327 0.01380895
0.022432817 0.013524621 -0.0088154655 -0.020974511 0.0047224322 -0.008509696 0.010367602 -0.009419134
-0.023637338 -0.0035021037 0.00028848572 0.01476274 -0.0012418189 -0.00541593 0.02035308 -0.01070727
-1.7891409e-05 -0.007994102 0.006768702 0.0050244885 -0.0066086412 -0.0014503889 -0.0064341226 -0.011364815
-0.0039696847 0.016968071 -0.007616738 -0.005573166 -0.0041667195 0.001986657 0.013374861 -0.017875688
0.010199936 -0.0218065 -0.0005417985 0.0058859806 0.0056499722 0.0068503134 0.0015289257 0.008626576

net.3.linear.bias f4 [32]
00000000: 90b3 d83d bfd2 e3bc cdc5 bbbd 3a58 a93d
00000010: 2d6b c2bd abde 093b d055 c1bd 2d1c c3bd
00000020: 6b73 d23d 7962 0a3c 4ebc 38be f655 c23d
00000030: bd7b 7f3d f1d8 453b 121b 473b 265c da3d
00000040: 3818 903c d12b 0cbd e311 60bc 8575 92bd
00000050: e6b9 d53c ac26 5e3d f2bd 953d 23a5 bc3d
00000060: d224 2f3e c3f0 0ebe 7d24 88bd 73ec b63d
00000070: 59a4 acbd ec73 ec3c 5184 2f3d 5d89 2d3e
0.10581124 -0.027810453 -0.09168587 0.08268781 -0.094930984 0.0021037261 -0.094401956 -0.095268585
0.102759205 0.008446329 -0.18040583 0.09489052 0.062373865 0.0030189122 0.0030381125 0.10662107
0.017589673 -0.034221474 -0.0136761395 -0.07151321 0.02608962 0.0542361 0.0731162 0.09211185
0.1710389 -0.13959031 -0.066475846 0.08931818 -0.08429784 0.02886387 0.042850796 0.16946931

net.4.weight f4 [4, 32]
00000000: 8cf7 3b3d afb4 aabd ad98 b23c 1abd 5b39
00000010: aa5c 8d3d 8923 74bd dde5 2dbd a000 ecbc
00000020: 5a18 a53b 5b30 ccbc 3f1f ebbc 5bdb c3bc
00000030: 7449 543d ff76 43bd 1a40 233d 8e9c 2b3d
00000040: 65bf a13c fb79 92bd 8fa1 57bd ecbb 143d
00000050: b7bb 943d 7a88 f7bb 1ee2 353c 0e41 efbc
00000060: fe5c 983d 8bc6 f13b cc6e 91bd 425d b23c
00000070: 0cf0 64bd 8784 8cbd e8aa ec3c 02f7 c23b
00000080: 03db 9dbd 5a42 303d fab7 8abd 4853 013e
00000090: d5b8 b03d 488d 673d 320f c8bc aafc 883d
000000a0: 9d78 e8bb e651 963d 9f97 603c 38b4 20bd
000000b0: 7774 83bd 7643 bebd 86ff 5fbd 219b 5c3d
000000c0: fbd0 acbd e2d8 ab3c 3d45 8f3d 424e f33d
000000d0: b8a4 a3bc d518 34bc b08a bfbc 8ee2 303d
000000e0: 05a3 a9bc b2a8 8abd 39e8 a1bc 570a 583d
000000f0: 2f98 afbc 247d a7bd 47f9 53bd 8b7e a7bd
00000100: bcca cc3c 9a12 7a3c 5ab3 023d 8b49 bdbc
00000110: dc3b bebd 3269 82bc 72db 54bd 4b87 4abd
00000120: 4e4e bc3c 419f 9fbd 4880 b2bc 76ba c23d
00000130: 1642 923c 8eb1 053d 676d fbbc 8ca3 de3c
00000140: 132f 543d ac80 59bc 5783 54bb 2069 e2bb
00000150: 5617 32bd aa6c 923d c925 7e3d 3102 ca3c
00000160: 3c2f 09bd ed00 373d eec2 8e3c 10a9 39bd
00000170: c8a8 f1bc 69bd 773d 42ba 723d 524a 70bc
00000180: b7f9 903d c63a 9abc ec32 e73c f8c4 b83c
00000190: fc8a b33d a28b a0bd 0d1a 9dbc 5e3a 9bbd
000001a0: d30c 1ebe 74fe 08bc d8f9 b4bd 6136 65bc
000001b0: c4b1 9b3d 7ff2 d1bc bad9 3d3d 4155 e4bb
000001c0: 23fc ddbc 7c77 ce3c ae9a 92bd 90e3 843d
000001d0: cf84 6a3d b0f1 b23d 2653 b53d 0350 13be
000001e0: 458e a43d 2169 023d 8641 0d3c cc9a 8a3d
000001f0: f288 98bd 4bc7 a9bd 7d3f 9b3d a079 543d
0.045890376 -0.08335244 0.021801317 0.00020955913 0.0690244 -0.0596042 -0.042455543 -0.028808892
0.0050383033 -0.024925401 -0.028701423 -0.023908308 0.051827863 -0.047720905 0.039856054 0.04189735
0.019744584 -0.07152172 -0.05264431 0.03631203 0.07262366 -0.007554111 0.011101274 -0.029205825
0.07439612 0.0073784045 -0.07101211 0.021772984 -0.05589299 -0.06861215 0.028890088 0.005949856
-0.07707789 0.043032028 -0.06773372 0.12629426 0.08629004 0.05653122 -0.024421308 0.06688817
-0.0070944563 0.0733984 0.013708024 -0.03923437 -0.06418698 -0.09290211 -0.054687046 0.05385888
-0.08438297 0.020977441 0.06995628 0.11880161 -0.019976005 -0.010992249 -0.023381561 0.04318481
-0.020707617 -0.06770457 -0.019764053 0.052744236 -0.021434871 -0.081781656 -0.0517514 -0.08178433
0.024999015 0.015263224 0.031909324 -0.023106357 -0.09288761 -0.015919302 -0.05196709 -0.04944543
0.022986557 -0.07794047 -0.021789685 0.09508221 0.017853778 0.032640032 -0.030691816 0.027177595
0.051802706 -0.013275307 -0.0032426917 -0.0069095045 -0.043479286 0.07149632 0.062047753 0.024659248
-0.03349231 0.044678617 0.017426934 -0.045327246 -0.029499426 0.06048337 0.05925966 -0.014666157
0.07078879 -0.018826853 0.028222524 0.02255486 0.087667435 -0.07839133 -0.019177461 -0.07579492
-0.1543458 -0.008361448 -0.088367164 -0.013990016 0.076022655 -0.025628326 0.04635022 -0.006968171
-0.027097767 0.025203459 -0.07158409 0.064887166 0.057255562 0.087375045 0.0885375 -0.14385991
0.08034948 0.03183854 0.008621579 0.067678064 -0.07447995 -0.08289965 0.07580469 0.051873803

net.4.bias f4 [4]
00000000: 3a2c 07be 9f39 7a3b 370a 04be 703c 22bd
-0.13200465 0.0038181318 -0.12894522 -0.03960842
