FE-PINN1/1_nodes_given/5%_noise/30%_init_error/model.pt (torch, 16796 bytes, 10 tensors)

net.0.linear.weight f4 [32, 1]
0	0xbf5376e0	-0.82603264
1	0xbde1bd97	-0.110224895
2	0x3f6b4928	0.919085
3	0xbf6254fd	-0.8841093
4	0xbee92775	-0.45537916
5	0x3f7acaec	0.97965884
6	0x3d00df7c	0.03146313
7	0x3f5c82af	0.8613691
8	0x3ed10059	0.40820578
9	0xbf4dd0ee	-0.80396926
10	0x3e272a01	0.16324617
11	0xbf626472	-0.8843452
12	0xbf444834	-0.76672673
13	0x3d7bca65	0.061472315
14	0x3f489d44	0.7836497
15	0xbe8abf6e	-0.27099174
16	0xbecfec52	-0.40609986
17	0xbdeb4e30	-0.114895225
18	0xbf2f045b	-0.6836602
19	0x3f53aa9f	0.8268222
20	0x3e8076d5	0.25090662
21	0x3f18e171	0.59718996
22	0x3f267776	0.6502603
23	0x3f3efbdc	0.74603057
24	0xbf37a587	-0.7173695
25	0xbe503291	-0.2033179
26	0x3e95a008	0.29223657
27	0x3f1df056	0.6169485
28	0xbd3baa5c	-0.045816764
29	0xbf7b34e6	-0.9812759
30	0xbf079534	-0.5296204
31	0xbe89ed9b	-0.2693909

net.0.linear.bias f4 [32]
0	0x3f5d600c	0.8647468
1	0x3f720f6f	0.945548
2	0xbf2e69ba	-0.68130076
3	0xbf322420	-0.6958637
4	0xbe2e8f26	-0.17046794
5	0xbe7f9f2e	-0.24963066
6	0x3eaf3540	0.34220314
7	0x3f32de01	0.6987
8	0xbe988518	-0.29789042
9	0xbf27da8c	-0.6556785
10	0x3f1809e2	0.5939008
11	0x3f79bd8c	0.9755485
12	0xbeceab59	-0.40365103
13	0xbe851dd6	-0.25999326
14	0xbf76cdfa	-0.96408045
15	0xbc3ec2ed	-0.011643154
16	0xbf186887	-0.59534496
17	0xbf30eda8	-0.69112635
18	0x3f3bb7a8	0.7332711
19	0x3ee8ae94	0.45445693
20	0xbf4c9874	-0.79920125
21	0xbd4069e3	-0.04697598
22	0x3eda01a5	0.4257938
23	0x3b8cef41	0.004300982
24	0xbf0206fc	-0.5079191
25	0x3f780d68	0.96895456
26	0xbea08c4b	-0.31357035
27	0xbf0ccd24	-0.5500052
28	0xbf15f4e1	-0.5857678
29	0x3f797c7a	0.9745556
30	0x3dc2c768	0.0951069
31	0x3e324bf7	0.17411791

net.1.linear.weight f4 [32, 32]
0	0x3b9035d5	0.0044009485
1	0x3c8b2835	0.016986946
2	0xbb44f449	-0.0030052832
3	0x3b253aa0	0.0025211945
4	0x3c258f5f	0.010104983
5	0xbbf2961d	-0.007403149
6	0xbc09e7ec	-0.008417111
7	0xbc2f57d2	-0.01070209
8	0x3c47fdc3	0.012206498
9	0xbc075583	-0.008260134
10	0x3c5e7046	0.013576573
11	0xbc0a706e	-0.008449657
12	0x3b9c4dcd	0.0047700168
13	0x3c289c87	0.010291225
14	0x3c0ed888	0.008718617
15	0xbbc216db	-0.0059231347
16	0x3cb7a467	0.02241726
17	0x3b0a7d5c	0.002113185
18	0x3bc5c8de	0.006035908
19	0xbb183664	-0.0023225779
20	0x3c3b6755	0.0114382105
21	0x3c23abcf	0.009989693
22	0xbb2d4acf	-0.0026442294
23	0x3bfe5442	0.007761509
24	0x3b0da66e	0.0021614092
25	0x3bfb1121	0.007661954
26	0x3af16d11	0.0018419345
27	0x3c212549	0.00983555
28	0x3a01f4e2	0.000495745
29	0xbac02d86	-0.0014662005
30	0xbc8bcc3e	-0.017065164
31	0x3bec745b	0.007216019
32	0xbbd0706c	-0.006361058
33	0xbbc76229	-0.0060846996
34	0xbbf0770f	-0.0073384116
35	0x3bc47c43	0.0059962585
36	0xbc478586	-0.012177831
37	0x3c05919a	0.00815239
38	0xbc1afd2f	-0.009459778
39	0xbb10e4f9	-0.0022109135
40	0x3bbbd3f4	0.005732054
41	0x3add2f0f	0.0016874986
42	0xbc34377e	-0.0109995585
43	0xbbf4d526	-0.0074716983
44	0x3c338892	0.010957854
45	0x3cab4add	0.020909721
46	0xbb041b1a	-0.0020157755
47	0xbc1c92f4	-0.009556521
48	0xbcab4738	-0.020907983
49	0x3cababba	0.020955909
50	0x3c87b8f7	0.01656769
51	0xbc0dae25	-0.008647476
52	0xbae1cc80	-0.0017227083
53	0x3c0e7b50	0.008696392
54	0xbc69dde9	-0.014274099
55	0xbc8ab79f	-0.01693326
56	0x3c150733	0.009095955
57	0x3c97596f	0.018475262
58	0x3b6140aa	0.0034370818
59	0x3914bb98	0.00014184264
60	0xbc8dc680	-0.017306566
61	0x3bd14b78	0.0063871704
62	0xbb602e91	-0.0034207443
63	0xbb51be65	-0.0032004353
64	0x3ca7f304	0.020501621
65	0x3b673089	0.0035276732
66	0x3b851f41	0.0040625636
67	0x3a59bd34	0.00083060865
68	0xbc8c12ee	-0.01709887
69	0x396ca024	0.00022566371
70	0xbbf31446	-0.0074181883
71	0xbb71ab28	-0.0036875699
72	0x3aa9ae98	0.001294571
73	0xbbda42d6	-0.0066607995
74	0x3a0d3e89	0.00053880416
75	0x3b17ffe5	0.0023193297
76	0xbbfe0e9a	-0.0077532055
77	0x3c13f20e	0.009029878
78	0x3b504a34	0.003178251
79	0x3c9671ce	0.018364813
80	0xbc4de69b	-0.012567188
81	0x3c147575	0.009061207
82	0xbb8e6192	-0.0043451274
83	0x3bbd159e	0.0057703992
84	0xbb3a3136	-0.002841068
85	0x3c2aae37	0.010417513
86	0xbb8839bf	-0.0041572745
87	0xbb474eed	-0.0030412034
88	0xba836b3e	-0.0010026467
89	0x3c376022	0.011192353
90	0x3c8c58da	0.017132211
91	0xbb56c2bc	-0.003276988
92	0xbc7ce3c2	-0.015435161
93	0x3c4ec2f1	0.01261972
94	0xbb53c8a9	-0.0032315648
95	0x3ca0a76c	0.019611083
96	0xbbca7fae	-0.0061797714
97	0x3b2e4b6e	0.0026595253
98	0xbc4796f7	-0.012181989
99	0xbc726e3c	-0.01479679
100	0x37bb7749	2.2347684e-05
101	0xbbd10100	-0.006378293
102	0xbc045d04	-0.008078817
103	0xbc0e9421	-0.008702309
104	0x3bd85e39	0.006603029
105	0x3c3f3fb3	0.011672902
106	0x3c0b09e3	0.008486244
107	0x3bee59c1	0.007273883
108	0x3a1863d6	0.00058132166
109	0xbb9ea846	-0.004841837
110	0xbc1702f3	-0.009217012
111	0xbc3407d9	-0.010988199
112	0x3c47e73d	0.012201128
113	0xbbfd3749	-0.007727538
114	0xb95358bc	-0.00020155584
115	0xbc8f20f0	-0.01747176
116	0x3c7b36d4	0.015332896
117	0x3c4a9900	0.01236558
118	0x3af026db	0.0018322127
119	0x3b142a3c	0.0022608181
120	0xbcb68404	-0.022279747
121	0xbc6b4860	-0.014360517
122	0xbc6a27e6	-0.014291739
123	0x3c1c75a9	0.009549537
124	0xbbcda174	-0.00627535
125	0x3b39f5c7	0.0028375254
126	0xbb90c55f	-0.0044180597
127	0xbc761b7c	-0.015021201
128	0xbc06f4d8	-0.008237086
129	0xbc49867b	-0.012300129
130	0xbbe68a07	-0.007035497
131	0x3ca65cd5	0.020307938
132	0xbc252552	-0.010079699
133	0xbc10dfa7	-0.008842385
134	0x3cb45f92	0.022018228
135	0xbc937a20	-0.01800257
136	0xbc0bfd0d	-0.008544219
137	0xbbe10802	-0.0068674097
138	0x3ce3c82f	0.027805416
139	0xbbd51cdb	-0.006503684
140	0x3c3e703b	0.0116234375
141	0xbc71ff79	-0.014770382
142	0x3bc81794	0.0061063264
143	0x3c874054	0.016510166
144	0x3c40fba8	0.0117787495
145	0xbbe518ce	-0.0069914823
146	0xbbae9ba6	-0.0053286133
147	0x3bd38ade	0.0064557632
148	0xbc0b6e7a	-0.008510226
149	0xbb1edc7c	-0.0024240306
150	0x3b2fcb21	0.0026823955
151	0xbaf1248e	-0.0018397735
152	0x3bf0c426	0.0073476015
153	0xbc913a9f	-0.017728148
154	0xbb51144a	-0.0031902962
155	0xbaa3b574	-0.001248999
156	0x3c644551	0.013932542
157	0x3c53a5b6	0.012917927
158	0xbad9fe5e	-0.0016631593
159	0x3c83a6ae	0.01607069
160	0x3bde99e6	0.0067932485
161	0x3c5338a5	0.012891923
162	0x3bf9aff8	0.007619854
163	0xbc2341d6	-0.009964427
164	0xbd0a69f4	-0.03379245
165	0xbc850dc1	-0.01624191
166	0xbcc862b4	-0.024461128
167	0xb831a01d	-4.2349206e-05
168	0xbc669e7e	-0.014075873
169	0x3b4585d6	0.0030139587
170	0x3c0d8501	0.008637668
171	0x3bbaa5af	0.0056960206
172	0x3c220aa8	0.009890236
173	0xbabb4471	-0.0014287365
174	0x3b745906	0.0037284507
175	0x3c698233	0.014252233
176	0xbc803ab5	-0.015652994
177	0xbb62d706	-0.0034613027
178	0xbc523160	-0.012829155
179	0xbc699f83	-0.014259222
180	0xbbbd5b8a	-0.0057787346
181	0xbc3e5819	-0.011617684
182	0x3ca21549	0.01978554
183	0x3b066219	0.0020505248
184	0xbb58aa8e	-0.0033060643
185	0x3bb4a053	0.005512276
186	0x3c090904	0.008363966
187	0x3bf4a708	0.0074662007
188	0xbcd17d1c	-0.025572352
189	0x3bc78b20	0.006089583
190	0xbc7b9dbd	-0.015357432
191	0x3aef43e7	0.0018254489
192	0x3c495877	0.012289158
193	0x3c1f2bc1	0.009715022
194	0x3c77d8a0	0.015127331
195	0xbc124131	-0.008926676
196	0xbca309c9	-0.019902127
197	0xbbe5dd22	-0.0070148865
198	0x3caf67e2	0.02141184
199	0x3c304d01	0.010760547
200	0x3b7508c7	0.0037389265
201	0xbb7a6a38	-0.0038210284
202	0x3bb3deed	0.0054892213
203	0xbc0b50c5	-0.008503144
204	0xbc0b83d8	-0.008515321
205	0xbc2c02da	-0.010498727
206	0xbba35ff0	-0.004985802
207	0x3ae52840	0.0017483309
208	0x3a62c88c	0.00086510996
209	0x3c88254e	0.01661935
210	0x3c0ab2fc	0.008465525
211	0xba0e951e	-0.00054390903
212	0xba6970f9	-0.0008905079
213	0x3c237ab3	0.009977984
214	0xbbd3d047	-0.0064640376
215	0xbbbd3193	-0.005773732
216	0x3b5282f4	0.0032121511
217	0x370123ac	7.697305e-06
218	0xbc14fa9d	-0.009092954
219	0x3cb8c541	0.022554995
220	0x3bac7922	0.0052634636
221	0xbbaa2bc4	-0.0051932056
222	0xbc9334a8	-0.017969444
223	0xbbd9e89c	-0.0066500437
224	0xbc130369	-0.008972981
225	0x3cabb675	0.020961026
226	0xbb17ad7f	-0.0023144183
227	0xb894ec4d	-7.1012044e-05
228	0xbcd0d64f	-0.025492815
229	0x3a4f5c2d	0.00079101586
230	0xbbcb3be5	-0.0062022083
231	0x39be5ced	0.0003630886
232	0xbb37b699	-0.002803242
233	0xbb6120c2	-0.00343518
234	0xbc462508	-0.01209379
235	0x3bb5ed9f	0.0055520083
236	0x3831f8a9	4.243167e-05
237	0x3ac08f5c	0.0014691162
238	0x3c8caf6c	0.017173491
239	0xba73ebe7	-0.00093048665
240	0xbb859db8	-0.0040776394
241	0x3c908adb	0.017644336
242	0xbac1173e	-0.0014731658
243	0x3cbc714b	0.023003241
244	0x3b59befa	0.0033225403
245	0x3c125e85	0.008933668
246	0x3bf7b1ba	0.0075590285
247	0x3c04ad23	0.00809792
248	0x3bc23691	0.005926915
249	0x3c0b6455	0.008507808
250	0x3be6444c	0.0070271846
251	0xb92b0211	-0.000163086
252	0x3b7bfa8c	0.0038448898
253	0x3b3d6d30	0.0028904192
254	0xba0ece62	-0.00054476236
255	0xba99e7f4	-0.0011742101

net.1.linear.bias f4 [32]
0	0x3de6ccb7	0.11269515
1	0xbd2af9a8	-0.041741997
2	0x3d182608	0.037145644
3	0x3dbe466a	0.09290774
4	0xbe22addd	-0.15886636
5	0x3e2cf10d	0.16888829
6	0xbe0fc720	-0.14040804
7	0xbdc75211	-0.0973245
8	0x3dcb2a88	0.099202216
9	0x3e1b4e05	0.15166481
10	0xbda096dc	-0.07841274
11	0xbe378585	-0.17922027
12	0x3e0ff42a	0.14057985
13	0xbe36c05a	-0.17846814
14	0x3d922617	0.07136171
15	0xbe055ab6	-0.13022885
16	0x3e35f0b1	0.17767598
17	0xbe222489	-0.1583425
18	0xbc406031	-0.011741684
19	0x3df87e8e	0.121335134
20	0xbd9afa2f	-0.0756725
21	0x3e27bd64	0.1638084
22	0xbd0fc2fe	-0.03509807
23	0xbd78aa33	-0.06070919
24	0x3e1bbbe4	0.15208393
25	0x3de372ce	0.11105882
26	0x3e20a025	0.1568609
27	0x3d96c63e	0.073620304
28	0x3c28d87c	0.01030552
29	0x3dbee779	0.09321494
30	0xbe22917e	-0.15875813
31	0x3d0212cf	0.03175622

net.2.linear.weight f4 [32, 32]
0	0x3c8893a3	0.016671961
1	0x3c8ad526	0.01694734
2	0x3ad1c493	0.0016004018
3	0x3bf661fc	0.007519005
4	0xbcb169f3	-0.021656966
5	0x3b8884f8	0.0041662417
6	0xbcbab029	-0.022789078
7	0x3bd3276c	0.0064439084
8	0xbb8d6fcd	-0.004316306
9	0x3c80daaa	0.015729267
10	0xbac3e16e	-0.0014944503
11	0xbc3e5bca	-0.011618564
12	0xbc14bafc	-0.009077784
13	0xbbb0edff	-0.005399465
14	0xbb9a460f	-0.0047080587
15	0xbc88eb93	-0.016713893
16	0x3ca3efa1	0.020011725
17	0xbc5a4852	-0.013322907
18	0xbc4a2cb9	-0.012339764
19	0x3c1b7bf5	0.009490003
20	0x3acaf5fd	0.0015484687
21	0xbba1c7f9	-0.0049371687
22	0x3c650bb1	0.013979838
23	0x3a973b5b	0.0011538075
24	0x3c50596a	0.0127166305
25	0xbb07350f	-0.002063099
26	0x3c7846be	0.015153585
27	0xbc50ff28	-0.0127561465
28	0xbc41cfe5	-0.011829351
29	0xbc6f4ea3	-0.014606151
30	0xbbb2fc1c	-0.0054621827
31	0xb9b37aa5	-0.00034232918
32	0x3c59aec4	0.013286296
33	0xbb06ff7e	-0.0020599063
34	0xbb36e3ed	-0.002790685
35	0x3bae9b5c	0.005328579
36	0x3c53df21	0.012931616
37	0x3c45656c	0.012048107
38	0xbc086ab3	-0.00832622
39	0xbc4954d0	-0.012288287
40	0xba16279b	-0.00057279476
41	0x3a1dd9bb	0.0006021519
42	0x3b0b0917	0.0021215135
43	0x3abf7592	0.0014607182
44	0xbc41c8f4	-0.011827696
45	0x3c10b2d3	0.0088316975
46	0x3b8dd332	0.004328155
47	0x3c867fd9	0.016418384
48	0xbc304531	-0.010758684
49	0x3b456569	0.003012026
50	0xbadb1746	-0.001671531
51	0xbbea3227	-0.007147092
52	0xbc63a151	-0.013893441
53	0x39c8343d	0.00038185893
54	0x3c914ee5	0.017737815
55	0xbbce8c18	-0.0063033216
56	0x3bf74ba2	0.007546858
57	0xbc31a84d	-0.010843349
58	0x3998be74	0.00029133598
59	0x3c23b397	0.009991548
60	0x3a713c38	0.00092023937
61	0x3c28de04	0.010306839
62	0xbc1f0234	-0.009705115
63	0x3c71fb0a	0.014769325
64	0x38a835c5	8.0208796e-05
65	0x3be323ad	0.006931743
66	0xbabb2eab	-0.0014280876
67	0x39df414d	0.00042582527
68	0x3c56fc5b	0.01312169
69	0x3bab7703	0.005232693
70	0xbbffd9c3	-0.0078079416
71	0x3a021efc	0.00049637235
72	0xbc472ed7	-0.012157164
73	0x3bbca3f3	0.005756849
74	0x3a89dc48	0.001051792
75	0xbc38754f	-0.011258437
76	0x3b036eec	0.0020055128
77	0x3ad1bae3	0.0016001131
78	0xbc0c04c9	-0.008546063
79	0xbb465ed5	-0.0030268927
80	0xbb4a412b	-0.0030861597
81	0xbbb0863c	-0.0053870957
82	0x3c2ce44f	0.01055248
83	0x3c7f53b1	0.015583918
84	0x3c80f219	0.015740441
85	0x3a5cc9b4	0.000842239
86	0x3c4e9441	0.012608589
87	0x3c41efbc	0.011836942
88	0x3c2ba2d0	0.010475829
89	0xba9f5d5d	-0.0012158562
90	0x3cc78825	0.024356911
91	0xbc61a684	-0.013772611
92	0x3a06d600	0.0005143583
93	0x3c46494f	0.012102439
94	0x3b6f2669	0.00364914
95	0x3bbde5cf	0.0057952176
96	0xbb84c8cc	-0.004052257
97	0x3b369d3f	0.0027864722
98	0xbb998116	-0.0046845777
99	0xbc697da2	-0.014251145
100	0xbbb627d6	-0.005558948
101	0x3ae1b370	0.0017219614
102	0xbaade294	-0.0013266378
103	0xbbdf6584	-0.0068175215
104	0xbc6e629f	-0.01454988
105	0x3ba7693c	0.0051089805
106	0xbbbf82be	-0.005844443
107	0x3c1ae241	0.009453357
108	0x3bff6fea	0.0077953236
109	0x3bb8fd97	0.0056454646
110	0xbbbb1906	-0.00570977
111	0xbc9919d8	-0.018689081
112	0xbb52ed7e	-0.0032185013
113	0x3bc17b64	0.005904602
114	0xba2e2fea	-0.0006644713
115	0xbc6cb0c7	-0.014446444
116	0x3a890541	0.0010453836
117	0x3c756002	0.014976503
118	0x3bd173b2	0.006391966
119	0x3c02cdf9	0.007983678
120	0xbc3b2ec5	-0.011424725
121	0xbc875dfb	-0.016524306
122	0x3c25ad4f	0.010112121
123	0x3a68c40c	0.0008879311
124	0x3b981738	0.0046414398
125	0x38f0fb2d	0.00011490877
126	0xbbb66487	-0.005566183
127	0xbb06946f	-0.002053525
128	0xbc1f72e8	-0.009731986
129	0x3b53cd59	0.0032318442
130	0xbc8909c6	-0.016728293
131	0xbc1c8b17	-0.009554646
132	0x3bf3c2b5	0.0074389824
133	0x3a9cfbd4	0.0011976906
134	0xbc47a2d0	-0.012184814
135	0x3c8d4701	0.017245771
136	0x3cbeb934	0.023281671
137	0x3c454ab1	0.012041734
138	0x3c1bb058	0.009502493
139	0xbbc2ec65	-0.0059485906
140	0x3c2fe3eb	0.010735492
141	0x3c1af468	0.009457685
142	0xbb35323f	-0.0027648357
143	0xbc7a6f43	-0.015285316
144	0x3c83529f	0.016030608
145	0xbbc945fc	-0.006142376
146	0x3b2be4b0	0.0026228838
147	0x3b0d40e4	0.002155357
148	0x3c2b2e40	0.010448039
149	0x3b11d8bc	0.0022254428
150	0x39feb65f	0.00048582532
151	0xbab70231	-0.0013962445
152	0x3c03fe1b	0.008056189
153	0xbb014625	-0.0019725647
154	0xbbcfe10f	-0.0063439677
155	0xbb952a51	-0.0045521636
156	0x3c156b10	0.009119764
157	0xbc5b3264	-0.013378713
158	0x3a955b5b	0.0011395024
159	0xbca55a73	-0.020184731
160	0xbc0727ae	-0.0082492065
161	0x3b4a8d59	0.0030907004
162	0xbc51a770	-0.012796268
163	0xbb4979e1	-0.0030742812
164	0x3c1c8c8f	0.009554996
165	0xbbc96ad8	-0.00614677
166	0x3c4f6a73	0.012659657
167	0xbb79dc28	-0.0038125608
168	0x3b58f1e9	0.0033103174
169	0x3be002e4	0.006836282
170	0xbc6f64bf	-0.014611422
171	0x3bf87bb2	0.007583105
172	0x3acc3b47	0.0015581631
173	0xbb9683ed	-0.0045933635
174	0xbab27e0b	-0.0013617886
175	0x3c121d8c	0.008918177
176	0xbc03a1fc	-0.008034226
177	0x3c1ddc09	0.00963498
178	0xbb614bb4	-0.0034377398
179	0xbb932d6c	-0.0044914987
180	0xbc0072be	-0.007839857
181	0xbc326a83	-0.010889652
182	0xbade414d	-0.0016956717
183	0xbc49feea	-0.012328843
184	0x3a995c4e	0.0011700483
185	0x3bb3e766	0.0054902313
186	0x3b24e9db	0.0025163803
187	0xbc99a057	-0.018753214
188	0xbbd71196	-0.0065633757
189	0x3b69a871	0.0035653377
190	0x3c101ee5	0.008796428
191	0x3bdd49d9	0.006753188
192	0x3baf1d6f	0.005344085
193	0xbc110337	-0.008850864
194	0xbc09f7db	-0.00842091
195	0x3c84780c	0.016170524
196	0xb9c34458	-0.00037244218
197	0xba77958f	-0.0009444588
198	0xbc2675ed	-0.010159952
199	0x3b1955d5	0.0023397107
200	0xbb8870b1	-0.0041638245
201	0x3c2f7082	0.010707976
202	0xbc670a2c	-0.014101546
203	0x3c26c49a	0.010178709
204	0xbc89a706	-0.016803276
205	0x3c831844	0.016002782
206	0x3b65e116	0.0035076789
207	0xbc1c5780	-0.009542346
208	0xbca924fa	-0.020647515
209	0x3b851df6	0.0040624095
210	0xbba4a397	-0.0050243842
211	0xbbc6f1a4	-0.0060712863
212	0xbb06c206	-0.0020562424
213	0xbc4a3e24	-0.012343917
214	0x3c1226f6	0.008920422
215	0xbc000217	-0.007812998
216	0x3c1545ac	0.009110849
217	0x3bc934f4	0.0061403457
218	0xbb01fcc7	-0.0019834505
219	0x3c0a6b19	0.008448386
220	0xbb28b648	-0.0025743414
221	0xbcf17c3f	-0.02947819
222	0x3ca7cb03	0.020482546
223	0x3c099e9a	0.00839963
224	0xbcd3abd8	-0.025838777
225	0xbab85cc0	-0.0014065728
226	0x3c93b227	0.018029286
227	0x3ca360e8	0.01994367
228	0x3bc26003	0.0059318556
229	0xbb42a121	-0.002969809
230	0x3b7e9969	0.0038848764
231	0xbb6d25df	-0.0036185903
232	0xbc882e0a	-0.016623516
233	0xbbff13d0	-0.0077843443
234	0xbc684e50	-0.014178827
235	0x3c08ca96	0.0083490815
236	0x3b59d1a8	0.0033236537
237	0xbc22a421	-0.009926827
238	0x3bc38048	0.00596622
239	0xbac88621	-0.0015298763
240	0x3bc93bbf	0.0061411555
241	0xbc450bd9	-0.0120267505
242	0x3b2d8416	0.0026476434
243	0xbbb9cc8a	-0.005670135
244	0xbc0015b9	-0.007817679
245	0x3c13f74b	0.009031127
246	0x3bd8a090	0.0066109374
247	0xbc7ac798	-0.015306376
248	0xbc58566e	-0.0132042
249	0x3b1bc82c	0.0023770435
250	0xbbe14f39	-0.006875899
251	0x3c9a0bd7	0.018804474
252	0x3c4c5621	0.012471707
253	0xb9eef4a4	-0.0004557717
254	0xbc087ab7	-0.008330039
255	0xba2be569	-0.0006557317

net.2.linear.bias f4 [32]
0	0xbd996ed4	-0.07491842
1	0xbe2ad02e	-0.16680977
2	0xbe055a9d	-0.13022847
3	0x3e100557	0.14064537
4	0xbd955753	-0.072920464
5	0x3cfda324	0.03096158
6	0x3d92b493	0.07163348
7	0xbd854d30	-0.06508863
8	0xbd0c5dee	-0.034269266
9	0xbde44953	-0.11146798
10	0x3d8149c3	0.06312897
11	0x3e04c832	0.12966993
12	0x3d16228e	0.036654048
13	0x3e223ac7	0.15842734
14	0xbdedd915	-0.11613671
15	0xbd32f654	-0.043691948
16	0x3e38fce6	0.18065223
17	0x3d08f0c9	0.033432756
18	0xbdb977eb	-0.09056076
19	0xbd4c0879	-0.049812768
20	0x3ca4960e	0.020091083
21	0x3d3fc935	0.046822745
22	0x3e14aa28	0.14518034
23	0x3d909ca1	0.070611246
24	0xbd6c5d40	-0.057706118
25	0x3e345dc1	0.1761389
26	0x3c2a7d19	0.010405802
27	0xbe1b70ea	-0.15179792
28	0xbd26b26b	-0.040697496
29	0x3e2a4090	0.16626191
30	0xbdd585ab	-0.10425886
31	0x3ded856d	0.115977146

net.3.linear.weight f4 [32, 32]
0	0x3a46ffed	0.00075912365
1	0x3b8d462e	0.0043113446
2	0x3c22e5b0	0.009942457
3	0x3ba4c10d	0.0050278963
4	0xbb920383	-0.004455985
5	0xbc093e49	-0.008376666
6	0xbafd0e4c	-0.0019306629
7	0x3bf43adc	0.0074533056
8	0x3c45bbfd	0.012068746
9	0xbc254744	-0.010087792
10	0xb8ad56a6	-8.2654224e-05
11	0xbcb62bc5	-0.022237668
12	0xbc1ab87a	-0.009443397
13	0xbc5d1259	-0.013493144
14	0xba0e90ae	-0.0005438429
15	0x3a1edaa4	0.00060598017
16	0x3acd2b77	0.0015653212
17	0x3c3691b2	0.011143135
18	0xbb9f087d	-0.004853307
19	0x3c82047c	0.015871279
20	0x392d7b19	0.00016544423
21	0xbcbebb33	-0.023282623
22	0xbc0774a8	-0.008267559
23	0xbc9229f0	-0.017842263
24	0xbbacaa73	-0.0052693426
25	0x3c5682b3	0.013092685
26	0x3b3e86aa	0.0029071965
27	0xbc2c2ccb	-0.010508726
28	0xbc7ef617	-0.015561602
29	0xbbc57c4d	-0.0060267807
30	0x3b4fdefa	0.0031718598
31	0x3c0f5c39	0.008750015
32	0x3bdc83ef	0.006729595
33	0xbbc92131	-0.00613799
34	0xbb6e4106	-0.0036354675
35	0x3ac1c6c6	0.001478397
36	0xbb89c5d8	-0.004204493
37	0xbc06a63b	-0.008218343
38	0xbb4a9251	-0.0030909965
39	0xba601605	-0.0008548203
40	0x39d89d6e	0.00041316025
41	0x3b0a4a8a	0.0021101558
42	0x3b482ab4	0.0030543031
43	0xbb9ba943	-0.004750402
44	0x3a7eb3e1	0.0009716135
45	0x3c2c29c2	0.010508003
46	0x3b12423f	0.0022317318
47	0xbb150fac	-0.0022744937
48	0x3b11bda5	0.002223828
49	0x3c18e826	0.009332692
50	0x3c203ea1	0.009780557
51	0xbaa1b4fe	-0.0012337265
52	0x3c4ed35b	0.012623633
53	0x3a4ecafb	0.0007888523
54	0xbc666bdd	-0.014063803
55	0x3ba24fe9	0.0049533737
56	0xbc0aa9d7	-0.008463345
57	0x3b6dbbb5	0.0036275212
58	0xbc465494	-0.012105126
59	0x3bc3b82a	0.005972882
60	0x3ae8c739	0.0017759568
61	0xbc2f4469	-0.010697463
62	0xbc5bbf50	-0.013412312
63	0x3c1d1eab	0.009589831
64	0x3b29492e	0.0025830972
65	0xbc0eb427	-0.008709944
66	0x3c037ba6	0.008025086
67	0x3b0c73b0	0.002143126
68	0xbbe160d7	-0.0068779993
69	0x3bc5a37c	0.0060314517
70	0xbc50af2a	-0.012737075
71	0xbc1b07df	-0.009462326
72	0xbbd98956	-0.006638686
73	0xbca2b0b5	-0.019859651
74	0x3c2912bc	0.010319408
75	0xbb1c2a39	-0.0023828878
76	0xbb9a2cd1	-0.0047050496
77	0xbc438737	-0.011934093
78	0x3ccf4278	0.02530025
79	0xbb744c8a	-0.0037277066
80	0x3bda57d6	0.006663303
81	0x3c873714	0.016505755
82	0x3c195d72	0.009360658
83	0x3c6caac0	0.014445007
84	0x3c49ac94	0.012309212
85	0xbb9d8808	-0.004807476
86	0xbc0fd23c	-0.008778151
87	0xba985551	-0.0011622106
88	0x3aa22e8f	0.0012373495
89	0x3b1f919f	0.0024348272
90	0x3ba39a9a	0.004992795
91	0x3cb2450e	0.021761443
92	0x3bf24d4f	0.00739447
93	0xbc12afe3	-0.0089530675
94	0x3c22da02	0.009939672
95	0xbc348d8d	-0.011020076
96	0x3b0e6c06	0.0021731867
97	0x3c0efd91	0.008727447
98	0x3c524c84	0.012835626
99	0xbb81dfd9	-0.0039634523
100	0xba376937	-0.0006996574
101	0xbbfcbabc	-0.00771269
102	0xbcb82912	-0.022480521
103	0xbc9ca4c5	-0.019121537
104	0x3c8e7017	0.017387433
105	0x3ba796f9	0.005114433
106	0xbbce5bd5	-0.0062975683
107	0x3c8ec49a	0.017427731
108	0xbc1cc25b	-0.009567822
109	0x3c41e0e0	0.0118333995
110	0xbc4f0109	-0.012634524
111	0xbc830a26	-0.01599605
112	0xbcb3af9a	-0.02193432
113	0x3bcce4ca	0.0062528597
114	0x3c707b86	0.014677888
115	0x3c34bf8f	0.011031999
116	0x3c932a40	0.017964482
117	0xbae1cd72	-0.0017227365
118	0xbb439081	-0.002984077
119	0x3b6bbc65	0.0035970446
120	0xbc47897f	-0.012178778
121	0x3b8efdbd	0.004363744
122	0x3c1c35ab	0.00953428
123	0x3b65422d	0.003498207
124	0x3c370fe1	0.011173219
125	0xbbdb4e28	-0.0066926666
126	0x3c205347	0.00978548
127	0xbbed4a0f	-0.0072414945
128	0x3b809c46	0.0039248792
129	0xbc7adb9c	-0.015311148
130	0x3be20e05	0.006898644
131	0xbcc40af1	-0.023930999
132	0xbbb0c35e	-0.0053943833
133	0x3cb7f656	0.02245633
134	0x3c5c3883	0.013441208
135	0xbbaeb3e6	-0.005331504
136	0xbcc2eeda	-0.023795534
137	0xbaac816f	-0.0013161133
138	0xb90e62ca	-0.00013578977
139	0xbc580f19	-0.013187193
140	0x3c0d031a	0.0086066965
141	0xbb24b6a9	-0.0025133288
142	0xbb95409f	-0.0045548226
143	0x3bf3ede3	0.00744413
144	0x3c353a2a	0.011061231
145	0x3c949383	0.018136745
146	0x3c106e36	0.008815339
147	0x3c6b7222	0.014370473
148	0x3c373ba3	0.011183652
149	0xbc218997	-0.009859464
150	0xbcaac6ea	-0.020846803
151	0x3c41f975	0.01183926
152	0x3b33233d	0.0027334236
153	0x39e07ffb	0.00042819962
154	0x3c31c1be	0.010849414
155	0xbcc4c7f6	-0.02402113
156	0x3a5cac80	0.00084180385
157	0xbb66d6c6	-0.003522323
158	0xbc8d89f6	-0.017277699
159	0xbc0b3b86	-0.008498078
160	0xbc1df370	-0.00964056
161	0x3c6ec880	0.01457417
162	0x3d101a68	0.035181433
163	0xbcab0e9f	-0.020880995
164	0x3c1607ed	0.009157163
165	0x3b9a12e8	0.004701961
166	0xb861ac5c	-5.3804702e-05
167	0xbc87735b	-0.016534498
168	0x3a11686c	0.0005546871
169	0xbb287860	-0.0025706515
170	0x3bfb16b4	0.0076626185
171	0x3c8a82c7	0.016908063
172	0x3c1e7ef4	0.009673823
173	0x3c5e4b3b	0.013567741
174	0xbc756ed5	-0.014980038
175	0x3c643f4b	0.013931106
176	0xbbb03963	-0.005377935
177	0x3c10478a	0.008806119
178	0x3b94c3e0	0.0045399517
179	0xbb0225c7	-0.0019858943
180	0xbc66d1a8	-0.014088072
181	0xbbdb9a5d	-0.006701751
182	0xbb9031d1	-0.00440047
183	0x3be377ef	0.0069417874
184	0xbc4c3408	-0.012463577
185	0xbc309405	-0.010777478
186	0xbc89cc57	-0.01682107
187	0xbb936267	-0.0044978145
188	0xbac0fc7a	-0.0014723681
189	0xbcb8e4b3	-0.02256999
190	0xbbc66a8c	-0.006055182
191	0x3c53a63a	0.0129180495
192	0x3b2bdf26	0.0026225536
193	0x3c0c9de7	0.008582569
194	0x3c2bdca1	0.010489614
195	0x3c4a6ca2	0.012355002
196	0xbcc202dd	-0.023683006
197	0xbbfd8c30	-0.007737659
198	0xbc93a305	-0.01802207
199	0xbaece92f	-0.0018074865
200	0x3c2673cc	0.010159444
201	0x3b6ae57e	0.0035842354
202	0x3ca2cfa8	0.019874409
203	0x3b4fa656	0.0031684837
204	0xbb3ae44a	-0.0028517419
205	0xbc3ee709	-0.011651763
206	0x3c50ad97	0.0127367
207	0xbc27cecf	-0.010242178
208	0x3b9abb6b	0.004722049
209	0x3b866e9f	0.0041025425
210	0xbc7dfc27	-0.015502012
211	0x3b3a9c52	0.0028474522
212	0x3be428a1	0.006962851
213	0x3b4fb6ed	0.0031694726
214	0x3c0215a5	0.007939731
215	0x3b59d4cc	0.003323841
216	0xbbcb3bde	-0.006202205
217	0xbbb3cb81	-0.005486906
218	0xbbb1aa7f	-0.005421936
219	0xbcf52e6f	-0.029929368
220	0x3b379172	0.0028010276
221	0x3c3bb9ae	0.011457844
222	0xbc81e8c7	-0.015858067
223	0xbbb58e42	-0.00554064
224	0xbb0070d4	-0.00195985
225	0x3c09c0bd	0.008407769
226	0x3aaa6d6d	0.0013002582
227	0xbbd29bcb	-0.0064272634
228	0xbba95b65	-0.005168366
229	0x3ccf71fb	0.025322905
230	0x3c0f501b	0.008747126
231	0xba85e99d	-0.0010216717
232	0x3ba87595	0.00514097
233	0x3c18b6cd	0.009320927
234	0x3c813abe	0.01577508
235	0xbbbab47a	-0.005697784
236	0xba8ede18	-0.0010899929
237	0xbc4789e2	-0.01217887
238	0x3bd9874a	0.006638442
239	0xbc68d587	-0.014211065
240	0xbab7dfb4	-0.0014028461
241	0xbc6f0936	-0.014589598
242	0xbac9ac15	-0.0015386367
243	0xbc59a73a	-0.013284499
244	0x3a69fa91	0.0008925582
245	0x3c5a2ab0	0.013315842
246	0x3a051982	0.00050773483
247	0x3c1bfd93	0.009520906
248	0x3ca25aeb	0.019818744
249	0x3c1ba96d	0.0095008435
250	0x3b58f1c5	0.003310309
251	0x3c1cf394	0.009579558
252	0xbb3535e2	-0.0027650525
253	0xbc845450	-0.016153485
254	0xbc10233e	-0.008797465
255	0xbc9f614d	-0.019455576

net.3.linear.bias f4 [32]
0	0xbd4edd6a	-0.050504126
1	0x3deee445	0.11664633
2	0xbe09e4c5	-0.13466175
3	0x3dca71a0	0.098849535
4	0x3cb98113	0.022644555
5	0x3de60276	0.11230938
6	0xbe2a40a9	-0.16626228
7	0x3db948d4	0.09047094
8	0xbc7e3adc	-0.015516963
9	0x3dbeb652	0.093121186
10	0x3d14c36f	0.036319192
11	0x3cf09627	0.029368473
12	0x3e29c753	0.16579942
13	0x3de2d2da	0.11075373
14	0xbe118f7d	-0.14214893
15	0x3d6d7d6c	0.05798094
16	0x3d1fba52	0.03899605
17	0xbddc1af3	-0.10747328
18	0x3e186ada	0.1488451
19	0x3dbe5eb3	0.09295406
20	0x3c50f964	0.012754772
21	0xbd29128a	-0.041277446
22	0x3dd62983	0.104571365
23	0x3e177ddd	0.14794107
24	0x3e03d8f7	0.12875734
25	0xbd425391	-0.047442976
26	0x3dffd95c	0.1249263
27	0x3d9dafee	0.076995715
28	0x3db620ee	0.088929996
29	0xbc92d8d7	-0.017925663
30	0xbd2899f9	-0.041162465
31	0xbe205fb8	-0.15661514

net.4.weight f4 [4, 32]
0	0xbcb40f05	-0.021979818
1	0xbd8026cf	-0.06257402
2	0xbd59249e	-0.053013436
3	0xbd5fc9c8	-0.054635793
4	0xbd7b0629	-0.06128517
5	0x3d2fc1bd	0.042909373
6	0x3cc4c3de	0.024019178
7	0x3d82e688	0.063916266
8	0xbde48583	-0.11158278
9	0x3cfe8c1b	0.031072667
10	0xbc2857a9	-0.010274806
11	0xbcccccef	-0.025000064
12	0x3bdd7809	0.006758694
13	0xbcb62142	-0.022232655
14	0x3caa3c41	0.020780684
15	0xbc242fa4	-0.010021124
16	0xbd423125	-0.04741015
17	0xbd46d7de	-0.04854571
18	0x3ca46760	0.020068824
19	0xbd89d7b4	-0.06730595
20	0xbc00e94a	-0.00786812
21	0x3da6a553	0.08137002
22	0xbaf56c59	-0.0018724307
23	0x3c067a53	0.008207875
24	0xbad69807	-0.0016372212
25	0x3cf261fc	0.029587738
26	0x3c1652df	0.009175031
27	0xbc75e600	-0.01500845
28	0xbc3c6afb	-0.0115001155
29	0x3d310179	0.043214295
30	0x3d427af7	0.04748055
31	0x3ce516a2	0.027964894
32	0xbc51e241	-0.012810291
33	0x3e367a6c	0.17820138
34	0x3c1b4d85	0.009478931
35	0xbc7f563b	-0.015584524
36	0xbc13148d	-0.008977068
37	0xbd345582	-0.04402686
38	0x3db681b4	0.08911458
39	0x3dbca2fb	0.092107736
40	0xbca3fda5	-0.020018408
41	0x3d11721b	0.03550921
42	0x3d6d7de7	0.057981398
43	0x3c930796	0.017947953
44	0xbc68734f	-0.014187648
45	0xbbdad661	-0.006678388
46	0xbd738938	-0.059457034
47	0x3d7b868e	0.06140762
48	0x3da0f5ae	0.0785936
49	0x3d12a901	0.035805706
50	0x3dda8f54	0.10671869
51	0xbdc0b4f4	-0.09409514
52	0x3d15e4ab	0.036595028
53	0xbd07e644	-0.033178583
54	0x3ca1b602	0.019740108
55	0x3d6e0adc	0.058115825
56	0x3d1ce5ee	0.038305216
57	0xbd3a420b	-0.04547314
58	0xbdb6e376	-0.089301035
59	0xbdc4537c	-0.09586236
60	0x3e0efda8	0.1396395
61	0xbcc71216	-0.024300616
62	0xbd497cf6	-0.049191438
63	0xbd19eca6	-0.0375792
64	0xbce853b1	-0.02836022
65	0xbe0fc78c	-0.14040965
66	0x3c6471aa	0.013943115
67	0x3d2851bf	0.041093584
68	0x3cf90a37	0.030400379
69	0xbcdd4436	-0.027010065
70	0xbcc3e1ac	-0.02391132
71	0xbd827118	-0.06369227
72	0xbcacf926	-0.021114897
73	0xbbd1ec89	-0.006406371
74	0xbc229dfa	-0.00992536
75	0x3d14ae9f	0.036299344
76	0x3a79bc30	0.00095266383
77	0x3a593f37	0.0008287313
78	0x3d571d7d	0.052518357
79	0x3cddf404	0.027093895
80	0x3d207509	0.039174113
81	0xbd4f5ee9	-0.050627623
82	0xbd9b6e43	-0.0758939
83	0x3dbce961	0.09224201
84	0xbb94d0a9	-0.004541476
85	0xbd6078db	-0.054802757
86	0xbca41ea8	-0.02003415
87	0xbd6876f7	-0.05675408
88	0x3d8b01ad	0.06787429
89	0x3c1f0387	0.009705431
90	0x3c995c6a	0.018720824
91	0x3d3b11ec	0.04567139
92	0xbd5bce19	-0.053663347
93	0x3c9a784d	0.018856192
94	0x3ccff3a6	0.025384735
95	0x3cc2b97e	0.02377009
96	0xbdb4a503	-0.08820536
97	0xbdd8d839	-0.10588116
98	0xbd7db828	-0.061943203
99	0xbd2e158a	-0.04250101
100	0xbd89240b	-0.06696328
101	0x3d12822b	0.03576867
102	0x3d08c892	0.033394404
103	0x3d50f51f	0.051015016
104	0xbd5e5856	-0.054283462
105	0x3db7ab25	0.0896819
106	0xbd8b2ec3	-0.067960285
107	0xbbb1875f	-0.005417749
108	0x3d9cc73b	0.07655188
109	0xbdda3230	-0.10654104
110	0x3dc6826b	0.09692844
111	0xbc884992	-0.016636644
112	0xbd6d2e56	-0.057905518
113	0xbd90f429	-0.0707782
114	0xbd52f1b8	-0.051500052
115	0xbd272955	-0.0408109
116	0x3da2e146	0.07953124
117	0x3d8e00fa	0.0693378
118	0xbda65320	-0.081213236
119	0x3d6405cc	0.05566959
120	0xbb1a7c00	-0.0023572445
121	0x3d91b425	0.07114438
122	0x3c09ceb4	0.008411098
123	0xbb4fbc44	-0.0031697908
124	0x3ce41135	0.027840236
125	0xbd3320c4	-0.04373242
126	0x3d95d1cc	0.07315406
127	0x3c71bf27	0.014755047

net.4.bias f4 [4]
0	0xbd24cbe0	-0.040233493
1	0xbdba9073	-0.09109583
2	0xbe0a8c4a	-0.13530079
3	0x3dd078df	0.10179304
