FE-PINN1/1_nodes_given/20%_noise/20%_init_error/model.pt (torch, 16796 bytes, 10 tensors)

net.0.linear.weight f4 [32, 1]
00000000: cf56 33bf 169b 67be cfa2 513f 6f42 393e
00000010: 7871 43bf 1065 3abf 0803 1abf d4d4 013f
00000020: 91e8 e33e 581b 41bf ca56 e93e 2e57 af3e
00000030: ea8f c23e f3fb cebe 2898 613f 7498 773f
00000040: ef0b f8be 08ef 4fbf 4e51 6abf ea09 b3bc
00000050: 655a 23be 43d4 7d3f cbf7 8bbe e5a5 1f3f
00000060: 82ea b23e 7347 323f 8cf7 d4be a4ff 283c
00000070: 1e80 f8be 1c47 863e 5f85 f4be 4e5e 553f
-0.70054334 -0.22617754 0.8188905 0.18091749 -0.76345015 -0.7281046 -0.60160875 0.50715375
0.44513372 -0.7543235 0.45574027 0.342462 0.38000423 -0.40426597 0.88122797 0.96717
-0.48446605 -0.8122411 -0.9153031 -0.021855313 -0.15952452 0.9915201 -0.2733749 0.6236251
0.3494454 0.6964027 -0.41595113 0.010314856 -0.48535246 0.26226127 -0.47758004 0.8334702

net.0.linear.bias f4 [32]
00000000: b86e 50be a767 a8be c7df 543f 8ceb 9b3e
00000010: bf7c 11bf c34e b9be 7225 513e 6d1a 173f
00000020: ebac 4bbf 8be6 c33e 5619 c9be c938 6e3f
00000030: d6bb 39bf ff38 6f3e d5ee e7bc 4dc1 4d3d
00000040: 5ebd a8be acde 973e 8d68 633f b427 c4be
00000050: 412a 6ebf 5519 60bd d7fd 413f 830f 0c3f
00000060: b963 18bf 78ee 903e a0b8 1fbf 099e 15bf
00000070: aab7 2bbf 9f0b 63bf 53cd 49bf 9dab ca3c
-0.20354736 -0.3289158 0.8315396 0.30453146 -0.5683097 -0.36192903 0.2042444 0.590247
-0.79560727 0.38261828 -0.39277142 0.930554 -0.7255224 0.23361586 -0.028312126 0.050233174
-0.32956976 0.29662073 0.88831407 -0.3831154 -0.93033224 -0.05471166 0.75777954 0.5471117
-0.59527165 0.28306937 -0.6239109 -0.5844427 -0.67077124 -0.8868961 -0.78828925 0.024740035

net.1.linear.weight f4 [32, 32]
00000000: 5570 3fb9 e406 573b 6227 54ba 9d6c b8bc
00000010: b04f b33b aa2d c3bb c854 ea3b 9cf3 6fbc
00000020: 5794 7c3c 92f4 64bc 2f5c 153c 14d2 9ebb
00000030: 7832 2abb ff80 873b 7dad ad3c 5538 173c
00000040: 0355 cfbb f5d3 e3bb db0b 0dbc fec9 003c
00000050: 25f6 9cbb 19ad 05bc 628a 803b 84d5 b6bb
00000060: e938 0f3c 05cf a9bb b20c fabb ebae 353b
00000070: a629 8fbc e98a bebc 34fe 1f3b a759 5fbb
00000080: 9ee7 d33b e6ab 9bbc 2160 6fbc a46f 383b
00000090: 3bbd 943c 5cdd 3f3b 7805 443c 4e88 47bb
000000a0: d685 39bc 46d8 9dbc 95ce 763b 9a59 833b
000000b0: b535 363c 1ac4 f03b a07a 95bb a081 cd3b
000000c0: 0589 773c ee0c 46bc b52c 44bc 78a0 0d3c
000000d0: d354 2bbb 0753 5dbb c2f2 a9bb 1688 fb3c
000000e0: 4329 e53a 0caf bd3b 9778 8ebc 8128 0fbc
000000f0: 2652 8bbc 0163 b4bc b530 2c3c fc65 42bb
00000100: 7ab3 813c f48e 26bc ef3f c4bb f47b 30bc
00000110: 8973 c63b f66d 23bb 419a 02bc 2cbe bfbc
00000120: cb87 173c 365a a73b 8359 12bc 133c 7dbb
00000130: 1b7c a03a 6246 e53a b571 05bb 4fbe 3b3c
00000140: d6dc 233b 7d32 6a3a 38c0 413c e429 073c
00000150: 499b 083a 7b12 ae3a 1746 a4bb 6284 8dba
00000160: ec32 fd3b f8b1 3f3c 277c 303c 4cfc a6bb
00000170: 38ca fc3b 05c3 a23b 6093 4d3c 2e60 da3b
00000180: 5f3f 5f3b 9523 f5ba 5bf9 053c 7438 48bb
00000190: ee51 273c c759 11bb 1dea 49bc dbc4 c6bb
000001a0: fd0d 323c 7e41 a33b e70c eb3c a296 b3ba
000001b0: 6ed5 c5b9 0d73 d0bb 181f d3bb 7a14 033c
000001c0: 2725 9a3b d695 b3bb e11e b53a e01d b93b
000001d0: 2015 fe3a e80b 403c 7d96 29bc 85cc 4bbc
000001e0: e0ec 483b 52a0 95bb e020 66bc 37c6 f13a
000001f0: e080 18bc 63de e0bb efe1 cab9 0894 89ba
00000200: c895 2b3c 6c77 a13c 2995 16bb d110 c7bb
00000210: fb39 2d3b 14a2 bbbb 31f9 99bc e444 06bc
00000220: 4652 85bc e555 db3b 1930 9739 2cb2 96ba
00000230: 188e ae3b ae47 0a3c a716 0f3b 0cb0 96bb
00000240: 085b 55bc 6458 cf3b 37c9 4ebc 43bc af3b
00000250: d169 6e3b c65e 5ebc 6bab 073b 5545 a63b
00000260: 9e36 d53a c7c4 8dbc 39ea 0cbb 5efc 0dbc
00000270: bc46 0a3c 6793 ccbb fcd8 1bbc e848 d4bb
00000280: ea47 07bc 811b 583c 65ed 243c 6bfb dbbb
00000290: 153e 92bc def1 c83b 3fe9 da3b 9d1f 8a3b
000002a0: 1e6e 223a 7d78 c23c 1939 05bc f902 eabb
000002b0: 7dcb aebb 9464 f2bb 371c 5ebc 203b e9bb
000002c0: a011 b6bb bcce 08bc 17dd 36bc 8cb8 37bc
000002d0: 8f75 e1bc 9564 d4bb 5586 513b 02af 1fba
000002e0: 5e3b 5ebc dc6f fabb e028 1f3c c815 4fbb
000002f0: 02e1 10bc c68f 823a d1e6 2f3b cd59 ecbb
00000300: 4860 543b 3491 94ba 4992 c4bb c58f 323c
00000310: b67e 2ebc b8bd c53b b408 0fbc bef6 9c3c
00000320: e74d 013c 6df1 93bb f5c1 1abc b5d3 a3bc
00000330: e770 b33a cb9c d1bb 830e 7b3a 41af f8bb
00000340: e722 8f3b 90bd 03bb 2334 09bc f036 213c
00000350: c066 f6bb 73db 103b f87c 32bc 4c13 2ebb
00000360: f55c f63a e99d 033c a50c 7038 d17d 8b3b
00000370: e554 aeb9 b937 533c b219 9abc 2bad 873b
00000380: 341a be3b e4ee 4a3c dee0 f6bb 0507 9c3c
00000390: dd03 293c 6bd1 a7ba af63 0bbb 756c 083c
000003a0: aae6 943c 43f4 6bbc d6fd 853c 7317 f7ba
000003b0: 2926 d33b e41c 0cbc eecf 953b bdf1 333c
000003c0: 2036 3b3c f23e 813c ee96 1e3b 8947 ea3c
000003d0: d35f 14bc d8e3 b5bb a48c d03b 997d da3a
000003e0: c275 443c 3ffc 67bc 28ea 21bc 8b1e a23c
000003f0: 21ca 453b 1a97 0cbc c48b 5f3c b80b 033c
-0.00018257026 0.0032810504 -0.00080930267 -0.022512728 0.005472146 -0.0059563713 0.00715122 -0.014645483
0.015416226 -0.013974326 0.009116217 -0.0048468206 -0.0025970023 0.0041352506 0.02120089 0.009229739
-0.006327273 -0.0069527575 -0.008608784 0.007860659 -0.004790085 -0.0081589455 0.0039227465 -0.0055796523
0.008741596 -0.0051821494 -0.007630908 0.0027722667 -0.017475914 -0.023259597 0.0024412991 -0.0034080537
0.00646682 -0.019002866 -0.014610321 0.0028142715 0.018156638 0.0029276228 0.0119641945 -0.0030446234
-0.011323413 -0.019268166 0.0037659754 0.004008484 0.011121203 0.007347596 -0.004561737 0.006271556
0.015108352 -0.012088044 -0.01197355 0.008644216 -0.0026143088 -0.0033771412 -0.0051864097 0.03070454
0.001748361 0.0057886895 -0.017391486 -0.008737684 -0.017006945 -0.022019865 0.01050966 -0.0029662838
0.015832651 -0.010165919 -0.005989067 -0.01077174 0.0060562533 -0.0024937368 -0.007971347 -0.02340611
0.009248684 0.0051071895 -0.008932474 -0.0038640543 0.0012244018 0.0017492289 -0.0020361964 0.011458947
0.0025003455 0.0008933915 0.011825614 0.008249734 0.00052111276 0.0013280654 -0.005013238 -0.00107969
0.0077270176 0.011700146 0.010771788 -0.005095994 0.007714536 0.004967096 0.012547344 0.0066642975
0.0034064872 -0.0018702621 0.008177127 -0.0030551227 0.010212405 -0.0022178756 -0.012323883 -0.0060659475
0.010867593 0.0049821725 0.028692676 -0.0013701508 -0.00037733786 -0.0063613714 -0.0064429156 0.008000487
0.004704136 -0.0054805083 0.0013818407 0.0056493133 0.0019384958 0.011721589 -0.010350821 -0.012438898
0.0030658767 -0.004566231 -0.014045924 0.0018445913 -0.00930807 -0.006862448 -0.00038696776 -0.0010496387
0.010472722 0.019710265 -0.002297709 -0.0060750027 0.0026432264 -0.0057261083 -0.018795582 -0.008195136
-0.016274583 0.006693589 0.000288368 -0.0011497191 0.0053269975 0.008439941 0.002183357 -0.004598623
-0.013022192 0.0063276757 -0.012621216 0.0053630187 0.003637899 -0.0135724 0.0020701538 0.005074183
0.0016266888 -0.017305745 -0.0021501912 -0.008666126 0.008439716 -0.0062431577 -0.009512182 -0.0064784177
-0.008256892 0.013190151 0.010066365 -0.006713321 -0.017851869 0.0061323484 0.006680637 0.0042151944
0.00061962183 0.023739094 -0.008131289 -0.0071414676 -0.0053343163 -0.0073972438 -0.013556532 -0.007117644
-0.0055563003 -0.008350071 -0.01116111 -0.011213433 -0.027521877 -0.006481717 0.0031970937 -0.0006091447
-0.013563959 -0.007642729 0.009714335 -0.0031598676 -0.008842709 0.0009961061 0.0026840458 -0.0072128535
0.003240602 -0.0011334778 -0.005998884 0.010898535 -0.010650327 0.006034579 -0.008730102 0.019160625
0.0078921085 -0.004514864 -0.009445657 -0.01999841 0.0013690264 -0.006396865 0.00095770526 -0.0075892513
0.0043681744 -0.0020102002 -0.008374247 0.009839758 -0.007519573 0.0022103458 -0.010894053 -0.0026561795
0.0018796014 0.008033254 5.7232235e-05 0.004256942 -0.00033251118 0.012891703 -0.01881108 0.0041405163
0.0058014635 0.0123860575 -0.0075341305 0.019046316 0.0103158625 -0.00128035 -0.0021269133 0.008326639
0.018176395 -0.014401498 0.01635639 -0.0018851593 0.006443758 -0.00855181 0.0045719063 0.010982928
0.011426479 0.015777085 0.0024198848 0.028598564 -0.009056049 -0.0055508427 0.006364422 0.0016669511
0.011990966 -0.014159261 -0.009882487 0.019789955 0.0030180293 -0.008580947 0.013644163 0.007998399

net.1.linear.bias f4 [32]
00000000: a16b 18be a607 d4bd d365 2cbe 8754 57bd
00000010: 01fe df3d 5e20 e0bc ff36 1d3d 1314 bf3d
00000020: 066b 1abe 1d38 e33d fb09 80bd 72ba ebbd
00000030: 5476 3cbe 0a1a 2d3e c67c 2f3e 396c 98bd
00000040: 7040 bebd 28bb 793d f410 16be d4e4 eb3d
00000050: 1d34 2d3e e891 e1bd d947 953d ead1 88bd
00000060: 7e45 2abe 4caf 333e 8b4c c73d 1136 233e
00000070: a024 2dbe 3b3b 7abd f664 293e 65b9 2c3d
-0.14884807 -0.10353021 -0.16835718 -0.052570846 0.10937119 -0.027359184 0.038382526 0.09330001
-0.15079889 0.11094687 -0.062519036 -0.11510171 -0.18404514 0.16904464 0.17137441 -0.07442517
-0.09289634 0.0609695 -0.14654905 0.11518255 0.16914411 -0.110141575 0.072890945 -0.06680663
-0.16628072 0.17547339 0.09731396 0.15938593 -0.16908503 -0.061091643 0.1654242 0.042168994

net.2.linear.weight f4 [32, 32]
00000000: ef44 4abb 1556 91bb 00a1 ac3b 2b90 1fba
00000010: 8ee6 9a3c 1fd1 23bc a518 6f3c 6c35 99bc
00000020: 27ba 03bc 602d 813c 7935 fb3a 387b 3dbb
00000030: 5d03 cf3a 1787 dcbb 2033 f4bb 6bad 73bc
00000040: 057b cdba 140d 3d3b ed5c b2bb c44f 45bc
00000050: 9ce6 0dbb 7402 f5bb 0402 8cbc 8f0a 353c
00000060: b29f 113c 202c a53c 3146 07bb f6e8 85bb
00000070: cde0 92bb c969 2a3c 9919 bfba 3aa9 4eba
00000080: 7c93 b7bb e4b3 1abc 958d 033b a6ff 553c
00000090: ea36 99bc adfa 6abb 2f1c 6bbc 6022 363b
000000a0: aff2 a0bb 28c1 cd3b 6b3c e53b 31c0 9f3c
000000b0: 1f7f 4bbb acf6 e93a f4a3 e53b aadc bebb
000000c0: 9072 e7ba 99fd ffbb 93b3 c2bb 1136 0dbc
000000d0: 0f02 243a e624 edbb 5c9a dbbb 2678 a73c
000000e0: b472 4abc 59b7 8dbb 4bea 423c a30d 893c
000000f0: 6aa8 3c3c 6539 7f3c a146 983c 69c7 3abc
00000100: 6acf 8f3c 914f e33b a494 0a3c 166e 83ba
00000110: 6c4a 47bc 414d 6c3a 498b 9c3a 2ce9 16bc
00000120: 01b7 483b 46d3 23bc b4b0 09bc 1c20 6abb
00000130: bfb2 dc3b ec84 403c 4dad c53b eb0f 86bb
00000140: a29b b0bc b43d 983c f5a5 d5bb 56fb 9cbc
00000150: c834 0c3c f690 0a3c 42b9 883b 9b9e a03b
00000160: 084b c53b 096f 28ba b692 6bbc e197 97bc
00000170: ca14 8f3c e7ce 65bc d57e 893a 501c 2e3c
00000180: a761 6b3c 1309 3d3b b34c 5e3c 48ae 44bc
00000190: d169 a43c fe08 3c3c 287e c13c 75a2 a7bc
000001a0: de27 9fbb c403 39bb 2af7 c53b a0a3 283c
000001b0: 6519 19bb 9e9e 3bbc 459b 66bb da62 96ba
000001c0: de4b 4b3c ba18 283c 0649 2d39 17a2 cbbb
000001d0: 8435 a33c a3d0 bc39 465f 83bb 7bc8 99bb
000001e0: 46fc 9dbb af63 98ba 82cf 90bc 73ec 3d3c
000001f0: b33a b1bb c650 0dbc 2462 a0bb 862b f73b
00000200: e80d 723c 9016 4abc c7b7 753b 6542 b7bc
00000210: 0117 7a3b 2ca9 87bc 1d23 543c 4689 aa3b
00000220: 1a14 493c b1cb e1bb c7e2 87ba f7f0 253c
00000230: 292f 223b 5970 35bb 9c84 71bc 2f21 44bc
00000240: 3be0 6bbb f40c 923c 6ef9 68bb d993 013a
00000250: 0656 2b39 f2ee ba39 0da9 313c 801e a7bc
00000260: 4f4d 483c 8e32 76bc 50d0 75bc c883 9a3a
00000270: 4cbe 8a3b e274 58bb 1d6e a23a c98b a3bb
00000280: a3a3 44bc 4ad2 b3bb 6372 3ebc b5ed 9cba
00000290: 6311 d4bb 1272 e03b 4571 6e3b 07d4 293c
000002a0: 5be7 bbbb 3177 d6bb 49d8 803b 8f78 44bc
000002b0: 0ed1 8a3b bc78 38bc 87cb 693b 8e45 29bb
000002c0: 1092 9c3b 34b6 823a 6a07 3e3c a7a5 4b39
000002d0: d433 8e3b a3cc 573c 1d40 4b3a 46ba fa3a
000002e0: 0a2c 06ba 1a7d 32bc d33f b83b 4cba fe3b
000002f0: ec92 9ebb 1dcc 893c 606c 11bb c7fd 87bc
00000300: 72d8 5d3b 9774 0dbc 94a5 96bc 40b6 8ab8
00000310: c3cc 8f3b 908a 57bc b671 253b 956e 95b9
00000320: afd3 cdbb 2e62 163c 0475 8e3b 1aff b93c
00000330: c3e6 03bc 5dc0 69bb e629 ad3b a70f 033c
00000340: 5f65 403c c3eb d73b 12b6 743a 1a83 ab3b
00000350: 3b84 42bc 1363 2d3c 4dc2 323a ea56 82bb
00000360: 9eb2 fd3b da2f 183c 6c1c ce3a 077b 213c
00000370: b36e 763c c679 453b 5884 43bb 469c 80bc
00000380: 7039 873b 1bd6 223a 960e a5ba cbd6 a93c
00000390: c06e 663c ae77 823c 7009 b4bb 7d62 f6bb
000003a0: 0639 a13b 38c7 07bc 3a39 41b9 094d f2bc
000003b0: 5b88 133b 2981 c3bb a953 95b9 1fa1 11bc
000003c0: 479b 873c 55f8 b8bc 0fcb d5ba 4105 963c
000003d0: af50 013c 157a 4ebc 7128 b9bc 83f7 823b
000003e0: 7464 b9bb ddbc 063c 2b99 8cbb d89d 0f3c
000003f0: 5bb9 0c3c 7397 7e3c 07dd 533c 66f2 04bc
-0.0030863842 -0.0044353106 0.005268216 -0.00060868514 0.018908765 -0.009998589 0.014593278 -0.018702231
-0.008039988 0.015768707 0.0019165716 -0.0028912555 0.0015793849 -0.006729971 -0.0074523836 -0.014872889
-0.0015676921 0.0028846906 -0.0054432065 -0.012042943 -0.0021652346 -0.007477099 -0.017090805 0.011049881
0.008888172 0.020162642 -0.0020641203 -0.004086609 -0.0044823647 0.010401198 -0.0014579772 -0.0007883493
-0.0056022983 -0.009442303 0.0020073403 0.01306144 -0.018702943 -0.003585498 -0.014349981 0.0027791485
-0.0049117426 0.0062791295 0.006995728 0.019500824 -0.0031051112 0.0017850003 0.00700807 -0.005824645
-0.0017658044 -0.0078122136 -0.005941817 -0.0086188475 0.000625641 -0.0072370647 -0.0067017507 0.020443033
-0.012356449 -0.0043248353 0.01189668 0.016730135 0.011514762 0.015577649 0.018588366 -0.011400082
0.017554957 0.0069369753 0.00845829 -0.0010027315 -0.01216374 0.0009014197 0.0011943366 -0.009210866
0.0030626657 -0.009999102 -0.008403946 -0.0035724705 0.0067351754 0.011750441 0.006032622 -0.004091253
-0.021558587 0.01858411 -0.0065200278 -0.019162815 0.008557506 0.008457413 0.004172475 0.0049017197
0.0060209073 -0.0006425237 -0.01437824 -0.018505039 0.017465968 -0.01402638 0.0010490069 0.010626867
0.014366544 0.002884452 0.013568091 -0.0120044425 0.020069988 0.011476753 0.023619726 -0.020463208
-0.0048570475 -0.0028231004 0.006041427 0.0102929175 -0.0023361084 -0.0114513915 -0.0035187763 -0.0011473552
0.012408225 0.0102598015 0.00016525769 -0.006214391 0.01992298 0.000360136 -0.00400916 -0.0046930886
-0.004821333 -0.0011626388 -0.017677072 0.011592018 -0.005408609 -0.008625215 -0.004894512 0.00754303
0.014773823 -0.012334481 0.0037493573 -0.022370527 0.0038160684 -0.01656016 0.012947825 0.0052043526
0.012272859 -0.006890737 -0.0010367268 0.010128251 0.0024747348 -0.0027685373 -0.014741089 -0.011970802
-0.0035991806 0.017828442 -0.0035549062 0.00049429905 0.00016339877 0.00035654713 0.0108435275 -0.020400286
0.012225463 -0.015026702 -0.015003279 0.0011788541 0.004234111 -0.0033028652 0.0012392435 -0.004991029
-0.012001905 -0.005487715 -0.011623952 -0.0011972698 -0.006471799 0.0068495357 0.0036383432 0.010365493
-0.005734367 -0.0065449704 0.003932033 -0.011991634 0.004236347 -0.011259254 0.003567429 -0.0025828811
0.004778154 0.0009972514 0.011598447 0.00019421299 0.0043396745 0.013171348 0.0007753389 0.0019129
-0.00051182567 -0.010894084 0.005622843 0.007773673 -0.004839292 0.016820962 -0.002218984 -0.016600503
0.0033850935 -0.008633754 -0.0183895 -6.6142995e-05 0.004388423 -0.0131555945 0.002524478 -0.00028501885
-0.006281338 0.009178681 0.0043474454 0.02270465 -0.008050623 -0.0035667636 0.0052845357 0.007999337
0.011742919 0.0065893843 0.0009334992 0.0052341344 -0.0118723465 0.010582703 0.0006819114 -0.003977646
0.00774224 0.009288752 0.0015725023 0.009855992 0.015041041 0.0030132397 -0.0029833522 -0.015699517
0.00412672 0.0006211714 -0.0012592848 0.020732304 0.014064491 0.015926208 -0.005494289 -0.007519065
0.004920128 -0.008287244 -0.00018427233 -0.029577749 0.0022511694 -0.005966325 -0.00028481826 -0.008888512
0.016553534 -0.022579351 -0.0016311127 0.018313052 0.007892772 -0.012602349 -0.022602292 0.003996791
-0.005657727 0.008223739 -0.00429072 0.00876566 0.008589114 0.015539038 0.012931115 -0.008114433

net.2.linear.bias f4 [32]
00000000: 835f 38bc e580 9f3d f5a5 c4bd 2b41 a1bd
00000010: 12b9 21bc ca19 86bd b1c6 93bd 27b4 f13d
00000020: 3694 d3bd 0af1 a5bd 2a6c c83d 68e4 123e
00000030: 9b79 983d 7644 9cbd 9173 093e 8501 15be
00000040: 0f85 6f3d 8c42 aebd 1fea c2bc 081a ff3d
00000050: 968b de3d 00ba c23d f348 843d 399a ccbd
00000060: a0ec 413d 2c75 1b3d f00a e4bc 12ab debd
00000070: 0b56 1ebe 9d53 5dbd d953 2dbe c43a 973c
-0.0112532405 0.077882566 -0.09601966 -0.07873758 -0.009870784 -0.065478876 -0.07215632 0.118019395
-0.10331003 -0.08102615 0.09786256 0.14344943 0.074450694 -0.076302454 0.13422991 -0.14551361
0.058476504 -0.085087866 -0.023793278 0.12456137 0.10866468 0.09508133 0.064592265 -0.09990353
0.047344804 0.03795354 -0.027837247 -0.10872473 -0.1546251 -0.054034818 -0.16926517 0.018460639

net.3.linear.weight f4 [32, 32]
00000000: b020 3ebc abc8 9a3c 1087 50bc b062 4e3b
00000010: 6537 113c 7764 9abb 2d8a b3bc 95fb 17bb
00000020: 7b4c 1abc 4d0b 81bc 8f34 673a 3f6b 833c
00000030: 183d 4f3c b5dc 4c3c 81dd 0bb8 19e5 713c
00000040: eca5 52bc 53ef ea3a c0f3 c6bb 896b 85bc
00000050: be96 093d fca9 853b 0c89 8a3a 6e46 bf3b
00000060: 7f74 223c 5f76 d0ba 77b4 0b3c fefb 16ba
00000070: 87d8 d03b 8d65 8ebc bcb6 11bb 279e a03c
00000080: d421 f7bb 9a11 14bc 872a b3bc 9880 5ebb
00000090: 5615 9c3c 9d7b 8abc 9869 3fbc ab12 b23c
000000a0: be4f e33b 34e4 c4ba cc30 5bbc a85e 52bb
000000b0: d78a 86bb 0d91 883b b3b8 f73b b988 db3a
000000c0: b244 afbc cacf b83a 42b5 0d3c 51a6 1fbb
000000d0: 6383 dd3b e907 41bb 6c90 8e3a b5fc fabb
000000e0: 6c10 4fbb 1e00 9a3a 575c e83b 0914 e63b
000000f0: 5b45 0cbc 0d24 623c 8ef6 57bc 777e 0e3c
00000100: 68da 2f3b 2234 9fbc ab06 82bc 77d8 873b
00000110: c580 1f3a ed52 003c af9d bd3b 6a5d 8fbb
00000120: 6b40 433c 6bd7 59bc cea1 5cbb 781b 3f3c
00000130: cab7 243c 7b7c 203c 5d56 0e3c 86de e2bb
00000140: 2047 94bc 081c 92bb 3e0c 943c d65c 1e3c
00000150: 31de 4d3c 4531 9dbb 46c6 823b 2c37 153c
00000160: b720 c83b 9790 58bc 7a8b d5bb 07bf a13b
00000170: 68ab 91bc dfae 06bc fc8f 8bbb f770 74bc
00000180: b81f f839 b523 9e3c dc89 07bc b29f 093c
00000190: 3fb4 91ba e16c 6abc f27a 27bc bdce 3e3c
000001a0: 7e85 00bc 9b38 bd3b 25a6 2b3c 1d1e 4cbc
000001b0: 89ba 0cbc 5134 383c ae58 823c ec6b 6ebc
000001c0: f92d 893c f347 d4bb 30f7 753c 471a 39bc
000001d0: 0c77 153c dfe9 cd3b 65d0 4c3c 0967 7dbc
000001e0: 4dba a43c 2d9b 923c 641c 883b 0021 18bc
000001f0: 4d64 3d3b 034f 473c 4234 203c b260 743a
00000200: f35d 96bc e664 ab3c 8581 02ba f680 4dbc
00000210: 4707 413c d6ea 7abc d835 7c3c 8ec3 1e3c
00000220: 26de b33b e99f 583b 51af 923b 4428 b13c
00000230: 7411 95bc 6864 df3c b1c0 8bbb ea0b d9bc
00000240: 13e5 44bc 8892 2fbc e34f 513c 8e55 06bc
00000250: 164c 6fbc 9a18 82bb d6e1 efbc c04e 593b
00000260: 6094 9ebc 4158 173c d1b6 fc3b f505 de39
00000270: 0a24 82bc 8548 07bc 78a1 3d3b 17eb 023b
00000280: 1d0e 953c 490a dd3b 3d8b 38bc db72 e73c
00000290: 3b08 823c d69e a63b 3ad3 d93b 9845 03ba
000002a0: e557 cdbb f4ef fbbb f82e 4bbc 5925 8e3c
000002b0: ea27 c73b 2db9 9cbb 8721 2fbc 5c32 9d3c
000002c0: 681d 253a 0314 9aba f611 4f3c 4191 543c
000002d0: b523 0bbc 8dd3 6039 5c4d bbbb d833 cdbb
000002e0: 2d9f 2f3c 668d 1c3c 8d7a 833c abcb fd3b
000002f0: b23e a43a c965 7ebc ac4f 063a 261e 30bb
00000300: 4a5d d8bb 1ca9 903b f1fd ec3c 1988 493c
00000310: de63 8dbb 0f51 a53c 3e1b b03c ac2b c0bb
00000320: 5b0f 923c 519f 3dbc 6042 d83b c63f 853b
00000330: c3aa f23b 7b2f 1a3c ec5d 4a3b 0941 8b3b
00000340: e7b6 983a 6992 153c 5ea7 febb 451a 743b
00000350: 3fc2 a4bc eaf8 2d3c a68a 60bc 569d a8bc
00000360: 4cd9 913b 0e11 fdbb ffd5 773c a93e 983c
00000370: f161 2b3b 56f6 85bc 0475 a7ba f258 09bc
00000380: d686 053d 667c 2b3b e2ff 9f3c e4d0 b93a
00000390: d680 b5bc a991 7c3c b1e1 403b d02b acbc
000003a0: 9c9a 743c a12d 463c e7b5 e4bb 7b1c 8dbb
000003b0: 664b 153a 90f8 773a 573d bfbb 4d18 0e3c
000003c0: 4cf2 b23c eec2 61bc b3ec 89bb 24db b73b
000003d0: 7bd5 97bc e58a d2bb ee50 80bc ebca be3c
000003e0: 56f9 623c ab91 713b 7a62 913a 1249 51bb
000003f0: 4a57 203b 77af a03b 3faa d8bb 5f04 2ebc
-0.011604473 0.018894514 -0.012727514 0.0031491928 0.008863305 -0.0047116834 -0.021916473 -0.0023190726
-0.009417648 -0.015752459 0.00088197825 0.01604235 0.012648843 0.0125037925 -3.3346474e-05 0.014764094
-0.012856942 0.0017924107 -0.0060715377 -0.016286628 0.033591025 0.0040791016 0.0010569408 0.0058372533
0.00991547 -0.0015904418 0.008526913 -0.00057595957 0.0063734683 -0.017382408 -0.0022234162 0.019606663
-0.0075418744 -0.0090374 -0.021870865 -0.003395116 0.019053143 -0.016904647 -0.01168289 0.021737417
0.0069369962 -0.0015021623 -0.013378333 -0.0032099877 -0.0041059065 0.004167682 0.0075598597 0.001674912
-0.021395061 0.0014100012 0.008649172 -0.0024360607 0.0067600473 -0.0029454178 0.0010876781 -0.0076595196
-0.0031595482 0.0011749303 0.007091086 0.0070214313 -0.0085614575 0.0138025405 -0.013181342 0.008697144
0.002683306 -0.019434039 -0.01587232 0.0041456777 0.0006084557 0.007832271 0.0057866196 -0.0043751495
0.011917214 -0.013295989 -0.003366578 0.011664264 0.010053584 0.009795303 0.008687583 -0.0069234995
-0.018100321 -0.004458908 0.018072244 0.0096656885 0.012565182 -0.004797133 0.003990921 0.009107392
0.0061074155 -0.013218067 -0.006516871 0.0049361023 -0.017781928 -0.008220403 -0.0042591076 -0.014919511
0.00047325878 0.019304136 -0.008272614 0.008399891 -0.001111634 -0.014308185 -0.010222184 0.01164597
-0.007844327 0.00577457 0.010476624 -0.012458351 -0.008589395 0.011242942 0.015911426 -0.014552098
0.016745554 -0.0064783036 0.015012547 -0.011297769 0.009122621 0.006283983 0.012500857 -0.01546646
0.020108366 0.01789626 0.004153775 -0.009285212 0.0028898895 0.012164834 0.009778084 0.000932227
-0.018355345 0.020922136 -0.00049784064 -0.012542954 0.01178152 -0.015314778 0.015393697 0.009690179
0.0054891286 0.0033054298 0.0044764658 0.021625645 -0.018196799 0.027269557 -0.004264914 -0.026494939
-0.012017506 -0.010716088 0.012775394 -0.008199109 -0.014605543 -0.003970218 -0.029282492 0.003315851
-0.01935786 0.00923735 0.007712223 0.00042347578 -0.015886325 -0.008257036 0.0028935354 0.001997655
0.018195206 0.006745611 -0.011263666 0.02825301 0.015873065 0.0050848527 0.0066474946 -0.00050076237
-0.0062665814 -0.0076885168 -0.012401335 0.017351793 0.006077756 -0.004782817 -0.010689146 0.019189052
0.00062986324 -0.0011755232 0.01263856 0.012974084 -0.0084924 0.00021441113 -0.005716009 -0.006262284
0.010719103 0.009555196 0.016049648 0.0077452264 0.0012530892 -0.015527197 0.00051235664 -0.0026873439
-0.006602918 0.0044146907 0.028929682 0.012300515 -0.0043148836 0.020180253 0.021497365 -0.005864581
0.017829588 -0.0115736285 0.0065997094 0.0040664403 0.0074056103 0.009410734 0.0030878736 0.004249696
0.0011651189 0.009129145 -0.0077714166 0.0037247103 -0.020112155 0.010618428 -0.013704931 -0.020582836
0.0044509526 -0.0077229803 0.015126704 0.018584566 0.0026150907 -0.016352814 -0.0012775962 -0.008383023
0.032599293 0.0026166677 0.019531194 0.0014176634 -0.02215616 0.015415587 0.0029431398 -0.021016985
0.01492944 0.01209584 -0.0069796923 -0.0043063737 0.0005695134 0.0009459341 -0.0058361697 0.008672786
0.021844052 -0.013779385 -0.004209125 0.0056108404 -0.018534413 -0.006425249 -0.01566359 0.023290118
0.013853392 0.0036860507 0.001109197 -0.0031934422 0.002446609 0.0049037295 -0.006612092 -0.010621159

net.3.linear.bias f4 [32]
00000000: 8093 81bc 8d4a 16be e685 d8bb f61a 1e3e
00000010: 2126 0cbe ec2b 213e b706 dabd 80be ffbd
00000020: d854 38bd c2b2 f53c 86ef e4bd 79a1 283e
00000030: 6f99 61bd d196 dc3d ee35 023d d847 b63d
00000040: a5c7 013e 7fb7 e63d baae 413c e356 713c
00000050: 0fc6 c23d d2aa 043b 2a1d 09be c012 0e3e
00000060: 8bc2 673d 9a4c d53d d49d 803d 5cbf 413e
00000070: 2577 133e c8b3 1fbe 3cd1 bd3c adcd b83d
-0.015817404 -0.14676876 -0.006607759 0.15439972 -0.1368642 0.15739411 -0.10645812 -0.12487507
-0.04500279 0.029992465 -0.11178498 0.16467847 -0.055077966 0.107709534 0.031789713 0.08900422
0.12673815 0.11265468 0.011821443 0.014730188 0.09510433 0.0020243418 -0.13390031 0.1387434
0.056582015 0.10415001 0.06280103 0.18920654 0.14400919 -0.15595925 0.02317106 0.090236045

net.4.weight f4 [4, 32]
00000000: 8cb6 2dbd 3ea4 373d b63b 1abb 8590 563d
00000010: 267e a43c 3ccc 02bd 7d9c a33c 8c41 15bd
00000020: e4a1 03bd 4007 9abd 4610 083d ad1d b2bd
00000030: b134 5abd 831c f0bc 1676 763a b3fd 89bc
00000040: 9600 043d fcbc 40bd 301c fdbb a2ad a13c
00000050: fe44 9e3c 333d 4cbd 837f a43c 845a fa3c
00000060: 05c5 1dbb 1ddc 97bd 97e5 8fbd 851d e33c
00000070: 955b 413d e17c e139 5b3f 88bc f028 4e3c
00000080: 7a06 7f3d 9bb6 093e dd2f a8bd 6ea0 903c
00000090: ef7e 00bc 3f90 61bd 7376 623d 23e5 883d
000000a0: c9e3 403d b694 4abb 51a2 c7bb a942 18bc
000000b0: 8590 b6bd ced8 503d 032f 9bbb eb29 f83c
000000c0: 3693 203d c9f4 923d 85bb 58bd 1f65 7abd
000000d0: b417 c8bd ca48 133d dd08 a3bd 7cb7 62bd
000000e0: 7e7c 123d 4e71 973c 04eb 083d 2ed4 7cbd
000000f0: dc38 a6bd 144c 4e3d 8014 0639 d577 06bd
00000100: 2922 9ebc 238a 7fbd 8e9e 243d 31bc 50bb
00000110: 91aa 38bd ef98 b33d 4e70 2ebd b015 5a3c
00000120: f664 993c 1961 5c3b 522b 3fbd 8c2f b03b
00000130: 999e 553d d67c 2bbd ef3e 5a3b c8e3 7ebd
00000140: 67df adbd 882c 33b9 f2af 9b3c 05ac 003d
00000150: a81c 7d3d f066 66bd dc48 883c 6fee 003d
00000160: 4cea bcbb 3518 093d d6cb 943c 8880 a0bc
00000170: a1f6 fc3c fad4 713c 7c0a 66bd c10b fe3c
00000180: 0f6b 14bb 7def da3c 9ec4 783b 31fc 823d
00000190: c7d8 65bd 9f30 00bd 6a7f 6cbd 3b52 16bd
000001a0: e38b 8ebc 073c aabd d691 c6bb aa3c 24bc
000001b0: 5562 9dbd 848e abbd 6ce3 94bd fe77 8bbd
000001c0: 258e df3c 72ab febd acd5 c7bd c7ea 9c3d
000001d0: 499b a83b 6104 6dbd e43c 2a3c 24af 873d
000001e0: 0de0 80bd 10bc 95bd 6ef5 90bd e992 583d
000001f0: 58f2 933b 8a86 823c 338d 8cbd 451b 1abc
-0.04241042 0.044834368 -0.0023534126 0.05238392 0.020079684 -0.031933054 0.01997208 -0.036439463
-0.032136813 -0.07520914 0.033218645 -0.086970665 -0.053272907 -0.02931047 0.00094017514 -0.016844606
0.03222712 -0.04705523 -0.0077243075 0.019736115 0.019320007 -0.04986305 0.020080334 0.03056074
-0.0024073732 -0.0741503 -0.07026213 0.027724037 0.04720648 0.00043008386 -0.016631773 0.012583002
0.062262036 0.13448565 -0.08212254 0.017654624 -0.007842763 -0.055069204 0.055288743 0.06684329
0.047092233 -0.0030911393 -0.0060923477 -0.009293237 -0.08914284 0.05098801 -0.004735829 0.030293426
0.03920289 0.07175595 -0.052913208 -0.061131593 -0.09770146 0.03595809 -0.07960675 -0.055350766
0.035763256 0.018486645 0.033427253 -0.061725788 -0.08116314 0.050365523 0.00012786873 -0.032829124
-0.019303398 -0.062387597 0.040190272 -0.0031850452 -0.04508454 0.08769404 -0.04258757 0.013310835
0.0187249 0.003362721 -0.046672173 0.005376762 0.052153204 -0.0418671 0.0033301672 -0.062228948
-0.08489876 -0.0001708736 0.019004796 0.03141405 0.061794907 -0.056250513 0.016636305 0.031477388
-0.005765235 0.03347035 0.018163603 -0.019592538 0.03087932 0.01476025 -0.056162342 0.031011464
-0.002264682 0.026725525 0.003795899 0.06395758 -0.056114938 -0.03129637 -0.0577387 -0.036699515
-0.017400688 -0.083122306 -0.0060598655 -0.010024229 -0.07684771 -0.08376792 -0.0726994 -0.06809996
0.02728946 -0.12435044 -0.097575516 0.07661968 0.0051454646 -0.057865504 0.010390494 0.06625202
-0.06292734 -0.07311261 -0.07078062 0.05287448 0.0045149736 0.015933294 -0.06862869 -0.009405916

net.4.bias f4 [4]
00000000: d2cf e33c df51 c9bd 5562 e13d 276a 163e
0.027809057 -0.09830069 0.110050835 0.14688931
