outputs_ssh/noisy_data_NEW/chirp/1_nodes_given/10%_noise/30%_init_error/model.pt (torch, 16796 bytes, 10 tensors)

net.0.linear.weight f4 [32, 1]
000000 b2 ea 0e 3f 91 b7 97 be 26 39 0d 3f 69 15 b4 3e
       0.55826867 -0.29632238 0.55165327 0.35172585
000010 e6 a7 fd be 05 9e 26 3f f6 47 a1 bd 0a 51 48 3f
       -0.4954216 0.6508487 -0.078750536 0.78248656
000020 d2 d7 7a 3e e3 31 bd 3b 85 64 33 bf 73 2a 77 3e
       0.24496391 0.005773769 -0.70075256 0.24137287
000030 ec 1b 0a 3e 6f ab 29 bf a1 93 07 3c 27 25 9d 3d
       0.13487214 -0.6627721 0.008274944 0.07673102
000040 f2 8d 19 3f ad 2c 56 3f 11 09 be 3e 18 1f bc be
       0.59982216 0.8366192 0.37116292 -0.36742473
000050 ef 6a 59 3e c9 b1 11 3e 90 52 85 be e2 cd 2f bf
       0.21232198 0.14227976 -0.26039553 -0.6867353
000060 2b b8 a6 3d a0 6e 1f 3f 7e 58 89 3e 90 8b 1d 3f
       0.08140596 0.62278175 0.26825327 0.6154108
000070 6b 6b 5d bf ea ae 1f 3f cb 16 7c 3f 15 91 67 bf
       -0.8649203 0.6237627 0.9847228 -0.9045575

net.0.linear.bias f4 [32]
000000 ed cc 55 be f7 a1 2e 3f a2 f1 90 be 52 a9 65 bf
       -0.20878954 0.6821589 -0.2830935 -0.8971149
000010 25 eb 4a 3f 66 a9 78 bd 17 12 f0 be 00 f4 2b be
       0.7926505 -0.060708426 -0.468888 -0.16792297
000020 5f 3d c5 bc b4 a7 5d be b0 36 62 bf dd 59 11 bf
       -0.024077116 -0.21646005 -0.88364697 -0.56777745
000030 d7 56 14 bf c4 53 2c 3f 99 f3 32 3f 08 11 d7 be
       -0.5794501 0.67315316 0.6990295 -0.4200518
000040 ac fa dc be ea 58 54 bf bf 7f 8b 3e a1 96 79 bf
       -0.43159997 -0.8294817 0.272459 -0.97495466
000050 94 3f d1 3d 23 52 5d bf ff cb 1c 3f 49 49 88 3e
       0.10217205 -0.86453456 0.61248773 0.26618412
000060 23 92 65 3e 32 cd 73 be 90 89 2f be b6 19 e3 be
       0.22419028 -0.23808745 -0.1714232 -0.44355553
000070 7b 73 71 be 02 85 e6 3e 1a b3 51 bf e7 c5 45 3f
       -0.23579209 0.45023352 -0.8191391 0.772551

net.1.linear.weight f4 [32, 32]
000000 3b ab 12 bc 5e ca fb bb 9e 5a a3 3c 39 06 8a bb
       -0.008951957 -0.007684036 0.01994067 -0.0042121676
000010 55 2a cd bc ff 47 a7 bb 45 1c af bc d0 dd ce bb
       -0.0250446 -0.005105018 -0.021375785 -0.006313063
000020 e9 b8 63 3c d4 a1 ec b9 ce ac aa 3b 2e 57 12 bc
       0.0138990665 -0.00045134 0.005208588 -0.008931918
000030 94 ca 6b bb 61 8e 35 bc fd d1 fa 3b 6a ad 3d bc
       -0.00359789 -0.011081309 0.007654427 -0.01157699
000040 dc af 32 bb 96 a3 b9 3c 8f 7f 04 3c 9d 7a c3 3b
       -0.0027265465 0.022661012 0.008087053 0.0059655444
000050 74 ac 3b 3c bd 80 14 3c 6b 4b 00 3a 3f a9 88 bc
       0.01145469 0.009063897 0.00048940507 -0.016682265
000060 0a 20 8f 3c ea 46 42 3b 5f 31 97 ba a2 f9 29 bc
       0.017471332 0.002964432 -0.00115351 -0.0103744585
000070 83 41 2e 3c 8a 01 79 3b 28 63 9a bc bc ed ce 3b
       0.010635736 0.0037995302 -0.01884611 0.0063149612
000080 4c a0 4c 3c 92 f2 63 bc af 00 7a 3c 66 46 9d bb
       0.01248939 -0.013912814 0.015258952 -0.004799652
000090 97 df 90 bc fe ff 6b 3c 38 14 73 3c 21 01 1e bc
       -0.017684741 0.014404295 0.0148363635 -0.009643824
0000a0 ed 58 48 3b bb ee 0b bc 76 f0 ae bc b1 ef 9f bb
       0.0030570582 -0.0085408045 -0.021354895 -0.0048808684
0000b0 b9 31 8d bc 51 e1 12 bc 25 01 25 bc fb 4b 06 3c
       -0.017235624 -0.008964852 -0.010071074 0.008196826
0000c0 8a 58 d4 3b db 95 9d 3b 49 4c e2 3b 4c 76 ef 3b
       0.0064802812 0.004809124 0.0069060666 0.0073078033
0000d0 f8 92 99 3b 88 31 18 3c a5 bc 10 3c f3 9f 42 3c
       0.0046867095 0.009289153 0.008834039 0.011878955
0000e0 d1 c2 2d bc b8 d4 b8 3b e4 9f 99 3b c6 e9 df bb
       -0.01060553 0.0056405924 0.00468825 -0.006833288
0000f0 fe 81 3f 3b 0c 59 9d bb 94 79 ea bb 04 cd f5 3b
       0.0029221768 -0.004801875 -0.0071556065 0.0075012464
000100 bd d8 19 bc 34 01 8a bb 13 7f 33 3b 24 9f 10 3a
       -0.009390053 -0.004211569 0.0027388975 0.0005516878
000110 b7 be b1 3c 79 c1 30 bb b3 a7 b7 39 e3 85 a5 3b
       0.021697385 -0.0026970787 0.00035029426 0.005051361
000120 d7 b7 31 bb a6 f7 ac 3a a3 1b 87 3c 31 59 28 bb
       -0.0027117634 0.0013196364 0.01649267 -0.0025687928
000130 2d df e9 bb e2 03 4e bc 19 91 70 3c d8 ee 3f bc
       -0.0071372003 -0.012574168 0.0146830315 -0.01171466
000140 85 0f c6 3b e6 a1 4b bc c9 2a 41 3b 70 d8 a3 bb
       0.0060443305 -0.012428736 0.0029474965 -0.0050001666
000150 17 a6 8c 3b fe 3c 80 bc fe 64 9b 3a 70 d3 8a bc
       0.0042922604 -0.015654083 0.001185566 -0.016946524
000160 db 2b 19 3c d9 b0 58 bb a2 b2 8d bc 1b 30 3d b9
       0.009348835 -0.0033064394 -0.017297093 -0.00018042365
000170 ae 41 a3 39 58 60 25 3c 8d 83 14 bb 84 35 51 bc
       0.00031138718 0.010093771 -0.0022661418 -0.012769107
000180 56 89 31 bc 3b 46 f2 3b d8 7f f6 bb 85 3b 34 3b
       -0.010835966 0.007393626 -0.0075225644 0.0027501297
000190 51 e8 cd bc 25 d3 82 3c 77 74 1b bc d9 94 c3 b8
       -0.025135191 0.015969822 -0.009488217 -9.3260496e-05
0001a0 c8 a8 b8 ba c2 a8 95 bb 05 01 25 bc 06 cc 80 3c
       -0.0014088387 -0.0045672366 -0.010071044 0.015722286
0001b0 8c b6 b5 3c 95 d6 dc bb d9 70 55 3b a3 20 00 3c
       0.022181772 -0.0067394474 0.0032568483 0.007820281
0001c0 24 74 4b 3a 94 47 e2 bb 88 9a 4c bc ae a4 66 bc
       0.0007761142 -0.0069055054 -0.012488015 -0.014077349
0001d0 17 9d fc 3b 0d cf 9d 3b 80 0b 4d bb 90 04 03 bc
       0.0077091563 0.004815942 -0.0031287372 -0.007996693
0001e0 de 06 43 3c 56 12 a5 bb cc 56 9c 3c 95 01 43 bc
       0.011903493 -0.005037586 0.019084357 -0.011902233
0001f0 42 23 19 3b 90 1f 82 bb f7 1f fc ba 25 4d 83 bc
       0.0023366963 -0.0039710477 -0.00192356 -0.016027996
000200 e4 d3 c3 bb f4 17 ac bb 39 36 86 ba 09 02 c7 3b
       -0.005976187 -0.005251879 -0.0010239548 0.0060732407
000210 08 50 a4 bc b8 30 9c 3b 17 66 bf 3a a7 5a f3 b9
       -0.020057693 0.00476655 0.0014602569 -0.00046416113
000220 6f a4 25 bc f7 1a d5 3b c5 19 e6 38 5c 07 45 3c
       -0.010110005 0.0065034586 0.000109720546 0.01202568
000230 ad 65 91 bb d9 85 52 bb 22 a6 2e 3c cf 7b 0d bc
       -0.0044371695 -0.0032123236 0.010659726 -0.008635475
000240 cb f7 fa 3b 88 67 4c bb ec 75 47 bc eb 6a 76 bc
       0.0076589338 -0.003118964 -0.012174111 -0.01504014
000250 97 71 94 bb 52 f2 06 bb 08 ff 88 bb b2 9b 2f 3b
       -0.0045301425 -0.0020591212 -0.0041807927 0.0026795682
000260 62 70 40 3c 30 39 4e bb df 8b 20 3c 0e 65 d6 bb
       0.011745544 -0.0031467192 0.009798973 -0.0065428084
000270 7d 31 fd bb 7b 51 be 3c 05 70 d1 3b c4 f7 88 3c
       -0.0077268467 0.023232212 0.0063915276 0.016719706
000280 96 76 ad 3c 0c 61 f1 3b cb 44 f6 3a 3a 7c 3c bc
       0.02117471 0.007366305 0.0018788812 -0.011504227
000290 2a 35 28 bc aa f0 54 3b ec 56 15 3b 29 e3 6e 3c
       -0.010266582 0.003249208 0.0022787405 0.014580526
0002a0 34 1e 31 3c 61 bd 44 bc b2 bb 9b 3b 70 9f 91 bb
       0.010810424 -0.012008042 0.0047525996 -0.0044440553
0002b0 dd 6f d4 bb c5 3a 2b bc a9 58 77 bc 0d ee 62 3b
       -0.0064830617 -0.0104510235 -0.015096822 0.0034626753
0002c0 87 bb 79 3b 4f 15 ee 3b 95 e0 ce 3c 60 03 03 3c
       0.003810616 0.007265724 0.025253573 0.00799641
0002d0 5a 8a 9f bc c5 26 ef bb 02 68 64 3a bb 61 81 bb
       -0.01947515 -0.007298323 0.0008713008 -0.003948418
0002e0 b0 af 0d bc f1 bc 49 bc 13 51 b5 ba 5b 28 f7 ba
       -0.008647844 -0.012313114 -0.0013833366 -0.0018856631
0002f0 d6 be 4f bc 75 c4 23 3b 99 75 20 bc a4 8b 2e bb
       -0.012679776 0.0024988924 -0.0097936625 -0.0026633525
000300 ae 30 ab bb 9c f6 b4 bb 30 a1 99 bb 34 70 36 bc
       -0.005224309 -0.005522562 -0.0046884045 -0.01113515
000310 8d 9f 3e bc a3 c2 67 bb 74 01 40 3a f0 41 c9 3c
       -0.01163472 -0.0035363815 0.0007324435 0.024567574
000320 63 c6 50 bb 5d d6 5c bb fd bd aa 3c c7 b2 2d bc
       -0.003185653 -0.0033697106 0.020842547 -0.010601706
000330 43 cc 39 3a 70 94 d2 3a cd 6d a8 3b 81 35 0a b8
       0.00070876273 0.0016065966 0.0051400424 -3.2951593e-05
000340 b3 30 78 ba 4b a2 28 bb 45 f6 d6 ba b2 6a 83 bc
       -0.0009467706 -0.00257315 -0.0016400298 -0.016042087
000350 67 d3 3b 3b 0c 08 85 3c 2a cf 02 3c 25 3f 84 bc
       0.002865994 0.016239189 0.007983962 -0.01614339
000360 bf eb de ba ce ff 48 3b b2 4d 97 bc 88 e4 3f 3b
       -0.0017007514 0.003067005 -0.018469665 0.0029280502
000370 bb 05 63 3c 97 20 c4 bb f4 4d e9 bb 0b fb 37 39
       0.013856347 -0.0059853303 -0.0071198884 0.00017545761
000380 9a 86 1c bc 1f 7c 8e bc 0f 93 b1 3b a5 7c fc bb
       -0.009553576 -0.01739317 0.005419142 -0.0077052885
000390 8e ea 9e 3b cf 93 e0 3b 25 79 a5 bc 86 0c 83 3c
       0.0048497384 0.0068535577 -0.020199368 0.015997183
0003a0 bc 9a 4c bb e1 8a 8a bb af 99 c5 bb b4 4b d8 3b
       -0.0031220159 -0.0042279814 -0.0060302834 0.0066008214
0003b0 58 b9 38 bc 26 cc ea bb fc 38 20 3b 44 4f 41 bb
       -0.011274658 -0.0071654497 0.0024448028 -0.002949671
0003c0 cb 26 06 bc 4e 4f 4f 3b dc 67 65 3c 56 c0 06 bc
       -0.00818796 0.0031632963 0.014001813 -0.008224567
0003d0 7c ef da 3b 3c db 4d 3c 55 20 0d bc d1 da 4d 3c
       0.006681381 0.012564477 -0.008613666 0.012564377
0003e0 e5 58 68 3c e8 e7 2b bc 96 04 42 bb 41 f5 3a bc
       0.01418135 -0.0104923025 -0.0029604784 -0.011411012
0003f0 b7 06 aa 3c 9d f9 75 3c 87 aa a7 3b 47 3d f8 bb
       0.020755155 0.015013126 0.005116764 -0.007575664

net.1.linear.bias f4 [32]
000000 78 15 19 3d bf 9d 81 3c 9f e5 d3 3d 9e c2 cb bd
       0.03737399 0.01582229 0.10346531 -0.0994923
000010 6f bf cd 3d fa d1 e7 3d 80 e0 bb bd 99 d8 b9 3c
       0.10046279 0.11319347 -0.09173679 0.02268629
000020 47 52 b2 3d f9 89 fe bd d3 26 2a be 38 bf 77 3d
       0.087070994 -0.1242866 -0.16616373 0.060485095
000030 6e 55 f0 ba 5f 5c 0d 3d 19 18 ce 3c 09 e8 2c be
       -0.0018336007 0.03451192 0.025157975 -0.1688539
000040 f7 f9 b1 3d da 7a 7c 3c 09 bc 25 3e 57 96 0d bd
       0.08690255 0.0154101495 0.16185011 -0.034567203
000050 c1 54 26 be b1 75 04 3e 51 b7 25 be 23 0e da 3d
       -0.16243269 0.1293552 -0.16183211 0.106472276
000060 c0 e4 e1 bd e7 71 ae bd e9 2c 31 3c 54 cc 5b 3d
       -0.11029959 -0.08517819 0.01081393 0.05366166
000070 37 b6 d2 bc cd 4c c9 3d 0f b8 1b be b5 a9 a7 3d
       -0.025721652 0.09829102 -0.15206932 0.08186666

net.2.linear.weight f4 [32, 32]
000000 13 44 3f bc 5b c7 d1 ba b3 42 1d bc 9d 73 39 38
       -0.011673945 -0.0016004847 -0.009598422 4.421511e-05
000010 8d eb 38 bc de 9e 83 3a 81 85 c9 3a 52 06 35 bb
       -0.011286628 0.0010041853 0.001537487 -0.0027622175
000020 d4 2c f6 bb 7c 5b ae 3b 2a cf 5b ba 73 3f 59 3a
       -0.007512668 0.0053209644 -0.0008385057 0.0008287348
000030 46 06 8a 3c 2e 4c 7c 39 54 25 e5 ba 6d 4d 95 bc
       0.016848695 0.00024060972 -0.0017482438 -0.018225396
000040 fe 57 12 bc 34 51 48 bb 31 fd 5d 3c 5e e9 fb 3b
       -0.008932112 -0.003056598 0.013549135 0.0076877316
000050 60 9a 50 bc 27 b3 1b bc bc fa 76 bb 60 84 93 3b
       -0.012732118 -0.0095031625 -0.003768607 0.0045018643
000060 e9 1d 9a bb 15 8f 4c bb fa 1b 80 bb a0 4b 81 bc
       -0.0047032726 -0.0031213213 -0.003909585 -0.015783131
000070 fb ac 0a bc b9 67 ac bb 96 50 30 bc 0a 05 38 bc
       -0.008464093 -0.005261388 -0.010761401 -0.01123167
000080 1a 5b 08 bc 3f 2f a5 3c cd aa c7 3b 79 44 09 3c
       -0.008322502 0.02016413 0.006093359 0.008378142
000090 cf 1f ec bb 92 79 d7 ba 92 d8 9c 3a 94 ea 5a 3b
       -0.0072059403 -0.0016439429 0.0011966398 0.003340398
0000a0 f8 9f 85 3b 48 00 91 3c f3 03 c1 bb fd 61 d4 bb
       0.0040779077 0.01770033 -0.0058903634 -0.0064814077
0000b0 24 04 d6 bb a6 ba 36 ba d6 77 ba 3b 72 73 6a 3b
       -0.0065312553 -0.0006970562 0.005690555 0.0035774377
0000c0 f5 63 1f bc c0 e6 94 bc f0 29 bc 3b dc 58 ac bb
       -0.009728421 -0.018176436 0.005742304 -0.0052596163
0000d0 bc 57 19 3c 5b d6 bf 3a ef f5 0b bb e4 d6 7b 3b
       0.009359296 0.0014636026 -0.0021356305 0.0038427645
0000e0 ef 9a da 3c 40 cf 75 ba 25 af 04 3a e4 9a a3 3b
       0.026685206 -0.0009376891 0.0005061499 0.0049928296
0000f0 b0 54 3a bb 8f 9e a5 3c 22 ce 0e b7 45 de 87 3b
       -0.0028431825 0.020217208 -8.511854e-06 0.0041463696
000100 13 38 0d bc 37 e9 c5 3b a9 5c 8c 3c 39 f8 85 ba
       -0.008619326 0.0060397643 0.017134028 -0.0010221071
000110 01 9a c3 bb 96 33 79 bb 43 3c 49 bc c4 33 93 3c
       -0.0059692864 -0.0038025132 -0.012282434 0.01796902
000120 99 90 8a bb 1c 95 a1 bb e4 d9 12 bc 28 8b 31 3a
       -0.004228663 -0.0049311053 -0.008963082 0.000677275
000130 f9 66 ed 3a 4e c5 67 3b 95 15 e5 3b 32 76 0c bc
       0.0018112353 0.0035365405 0.006991098 -0.008573102
000140 54 c3 af 3b 59 a3 c9 3c 62 6f c0 bb 97 d4 44 bc
       0.005363861 0.024614023 -0.005872653 -0.012013576
000150 22 3d ae 3b be 5f 86 bc 3d 10 cc 39 9a d3 59 bb
       0.005317346 -0.016403075 0.0003892201 -0.0033237697
000160 85 27 b3 bc 69 24 4b 3a 7a f7 11 3c 8f 26 38 3c
       -0.02186943 0.0007749261 0.008909101 0.011239662
000170 fd f9 1f bb 77 a0 26 bc 94 a0 b1 3b e1 80 91 3b
       -0.002441048 -0.010170094 0.0054207537 0.0044404124
000180 ad e9 8e 3c 5c 82 2f 3c 7f 3b 37 bb 1a c5 82 bc
       0.01744541 0.010712232 -0.0027959046 -0.015963126
000190 3e 09 bd bc 1b 9a e4 bb 03 6d 0b bc fe 72 6d 3c
       -0.023075696 -0.0069763786 -0.008509877 0.014492748
0001a0 51 a6 fa ba 4b 64 be bb 3c f3 0d 3b 55 44 e1 3b
       -0.0019123052 -0.0058102957 0.0021659872 0.006874601
0001b0 6e 4e a3 3a 12 56 69 3c f9 fe 9c bb a0 47 2b 3c
       0.0012459287 0.014241712 -0.0047911373 0.010454088
0001c0 3d f8 29 3c 09 41 85 bc 6c 7b c5 3b 2c 07 da bb
       0.010374126 -0.016266363 0.006026676 -0.006653687
0001d0 cf 97 d9 bb 02 bb 16 bc 93 92 84 3c a5 15 1a 3c
       -0.0066404114 -0.00919986 0.016183173 0.0094045745
0001e0 b3 1c 4f bc 26 59 0d 3c 30 ca ab bb 5a 4f 34 bb
       -0.01264112 0.008627212 -0.0052426085 -0.0027513118
0001f0 d3 5f dd bb 72 44 40 3c 51 75 64 3c ba 54 9d bc
       -0.006755808 0.011735069 0.013943986 -0.01920544
000200 7c 5c 1c ba 24 6e a2 3c 8c bd 30 ba fd 9c 4a 3c
       -0.0005964709 0.01982791 -0.0006742112 0.0123665305
000210 28 62 9c 3c a0 46 90 bb f0 fd 06 3c 71 6b 57 3c
       0.019089773 -0.0044029504 0.008239254 0.013148175
000220 61 41 55 3b dd 8a fb b7 e2 00 cf 3b d3 67 ae 3b
       0.003254019 -2.9986195e-05 0.006317244 0.0053224354
000230 b1 fa ed ba 44 d6 c5 bb 40 56 36 3c 77 b8 dc 3b
       -0.0018156377 -0.0060375053 0.011128962 0.006735857
000240 39 a4 a9 3b 0c 45 8f 3c 23 6a 17 bc 93 71 47 bc
       0.0051770476 0.017488979 -0.009241614 -0.012173074
000250 2f 72 6f 3c 6c 96 94 b8 3c e6 3d bc c3 b7 a5 bc
       0.014614626 -7.085208e-05 -0.011590537 -0.020229226
000260 da 20 5d bc 5b 59 24 bc 24 55 28 bc 40 a5 94 3b
       -0.013496602 -0.01003107 -0.010274205 0.004536301
000270 42 02 57 bc 49 e2 d6 bb 92 35 a2 ba 7c 1d d4 3b
       -0.013123097 -0.006557737 -0.0012375584 0.0064732414
000280 52 32 49 bc 91 cf 0f bc 88 e3 85 3c b4 90 3b bc
       -0.012280064 -0.008777515 0.016343847 -0.011448074
000290 e7 ab 1e 3c 41 73 9b ba 04 a1 8b 3c ab 63 34 bc
       0.009684539 -0.001185991 0.017044552 -0.011010091
0002a0 43 59 c7 bb a5 19 b5 bb 04 7b 5c 3c 08 02 01 bc
       -0.006083639 -0.0055267387 0.013457064 -0.007874019
0002b0 16 2d d0 bb 1b f0 65 ba b3 22 ca 3b 63 13 99 bc
       -0.006353031 -0.0008771435 0.0061686873 -0.018686002
0002c0 67 8a 36 bc 43 61 f1 bb 45 6a 00 b8 3f a8 90 39
       -0.011141396 -0.007366331 -3.061655e-05 0.00027591173
0002d0 f5 d3 6a bb 5f 37 b9 3b ec 7d ae bc 6c 7a 18 3b
       -0.0035831903 0.0056523527 -0.021300279 0.0023266328
0002e0 db 53 13 bc a0 11 d4 ba e3 55 88 bb 6f 25 85 bc
       -0.008992161 -0.0016179569 -0.004160629 -0.016253201
0002f0 59 77 f6 3b 31 c0 84 bb bc fb 81 bc d1 c3 bd 3a
       0.0075215516 -0.0040512313 -0.015867107 0.0014477914
000300 34 86 4b bc 68 c6 30 bb 32 d4 b6 3b cc d0 18 3c
       -0.012422133 -0.0026973728 0.005579495 0.009327125
000310 13 93 d4 3b 97 71 89 3b e5 e4 86 bb e0 d8 19 bb
       0.006487259 0.004194449 -0.004116642 -0.0023475215
000320 aa 92 03 3b cc 5c 86 bb 44 77 08 bc 2c 82 93 3b
       0.0020076432 -0.0041004177 -0.008329216 0.0045016017
000330 76 db 0a bc af 7f be 3b 74 44 41 bb fc f1 e2 bb
       -0.008475175 0.005813561 -0.0029490264 -0.0069258194
000340 fc 87 a2 3b 54 e6 83 bc 45 d0 58 3c e0 17 06 3c
       0.0049600583 -0.01610104 0.013233249 0.008184403
000350 78 1c 44 bb 09 a4 7e 3a ee a2 ca bb 27 25 24 bc
       -0.0029924195 0.0009713774 -0.0061839735 -0.010018623
000360 d1 b3 51 bc b0 99 e5 3a 79 46 f7 39 a7 f2 65 3c
       -0.012799219 0.0017517116 0.00047164017 0.014034904
000370 d7 90 07 bc 74 bf a1 3b 96 77 4a 3b 02 c9 98 3a
       -0.008274279 0.004936153 0.0030894033 0.0011656585
000380 05 fd 0a bc 20 61 72 3b 32 33 86 3b eb a5 fe 3b
       -0.008483176 0.003698416 0.0040954584 0.007771244
000390 1e 95 59 3a 72 85 8a 3c cf 97 81 3c 44 1f 93 3a
       0.0008300113 0.016909335 0.015819458 0.0011224528
0003a0 71 cc b7 b9 d7 c4 d8 bb f4 09 8a bc 3f e6 74 bc
       -0.000350568 -0.006615262 -0.01685045 -0.014947473
0003b0 b7 9f 0e bc 0e 09 11 3b ed ea 3b 3c 65 3b 59 3b
       -0.008705071 0.002213064 0.011469585 0.0033146974
0003c0 ad 0e 2f 3b 04 01 66 b9 c0 0d 82 3c b8 32 14 3c
       0.0026711628 -0.00021934888 0.015875697 0.009045295
0003d0 74 2b 3a bc 1b c1 d3 bb ca 55 21 bc 68 fe e5 3b
       -0.011362899 -0.006462229 -0.009847114 0.007018853
0003e0 3e 1e ad bb b0 a9 29 3c 45 b6 3e bc ab 25 d6 3a
       -0.005283146 0.010355398 -0.011640136 0.001633813
0003f0 bb 37 fe 3b 7d c6 92 3b ba 90 42 3c 22 2a 27 bc
       0.0077581084 0.004479228 0.011875326 -0.010202916

net.2.linear.bias f4 [32]
000000 e8 7e 5d 3d 8b 0b b0 3d 74 e4 b4 3c 26 8a 31 bb
       0.054076105 0.08595952 0.022081591 -0.00270904
000010 34 50 1a be 57 68 b7 3d 3d 58 4a 39 be 7f 1e be
       -0.15069658 0.08955448 0.00019297093 -0.15478417
000020 59 28 32 be 48 81 15 3d af d2 9a bd 9c 2a 24 3e
       -0.17398204 0.036500245 -0.07559716 0.16031879
000030 a5 70 47 3d 8a a4 1f be 93 3d 1c bc 8e 61 13 3e
       0.04869141 -0.1559011 -0.009536165 0.14392683
000040 71 7d 36 3e e3 a5 ff 3d ab 71 15 3e 64 b1 52 bd
       0.1782129 0.12482812 0.14594142 -0.051438704
000050 6b 30 c8 3d ef 1e b7 bd d0 eb 5f 3b 98 c0 f9 3c
       0.0977486 -0.08941447 0.0034167655 0.030487344
000060 48 93 b6 3d 5a ad bb bd 70 34 ac bc 7b 10 a4 3d
       0.089148104 -0.091639236 -0.021021098 0.08010956
000070 7c a0 79 3d ee 1f 08 3e 49 ac 1f 3e 35 13 1b be
       0.060944065 0.1329343 0.15593065 -0.15144046

net.3.linear.weight f4 [32, 32]
000000 7d 9b 1d ba cd 6b 25 3c b7 70 7e 3c 30 43 29 bc
       -0.0006012244 0.0100965025 0.015529803 -0.01033096
000010 39 4e b0 3c 99 19 20 3c 38 9f d8 ba 56 d8 11 bb
       0.021521674 0.009771728 -0.0016526943 -0.002225419
000020 18 9d 96 bb 05 8f ce 3c 10 9e dd 3c 14 64 0b bb
       -0.0045963638 0.025214681 0.02705291 -0.0021269368
000030 34 5e c3 b7 57 4f c6 bb 13 73 fe bb 70 44 ec 3a
       -2.3289678e-05 -0.0060519385 -0.0077651828 0.0018025767
000040 d6 f1 ee bb b8 93 0a bd 27 b7 d8 bc 15 49 aa 3a
       -0.0072920127 -0.03383228 -0.026454521 0.0012991751
000050 f8 52 8b 3c cb 01 27 3b 0a 82 04 3d 7a 43 29 bc
       0.017007336 0.0025483246 0.032350577 -0.010331029
000060 7e 7b 8c 3c 28 76 87 bc 9a 65 e7 bb 48 b5 a7 3c
       0.01714873 -0.016535833 -0.0070616724 0.020472184
000070 e8 67 38 3c 34 36 95 bc bd 1f aa bc 0e bf 22 bb
       0.011255242 -0.018214323 -0.020767087 -0.0024833116
000080 a9 85 90 bb b3 8e b9 bc 43 4f 6b bb e9 f0 e7 3a
       -0.004410465 -0.022651052 -0.0035905398 0.0017695698
000090 ca 55 91 3a 00 a7 f6 b9 23 78 78 3c e9 73 5a 3c
       0.0011088189 -0.000470452 0.015165362 0.013333299
0000a0 c3 d4 06 bc 11 a3 2e 3c 96 5d 18 3c ed 29 e0 bc
       -0.008229437 0.010658995 0.009299656 -0.027363742
0000b0 aa e3 fc ba e1 37 bd 3b 9a 6b 2e bc 49 66 4a bb
       -0.0019293923 0.0057744836 -0.010645771 -0.003088372
0000c0 0d a4 32 bc ef f7 12 bc c0 8b 03 3c e8 1d 38 bc
       -0.010903371 -0.008970245 0.008028924 -0.011237599
0000d0 45 cd 08 3d 21 ca a7 3b e0 ac 75 3c b5 7f 69 bc
       0.033398885 0.005120531 0.01499483 -0.014251639
0000e0 1f 8b f5 3b 67 43 fd bb 6d 89 40 3c 91 a7 c6 ba
       0.007493391 -0.0077289823 0.011751515 -0.001515614
0000f0 d0 5b 5d 3c 68 6b 28 3c 81 cd 27 bb 55 e4 fa 3b
       0.013510659 0.010279514 -0.0025604668 0.007656614
000100 b6 1e 81 3c c8 38 92 3c f4 a6 a3 3b c8 fd 10 bb
       0.015761714 0.017849341 0.0049942676 -0.0022123922
000110 a3 a8 2b 3b 54 ef 07 3c a3 e3 ef bc 13 ee 25 bc
       0.0026193045 0.008296806 -0.02928335 -0.010127562
000120 82 35 f9 3b 5d 37 f4 ba 45 e2 6a bc 7e 2a b9 3b
       0.0076052556 -0.0018632222 -0.014336173 0.0056508174
000130 66 91 6c 3c 49 40 92 3c e7 cb 6d bc d2 02 b5 3c
       0.014438963 0.01785292 -0.014513946 0.022096071
000140 6c 1e 91 3a fb 09 c9 bb 23 fe aa 3b 35 8a 8c bb
       0.0011071688 -0.006135223 0.0052182837 -0.0042889365
000150 96 2d c5 bb a5 65 d8 3b 93 2a 77 bc 30 b2 0d 3c
       -0.006017397 0.006603914 -0.015085834 0.00864844
000160 93 6b b6 bb 99 24 5c bc 69 64 53 3a e6 57 d4 bb
       -0.005567023 -0.01343646 0.00080639735 -0.006480205
000170 56 d5 73 3c 1b 5f 3c bc de 30 90 bb 20 f9 48 bb
       0.014882406 -0.011497284 -0.0044003567 -0.0030666068
000180 05 77 27 3c 70 db e9 bb 26 2f 74 3b e2 79 5f 3c
       0.010221248 -0.0071367547 0.0037259548 0.013639899
000190 98 06 6a bb 60 1e 01 b9 34 a4 84 3b c4 e0 13 3c
       -0.0035709497 -0.00012313714 0.004047895 0.009025756
0001a0 81 48 16 bc ad 61 94 bc b0 b9 14 bc fb 57 a5 bb
       -0.00917256 -0.018112982 -0.0090774745 -0.0050458885
0001b0 a9 05 e3 bb 49 bc 01 3c 4f 65 0b 3d ba 9a c6 3b
       -0.006928165 0.007918426 0.034032162 0.0060609253
0001c0 1c 4f db 3a ee b5 bf 3b 89 aa 82 3c a0 72 e2 3c
       0.001673195 0.005850545 0.015950458 0.027642548
0001d0 68 34 02 3c 12 e0 77 3c d8 4a ce bc a2 e8 28 3c
       0.007947065 0.015129106 -0.025182173 0.01030937
0001e0 86 1b 26 bc e4 5e f5 3c 29 b6 7a 3c 72 7d 55 bc
       -0.010138398 0.029952474 0.015302219 -0.013030397
0001f0 59 a1 5d bc 78 08 cd bc d0 8c de 3b 77 50 63 bc
       -0.013527238 -0.025028452 0.0067916885 -0.013874165
000200 21 65 78 bc 6a fd a8 bc e0 cf 1b bc e8 9d 34 3c
       -0.01516083 -0.02062865 -0.0095100105 0.011023976
000210 7e c5 e7 bb 4e d3 86 bb 48 f1 fa 3c b1 54 27 3c
       -0.0070731035 -0.004114545 0.03063263 0.010213063
000220 5a 9c 8d 3a 6f 5e 43 bb 8a e0 fb 3c 11 04 c1 3b
       0.0010804043 -0.0029810925 0.030746717 0.0058903773
000230 a5 92 b5 bb c8 a9 bc 3b 2e ee e4 3b 0b 84 4e 3b
       -0.005541163 0.005757544 0.006986401 0.003151181
000240 18 5e d7 b9 66 87 1a bc e9 c3 89 3c 0a ba c0 bb
       -0.000410781 -0.009431696 0.01681705 -0.0058815526
000250 b4 34 ca bb 96 1a a3 3b 8b 40 9d bc b7 b8 0a 3b
       -0.0061708335 0.0049775345 -0.019195816 0.0021167228
000260 7b 3d 76 3c e2 c1 ba bc fe 2a 48 3b bd 18 d3 bb
       0.0150293065 -0.022797529 0.0030543203 -0.006442158
000270 48 67 8e 3c 93 8c 87 39 67 60 29 bb 22 43 3c 3c
       0.017383233 0.00025853942 -0.0025844814 0.011490615
000280 08 70 e8 bb a0 47 3e bc 53 fd 15 3b 09 d6 56 bb
       -0.0070934333 -0.011613756 0.0022886589 -0.0032781383
000290 a3 37 8d 3c 21 ad 4a 3c 45 46 39 bb 65 5a 09 bc
       0.017238444 0.012370379 -0.0028270644 -0.008383368
0002a0 b1 2e ea bb d9 92 e7 3b 93 ee 51 bc 76 68 8f 3b
       -0.0071466793 0.007067066 -0.012813228 0.0043764664
0002b0 4b 62 a5 bb f2 b5 b3 bb 50 d6 9b bc 44 32 ec bc
       -0.005047118 -0.005484336 -0.01902309 -0.028832562
0002c0 80 ca 90 bc e3 c7 69 bc f5 5f cd bb 46 03 41 bc
       -0.017674685 -0.014268848 -0.0062675425 -0.011780566
0002d0 d5 46 c1 3b 12 b4 45 39 13 87 7d ba a5 58 0d 3c
       0.0058983364 0.00018854465 -0.0009671312 0.008627092
0002e0 e6 99 14 bb 45 69 8c 3b 78 e8 9c ba 74 79 35 3c
       -0.0022674738 0.00428501 -0.0011971137 0.01107632
0002f0 72 e5 ad ba 71 e9 88 3b 9f bc bd bb 7f bf 64 bb
       -0.0013267233 0.004178219 -0.0057903077 -0.003490418
000300 b6 a2 9c bb 28 95 8b bb 5e c2 0a 3b 64 93 f6 3b
       -0.004780139 -0.004259724 0.002117298 0.0075248946
000310 27 dc 09 3c 84 bc 50 3a d0 ad 0f bc 43 85 ea bb
       0.008414305 0.00079626613 -0.0087694675 -0.0071569993
000320 77 69 1d 3c 9d fd 2c bc c2 98 1b bc d2 ec 78 bc
       0.009607664 -0.010558513 -0.0094968695 -0.015193181
000330 b5 cb 4c 3c dd 26 6d bb 92 dd 40 bc 70 a3 20 bc
       0.012499739 -0.0036186494 -0.0117715765 -0.009804592
000340 be 86 50 3b 62 d9 d4 3b 52 54 aa 3c 1b ad 1f bc
       0.0031818594 0.0064956406 0.02079216 -0.009745861
000350 4f 28 f0 ba 98 dd 75 bc f7 f1 0c bc c3 e4 e0 3b
       -0.001832256 -0.015006445 -0.008602611 0.006863208
000360 f0 05 1f 3b 04 28 09 3c de 1b 07 bc a7 04 6f 3b
       0.0024265014 0.008371357 -0.00824639 0.003647128
000370 34 ad 68 3c 0c ae 4b bc 1f 10 37 bc 9f 34 46 3c
       0.014201451 -0.012431633 -0.011173277 0.012097507
000380 96 af e8 3c 65 63 13 bc 7d 18 52 3c 09 85 a9 3b
       0.028404038 -0.0089958655 0.012823221 0.0051733297
000390 5a 8a 15 3c 0b 68 41 3c 01 89 9b bc 32 37 f4 3a
       0.009127224 0.011804591 -0.018986227 0.0018632172
0003a0 25 b2 9d bc ac 2f d6 3c 42 9f 1c ba b7 1a a8 bb
       -0.019249985 0.026145779 -0.0005974659 -0.005130138
0003b0 b1 dd 8c 3c e3 ea e3 3b b6 ba 5e bc 0d 2b 74 bb
       0.017195554 0.006955491 -0.01359432 -0.0037257106
0003c0 83 26 70 bb f0 f3 a5 3b d7 1b 06 bc 0f 23 e8 3b
       -0.0036644049 0.00506448 -0.0081853485 0.0070842574
0003d0 4e 4b b2 3c 4e ee 50 bc 8a 6d ea bb ca 3c 9c 3c
       0.021764424 -0.012752129 -0.0071541714 0.019071955
0003e0 61 f3 f9 3c 65 1f 11 bc 73 36 8d 3b eb 3f 3b 3b
       0.03051156 -0.008857583 0.0043094694 0.0028572034
0003f0 32 cc a5 3b 34 fb c9 bb eb b1 c7 bb 74 45 68 3c
       0.0050597424 -0.006163979 -0.0060942075 0.014176715

net.3.linear.bias f4 [32]
000000 07 05 84 3d 3c 7d b4 3c 72 04 15 3e 08 64 d6 bd
       0.064462714 0.022032373 0.14552477 -0.10468298
000010 82 a1 f9 bd e6 fe 17 bd 40 37 62 3c 42 00 a6 3d
       -0.12189008 -0.037108324 0.013807118 0.08105518
000020 1e 7e 15 3e 13 65 e8 3d e0 fc fd bd 82 c0 e5 bd
       0.14598891 0.113474034 -0.12401748 -0.112183586
000030 d3 1c 1c 3a 43 cd 0a be 61 e3 ed 3d a9 2d d4 3c
       0.0005955223 -0.13554864 0.11615635 0.025900679
000040 11 81 65 bd 76 06 c1 3b 51 7c 0d be e8 fd d3 bd
       -0.05603129 0.005890663 -0.13816954 -0.10351163
000050 0e 32 ed bd de ac 2e bb 54 37 11 3e 06 91 f6 bd
       -0.11581813 -0.002665333 0.14181262 -0.1203938
000060 8c da b6 3c 3a 0b ec 3b a3 d4 24 be 03 0e 3e 3e
       0.022321008 0.0072034867 -0.1609674 0.18560033
000070 91 e3 0e 3e 64 ea 7b bd c8 14 31 be 90 27 d2 3d
       0.13953997 -0.06150283 -0.17293084 0.10261452

net.4.weight f4 [4, 32]
000000 62 b0 09 bd bc f8 a3 bc f1 5f 4e bc d0 3b 3f bd
       -0.033615477 -0.020016067 -0.012596116 -0.0466879
000010 d7 7d 08 bd db ad f6 ba 34 bb 53 bd f1 df 70 3d
       -0.033323135 -0.0018820124 -0.051692203 0.058807317
000020 74 08 95 bc e5 bc a9 3d 17 d3 9e 3d f7 89 25 bd
       -0.018192507 0.08287982 0.07755106 -0.040414777
000030 ab ba f2 bc 91 4e 81 3d e4 95 49 3c b5 bb 09 3d
       -0.029630026 0.063138135 0.012303803 0.033626277
000040 b9 ae cd bc f4 4d 25 3d 02 29 2a bb a0 50 33 bd
       -0.025107728 0.040357545 -0.0025964384 -0.043778062
000050 60 ca 60 bd ef 39 18 3c 08 a1 20 3c d1 0a 46 bd
       -0.0548805 0.009291156 0.009804018 -0.04835016
000060 03 c5 94 bd 74 48 a5 3c 03 8e 87 3d de 65 3a 3d
       -0.072641395 0.02017615 0.066188835 0.045507304
000070 e3 45 8c bd 2b 05 83 bd 17 54 70 3c 3d d4 b8 3c
       -0.06849267 -0.0639747 0.014668486 0.02256214
000080 45 45 11 3d 59 1d bd 3d 1f e0 b5 bd 57 68 10 3d
       0.03546645 0.09234113 -0.08880638 0.035255756
000090 cb 20 6f 3c 39 2f 68 3d 60 e8 27 3e ad b9 c7 bd
       0.014595221 0.05668566 0.16397238 -0.09752212
0000a0 bc 3b 12 bd 4f f7 d1 bc 42 47 0d bd 02 b7 d1 3b
       -0.0357015 -0.025630621 -0.034491785 0.00639999
0000b0 61 7a 0a 3e 2c 8b e3 3a 1c d5 5e bd de 22 b7 3d
       0.13523246 0.0017360202 -0.054402456 0.08942197
0000c0 72 b5 35 bd 27 71 d9 3d a1 ae 7e 3d 81 0b ae bd
       -0.044362493 0.10617285 0.062178258 -0.08498288
0000d0 e9 9b f6 3c 9c 96 4b 3c 78 9e 58 bd 51 85 98 3d
       0.03010364 0.012426045 -0.052885503 0.07447303
0000e0 32 3a 0c 3d e1 47 1d 3d 74 93 a4 3c 1c b1 2b bc
       0.034235187 0.038398627 0.020089842 -0.010479238
0000f0 25 23 53 3c db b4 91 bd 1a 33 a6 3d c7 04 4e bd
       0.012886797 -0.071145736 0.081152156 -0.050297525
000100 e9 3e 1b 3d c6 94 a5 bd bb 97 4e 3d 84 31 cf bc
       0.037901793 -0.08085017 0.05043767 -0.025292166
000110 97 df 36 bd fa 32 09 bd 8a 98 52 bd bc 64 f2 3c
       -0.044646826 -0.03349588 -0.051415004 0.02958905
000120 3b ee 4d 3d 59 86 bc 3c d3 c5 2a bd dd 18 dc bc
       0.050276022 0.02301328 -0.041692566 -0.026867324
000130 93 1e 3d bd 1b 8e 24 bd 0a f6 c1 3d 0f de 3b bc
       -0.046171736 -0.040174585 0.09470756 -0.011466517
000140 c2 24 1c 3d 5c 84 1d bd c7 d3 09 bd 20 84 1f 3a
       0.038120992 -0.038456306 -0.033649232 0.0006085057
000150 3c f5 c7 bb ca 63 88 bc 31 03 d3 3c 49 68 1b bd
       -0.0061022323 -0.016649146 0.025758358 -0.03794125
000160 49 a5 47 3d 95 26 37 ba 8f e3 1d bd 41 d5 b9 bc
       0.048741613 -0.0006986645 -0.038547095 -0.022684695
000170 a8 7b 3b 3d 12 8c 1d 3d 2b 96 56 bd 89 f2 dd bc
       0.045772225 0.03846366 -0.052389305 -0.027093189
000180 48 93 9a 3a eb 43 84 bc 3e 93 07 bd 47 09 ba bd
       0.0011793161 -0.016145667 -0.033099405 -0.09083801
000190 82 94 9d bd 02 a2 22 3c 60 a9 8f bd 60 f6 ce 3d
       -0.07694341 0.009926321 -0.070147276 0.10105586
0001a0 24 7e a2 bd b1 26 dd 3c 84 68 fa 3c 57 a3 f3 bd
       -0.07934216 0.026995989 0.030567415 -0.11896389
0001b0 da e2 a9 bc c6 d4 5e 3d ef 4f 2d bc bb ef 36 3d
       -0.020738054 0.054402135 -0.01057814 0.04466222
0001c0 5e 71 3b 3d ac 8c b1 3d 2c 86 80 bd 3c 80 04 be
       0.045762412 0.08669409 -0.06275591 -0.12939543
0001d0 2d 48 da bd b7 76 96 bd b8 83 8c 3d 78 f3 f3 bd
       -0.10658298 -0.07346862 0.06861061 -0.11911672
0001e0 2a ad d1 bd e0 35 b2 3d 20 81 39 3d 55 fd 87 3d
       -0.102381065 0.08701682 0.04528916 0.06640116
0001f0 dd 9c a9 bc bf 63 00 bc 92 58 13 3d c9 a5 de 3c
       -0.020704681 -0.007836281 0.03597314 0.027178662

net.4.bias f4 [4]
000000 82 cf ee 3c 17 29 86 bd ad ec 00 3e c2 48 61 bb
       0.029151682 -0.06550806 0.12590285 -0.0034375642
