FE-PINN1/1_nodes_given/15%_noise/20%_init_error/model.pt (torch, 16796 bytes, 10 tensors)

net.0.linear.weight f4 [32, 1]
000000 ab df 07 bf 72 72 7b bf 55 5b ac be 4c 29 9c 3e
       -0.53075665 -0.98221505 -0.3366343 0.30500257
000010 74 74 86 be 36 ed 21 bf fe 7c 2d bf b1 2e 4c 3f
       -0.26260722 -0.6325258 -0.6776885 0.79758745
000020 bd f0 d3 3e f1 e0 e3 3e d4 c3 84 3d 23 a6 e8 3e
       0.41394606 0.44507554 0.06482664 0.45439252
000030 f1 61 fa be ca c1 5c 3e 04 22 69 be 5d 5c 4e 3e
       -0.48902848 0.215583 -0.22766882 0.20152421
000040 cf b7 50 3e 4c a3 55 bf df b6 21 3f aa e7 35 3f
       0.20382617 -0.83452296 0.63169664 0.71056616
000050 31 de 6e 3f 22 8d 76 be 9b 47 4b bf 1d 81 7b bf
       0.9330779 -0.24077275 -0.79406136 -0.98243886
000060 3e a1 0b 3f f5 a0 19 bd f9 2c 20 3f 25 b9 4b 3f
       0.5454291 -0.037507016 0.6256862 0.79579383
000070 66 66 42 3f 82 58 f2 3d db 0d 80 3f c7 9e f5 be
       0.759375 0.11833288 1.0004228 -0.479727

net.0.linear.bias f4 [32]
000000 44 64 8b 3e 6f 60 95 be 6b 76 23 bf fa 2c 59 3f
       0.27224934 -0.29175135 -0.63852566 0.84834254
000010 4b 36 75 be 50 f5 52 3f 30 5f 3b bf ff cf 6a 3e
       -0.23946492 0.8240557 -0.7319212 0.22930907
000020 95 4a ea be ba 41 06 bf 24 44 f4 bd bc c3 62 3e
       -0.45760027 -0.5244404 -0.11927059 0.22144979
000030 c4 02 a5 3e 40 f6 3c 3f de 7c 21 3f 2f 70 5e 3e
       0.32228673 0.7381325 0.6308116 0.21722482
000040 dc af 64 3f e0 50 47 be 52 8e 31 bf fb 75 67 3f
       0.8933084 -0.19464445 -0.6935779 0.904144
000050 45 ff 4e bf a3 cf 54 bf 47 50 30 be fa 3f 05 3f
       -0.8085826 -0.8312933 -0.17218123 0.52050745
000060 dd a5 36 3f c7 5f 2d 3f f3 34 e4 3e 45 48 b6 3a
       0.7134684 0.6772427 0.44571647 0.0013907036
000070 e6 f9 0a 3f 55 6c 75 bf f4 ac 9e 3e 2b 23 7a 3e
       0.54287565 -0.95868427 0.30991328 0.24427478

net.1.linear.weight f4 [32, 32]
000000 32 ee 0c 3c 42 91 cf bb 5f 64 97 ba b3 85 e7 3c
       0.008601712 -0.0063344548 -0.0011550299 0.028261995
000010 21 4d ce bc 72 d2 3d 3c 4e 89 51 bc e7 af b0 bc
       -0.025183262 0.011585819 -0.012789084 -0.021568252
000020 aa 1e 00 bb 27 5b f5 bb 08 fa a3 bc f8 a8 c7 bb
       -0.0019549527 -0.007487673 -0.020016685 -0.0060931407
000030 c5 99 23 3c 37 eb 3c bc 3b fc eb b9 ef d4 57 3c
       0.009985392 -0.011530689 -0.0004501062 0.013173326
000040 ba c5 93 3c 40 be 1f 3c 43 52 ad bc 80 8a 7a 3c
       0.01803862 0.009749949 -0.02115739 0.01529181
000050 a6 01 e5 bb 21 7b 26 3c 54 fd 04 3c 8d 86 31 3a
       -0.006988722 0.010161192 0.008117039 0.0006772064
000060 76 91 87 bb 78 4d 5a 3c 6b 71 0c 3c ca f5 f4 b9
       -0.0041372133 0.013324134 0.008571963 -0.00046722434
000070 51 2b 89 bc 25 a6 0f 3c cb ba 88 3b ea 12 f0 b9
       -0.016744288 0.008767639 0.004172658 -0.0004579046
000080 24 80 01 bb 85 43 29 bb 43 79 3e bc 57 28 28 3c
       -0.0019760216 -0.0025827598 -0.011625591 0.010263524
000090 b8 fd 0e bc ed 55 8b 3b 1e 40 4b 3b a1 b5 5f 3c
       -0.008727483 0.0042521865 0.0031013559 0.013654144
0000a0 4d de 23 3b 68 be 5c 3c 4b 1a a5 bc 5c 54 88 bc
       0.0025004328 0.013473131 -0.020154139 -0.016641788
0000b0 72 36 8c bc 9a 31 61 3c 0b 79 ec 3b 1f ad 39 3c
       -0.017115805 0.013744736 0.007216578 0.011332779
0000c0 56 46 e1 3a f7 a9 38 3c 8e 37 b2 3b 56 c5 73 3c
       0.00171871 0.0112709915 0.0054387515 0.0148785915
0000d0 07 6a a9 39 d4 2e 35 3c 83 a8 55 bc fc 57 bb bb
       0.00032313188 0.011058528 -0.013040665 -0.0057172757
0000e0 c1 be 64 3c 20 2b 31 3c 81 4b 08 3c 48 de 65 3c
       0.013961495 0.010813504 0.008318783 0.014030047
0000f0 f9 0e 93 bc 01 ae c2 3c 7f 06 3f 3a 2a ae 96 3c
       -0.017951475 0.023764612 0.000728704 0.018393595
000100 20 59 89 bc 1d b8 af 3a c4 95 d7 bb 61 21 1f 3c
       -0.01676613 0.001340631 -0.0065791328 0.009712548
000110 75 d0 27 bc 08 00 b3 3a 28 c4 a2 bb 37 fe eb bb
       -0.010242571 0.0013656626 -0.0049672313 -0.0072019356
000120 75 97 c5 bc 9f 9b 86 3c 59 42 91 3b 9e 8c 95 3c
       -0.024120072 0.016431628 0.004432958 0.018255528
000130 df 43 9c 3b d7 22 17 3c 31 79 0a 3c 95 65 32 bc
       0.004768833 0.009224615 0.008451746 -0.010888477
000140 65 8a 0b bc fd a6 62 3c da 76 04 bc 72 86 94 3c
       -0.008516883 0.013833758 -0.008084977 0.018130515
000150 be ab 0c bc 9f 8a 12 ba 8c 39 35 3a a7 b7 14 3c
       -0.008585868 -0.0005590114 0.0006913177 0.009076989
000160 d4 5e 8a 3a ba ef 2b bc 41 8d eb ba 0c d6 24 bc
       0.0010556825 -0.010494167 -0.0017971174 -0.010060798
000170 4e 07 21 bc 88 e3 f6 3b 29 98 2e bb ee a0 f9 bb
       -0.009828402 0.007534448 -0.0026640987 -0.0076180613
000180 c0 06 3e bc 18 3f 94 bb bf 51 2d 3c 66 c0 24 3c
       -0.011598289 -0.004524123 0.010578572 0.010055637
000190 98 f4 a8 bc 07 e3 2d 3c 5d 18 88 3b ba 0e 5c bc
       -0.020624444 0.01061321 0.004153295 -0.013431245
0001a0 d2 f3 84 3c fe 16 fb 39 72 a2 bd 3c 7f 3c 27 bc
       0.016229544 0.0004789158 0.023148749 -0.0102072945
0001b0 55 dd cb bb 7f 8a e3 39 86 b1 22 3b eb 0e 4d 3c
       -0.006221453 0.00043400002 0.002482505 0.012515764
0001c0 70 2e fb bb cb 7e f4 3b 23 32 88 bb 5e 86 a5 3c
       -0.007665448 0.007461404 -0.0041563674 0.020205673
0001d0 b7 58 54 bc 4e 3c 9c bb fc 5f a7 bb 79 58 20 3c
       -0.012960604 -0.004767931 -0.005107878 0.0097867185
0001e0 7e d2 fd 38 15 93 dd bc 18 20 ea bb c6 5a 70 3b
       0.00012103187 -0.027047673 -0.007144939 0.00366752
0001f0 6a 78 48 bc 8e 74 0d bc 4d 83 cb bb 66 8a 9e 3b
       -0.01223574 -0.008633746 -0.0062107206 0.0048382757
000200 8d 38 cc b9 f5 54 b4 ba 72 dd f5 39 de 08 05 3b
       -0.00038952046 -0.0013758229 0.0004689503 0.0020299475
000210 02 0b ae 3c 61 b9 50 3c f0 27 70 bc da 8d 8c bc
       0.021245483 0.01273951 -0.014657959 -0.017157484
000220 14 6d 4e bb 3a 2d 2e bc f2 05 c4 3c 2f 8e b1 3c
       -0.003149812 -0.0106309 0.023928616 0.021674244
000230 8e 9e 08 ba d2 d0 c9 bb cd 72 73 bc d7 e2 62 3c
       -0.0005211615 -0.0061589265 -0.014858914 0.013848028
000240 36 49 78 3b b5 31 4b bc 94 f9 85 3c 2e c4 82 3c
       0.0037885434 -0.012401988 0.01635436 0.015962686
000250 56 f2 04 3c 45 4e e3 3b ca f0 0f 3c 6d f1 90 bb
       0.008114418 0.0069368207 0.008785436 -0.0044233114
000260 9e 7f aa 3b 1e 9d a7 bb 17 aa 5f bc 3a 08 98 bb
       0.0052032014 -0.0051151654 -0.013651392 -0.0046396526
000270 b1 a7 a5 3b 8a a3 81 bb 47 13 84 3b 32 20 82 bc
       0.0050553908 -0.003956263 0.0040306184 -0.015884493
000280 68 a4 12 3c 7b db 51 bc 18 4e bb 3c b6 7a 31 3b
       0.00895033 -0.012808676 0.022864386 0.0027081198
000290 ae 3c 02 3c d6 1f 04 bc 08 12 a8 bc 2b 43 a3 bb
       0.0079490375 -0.008064231 -0.02051641 -0.0049823723
0002a0 94 84 80 bc 6b 4c 54 bb 57 83 b0 3b 42 8e 49 bc
       -0.015688218 -0.0032394181 0.0053867507 -0.012301983
0002b0 0c 42 77 3c 32 b2 48 bb 08 ee 65 3b 40 58 e8 3b
       0.01509143 -0.003062379 0.0035084505 0.0070905983
0002c0 54 bc 64 bc 1e 81 19 bc ab 4d c6 3b c1 54 4c 3b
       -0.013960917 -0.009369163 0.006051739 0.0031178447
0002d0 85 e7 a4 bb d2 0e 8b 3c 83 c6 25 3c 89 32 91 3b
       -0.005032482 0.01697484 0.01011813 0.004431073
0002e0 91 cc 89 3b 8f e6 f7 3b ff ea 67 b9 26 92 0f 3c
       0.0042052944 0.0075653265 -0.0002211742 0.008762872
0002f0 9b ea 1c 3c 93 d8 60 bb 79 da 4e 3b d3 98 ec bb
       0.009577419 -0.0034308776 0.0031563325 -0.0072203665
000300 34 54 d2 3b 2f 67 e7 ba 9b 60 fb bb 9b 52 80 bc
       0.006418729 -0.0017654652 -0.0076714284 -0.01566439
000310 a2 ca 95 3c 0f ef 3e bc 53 e3 56 3b a4 8e 45 bb
       0.0182851 -0.011653676 0.0032789304 -0.0030144835
000320 ee d9 d4 3b 73 da 35 3b 60 06 84 bc 70 28 88 3c
       0.006495706 0.0027748614 -0.016116321 0.016620845
000330 b6 c0 5a 3c a0 8b 3a bc 2d 29 10 3c e5 81 aa 3c
       0.01335161 -0.011385828 0.00879888 0.020813892
000340 88 a6 85 3c 93 f1 c5 3a 83 40 10 bc 80 dd 45 bb
       0.01631476 0.0015101902 -0.008804443 -0.0030191839
000350 43 76 43 bb 3c a7 39 bc 06 96 28 bc 29 78 69 3b
       -0.0029825128 -0.011331376 -0.010289675 0.00356246
000360 ae 11 aa bb e4 76 39 bc 6d bc 36 3c aa ac 8b 3c
       -0.005190096 -0.01131985 0.011153323 0.017050106
000370 ce 6e 83 bc 4b 20 8a 3c a1 76 17 ba 8a c3 e9 ba
       -0.016044047 0.016861102 -0.000577787 -0.0017834764
000380 65 4e 1a bc c2 f2 3f 3c 67 4b 16 bc 5b 0e d6 bb
       -0.009418105 0.011715593 -0.009173251 -0.006532473
000390 05 40 f7 bb 54 ef 65 3b b0 a8 70 bc 08 50 59 3c
       -0.0075454735 0.0035085278 -0.014688656 0.01326371
0003a0 e4 80 31 bc 7e 07 82 bc 4c b6 92 bc c6 9c 00 3b
       -0.010833953 -0.015872713 -0.017909192 0.0019624694
0003b0 f4 e9 cc ba 9a 36 5c bc c4 25 ae bc 23 96 e1 b9
       -0.0015633688 -0.013440752 -0.021258242 -0.00043027205
0003c0 06 d5 f5 3b 90 5f 3d 3c 37 60 44 bc ab f8 6f bc
       0.007502201 0.011558428 -0.01198583 -0.014646689
0003d0 fd 44 38 3b 77 76 ab bc 30 6d 98 bc 03 c0 8d bb
       0.0028117292 -0.020930512 -0.018606752 -0.004325868
0003e0 7b 1b 93 3c 47 a8 fb 3b 18 3a a8 38 44 00 70 bb
       0.01795744 0.0076799723 8.021685e-05 -0.0036621252
0003f0 c1 f8 92 ba 23 cb 0c bc 45 5c 8b ba b9 a9 76 bc
       -0.001121305 -0.008593353 -0.0010632357 -0.0150551135

net.1.linear.bias f4 [32]
000000 b3 22 e4 3d ce b8 38 3e 5e ac 95 bd 77 79 2f be
       0.11139431 0.18039247 -0.07308267 -0.17136179
000010 85 17 0a 3e 68 fd ff bd cf 2e 23 3e e8 43 03 3e
       0.13485534 -0.12499505 0.15935825 0.12818873
000020 76 ec ff bd 6c 3f ac 3c 7c c9 84 bc c0 b9 e7 bd
       -0.12496273 0.021026336 -0.016209356 -0.11314726
000030 fe 6a a0 bd 85 0b 00 3e f1 c2 78 bd c0 14 b3 3b
       -0.07832907 0.12504394 -0.060732786 0.00546512
000040 33 ef 0c be 9e a7 82 3d 37 6e ab 3d a0 dc 15 be
       -0.13763122 0.06379627 0.08370631 -0.14634943
000050 25 78 96 3d ea 43 22 3c bd d4 e3 bd 14 10 02 be
       0.073471345 0.009903887 -0.11124561 -0.12701446
000060 51 bb 2c be 0b 10 3a be 15 8c 58 3c e9 a4 ac bd
       -0.1686833 -0.18170182 0.013216992 -0.084298916
000070 6d ec ab bd 1d 0b 81 bd 5c 42 e4 3c 70 37 a8 3d
       -0.08394704 -0.06300948 0.027863674 0.08213699

net.2.linear.weight f4 [32, 32]
000000 18 99 93 bb bf 60 e0 36 3c 96 1d bc 40 3b 65 3a
       -0.004504334 6.686983e-06 -0.009618338 0.00087444857
000010 59 ce 5b ba 82 e5 df bb b8 ee 09 3c a7 c1 ea b9
       -0.0008384935 -0.0068327794 0.008418731 -0.0004477624
000020 ec de 94 3a f4 39 80 bc 70 4b cc ba a8 d0 ba 3b
       0.001135794 -0.015652634 -0.0015586447 0.0057011433
000030 74 cf 47 3c e9 27 32 bc 88 74 2f bb 78 07 dd 3b
       0.012195457 -0.010873773 -0.002677234 0.006745275
000040 c1 0b 1f 3c f6 c2 e7 bb c6 fd 0a 3c cf f0 e5 3b
       0.009707392 -0.0070728017 0.008483356 0.007017232
000050 7c 92 28 bb c3 64 0f bc ca e9 96 bc bf c0 8d bb
       -0.0025722077 -0.008752051 -0.018422026 -0.0043259556
000060 9d 1c 81 3c 40 64 9b 3c 04 28 2b bc 8f f8 da bb
       0.015760714 0.018968701 -0.010446552 -0.0066824625
000070 d8 dd 13 3a cc 5e 0d 3c 00 a9 13 3c 57 de 06 3c
       0.0005640662 0.008628558 0.009012461 0.008231721
000080 48 a8 1c 3c 5f ca fe bb 3e 4a b6 bb ee 20 f0 39
       0.009561606 -0.0077755894 -0.0055630496 0.00045800902
000090 84 23 74 3b da 84 81 bc 7e d6 d9 ba b0 68 df ba
       0.0037252614 -0.015810419 -0.001661971 -0.0017044749
0000a0 6b 1f 7c 3a b6 b7 f1 3b 1d b9 c4 ba 84 7f 1b bc
       0.0009617719 0.0073766364 -0.0015008781 -0.009490851
0000b0 0d 9f 88 3c ba 81 04 3c 2e 4f d6 b9 67 c1 2e 3c
       0.016677404 0.00808757 -0.00040876254 0.010666228
0000c0 61 af 26 3b 45 fb 46 3a d1 e8 a3 bb bb 4b 86 3b
       0.0025434124 0.00075905427 -0.005002119 0.0040983832
0000d0 a4 dd 19 bc ab d6 96 3c f4 24 61 bb 5c 0e 9c bc
       -0.009391222 0.018412909 -0.0034354301 -0.019049816
0000e0 42 e5 8e bc f1 0e 3a 3b db 40 80 bc 5e 6d dd bb
       -0.017443303 0.0028390253 -0.015655925 -0.0067574224
0000f0 2c f4 fe 39 ed 5d 87 3c dd dc 74 bc ee 1a 46 3c
       0.00048628577 0.01652428 -0.014945236 0.0120913815
000100 d0 01 79 bb ce bf 24 bc 55 3f 34 bc db 1d a0 3b
       -0.0037995465 -0.010055495 -0.011001428 0.0048863715
000110 12 1d 17 bc 0b 81 9a 3c af c2 7b bb a2 97 3b 3a
       -0.0092232395 0.01886036 -0.00384156 0.0007156079
000120 d3 b7 50 3c eb 6a fe b9 b7 ba 10 bc 88 a7 0b 3c
       0.01273914 -0.00048526315 -0.008833579 0.008523829
000130 4b de b6 bb c9 9d 9c bb 72 cf 39 bc 24 f6 98 3c
       -0.0055806986 -0.0047795516 -0.011340963 0.018672056
000140 34 13 6b 3c 33 42 93 3c 2f c9 3a bb cd f3 18 3c
       0.01434784 0.017975902 -0.0028501262 0.00933547
000150 d1 1a ef 39 a9 c6 5e ba cd f4 e4 bb 3e 73 8a bb
       0.00045605612 -0.00084982306 -0.0069871903 -0.0042251637
000160 3b c7 40 3c 5a f5 44 bc 7b f7 9f 3b cb 1f f9 3a
       0.01176625 -0.012021387 0.004881797 0.0019006667
000170 27 f2 5a bc e8 a8 30 3b 4e 20 ad 3b 58 ac 9d 3c
       -0.013363398 0.0026956145 0.005283392 0.019247219
000180 99 2b 7b bc 81 ce fd bb 57 a1 96 bc 54 18 eb bb
       -0.015330219 -0.0077455644 -0.01838748 -0.007174531
000190 2b f7 6c bc 41 b2 be ba f8 00 1a bc 89 1e a0 38
       -0.014463226 -0.0014548973 -0.009399645 7.635082e-05
0001a0 c2 ab 20 bc b0 d5 72 bc 20 d6 23 bc 3a 98 a9 3b
       -0.009806575 -0.014821455 -0.009999782 0.0051756175
0001b0 84 0e 30 bb f6 b2 52 bb 71 1d c7 3b 3e 73 33 ba
       -0.002686412 -0.0032150126 0.0060765077 -0.00068454805
0001c0 1d 02 f0 bb b4 be f0 3b 89 48 d9 3b e1 3b 55 bb
       -0.0073244707 0.0073469523 0.0066309613 -0.0032536911
0001d0 d1 da 9a 3b f5 e1 0e 3c 0a ae 8d bb 4f 2f da 3b
       0.004725792 0.008720865 -0.0043237256 0.0066584717
0001e0 ae 40 81 3a 37 59 9e bb 4c 44 e6 3b 21 86 a6 bb
       0.0009861195 -0.0048324126 0.0070271846 -0.0050819074
0001f0 ee 07 f9 3b 01 43 38 3b 0b dc cc bb 83 df fb 3b
       0.0075998222 0.002811611 -0.006251817 0.007686557
000200 27 1a 8f 3a 56 69 1c 3b cd 31 3c bc 1f 95 97 bb
       0.0010917828 0.0023866496 -0.011486483 -0.004625931
000210 d7 03 f8 3b 20 37 1a bc f1 8e 01 bc 65 63 36 3c
       0.007568817 -0.009412557 -0.007907615 0.011132096
000220 40 f7 83 bc 09 45 fe bb 67 96 e5 ba 53 3f c1 3b
       -0.016109109 -0.0077596945 -0.0017516137 0.0058974414
000230 ec f1 10 3c cc ef 96 3b 0e f9 04 bc 8d 16 c3 bb
       0.008846741 0.0046062227 -0.00811602 -0.005953616
000240 fc ea 34 3c c9 ce 9a bc 5e dc 43 ba 55 84 5f 3c
       0.011042353 -0.018897431 -0.0007471497 0.01364239
000250 c4 8e b8 ba c1 1f 28 bb 0e 3d 57 3c 2c bf 2b bc
       -0.0014080633 -0.0025653692 0.013137115 -0.010482591
000260 3a 79 63 bc ec c4 bf bb dc 11 80 bc 9e 96 8d 3c
       -0.013883883 -0.0058523323 -0.015633516 0.017283734
000270 70 57 86 b9 a3 4b 74 3c 1b 7d 32 3b f2 75 12 bc
       -0.00025623618 0.014910611 0.0027235213 -0.008939253
000280 69 7a 6c bc d7 cd 4a 3c 15 72 f1 bb 66 67 2c 3a
       -0.014433482 0.012378178 -0.007368336 0.0006576687
000290 74 ff 36 3b 23 b7 00 bc ff 7b 3c bb 4c 38 18 ba
       0.0027923258 -0.007856163 -0.002876043 -0.0005806729
0002a0 b8 ff d2 bb 0d 94 8e bb 95 a8 72 3c 1c 41 b3 ba
       -0.0064391755 -0.004351145 0.014810701 -0.001367602
0002b0 85 3a 6a 3c f2 1e 5f 3b 97 ea 06 3c 25 78 5e 3c
       0.014296179 0.0034045544 0.0082346415 0.013578449
0002c0 f2 3f a4 3c 14 1a 23 bb 25 c1 c6 ba 6f e8 f5 bb
       0.020050023 -0.002488737 -0.0015163763 -0.007504515
0002d0 4c 67 e2 bb 01 98 89 bb a4 24 3d bc 71 11 35 3c
       -0.0069092866 -0.0041990285 -0.01154438 0.011051522
0002e0 51 3f 93 3c a0 64 82 bc 2f 9d 20 3a 31 5e 64 ba
       0.017974528 -0.015917122 0.0006126938 -0.00087115454
0002f0 e1 d7 e4 3b 0b 2e 64 3a 90 5b 34 3a d4 65 65 3c
       0.0069837426 0.00087043707 0.0006880099 0.0140013285
000300 4c c1 cd 3b 6c 41 c9 ba 1f 23 ac bb 82 fe 8c 3c
       0.0062791463 -0.001535458 -0.00525321 0.017211203
000310 b9 66 70 bb dc c7 fa 3b 37 33 99 bb b4 73 1e 3c
       -0.0036682321 0.0076532196 -0.0046752947 0.00967114
000320 2d 5d 8a 3c 50 b2 84 3b 54 72 17 bb aa 7b 76 3b
       0.016890133 0.004049577 -0.0023108916 0.003761033
000330 8b 8e 08 3c e2 e1 be bb b1 74 c1 39 67 ab 1d 38
       0.008334766 -0.005825267 0.0003689877 3.7591348e-05
000340 f4 e3 36 bb ca 2a 45 3c a4 a5 b9 3b 57 03 4d 3b
       -0.0027906867 0.0120341275 0.005665498 0.0031282508
000350 70 bf 88 3c 67 4b bb bc 51 87 2f 3c 46 07 04 3a
       0.016692847 -0.022863103 0.010713414 0.0005036484
000360 a2 bc 7c 3c 5a 28 91 3b 4d f7 49 bc b3 c2 2c bc
       0.015425833 0.004429859 -0.0123270275 -0.010544467
000370 08 81 38 3c bf b3 7a bc 86 cf 84 3b b2 86 5f 3c
       0.011261232 -0.015301644 0.004053059 0.013642954
000380 ad f1 a0 3a af 59 64 b8 18 20 93 3b a2 84 d3 bb
       0.0012279056 -5.444296e-05 0.00448991 -0.00645502
000390 86 f9 fe 39 66 8c d8 3b 60 f4 e5 bb 13 26 70 bc
       0.00048632565 0.0066085337 -0.007017657 -0.014657515
0003a0 13 d7 e1 3b 6d 8d f3 3a 0b 61 4d bc 5d 96 2d 3c
       0.006892094 0.0018581577 -0.012535344 0.010594931
0003b0 6c 21 9b b9 7f cd 70 bc 7b 5a 16 3b df e6 eb ba
       -0.00029588805 -0.014697432 0.0022942114 -0.0017997882
0003c0 ea fc 27 3c dc 6b 8f 3b 1a 99 06 bc 8a a1 8d 3c
       0.0102531705 0.0043768715 -0.008215213 0.017288942
0003d0 96 8a 14 3c 79 6a 16 bc 1d 6f 4b ba cd 08 bf 3a
       0.009066245 -0.0091806585 -0.00077603926 0.0014574766
0003e0 63 30 36 3b eb 7b 41 3c 7d 77 90 3a b3 f8 2b bc
       0.0027799837 0.0118093295 0.0011021938 -0.010496306
0003f0 5f 04 ef 3b 33 31 3d bc 6d c7 eb bb 98 63 42 bc
       0.0072942222 -0.011547375 -0.0071954043 -0.011864565

net.2.linear.bias f4 [32]
000000 b0 79 5c bd c1 9e a9 3d b4 4b a5 bd f4 95 03 3e
       -0.053826988 0.08282233 -0.0807108 0.12850171
000010 92 a4 c3 3d 53 11 cf 3d b0 6e 57 bd 34 c6 99 bd
       0.09552874 0.10110726 -0.052595794 -0.07508507
000020 14 d0 32 3d 24 7e 33 3d eb 84 27 be c1 44 34 be
       0.04365547 0.04382147 -0.16359298 -0.17604353
000030 f4 58 10 be 0e 23 9e 3d 49 80 27 3e ed fb bd 3d
       -0.14096433 0.0772153 0.1635753 0.09276567
000040 21 61 2b 3e d7 91 8d bd f3 50 fc 3d 51 dc d3 3d
       0.1673627 -0.06912582 0.12320127 0.103447564
000050 3f 44 29 bd 2e 39 34 3d fb f5 b1 ba de 78 22 be
       -0.04132485 0.043999843 -0.0013577336 -0.1586642
000060 e3 59 e2 bd 95 a2 14 be ce 20 e5 bc 5e 27 20 3e
       -0.11052301 -0.14515145 -0.027969744 0.15640017
000070 ac fb 34 bd 54 51 a1 bd 5a 72 1e 3e 51 a0 ce bc
       -0.044185326 -0.0787684 0.15473309 -0.02522293

net.3.linear.weight f4 [32, 32]
000000 d5 78 a0 bb 82 49 95 3c de c8 5f 3b a0 95 53 3b
       -0.004897217 0.018223528 0.0034146826 0.0032285228
000010 3e f4 00 3c 99 75 bc 3b cf 5c 3e bc 49 9c f4 bb
       0.007870732 0.0057513234 -0.011618807 -0.0074649197
000020 8f 86 88 3c b2 76 0d 3c a2 cf eb 39 db c3 83 3c
       0.016665725 0.008634256 0.0004497739 0.016084602
000030 e0 81 22 3c 5b 2e c0 ba 7b 5e 4a 3b 21 ee 0a bc
       0.00991866 -0.0014662253 0.0030879069 -0.008479626
000040 44 d8 dc bb 3b b5 b1 3a 67 74 9e 3c 96 d2 68 3c
       -0.006739648 0.0013558039 0.019342614 0.014210364
000050 84 35 33 bc 71 71 a2 3a 7c b4 a8 bc b3 43 13 bc
       -0.010938052 0.0012393427 -0.020593874 -0.008988309
000060 83 12 b5 3b 40 ec 93 bc d3 98 c6 3c 92 c8 8a bc
       0.0055258884 -0.018056989 0.024242794 -0.016941343
000070 ff 43 1f bb 3e 26 01 bc 59 05 67 3b 0f 01 29 bc
       -0.0024302003 -0.007882653 0.003525099 -0.010315194
000080 53 f8 1e 3c 3d a8 77 3c e2 b2 dd 3a 97 61 40 bc
       0.00970276 0.015115795 0.0016914273 -0.011742017
000090 2a 1c 1d 3c 01 0e 6a 3c 74 cf 81 bb cb 90 48 bc
       0.009589234 0.014285565 -0.003961498 -0.012241553
0000a0 f6 4e 6e 3b bd 99 ef bb fa 10 fc 3a 5a 3f bc 3c
       0.0036362982 -0.007312028 0.0019231134 0.022979427
0000b0 3c 46 a1 b8 54 c7 5b 3c e1 e7 24 3c 24 54 26 bc
       -7.6901604e-05 0.013414223 0.01006505 -0.010151897
0000c0 47 6c a6 ba 07 63 88 bc 73 ca 4b bb 13 16 e2 3b
       -0.0012697064 -0.016648782 -0.003109601 0.006899604
0000d0 e8 d9 2d bc 96 94 12 3c cf cf cb 3b 8f b1 09 bc
       -0.010611035 0.008946558 0.006219841 -0.00840415
0000e0 59 98 c5 3b 60 e7 59 3b 5a 69 d9 bc 24 c8 75 bc
       0.006030124 0.0033249483 -0.026539493 -0.0150013305
0000f0 93 94 a8 3b f1 eb 91 bc b6 41 e8 bb 98 bb cc bb
       0.0051446646 -0.017812701 -0.0070879115 -0.006247949
000100 c5 7b 62 bc 5a 1f 2f bc 7f 85 10 bc 02 e4 60 3b
       -0.013823454 -0.010688627 -0.00882089 0.003431559
000110 78 63 0b 3c f9 02 66 bc 64 88 54 bc 3f 8b 1e 3b
       0.008507602 -0.014038795 -0.012971971 0.0024191884
000120 ca a8 0c 3c 7a 2b 9b bb 48 e6 60 3c c3 c6 34 3c
       0.008585164 -0.0047354074 0.013726778 0.011033717
000130 a8 96 9b 3c 79 07 80 3c 10 6a 87 3b 33 96 ff bb
       0.018992737 0.015628563 0.0041325167 -0.0077998876
000140 52 c8 88 3c 64 3e 32 bb 22 6c 74 bc f4 f1 ca bc
       0.016697083 -0.0027197832 -0.014918359 -0.024773575
000150 5b 47 a2 bc e4 68 1c 3c 11 e6 c0 3b f5 7b 5d 3c
       -0.019809416 0.009546492 0.005886801 0.013518323
000160 43 ca 35 3c 21 d7 44 3c d3 96 ff 3b df b8 f5 bb
       0.011095586 0.012014181 0.007799962 -0.007498845
000170 ac bc ea bb 3d 1a 65 bc df 3f fd bb d2 2a 02 3c
       -0.0071636047 -0.0139833065 -0.0077285613 0.0079447795
000180 20 b8 52 bb f8 0e 47 bc 8d b0 92 bb 35 14 c4 3b
       -0.0032153204 -0.012149565 -0.004476613 0.005983854
000190 2c 3d 8a bc 89 df 0b bc 66 64 e3 3b 33 00 97 bc
       -0.016874872 -0.008537182 0.0069394587 -0.018432712
0001a0 44 df 0f 3d 0a 2c ee 3c d5 67 77 3b 65 12 e5 3b
       0.035125032 0.029073734 0.0037751098 0.006990718
0001b0 e5 08 a7 38 6a 45 16 3c 46 1d b9 3c 22 62 20 3b
       7.964837e-05 0.009171823 0.022596966 0.0024472554
0001c0 9c 96 2f 3c 3c 7a 94 3c 1e f5 0f bb 6c ba 0e 3c
       0.01071706 0.018124692 -0.002196617 0.008711439
0001d0 c6 86 4a 3b 84 bb 94 b9 08 c1 92 3c 48 15 09 3c
       0.0030903085 -0.0002836847 0.01791431 0.00836689
0001e0 a0 fc 46 bb ce f6 3e 3b 32 d0 4d 3c 4f d5 8b bc
       -0.0030362979 0.0029138806 0.012561845 -0.017069487
0001f0 36 d2 02 bc 9f 1b b6 bb dc 12 e1 ba 4b df 84 bc
       -0.0079846885 -0.005557492 -0.0017171758 -0.016219756
000200 05 eb a8 3c 68 76 90 3b 5f 0b 87 bc 57 a6 9b 38
       0.020619879 0.0044086464 -0.016484914 7.421959e-05
000210 24 6f 2a bc ac 87 32 bb a0 35 98 3c ae 1f 2c 3b
       -0.010402475 -0.0027241511 0.018580258 0.0026264
000220 66 15 ef bb 2a 6a 5e bc e1 74 b3 3b d9 aa 60 3c
       -0.007296252 -0.013575116 0.0054765795 0.013712608
000230 4b f7 81 3c 47 17 85 bc db 8f bc bb a9 a1 6e 3c
       0.015864989 -0.016246451 -0.0057544536 0.01456491
000240 f4 67 36 bc c1 07 2a bb db 79 76 3c 77 23 a2 3b
       -0.011133183 -0.0025944563 0.015043701 0.0049480754
000250 c6 25 be bb b8 08 a4 ba 8a 58 c0 38 54 6a 3a 3b
       -0.005802843 -0.0012514805 9.171765e-05 0.0028444724
000260 1b bd a8 3c 8a 76 6e 3c c2 43 11 3c 3d a3 9a ba
       0.020597985 0.014554629 0.008866252 -0.0011797916
000270 18 d8 ac 3c 75 2d 84 bc c7 d5 13 bc 36 f5 7e bc
       0.021099135 -0.016134957 -0.009023136 -0.0155613925
000280 41 62 1d 3c 15 01 3c bb 01 eb c8 3a 53 57 8b 3a
       0.009605945 -0.0028687168 0.0015328826 0.0010630883
000290 f2 3b 0b 3b 8a d0 25 bc a5 e5 93 3c e7 74 ac 3c
       0.0021245447 -0.01012052 0.018053839 0.021051837
0002a0 8c 98 b3 3b c8 e9 ed bb 6d 3b 02 bc 3a 9f 9c b9
       0.0054808315 -0.007260535 -0.0079487385 -0.00029873272
0002b0 e8 5d af 3a 24 88 f3 bb b7 37 52 3c d4 6f 50 bb
       0.0013379427 -0.0074320007 0.012830666 -0.0031804936
0002c0 26 98 d5 bb b4 0f f9 3b f0 b1 4e bc 17 f9 09 3c
       -0.0065183816 0.007600749 -0.012615666 0.008421204
0002d0 4a c9 6c 3b c7 e4 74 3c 35 8d 7c 3c 07 ec 48 bb
       0.003613072 0.014947123 0.015414526 -0.0030658261
0002e0 80 44 fe bb b9 7b 74 bb 08 5d 9a ba 12 35 3b bc
       -0.0077596307 -0.003730519 -0.0011776993 -0.011426227
0002f0 b7 d8 09 3c 4f 3e c8 3c 31 f2 a2 bb be 68 ae bc
       0.008413485 0.024443774 -0.004972719 -0.02129018
000300 99 28 13 bd 3a bb 6e bb 77 18 14 b7 7b cc 25 bc
       -0.03592739 -0.0036427514 -8.827184e-06 -0.010119553
000310 10 57 43 3b 1e d7 cf bb 87 d4 76 bb 05 e9 37 bc
       0.0029806532 -0.0063427826 -0.0037663297 -0.01122499
000320 55 7e c3 bc a3 28 c7 3c f9 67 8d 3c d6 51 bd bb
       -0.02386395 0.02431137 0.017261492 -0.005777578
000330 e2 60 c9 bc ee 98 f4 3b 53 4a 30 3b 05 df 81 bb
       -0.02458233 0.0074645197 0.002689977 -0.0039633536
000340 a7 49 92 3c 75 45 5c b9 d4 50 47 3c 0b a8 f3 3a
       0.017857386 -0.0002100671 0.012165267 0.001858951
000350 86 93 51 3c 15 f8 e7 bb 40 a3 ab bc 59 c8 82 ba
       0.01279152 -0.007079134 -0.020951867 -0.0009977921
000360 a0 a6 22 3c 6a cd ae bc 21 05 5c 3a 3c 60 e9 3c
       0.009927422 -0.021338183 0.0008393098 0.028488271
000370 41 fb 1b 3c 5a c4 65 3b 4e f5 fe 3a 56 66 47 3c
       0.009520353 0.0035059662 0.0019451769 0.012170395
000380 7e e7 4d b9 e1 c9 7b 3c cc af 1b 3c 4b 0a 00 bd
       -0.00019636561 0.015367956 0.009502362 -0.031259816
000390 78 71 45 3c ec 5a f4 3a 4b 3e 25 3b 0a 2e 6a bb
       0.012050979 0.001864282 0.0025214131 -0.0035733008
0003a0 d2 68 8e ba b6 e1 b2 37 f6 0f b1 3c 47 9a 19 3c
       -0.0010864979 2.1324358e-05 0.021614056 0.0093751615
0003b0 12 33 a0 ba 50 22 85 3b c6 50 5e bc 4c 33 8a 3b
       -0.0012222251 0.0040629283 -0.013569063 0.004217541
0003c0 04 de ab bc 5f 22 86 bb 22 b3 33 3c 91 4c da bb
       -0.020979889 -0.004093453 0.010968002 -0.0066619595
0003d0 fc 91 22 3c 74 7a 5f 3c 29 52 57 b9 c4 9b 95 3c
       0.009922501 0.013640035 -0.00020534605 0.018262751
0003e0 db a3 9e bc fc 0d 0d 3c c9 a4 48 bc 93 d4 8e 3b
       -0.019365242 0.008609291 -0.012246319 0.004358837
0003f0 6c 24 10 bc ca 27 f1 bc ae bb 7d 36 22 83 b2 3a
       -0.008797746 -0.029437918 3.7809182e-06 0.0013619403

net.3.linear.bias f4 [32]
000000 60 c6 65 bd 02 2a 31 3d fd 3b d3 bd 5f 8b 0f 3e
       -0.05609739 0.043252952 -0.10314176 0.1401801
000010 29 35 f3 bd 73 47 e2 3d 8e 71 14 be 00 6b 55 bc
       -0.11875374 0.11048784 -0.14496443 -0.013025999
000020 f0 e5 bf bd 2d d0 f7 bd b5 30 aa bd 3a db b3 3d
       -0.09370029 -0.12100253 -0.083100714 0.087820485
000030 0f a6 8d 3d 91 26 86 3d f3 24 ef 3b 86 93 40 3d
       0.06916439 0.06550325 0.007298106 0.04701569
000040 f3 60 cd 3c 01 15 19 bb ab 2a e6 3d b4 0d 05 3c
       0.025070643 -0.0023358467 0.11238607 0.008120943
000050 d9 72 b3 3d ba 2c df 3b d2 c5 ae bc 65 8f c3 bc
       0.0876214 0.0068107517 -0.021334562 -0.023872087
000060 9c e5 ba 3b 73 f5 e9 bb 1d d0 a4 bd 58 ef c8 3d
       0.005703641 -0.0071398555 -0.08047507 0.09811276
000070 32 db 22 3d 34 4f 11 be 13 3d 88 bd b3 ca 4c be
       0.039759822 -0.1419037 -0.06652274 -0.19999199

net.4.weight f4 [4, 32]
000000 ab 0f 81 3b f7 48 90 3d 39 ad b1 bd 21 5a 5b bd
       0.0039386353 0.07045167 -0.08675618 -0.05355275
000010 9f 3a aa 3c 60 c2 c7 3c 7a 2f 31 3d 58 d4 b8 3d
       0.020779906 0.024384677 0.043258168 0.09024876
000020 a4 29 b5 3c ef 8b 6c 3d 4b 82 8a bc 63 bf 88 3d
       0.022114582 0.05775064 -0.016907832 0.06677129
000030 d7 50 85 bd d5 43 70 bb 57 be c7 3c 74 e5 5a bc
       -0.065095596 -0.0036661525 0.024382753 -0.01336037
000040 b2 b2 32 3d 14 0f 10 bd 42 19 cf 3b cf cf 00 3d
       0.04362745 -0.03517063 0.0063201496 0.03144818
000050 49 75 b0 3c 71 b0 0f 3d 1e 3c 92 bc 37 c4 4d bd
       0.0215403 0.035080377 -0.017850932 -0.050235953
000060 fb 89 d0 3c ab 19 05 3d e0 0d 50 bd 11 8e 07 3c
       0.02545642 0.032495182 -0.050794482 0.008273617
000070 69 3b 04 bb a2 7c 58 3d 83 c8 9c bd cf c1 18 bd
       -0.0020177013 0.052853234 -0.07655432 -0.037294205
000080 f4 ef ed 3d b3 0a a9 3d 51 6b eb 3c 4c 3b bf bc
       0.11618033 0.08253994 0.028737696 -0.023343705
000090 9b e4 1e bd 6b 95 9a 3d 4e 41 8b 3d 80 09 89 bc
       -0.038792234 0.075480305 0.06799565 -0.016728163
0000a0 7e 66 0f 3d 5c 61 61 bd 2c fd 2b 3d e8 bd 2f bd
       0.035009854 -0.05502449 0.04198949 -0.042905718
0000b0 ab 6f b2 3d 42 14 68 3d f2 f3 d1 3d a4 a1 d7 bc
       0.08712705 0.056659944 0.10251607 -0.026322193
0000c0 c9 72 0c 3d 49 60 ad bd a3 9e 7e 3d fe 73 25 be
       0.034289155 -0.084656306 0.062163007 -0.16157529
0000d0 89 6a 6f bd 04 9b a8 3c 98 13 a4 3d da 09 9e 3d
       -0.05845121 0.02058173 0.0801155 0.07716723
0000e0 1a 71 3f bd fa 11 f8 bd 3b 0b 98 3c 46 0b a2 3d
       -0.04673872 -0.12112804 0.018560043 0.079123065
0000f0 48 a6 13 3a 75 8a fb bb a2 fe 42 3d 81 21 b2 3d
       0.0005632383 -0.0076764175 0.047606118 0.086977966
000100 6a 97 28 bd 61 7a e2 bc d5 b4 b8 3d b8 ea 51 3d
       -0.041160025 -0.027646245 0.09018866 0.051249236
000110 24 65 88 bc 72 aa 78 bd 2d f4 90 bc 83 d2 02 3c
       -0.01664979 -0.060709424 -0.017694557 0.00798476
000120 9e 52 f3 3c f8 81 12 3d c0 36 70 bd 90 c2 03 bd
       0.02970248 0.03576848 -0.058645964 -0.03216797
000130 f1 a2 38 bc 77 84 48 bd 46 2e 7f bd 54 57 64 3c
       -0.011269317 -0.048954453 -0.06229999 0.013936836
000140 ba 74 98 bc 2d 37 88 3d 2c 2b 92 3c 42 40 9d 3d
       -0.018610347 0.06651149 0.017842852 0.07678272
000150 6d 3a 1d 3c 6c 0d 53 3c e1 16 1b bd 20 1f e9 bc
       0.009596449 0.012881618 -0.037863616 -0.028457224
000160 2b 17 c6 bb 8e 6b df 3d 16 fa 19 3d 8e ee b2 3c
       -0.0060452423 0.10909186 0.037592016 0.021842267
000170 2d 40 c7 bc 55 f7 5a bc 39 ae 59 3d 4a 9c da bd
       -0.024322594 -0.013364633 0.053144667 -0.10674341
000180 57 b0 4a bd 02 55 8d 3d 6f 64 aa bc 94 96 52 bc
       -0.049484577 0.069009796 -0.020799844 -0.012853283
000190 58 df c9 3d 76 41 0a 3d 1d 46 13 3d 1a 78 b0 3d
       0.098570526 0.033753835 0.035955537 0.086166576
0001a0 e9 90 a3 3d 75 1d 0e bd e9 61 b9 bd bf a0 82 3d
       0.07986624 -0.03469606 -0.09051878 0.06378316
0001b0 c1 bc 5d bd 82 23 65 bd 73 47 8f 3d 51 1d b2 bd
       -0.054135088 -0.055942066 0.0699605 -0.08696998
0001c0 75 1b 88 3d e9 5c 57 bd 49 e8 b8 bd 4f ae 0c 3d
       0.06645862 -0.05257884 -0.0902868 0.03434592
0001d0 4e 23 f4 3d c8 0f af 3d 37 26 0b bb 59 c3 53 bd
       0.11920796 0.08547932 -0.0021232495 -0.05169997
0001e0 ce 93 cb 3d 7f 6c 70 3d 42 36 0a bc 8e 6b 8e 3d
       0.09940301 0.05869722 -0.008435788 0.06954108
0001f0 eb be a2 bd 68 ef ae 3c 32 c5 4b bd 14 ef 2e bd
       -0.07946571 0.021354392 -0.049748607 -0.04270847

net.4.bias f4 [4]
000000 e9 16 16 be 38 89 18 bc 66 8b 83 3d c4 0b 08 be
       -0.14657177 -0.009310059 0.064230725 -0.13285738
