outputs_ssh/noisy_data_NEW/chirp/1_nodes_given/5%_noise/-30%_init_error/model.pt (torch, 16796 bytes, 10 tensors)

net.0.linear.weight f4 [32, 1]
000000 fb 5c 01 bf 77 4e f7 bd 92 6a 53 bf df db 8c 3e
       -0.505325 -0.12075513 -0.8258449 0.27511498
000010 46 8e d8 3e 6d e2 1b bf b9 18 39 bf 20 63 64 3e
       0.42296046 -0.60892373 -0.7230335 0.22303438
000020 d2 29 71 3e fb e9 09 bf 16 50 9e 3e 6e 8c a3 bc
       0.2355111 -0.5387265 0.30920476 -0.019964423
000030 1b fd 73 bf 37 ae 17 3f 2e 87 c7 3e 93 86 7f bf
       -0.95308083 0.59250206 0.3897032 -0.9981472
000040 d0 f5 8d bb 81 3c 67 3f 43 58 c2 be bc df 59 bf
       -0.0043322816 0.90326697 -0.37957963 -0.85107017
000050 07 f4 d7 be bb 64 23 3f 95 60 11 3f 0a 73 80 3c
       -0.42178366 0.6382558 0.56788 0.015679855
000060 25 2a 2d bf b2 60 28 3e 7c e2 51 3f d7 51 e8 be
       -0.6764243 0.16443136 0.8198621 -0.4537494
000070 fc d3 5f 3f 69 b8 42 3f 28 6f bc 3d 0a c5 c1 3e
       0.8743284 0.7606264 0.09200889 0.3784564

net.0.linear.bias f4 [32]
000000 d0 ee aa be e0 8d bb be 79 23 e1 3e b0 cc 05 3e
       -0.33385324 -0.3663168 0.43972376 0.13066363
000010 a9 12 6d bf 0f 7e de be 0a c5 2c be 9b 39 50 3f
       -0.926066 -0.4345555 -0.1687204 0.813379
000020 21 e9 78 3f 7f 4f 80 3d 67 2c 0f 3e aa df 26 bf
       0.97230726 0.06265163 0.13981782 -0.65185034
000030 9c da 28 be f6 8f 73 bf 77 7d 17 3e bf 9a 82 bf
       -0.16489643 -0.9514154 0.14793955 -1.0203475
000040 d6 e3 82 be 77 2a 23 3e fb 15 7b bf 0b bd 96 3e
       -0.2556445 0.15934168 -0.98080415 0.29441103
000050 c3 b6 ee 3e d6 68 02 3f e0 8e 02 3f f7 3c 94 be
       0.4662381 0.50941217 0.5099926 -0.28952762
000060 66 9c c6 be da 25 bb bd 55 f2 e8 bb 3f 1b 3a 3f
       -0.38791198 -0.09138079 -0.0071089664 0.72697824
000070 af 37 bf 3e 97 a2 96 be 6d e5 46 3e 53 89 f8 be
       0.3734717 -0.2942092 0.19423456 -0.4854227

net.1.linear.weight f4 [32, 32]
000000 c3 d4 97 3d eb 44 14 3e 6a e8 80 bd c8 ef d7 bd
       0.07413628 0.14479415 -0.062943295 -0.105437815
000010 e5 51 79 bd 07 11 ff 3a e1 36 0b be a6 8e a7 3b
       -0.060869116 0.0019460031 -0.13595153 0.0051134406
000020 c6 8d 0b be 69 44 bc bc 1a 0b ea bd 90 2e d8 bd
       -0.13628301 -0.02298184 -0.11427899 -0.10555756
000030 a9 a7 1b 3d b0 53 d6 bd f4 d5 9c bc 53 f5 4c 3d
       0.03800169 -0.10465181 -0.01914499 0.050038647
000040 03 1c b2 bd d4 a5 4e bd 23 b8 c8 3b e2 4f 42 bd
       -0.08696749 -0.050451115 0.0061254664 -0.047439463
000050 0a dc 1e bc 50 a9 d3 bd 05 75 da bd be f2 e8 bd
       -0.009696016 -0.10335028 -0.10666851 -0.113744244
000060 5b 4f 0d be f9 65 88 bc 38 35 c0 bb a1 72 f2 3d
       -0.13799803 -0.016650187 -0.005865719 0.1183827
000070 d1 9c af 3d 08 a7 4e bd 6a 59 71 bd 26 08 73 b9
       0.08574832 -0.050452262 -0.058923163 -0.00023177321
000080 53 d3 5d bd 71 e3 44 bd 8f af d4 3c 30 fb 7f 3d
       -0.054156613 -0.048068468 0.02596262 0.06249541
000090 81 6c 26 3d be f9 bf 3b b9 a9 fc 3c 42 79 7b 3c
       0.04063082 0.005858629 0.030842649 0.015348734
0000a0 9f a0 08 3d 1c ac 4b bd de 22 3e 3d 09 78 5b 3d
       0.033356305 -0.049724683 0.04641997 0.05358127
0000b0 54 e6 ff 3b 70 bb 70 3d 9b b0 ae 3d 5d 83 b1 3c
       0.0078094397 0.058772504 0.085297786 0.021669084
0000c0 6c 47 0c 3d b0 76 d4 3b 4c 99 88 bd 2c 03 16 bd
       0.0342478 0.006483875 -0.06669864 -0.03662412
0000d0 31 1b 89 bd c2 8c 08 3d 8a 26 52 3d 15 83 d9 3c
       -0.066946395 0.033337362 0.051306285 0.026551763
0000e0 f7 ee fa 3c 05 ca ce bb 71 b1 76 bc ec 70 07 bd
       0.030631525 -0.0063107037 -0.015056954 -0.033066675
0000f0 f8 6c 09 bd 05 59 50 3c eb 4e be 3c 19 a2 30 3d
       -0.033551186 0.012716536 0.02323099 0.04312334
000100 00 57 af bb 5a 07 ac bc 1b 88 85 3d 6c aa 0f 3d
       -0.0053509474 -0.0209996 0.06520101 0.035074636
000110 d1 a3 e0 bc f4 aa ae bc 35 9a 78 3d df 23 ea bc
       -0.027421864 -0.021321751 0.06069394 -0.028581558
000120 73 27 91 3c 47 30 b8 3c 60 6d 1e bd 8f 42 0d 3d
       0.017719006 0.022483958 -0.038678527 0.034487303
000130 ba 71 32 bd 16 6d 94 3c 79 56 96 3b 1b eb b5 bc
       -0.04356549 0.018118422 0.004587945 -0.022206834
000140 94 a3 9a 3b af 52 5e 3c 2b e1 27 3a 1e 9b 96 ba
       0.004719207 0.013569518 0.0006404097 -0.001149032
000150 9c b8 69 bc 8b 0b 62 3d 6b 55 6d 3c 44 42 40 3d
       -0.014265206 0.05518679 0.014485697 0.046938196
000160 45 63 37 3d 4f 71 57 bd c5 0b 16 3b 4b e4 ce bb
       0.044772405 -0.052598294 0.0022895199 -0.0063138357
000170 76 b2 95 bd 85 92 81 3d 33 51 af bc a4 81 90 bb
       -0.07309429 0.063267745 -0.021401023 -0.0044099856
000180 22 04 bb bd 20 21 db bd 19 65 29 3d 39 60 c9 3d
       -0.09131648 -0.106996775 0.04135618 0.09832806
000190 f4 63 5e 3d 76 fe ba bc 85 4c e1 3c 32 a2 c0 bc
       0.05429454 -0.022826415 0.027502308 -0.02351484
0001a0 37 22 fe 3d 52 bb a3 bd 0c 5e 41 3d 3f fd d0 3d
       0.1240887 -0.07994713 0.04720883 0.10204553
0001b0 28 20 d2 bc ac 25 75 3d d8 9b bc 3d 1b c0 9d bb
       -0.025650099 0.05985038 0.09209412 -0.0048141605
0001c0 ed 3c bb 3d 29 7f 87 3d 71 40 da bd 43 9e 34 bc
       0.0914248 0.06616051 -0.106568225 -0.011024061
0001d0 c1 35 02 be 1a 54 90 3d 54 95 80 3d 20 48 df 3d
       -0.12715818 0.07047291 0.06278482 0.109024286
0001e0 f7 70 0a 3d 87 a1 aa 3c 1a 5a 83 3c b3 27 bd bd
       0.033799138 0.020828975 0.016034175 -0.09236088
0001f0 ad 77 85 bc 6c 28 1e 3d 18 c0 90 3d 04 d4 fd 3c
       -0.016292417 0.038612768 0.07067889 0.030984886
000200 25 8c 93 3d 55 05 69 3d a5 55 af bb 87 27 b7 bd
       0.07204465 0.05688985 -0.005350786 -0.08943086
000210 2a 86 d8 bc 41 1c a7 bc a9 be 8b bc a5 6b 9d 3c
       -0.026431162 -0.020399215 -0.017058687 0.019216368
000220 fb 54 89 bd b0 05 87 bc 1a 13 13 bd c4 85 9e bd
       -0.06705662 -0.016482204 -0.03590689 -0.077403575
000230 90 0a 4d ba 60 22 87 3c de f2 c5 bc b2 ae 15 bd
       -0.00078217033 0.016495883 -0.02416366 -0.036543556
000240 a2 af 92 bd 4e de ff bb c3 46 e0 3c 65 d4 2d 3b
       -0.071624056 -0.007808483 0.027377492 0.0026524302
000250 18 49 7e 3d 68 72 13 bd d7 88 30 bd 3e 43 96 bd
       0.062081426 -0.03599778 -0.04309925 -0.07337044
000260 74 43 46 bd 6c 55 3f bb 74 d7 d6 3c 91 50 4a 3d
       -0.048404172 -0.0029195203 0.026225783 0.04939324
000270 8f b5 78 3c 39 b8 b2 bb e7 6d 49 bd 35 6d 9d bc
       0.015180006 -0.00545409 -0.049177077 -0.019217113
000280 06 53 1d bc 72 0d 16 bc 9f 7d ee 3c a5 d7 ba 3b
       -0.009602314 -0.009158479 0.029112635 0.0057019764
000290 9c 4b 12 3d c6 ab 28 bd 74 ec 65 3d b8 73 2f 3c
       0.035716638 -0.04117944 0.056133702 0.010708742
0002a0 11 7a 2b 3c 7a 91 29 bc 75 06 23 bd a6 29 04 bd
       0.010466115 -0.010349626 -0.03980108 -0.03226628
0002b0 7f 1d a2 bc ea 13 6f 3d d4 f6 83 3c 3c fc b2 bb
       -0.019789455 0.0583686 0.016108908 -0.0054621976
0002c0 90 51 b0 bc eb fb 7a bb bb a9 50 bb f1 eb f7 3c
       -0.021523267 -0.0038297127 -0.0031839448 0.030263873
0002d0 60 97 ac 3b df d7 73 3d 8a b9 3f 3d 5d 6f 12 bd
       0.0052670687 0.059532043 0.046807803 -0.035750736
0002e0 31 8a 12 3d 78 85 11 bd 27 ad a1 3c 1d 9d 11 bd
       0.03577632 -0.035527676 0.019735886 -0.035550226
0002f0 67 5f d6 bc 4c 66 39 3c cf 14 8b bd 3b 83 2c bd
       -0.026168538 0.011315893 -0.06791078 -0.04211734
000300 dc 52 e9 bd ae 2d cb bd 16 1d 4c bb ac 5c 08 3e
       -0.11392757 -0.09920822 -0.0031145266 0.13316602
000310 b9 32 c0 3d d7 74 71 3d e8 10 55 3d 09 2b 59 bd
       0.093846746 0.058949318 0.052018076 -0.053019557
000320 68 a7 fa 3d 30 6d df bc 92 8e 8d 3d 41 fd cc 3d
       0.122389615 -0.027273744 0.06911959 0.10009242
000330 35 e0 bc 3c 03 31 17 3d 54 0c a0 3d 9a 34 c4 3c
       0.023056129 0.036911976 0.078148514 0.023950864
000340 bc 2d c1 3d 17 ca d6 bc ca 38 ab bd 2f bc e2 bc
       0.09432551 -0.02621941 -0.08360441 -0.027677624
000350 85 a7 4a bd 2f 24 94 3d 30 79 c8 3d 4e cb df 3d
       -0.049476165 0.07233464 0.0978874 0.10927449
000360 91 5e 08 3e 37 ed 23 3d 40 cc 43 bd ed 34 0d be
       0.13317324 0.040021148 -0.04780221 -0.13789721
000370 2c 85 6c bc f8 6d ba bc 49 fb 8d 3d 08 57 98 3d
       -0.0144360475 -0.022757515 0.069326945 0.07438475
000380 8f 74 85 bd 8b 4a 88 bd 4a 5b 44 bd 0b 35 bf 3d
       -0.065163724 -0.06654843 -0.047938623 0.09336289
000390 12 ee 90 3d 20 f2 94 3d b7 9e f1 3c ed c4 c4 bd
       0.07076658 0.07272744 0.029494626 -0.09607873
0003a0 6e a2 e1 3d 6a 88 59 bd 97 18 44 3d fd d2 be 3d
       0.11017309 -0.05310861 0.047875013 0.093175866
0003b0 69 64 72 3d 7e 01 42 3c 3d 0b ae 3d c7 40 bf 3c
       0.05917779 0.011841176 0.08498237 0.023346318
0003c0 e2 03 8d 3d 9c 82 bb bd f2 2b f2 bd 0f 58 44 bd
       0.06885506 -0.09155771 -0.11824788 -0.04793554
0003d0 53 50 9f bd 5b 99 94 3c 7b 94 76 3d 29 2c b6 3d
       -0.077789925 0.018139532 0.060200196 0.08895142
0003e0 a2 41 73 3d 0d 24 3c bb 5e a6 ee bc b6 12 a3 bd
       0.059388764 -0.0028708011 -0.029132064 -0.07962553
0003f0 89 31 11 3b c8 74 c3 bd 0a a5 3f 3d 19 fa ab 3d
       0.002215477 -0.09543759 0.046788253 0.08397312

net.1.linear.bias f4 [32]
000000 9d 6e 12 3d 34 e8 b9 bd 40 40 f0 bd ee bb ad 3d
       0.03575002 -0.09077492 -0.11731005 0.0848311
000010 f4 b5 1a 3e b5 6a c3 3d eb 72 bd bd b2 93 07 be
       0.15108472 0.09541837 -0.092504345 -0.13239935
000020 15 63 0a bd f3 7f 22 3e 78 9a c9 bd 49 6b 42 be
       -0.0337859 0.15869121 -0.09843916 -0.18986239
000030 7c 52 55 bd dc cf b5 bd 9c 84 f6 bc 6c 18 de 3d
       -0.052080616 -0.08877537 -0.03009253 0.10844502
000040 5b f2 07 3b 4d e8 a9 3c be 9c 03 3e 94 53 ec 3d
       0.002074382 0.020740652 0.12852761 0.11539379
000050 36 d1 1a bd 5f 97 35 3e fa 9d 31 bb da 77 a1 3d
       -0.037797175 0.17733525 -0.0027102218 0.07884188
000060 0e 09 2d 3d 40 99 98 bc 56 61 dd bc df b7 55 be
       0.042244963 -0.018627763 -0.027023952 -0.20870923
000070 3c d6 84 bd 8a 8a 2d bc f2 47 72 3d 9c c9 13 3e
       -0.064861745 -0.010592112 0.059150644 0.14432377

net.2.linear.weight f4 [32, 32]
000000 2c 85 32 bc 71 91 92 bc 28 08 40 3d 5b f7 6e bc
       -0.010896008 -0.017891617 0.04688278 -0.014585341
000010 05 10 c3 bc 97 ff 30 bb b4 2b 38 bc 0c 49 51 bc
       -0.02381135 -0.0027007812 -0.011240888 -0.012773763
000020 ca 68 85 3c 70 84 42 bb 53 10 4d 38 d3 22 e9 3b
       0.016285319 -0.002968099 4.8891012e-05 0.007114747
000030 e6 6a e0 3b 66 ec 86 3c 92 b5 20 3d bb bd bb 3c
       0.006848681 0.016470145 0.03923566 0.022917619
000040 50 b9 dd bb eb e0 9c 3c 6b b0 1f 3d 24 a5 15 3d
       -0.0067664757 0.019150218 0.038986605 0.036534443
000050 90 85 aa 3b e5 8b 0d bd 37 ab 2a bc 36 0f 16 bc
       0.00520391 -0.034557242 -0.010416797 -0.0091589
000060 9f b3 29 bc 98 eb 86 bc 72 60 5d bc 38 0a 15 3b
       -0.010357766 -0.016469762 -0.013511764 0.0022741687
000070 7e 1f 56 3d 5e 89 6e bc a5 27 8d 3c 9a 18 5a 3d
       0.052276127 -0.014559118 0.017230818 0.053246118
000080 6e 9f 15 bc 8d 9e a6 bc f2 34 ca bc fd cd 1b bc
       -0.009132249 -0.020339275 -0.02468345 -0.009509561
000090 0c 9f cc bc 24 19 4f bb 18 2d c5 bb cb 9e 1c 3c
       -0.024978183 -0.0031600678 -0.0060173385 0.009559344
0000a0 c0 6e 2e 3d 73 d6 23 bc 8b 52 2f bc 12 b0 7e 3d
       0.04258609 -0.009999859 -0.010700832 0.062179632
0000b0 bb 84 16 3d 19 d6 25 3d 00 41 00 3d 63 a9 1c 3d
       0.036747675 0.040487383 0.03131199 0.038247477
0000c0 b8 92 94 bc 49 f6 e9 ba 12 6c 9c 3c 6b 97 4f 3c
       -0.018136367 -0.0017849888 0.0190945 0.012670378
0000d0 2b c5 98 3b 89 ba 33 3d ae fe 19 bc d4 e4 d7 bc
       0.004662176 0.043879066 -0.009399099 -0.026354231
0000e0 ff a9 e4 bc 89 10 83 bc a1 b5 16 3d e2 63 db 3b
       -0.027913092 -0.015999096 0.03679431 0.0066952566
0000f0 ed fb f4 bc f3 ac cb 3c 2f df fc ba c0 c1 58 bd
       -0.029905284 0.024862742 -0.0019292588 -0.05291915
000100 a0 d1 90 bb 1c 55 90 ba 6d b7 69 3d f6 b4 3d 3c
       -0.0044195205 -0.0011011693 0.057059694 0.011578789
000110 b5 7a 55 3d d9 90 76 3c d0 8a 2c bc 1d 9b 3c bb
       0.052118976 0.015049183 -0.010531142 -0.0028778978
000120 54 85 1d 3d e5 a1 98 3b f1 67 bc ba 02 49 61 3d
       0.03845723 0.004657971 -0.0014374239 0.055001266
000130 93 8a 02 3a e1 2a 0d bc 85 3b 92 3a ad 7d 60 bb
       0.00049797556 -0.00861618 0.0011156654 -0.0034254596
000140 08 2a ee 3b f1 67 14 bb 84 c4 37 bc 7a 09 b9 3d
       0.007268194 -0.0022644962 -0.011216287 0.09035011
000150 76 e6 cc bb 51 7c cd 3c 38 c0 1f 3c de ca 43 bb
       -0.006253059 0.025083693 0.009750418 -0.0029875557
000160 df c7 0d bc ae b7 c7 bb 90 92 e0 bc 9e f7 f2 3c
       -0.00865361 -0.0060948944 -0.027413636 0.029659089
000170 0d 13 85 3c b5 8e 2b 3c 8c b2 54 bb ad 87 13 3b
       0.016244436 0.010471036 -0.0032455055 0.002251129
000180 e6 61 16 3c b0 c2 fc ba f9 e5 fd 3d 02 48 26 bc
       0.009178614 -0.0019284096 0.123973794 -0.010149004
000190 11 e5 1d 3d a9 31 19 bd 7f 40 78 3c 0c 7e 59 bc
       0.038548533 -0.037400875 0.015152096 -0.013274681
0001a0 8e ed d0 bc c9 bb 8f 3c ff c0 68 3b 60 e4 5f bd
       -0.0255039 0.017545598 0.0035515425 -0.054661155
0001b0 c8 0a 6e 3b c8 06 c8 bc 2c eb 8d bc 9c 9e c9 3b
       0.0036322344 -0.024417296 -0.017324053 0.006152941
0001c0 70 74 43 ba a1 e5 38 bd 15 f2 e5 3c db 80 28 bc
       -0.000745601 -0.045140866 0.028069535 -0.010284628
0001d0 3d 9b 73 bc c6 2e 31 bc 89 c0 b4 bc 41 fe ab 3c
       -0.014868555 -0.010814374 -0.022064464 0.020995261
0001e0 de c1 1a bd a3 24 2b 3c f6 83 fa 3c 23 03 30 3d
       -0.037782542 0.010445747 0.030580502 0.04297174
0001f0 25 d7 29 3d 94 70 9e 39 75 59 4d bc 74 a6 0a bd
       0.041464943 0.00030219986 -0.012533535 -0.03385015
000200 07 58 2b 3c 04 9e 2b 3d bb f7 e3 3c 30 8b 85 bc
       0.010457999 0.041898742 0.027828088 -0.016301721
000210 c8 f7 46 3d 19 ab b5 bc 73 5f 14 3c 19 e4 95 3c
       0.048576146 -0.022176312 0.00905596 0.018297242
000220 9e bc fe bc 87 1f f7 3a 18 72 c9 3c 62 c5 a0 bd
       -0.031095799 0.0018854 0.024590537 -0.07850148
000230 47 b1 8c bd 4a 28 6f bd 85 42 a2 ba ae 7f 8f 3d
       -0.068697505 -0.058388032 -0.0012379444 0.07006775
000240 69 73 bd 3c 9a 53 87 3d 0d e3 22 3d 99 63 60 bd
       0.02312632 0.066077426 0.039767314 -0.054782484
000250 be 0e f6 3b b6 c2 a9 3d 2c 52 ef ba 68 2b be 3c
       0.0075090816 0.08289091 -0.0018258742 0.023214057
000260 ab 23 04 bd b4 b4 0f 3a 05 df b7 bc 22 15 06 3d
       -0.032260578 0.0005481944 -0.022445211 0.032734998
000270 e9 d9 51 3d 19 8b 33 3d de 3b 3f bc de a8 17 bd
       0.051233206 0.043833826 -0.011671988 -0.03702628
000280 c9 e9 d7 3b 61 3c b1 3b 0c 50 0e 3c 44 b1 85 3c
       0.0065891487 0.005408809 0.008686077 0.016319878
000290 95 c8 74 bc 1d c9 4e 3c d5 e4 33 3b 9e 64 92 3a
       -0.014940401 0.012621191 0.0027449627 0.0011168902
0002a0 7f 51 1c 3d 42 be c1 ba 86 85 13 bc f7 53 ba 3a
       0.03816366 -0.0014781433 -0.009004002 0.0014215697
0002b0 c9 44 ee 3a 6f 79 78 3c 93 8c 81 3d 91 b2 56 3c
       0.0018178459 0.015165671 0.063256405 0.013104097
0002c0 cf 32 d2 3b 47 cc fc bc 40 9a 95 bc 47 63 45 bc
       0.0064147483 -0.030859126 -0.018262029 -0.012047595
0002d0 c4 89 18 3b 1a e7 a2 3b 53 be ee 39 73 31 fd 3a
       0.0023275474 0.004971397 0.000455367 0.0019317105
0002e0 93 88 6a bd 14 43 d9 bb e5 4a cf bc 15 05 a2 bb
       -0.057259154 -0.006630311 -0.025304267 -0.0049444535
0002f0 4d 5c c2 3c 34 7f 0a bc f5 1c c4 3a be eb 10 bc
       0.023725653 -0.008453179 0.0014962243 -0.008845268
000300 96 b1 87 bb 50 49 b3 3c c1 67 87 bd b4 53 52 3b
       -0.004141043 0.021885544 -0.06611586 0.0032093348
000310 99 9f ef bb 2c 89 e2 bc 5e 63 cb 3b ea 38 63 bc
       -0.0073127267 -0.0276533 0.006206914 -0.01386855
000320 34 8f 98 3b 7a 4f ec bb 3e 2b c3 3c 5f 78 61 bd
       0.004655743 -0.007211623 0.02382433 -0.055046435
000330 62 00 a4 bc 81 b7 90 3b 03 47 48 3d 56 76 1f 3c
       -0.020019714 0.0044164066 0.048895847 0.009732803
000340 f2 f3 a8 bc 26 52 43 bc f8 da 54 bc 40 0c 0d bd
       -0.020624135 -0.011921441 -0.012991659 -0.03443551
000350 73 94 37 3b 31 d3 4f 3d f5 8a 5c 3a 81 07 fc 39
       0.0028012067 0.050738517 0.000841304 0.00048070776
000360 d9 13 2b bd 9f 8e 38 ba d8 4a c4 3d 22 ce bc 3c
       -0.041766975 -0.0007040295 0.09584588 0.02304751
000370 67 e0 a6 bc a9 66 85 bc 3e 57 19 bb f3 e7 d8 3c
       -0.020370675 -0.016284304 -0.0023397948 0.02647779
000380 79 20 de bb e4 85 ae 3b a9 5e c7 3a 90 20 b9 ba
       -0.0067787734 0.0053260196 0.0015210706 -0.0014124084
000390 ee 74 14 bd ce 7d c3 3c 40 7c b2 3b 51 c4 96 bc
       -0.036244325 0.0238637 0.0054469407 -0.018404158
0003a0 2a 40 3b 3c cd a4 d3 bb 96 52 cd 3c 73 59 7b bb
       0.011428872 -0.006458855 0.025063794 -0.0038352876
0003b0 c7 53 4b 3d 87 21 f2 3c 3a 29 75 3c 0e f5 54 bc
       0.049640443 0.029557003 0.014963442 -0.012997879
0003c0 e4 83 ca bb d9 06 d7 3c 5c 8b 9d bc 93 a8 40 bd
       -0.0061802734 0.026248382 -0.01923149 -0.047035765
0003d0 45 da 8c 3b 03 7e 65 bd 1b db a4 bc ec 73 35 3c
       0.0042984807 -0.056028377 -0.020124009 0.011075001
0003e0 62 1d fb 3b 6a ea 1e 3b 58 95 8b 3d 5d 63 04 3d
       0.007663415 0.0024248608 0.068155944 0.032321323
0003f0 74 56 97 bc 37 c1 c8 bc 2e 09 4b bc 8b af 43 3d
       -0.018473841 -0.024506195 -0.012392325 0.047774833

net.2.linear.bias f4 [32]
000000 f1 72 57 3e 28 3c 80 bc 55 29 7e 3d 7f 87 92 3c
       0.2103994 -0.015653685 0.062051136 0.017886875
000010 7a a3 b4 3d 92 60 02 3e 94 2c 07 3e c1 e4 a8 bd
       0.08820243 0.12732151 0.13200599 -0.08246756
000020 db c2 2a bd d6 dd aa 3d 10 01 4b bb de 87 45 3d
       -0.041689735 0.08343093 -0.0030975975 0.048225276
000030 fe a6 d8 bc c1 a9 c8 bd 4b e2 f1 bc 38 cb ba 3d
       -0.026446816 -0.09798003 -0.02952685 0.09120792
000040 1c f9 4d bd b6 00 1a bd 8e c2 d8 3c ce 74 93 3d
       -0.050286397 -0.037598334 0.026459958 0.07200013
000050 25 3a 36 bd bd 6b 03 be 2b b1 a9 be f3 7b d7 3a
       -0.044489045 -0.12834068 -0.3314298 0.0016440138
000060 c5 e3 97 3e 73 2e 31 be 99 83 26 3d 2a ba 58 be
       0.29665962 -0.17302875 0.040652845 -0.21164766
000070 f3 8e 6e bd 4a 82 bb bd f6 48 00 3d 67 43 2b 3e
       -0.058241796 -0.0915571 0.03131958 0.1672493

net.3.linear.weight f4 [32, 32]
000000 1f 63 61 3b e6 51 11 ba 6c 09 e2 b9 56 0d 8b 3a
       0.0034391356 -0.0005543515 -0.000431131 0.0010608833
000010 61 e7 9a b8 78 6b 66 bc 27 6a 9f ba 95 ba ec 3a
       -7.38639e-05 -0.0140637085 -0.0012162373 0.0018060977
000020 f9 eb 5b b9 e5 42 5b 3a 06 3f 2b b9 ab 51 b0 bc
       -0.00020973374 0.0008364155 -0.00016331309 -0.021523317
000030 0e e4 67 3a 18 ae a0 3b 6f 7c 2f b8 e4 6a 4b ba
       0.00088459335 0.004903566 -4.183914e-05 -0.00077597634
000040 23 d6 ab ba 3e 47 ba bc fc 67 a9 3a f4 1e b9 ba
       -0.0013110082 -0.022739049 0.0012924667 -0.0014123605
000050 80 6f 45 3a ff 3e 87 39 28 19 df 3b 07 4e 31 3c
       0.00075315684 0.00025796142 0.006808419 0.010821826
000060 ad 1d ce b9 16 9a 6f 3c b0 a8 46 b9 f6 a5 92 38
       -0.00039313492 0.014624139 -0.00018945592 6.992735e-05
000070 f4 ff 8e bb c8 d5 cd b9 9c 54 08 3c ca 9e 2f ba
       -0.004364008 -0.00039259926 0.008320954 -0.00066993816
000080 09 d2 45 3b 0b dc 23 bb 99 b0 d3 3a 17 38 03 ba
       0.0030185005 -0.0025002982 0.0016150653 -0.00050056115
000090 e0 e6 8f ba 7b 0b 35 3c 32 58 0c 3a 35 cc de ba
       -0.001097884 0.0110501 0.00053537183 -0.0016998114
0000a0 a1 88 59 3b 9e 86 9f ba 97 5e 6c bb ae 42 0a 3b
       0.003319301 -0.0012170856 -0.0036067122 0.0021096873
0000b0 a6 d7 37 3a 30 e9 02 bc 4a 74 ff 39 94 d5 d7 3a
       0.000701303 -0.007990167 0.00048724032 0.001646685
0000c0 31 4e 54 3c b2 0f 99 3c c2 3f f5 3b e3 66 51 3a
       0.012958095 0.018684242 0.007484407 0.00079880486
0000d0 35 ae ca 3a 64 aa 1b 3b 38 17 9c bb 53 40 a5 bb
       0.0015463295 0.0023752684 -0.00476351 -0.0050430684
0000e0 c1 87 fb ba ec c5 b6 3b 91 56 a3 ba c3 55 da ba
       -0.0019190238 0.0055777933 -0.0012461712 -0.0016657639
0000f0 bc f5 b9 3a 66 b4 25 bb 56 c9 1b 3c a3 1c d1 ba
       0.0014187614 -0.0025284528 0.009508451 -0.0015953969
000100 b8 83 eb 3b 43 f7 a5 bb a7 df ff b9 9e 1c 2a bb
       0.007187333 -0.0050648763 -0.00048804024 -0.0025956999
000110 da f1 b5 ba 3d a1 e8 3a 34 2b 42 bb a9 da f0 3a
       -0.0013881281 0.0017748248 -0.0029627802 0.0018375713
000120 21 16 87 3b ea a3 84 bb c7 3b d1 3a 08 fc ad 3a
       0.004122511 -0.0040478604 0.001596325 0.0013273964
000130 c2 b0 ae 3a fb c7 9c b9 f0 a6 ef 3b 6b f2 a8 ba
       0.0013327824 -0.00029903636 0.0073136017 -0.0012889629
000140 99 22 44 bc 68 9c 2a bc b2 ad fd bb 6a 75 59 bb
       -0.011971139 -0.010413267 -0.0077416534 -0.0033181557
000150 ef 75 45 3b 13 5f 42 3b 4e 0c 1e 39 f3 4d 51 3a
       0.0030130108 0.002965872 0.00015072638 0.00079843326
000160 46 fc 3b b8 57 0c 98 3c 79 5e 16 3b cd f7 a2 39
       -4.4819222e-05 0.018560572 0.0022944494 0.00031083674
000170 56 7a 84 b9 bf 83 02 3b f7 cb 86 bc c6 ea a3 3a
       -0.0002526815 0.0019914953 -0.01645468 0.0012505881
000180 c6 22 89 bc ff 96 04 3c 1e 76 81 3c 1c 1d 02 3d
       -0.016740214 0.008092641 0.015803393 0.031766042
000190 c0 4f 12 bc a1 c3 41 bc 54 13 f8 ba 3f 9d 2c 3c
       -0.008930147 -0.011826427 -0.0018926659 0.010535537
0001a0 19 a9 fc bc 6c b6 b1 bb 04 e8 61 bb ba 0a 90 bb
       -0.03084235 -0.0054233577 -0.0034470567 -0.00439581
0001b0 a8 7b d8 3b bb cf 89 3c ae 7e a9 bb 57 7f 10 3b
       0.006606538 0.016822686 -0.005172572 0.0022048557
0001c0 38 89 47 bb 90 cf 97 3b ad a6 3a 3d 86 71 3b bb
       -0.003044678 0.0046328977 0.04556911 -0.00286016
0001d0 79 33 3f 3c 33 c4 3f 3c 05 9f e4 3c 96 98 37 3c
       0.011669987 0.011704492 0.027907858 0.011205813
0001e0 29 0c 89 bc b3 81 a7 3c 63 f8 4e bb 55 8f 1d bc
       -0.016729431 0.020447588 -0.0031581155 -0.009616693
0001f0 ea 66 b6 3b 25 ca 10 bc c5 83 13 3c 1d 2f 7e ba
       0.0055664675 -0.0088372575 0.009003584 -0.00096963515
000200 f9 8d 81 3b 50 ab 28 3a 45 a1 fc ba b9 30 02 bb
       0.003953692 0.0006434219 -0.0019274136 -0.0019865467
000210 e9 ff bd 3a 15 dd d2 3b e4 7f 90 3b 96 94 8a 3a
       0.0014495823 0.0064350464 0.004409777 0.0010572847
000220 e8 45 eb 3a 3b a4 4a bb 17 4f 6f 3b d0 9a df 3b
       0.0017949911 -0.0030920643 0.0036515647 0.006823875
000230 eb c4 ac ba ec d2 43 3b 26 4f 57 3b 75 87 33 bb
       -0.0013181245 0.0029880358 0.0032853573 -0.002739397
000240 85 f9 db 3b c0 5c 7a bc 27 1b 35 bd ce 4c f0 3a
       0.0067130947 -0.015280902 -0.044215348 0.0018333436
000250 4d 23 5b ba 5b 86 c3 ba 4d 5b 74 bb 05 6c 71 ba
       -0.0008359447 -0.001491736 -0.0037285865 -0.00092095166
000260 d8 ae 49 3a 8b 09 a1 3a e0 21 29 bb 3c 38 1c bb
       0.0007693595 0.0012286169 -0.0025807545 -0.002383723
000270 8a a5 22 bc ed af 03 3a 47 62 84 bc 9f e3 60 ba
       -0.009927163 0.00050234684 -0.016160144 -0.000857884
000280 1a 97 e1 b9 02 2c 51 bb 24 6d 4f 3a 1a 82 5e bb
       -0.00043027924 -0.00319171 0.00079126866 -0.0033952058
000290 a2 ae 02 ba c6 7f 22 3c 17 69 c8 bb 65 98 2b 3b
       -0.0004985129 0.009918159 -0.0061160433 0.0026183364
0002a0 10 d4 e3 ba 88 56 14 bb eb 6e 90 3a 56 ba 39 3a
       -0.0017381925 -0.0022634584 0.0011019384 0.0007084956
0002b0 f3 60 87 3a e9 f5 34 bb 6a 6a 98 bb 44 53 0c 39
       0.0010328576 -0.0027612394 -0.0046513574 0.0001338246
0002c0 1c 9a c8 3c 95 9c 40 3c 08 56 5f 3c 36 f5 a9 b9
       0.024487548 0.011756082 0.013631351 -0.00032416888
0002d0 e8 3f 96 ba de f9 49 3b 4f a8 13 bb 02 82 88 3a
       -0.0011463137 0.0030819098 -0.002253074 0.0010414722
0002e0 a3 db 84 ba b7 eb 4d ba fa 92 31 3b b0 a0 6e 3b
       -0.0010136258 -0.00078552536 0.0027095661 0.0036411695
0002f0 a5 26 e0 3b 06 f7 44 3b eb 3e 48 3c 84 46 06 3b
       0.0068405443 0.0030054464 0.012222032 0.0020488808
000300 92 a2 23 39 f8 a3 27 ba c2 8c 6d 3b 92 3e 10 b8
       0.00015605454 -0.00063949777 0.0036247228 -3.439055e-05
000310 67 78 3b 3a 93 6d 4e 3c 16 10 bc ba ae 9a 15 3a
       0.0007151425 0.012599367 -0.0014348056 0.0005706948
000320 2e 11 27 bb fe 40 3b ba df 15 c4 39 e5 fc 00 3d
       -0.0025492418 -0.00071431685 0.00037400328 0.03149118
000330 e4 96 d2 3a 3d f5 a5 b7 49 b0 4a b9 06 17 86 3a
       0.0016066697 -1.978373e-05 -0.00019329893 0.001023025
000340 19 cc 15 3b 9c a3 02 bc f7 fb af 3c a4 15 f0 b9
       0.0022857247 -0.007973578 0.02148245 -0.0004579249
000350 ef 59 0b bb ec ae dd 3a 72 60 01 3c 58 29 3d 3a
       -0.0021263321 0.0016913093 0.0078965295 0.00072159385
000360 54 ec 18 ba 1e b8 25 bc 79 39 95 3a 4b cd f3 ba
       -0.00058335555 -0.010114698 0.0011384926 -0.0018600611
000370 9a c1 9b 3a fd 20 68 3a b5 a6 86 3b 6d 05 75 3a
       0.0011883259 0.00088550133 0.0041092285 0.0009346817
000380 7f e6 47 3b c3 12 0f bb ac 41 9f 39 3a a9 a5 ba
       0.0030502377 -0.0021831251 0.00030375773 -0.0012638934
000390 17 29 c4 ba a7 ae f6 3b 64 54 b7 3b 43 c7 b6 3a
       -0.0014965859 0.0075281444 0.005594777 0.0013944883
0003a0 91 c3 c5 3b 1f 24 ff 3a 9a d3 07 3b 20 ed 9f 3c
       0.006035276 0.0019465721 0.002072549 0.01952225
0003b0 99 05 02 3c 56 6a 81 ba 73 5c 58 3b 87 1b e3 3a
       0.007935905 -0.000987361 0.0033014088 0.0017326929
0003c0 dd 07 02 3c 04 00 74 bc 7c 56 c4 3b 6b 21 ec ba
       0.007936445 -0.014892582 0.005991755 -0.001801533
0003d0 dc 3b b6 3a 9f f7 9b 3b ba 5b 7c 3b b2 3e 0e 3b
       0.0013903338 0.0047597433 0.0038506822 0.002170485
0003e0 91 b3 d5 ba 14 5c 9a bb 54 4b 11 bb 91 6f e7 39
       -0.0016304125 -0.0047106836 -0.0022170143 0.00044142877
0003f0 08 34 50 3b ad 8f eb ba 07 69 95 3c c5 56 22 bb
       0.0031769294 -0.0017971896 0.018238558 -0.0024770957

net.3.linear.bias f4 [32]
000000 76 59 08 3e 32 db 33 3e 36 cf 02 bd e9 1e ba 3d
       0.13315377 0.17564085 -0.031935893 0.09087927
000010 ea c7 e2 3d e1 de 0d bd ca fa c5 bd c0 48 03 3e
       0.11073287 -0.034636382 -0.09666975 0.1282072
000020 f5 95 22 bd b9 8e e7 bd 11 17 19 bd cc 71 ba bd
       -0.03969379 -0.11306519 -0.037375513 -0.09103736
000030 77 85 18 be 7c f3 be 3d fd 4a ce bd e8 55 be bd
       -0.14894663 0.09323785 -0.10072897 -0.09293729
000040 f2 2f 9e bc 81 2a 79 3d 71 36 e1 bd f0 2a 3c be
       -0.019309971 0.06083155 -0.10996712 -0.18375754
000050 e0 c4 f4 3d 6d 88 85 bd f3 31 1e 3e 49 dc 4b 3e
       0.119516134 -0.06520162 0.15448742 0.19908251
000060 89 03 71 bd 34 44 0c 3e 2d fb 4f 3e 2e 03 f3 3d
       -0.058841262 0.13697892 0.2031066 0.11865841
000070 ef f8 5c 3e 8f 23 7f bd 5f 33 ca 3c a3 7b 57 bd
       0.21579336 -0.06228977 0.024682699 -0.052608144

net.4.weight f4 [4, 32]
000000 73 43 cb 3a 9e e6 7b 3a e4 e2 16 ba b2 3d 71 38
       0.0015507772 0.0009609255 -0.0005755855 5.7516336e-05
000010 cd b0 92 3a ca 53 2a ba 94 96 36 bb 78 a9 21 b9
       0.0011191607 -0.0006497471 -0.0027860748 -0.00015417289
000020 12 88 76 b7 5e 63 9e b9 b7 de 0d bb 69 bd c4 b9
       -1.4694424e-05 -0.00030210143 -0.002164764 -0.00037525155
000030 ef 5e c8 b9 00 d9 84 36 54 90 e2 ba f5 e2 86 ba
       -0.00038217704 3.9591687e-06 -0.0017285445 -0.0010291027
000040 a4 22 6c 3b 71 7c b0 b9 6b 54 28 3b 91 cb 48 ba
       0.003603139 -0.00033662052 0.0025685083 -0.0007659728
000050 ff f8 a0 37 b5 6c a1 3a fb 60 81 ba 18 37 64 39
       1.9189434e-05 0.0012315722 -0.0009870821 0.00021764298
000060 97 98 88 b8 e0 0f 66 3a f7 44 25 ba c1 9f a7 3a
       -6.5134074e-05 0.0008776169 -0.0006304527 0.0012788699
000070 28 89 b7 ba 8b 8e 46 39 c0 da 6e bb 8e 50 8d b9
       -0.0014002668 0.00018935853 -0.0036446303 -0.00026953634
000080 73 93 91 3a 75 53 28 3a 8c bd 9c b9 02 7e 98 b7
       0.0011106565 0.00064211275 -0.00029895862 -1.8178489e-05
000090 e1 68 18 3a 7c 95 87 38 01 34 a7 ba 60 e2 86 b9
       0.0005813968 6.465145e-05 -0.0012756587 -0.00025727134
0000a0 c6 21 f8 37 1a 49 86 39 02 3c 2f ba 4d 96 b7 b9
       2.957963e-05 0.00025612937 -0.0006684662 -0.00035016463
0000b0 64 d1 5a b7 97 de 43 b9 ac a8 1f ba 6b f0 4a ba
       -1.3042565e-05 -0.0001867957 -0.0006090503 -0.00077415135
0000c0 a4 63 d3 3a 33 5e 69 b9 6e 3d a2 3a 84 68 17 ba
       0.0016127718 -0.00022255704 0.0012377927 -0.0005775767
0000d0 4e 5b 11 39 8c 22 ac 39 f8 e6 0f ba 63 00 13 b8
       0.00013862291 0.00032832136 -0.0005489434 -3.504789e-05
0000e0 8e 01 ad b8 33 b5 08 3a 07 9a 9e b9 6c da 13 39
       -8.2495724e-05 0.0005214989 -0.00030250868 0.00014100381
0000f0 50 0b 19 ba ac 90 0e b8 38 d2 e1 ba 3a a9 48 b6
       -0.00058381725 -3.3990174e-05 -0.0017228788 -2.9900825e-06
000100 59 0a 41 3b b3 50 e9 3a 27 8b 71 ba 58 8e 22 38
       0.002945563 0.001780054 -0.0009214156 3.8756378e-05
000110 63 8e 04 3b 63 49 5a ba cd ae 96 bb c0 17 de b9
       0.002022647 -0.00083269755 -0.0045984746 -0.00042360835
000120 f1 55 ed 37 89 c5 03 b9 dd 0d 56 bb 55 b2 56 ba
       2.8292621e-05 -0.00012566721 -0.0032662072 -0.00081900257
000130 fb 6c 12 ba 4d 63 5b b9 5b 93 2e bb 5b 98 0a bb
       -0.00055856974 -0.0002092246 -0.0026638124 -0.002114794
000140 cc 8f c0 3b 3f 3d 2c ba 32 f0 8e 3b 36 f7 bf ba
       0.005876517 -0.00065704057 0.0043621296 -0.0014645818
000150 80 17 1e 39 fc 37 01 3b 1a 47 df ba 3f ff 90 39
       0.00015076809 0.0019717207 -0.001703474 0.00027655993
000160 c6 83 e1 b8 df 9e c6 3a 20 36 95 ba b8 8c e0 3a
       -0.00010753381 0.0015153548 -0.0011383928 0.0017131781
000170 eb 16 18 bb 94 61 8b 39 91 db c3 bb 1f 67 ab b9
       -0.002320702 0.00026584847 -0.005977102 -0.00032692493
000180 ab 10 01 bc c1 3a 79 bb e9 f5 cf 3a 9f d0 11 3a
       -0.007877509 -0.0038029405 0.0015866134 0.0005562398
000190 60 80 1f bb 6e 2c 67 bb e4 fa 8d 3b 9f e4 31 3b
       -0.0024337992 -0.0035274285 0.004332887 0.0027144325
0001a0 3d c6 12 ba 92 24 98 bb 23 21 8c ba 9c 46 44 3b
       -0.0005598998 -0.0046430314 -0.0010691028 0.0029949313
0001b0 f1 0b d6 ba b0 63 20 3b 17 56 7f 39 03 10 a3 3b
       -0.0016330463 0.002447348 0.00024350766 0.004976274
0001c0 06 1b b8 bb 1a 5b b5 3a 04 65 a8 bb 56 f6 7e 3b
       -0.005618456 0.0013836354 -0.005138995 0.0038904152
0001d0 67 04 db ba c7 9b d3 3a 04 6c 5b 3b 5a cf cc 3a
       -0.0016709686 0.0016144448 0.003348113 0.001562576
0001e0 27 74 bb 3a b9 06 39 bb ed f3 8d 3a 4f e5 5a 3b
       0.0014301584 -0.0028232767 0.0010830142 0.0033400839
0001f0 75 4d c6 3a e3 6d ca 3a db 38 e1 3b a4 57 ce ba
       0.0015129285 0.0015444126 0.006873233 -0.0015742672

net.4.bias f4 [4]
000000 5a 3b d7 3a d8 10 19 3a f5 a9 eb 3a 02 b3 b3 3a
       0.0016420886 0.0005838997 0.0017979728 0.0013709965
